checkpoints/North-East/best_model.pth (torch, 81193 bytes, 5 tensors)

lstm.weight_ih_l0 f4 [256, 11]
0.08162592 -0.05176733 0.041293055 0.15959826 0.14511393 0.04007949 0.044962984 0.048975512
-0.07895268 0.03537784 0.08937108 -0.038357347 0.06285974 -0.07771366 0.11496628 -0.053012557
0.0113318665 0.03928408 0.0027179613 0.064927265 -0.05368627 -0.13094883 0.040199984 -0.059711207
0.071781404 -0.039754253 -0.06262595 0.051879086 0.0033212134 0.024174497 -0.033261273 0.10988587
0.05700072 0.049552605 -0.08022979 0.019055208 0.08857168 0.11701229 0.014082098 -0.02733691
0.14095202 0.096385404 0.14078152 0.09637511 0.12614562 -0.017772146 -0.12467645 0.088528804
0.030665819 0.012775644 0.081395924 -0.05302421 0.030754449 0.042490337 -0.015693352 0.014060774
-0.052885577 -0.020207461 -0.11260541 0.082414374 0.008499966 -0.007198906 0.077177055 0.0151347425
0.08144282 0.03176478 0.108672395 0.104272746 0.13258637 -0.11074993 0.041449357 0.11233107
0.019453969 0.026896263 -0.09436491 0.007951952 0.030931247 0.0022465202 0.14290555 -0.054031726
0.0057880622 -0.057116717 -0.068291664 -0.039874643 -0.033506285 0.12475258 -0.03393516 -0.09100461
-0.035067562 -0.042014115 -0.073821016 0.074433886 0.06780529 -0.003458354 -0.05877805 0.024672586
0.013291706 -0.13911611 -0.061366383 0.02430684 -0.056179784 -0.05521875 0.07867923 0.11496595
0.026774341 -0.06678902 -0.00073365134 -0.0250135 -0.03211646 0.090924725 0.12340545 -0.110739835
0.078076996 -0.110504836 -0.035881992 -0.020035276 0.048339047 0.016897658 -0.08178148 0.017588407
0.08254198 -0.00044118604 -0.11439199 0.10060481 0.07740169 -0.045344032 0.012260374 0.073790036
0.017389141 -0.09966049 0.17025308 0.019013973 -0.009914644 -0.056923594 -0.044197228 -0.05669823
-0.09488474 -0.13883801 -0.086718105 0.042747766 -0.011792308 0.07108717 -0.0063121533 0.11727871
-0.068012305 0.0304582 0.08500429 0.04563684 0.03495474 0.035557788 -0.056376696 0.024942566
-0.016362974 -0.06278875 -0.0053395685 0.070756115 0.11033033 0.096246675 -0.017043842 0.14899991
0.084133625 0.046216 -0.11134213 0.035181485 0.036412794 -0.061758764 0.02035502 -0.01184757
-0.0008582068 -0.044492446 0.0810791 0.013052102 -0.044464353 0.08482216 -0.14400132 -0.090725146
-0.060195323 -0.040084 -0.12739354 -0.036179364 0.063445695 0.054381404 -0.06924982 -0.0018334802
0.06756331 -0.027295724 0.026737573 0.084786296 0.14039484 -0.11438039 0.0032417118 -0.04947128
-0.01562798 -0.027673198 0.01612613 -0.02138101 -0.18820198 -0.036235146 0.11189916 -0.07466869
-0.12976424 -0.06544877 -0.03975315 -0.024905719 0.065078266 -0.032093484 0.06670605 0.043975588
-0.012750912 0.02476634 0.033854652 0.0458751 -0.03327147 -0.051556632 -0.110983744 -0.00425014
-0.024254482 0.1023428 0.0143809635 -0.09385034 0.09165009 -0.030027172 -0.026245339 0.01666829
0.06537194 0.15755974 -0.14572564 0.045530684 0.059652314 -0.034666624 -0.10425344 0.15944287
0.016199982 -0.0599344 0.103950165 0.11397895 0.032465816 0.061005663 0.006951748 -0.09999977
0.097489364 0.05595401 0.1379848 0.09706945 0.0016818506 0.09692875 0.09701888 0.116399586
0.06911839 -0.026635567 -0.070491664 0.047337465 0.06117858 -0.030965915 0.12045312 0.117675394
00000000: 7e2b a73d fb09 54bd e822 293d ba6d 233e
00000010: bf98 143e 642a 243d 1b2b 383d 8c9a 483d
00000020: f1b1 a1bd 5be8 103d 2f08 b73d 981c 1dbd
00000030: 9bbc 803d 5728 9fbd 7173 eb3d b223 59bd
00000040: 4ba9 393c 58e8 203d d31f 323b 96f8 843d
00000050: 22e6 5bbd 7317 06be bda8 243d bd93 74bd
00000060: 2102 933d 5bd5 22bd 0942 80bd 2a7f 543d
00000070: b7a8 593b 9809 c63c f93c 08bd d80b e13d
00000080: 9679 693d acf7 4a3d 844f a4bd ab19 9c3c
00000090: 1265 b53d 24a4 ef3d 9ab8 663c a8f1 dfbc
000000a0: ba55 103e b665 c53d 0829 103e 5060 c53d
000000b0: 512c 013e e496 91bc 5e56 ffbd 974e b53d
000000c0: e236 fb3c ef50 513c e8b2 a63d ea2f 59bd
000000d0: c1f0 fb3c 590a 2e3d 588f 80bc 295f 663c
000000e0: 8c9e 58bd 1e8a a5bc aa9d e6bd dec8 a83d
000000f0: 7143 0b3c cde4 ebbb 010f 9e3d b6f7 773c
00000100: 7ecb a63d c91b 023d a28f de3d f38c d53d
00000110: b9c4 073e dcd0 e2bd cdc6 293d d50d e63d
00000120: ee5d 9f3c 8d55 dc3c 6442 c1bd e748 023c
00000130: 8763 fd3c 5b3a 133b d555 123e 5f50 5dbd
00000140: c9a9 bd3b 38f3 69bd 80dc 8bbd 9853 23bd
00000150: e33d 09bd 487e ff3d 98ff 0abd a060 babd
00000160: 01a3 0fbd fe16 2cbd 792f 97bd cb70 983d
00000170: 80dd 8a3d 8da5 62bb 41c1 70bd 2a1e ca3c
00000180: 75c5 593c 7474 0ebe 515b 7bbd 231f c73c
00000190: c61c 66bd 0e2d 62bd 9322 a13d 4573 eb3d
000001a0: dd55 db3c afc8 88bd 8252 40ba 1de9 ccbc
000001b0: 8d8c 03bd be36 ba3d ffbb fc3d 91cb e2bd
000001c0: d5e6 9f3d 5c50 e2bd fff8 12bd 0521 a4bc
000001d0: 2aff 453d f56c 8a3c 0c7d a7bd 9015 903c
000001e0: c50b a93d fd4e e7b9 5946 eabd e509 ce3d
000001f0: c784 9e3d aaba 39bd bcdf 483c 3b1f 973d
00000200: ac73 8e3c cd1a ccbd d356 2e3e 31c3 9b3c
00000210: 0871 22bc b728 69bd 2708 35bd 673c 68bd
00000220: ee52 c2bd 8d2b 0ebe 4399 b1bd 4818 2f3d
00000230: 8634 41bc 2696 913d 2ed6 cebb d22f f03d
00000240: 094a 8bbd 7a83 f93c bb16 ae3d b2ed 3a3d
00000250: b42c 0f3d 0ba5 113d 40eb 66bd 5a54 cc3c
00000260: a50b 86bc 6397 80bd 8cf7 aebb 95e8 903d
00000270: def4 e13d fa1c c53d 879f 8bbc 6f93 183e
00000280: 404e ac3d fd4c 3d3d 5807 e4bd 761a 103d
00000290: 9525 153d c2f6 7cbd 92bf a63c 4f1c 42bc
000002a0: 49f9 60ba b63d 36bd cd0c a63d 7cd8 553c
000002b0: 4120 36bd 3eb7 ad3d 1575 13be 1bce b9bd
000002c0: 5f8f 76bd 1f2f 24bd 7473 02be d030 14bd
000002d0: d1ef 813d 09bf 5e3d dad2 8dbd 6351 f0ba
000002e0: a25e 8a3d 489b dfbc c108 db3c 70a4 ad3d
000002f0: aac3 0f3e 4440 eabd e672 543b 66a2 4abd
00000300: 4006 80bc e7b2 e2bc f21a 843c 3a27 afbc
00000310: 05b8 40be 4e6b 14bd 632b e53d e6eb 98bd
00000320: ebe0 04be 010a 86bd 33d4 22bd 1407 ccbc
00000330: c147 853d 7574 03bd 2e9d 883d bf1f 343d
00000340: 34e9 50bc c8e2 ca3c 2dab 0a3d 87e7 3b3d
00000350: aa47 08bd 0c2d 53bd 724b e3bd c244 8bbb
00000360: 56b1 c6bc 1a99 d13d 229e 6b3c 9b34 c0bd
00000370: 0bb3 bb3d 8bfb f5bc 7700 d7bc f08b 883c
00000380: b9e1 853d 5757 213e 1a39 15be 627e 3a3d
00000390: fc55 743d 97fe 0dbd d482 d5bd fe44 233e
000003a0: d3b5 843c c67d 75bd d3e3 d43d cc6d e93d
000003b0: e0fa 043d 13e1 793d 7dcb e33b aecc ccbd
000003c0: 81a8 c73d 0830 653d e34b 0d3e 59cc c63d
000003d0: 8b71 dc3a 9582 c63d d6b1 c63d e862 ee3d
000003e0: f18d 8d3d d532 dabc ef5d 90bd eee4 413d
000003f0: 6496 7a3d 3bac fdbc 20b0 f63d ccff f03d

lstm.weight_hh_l0 f4 [256, 64]
0.034059644 -0.029809445 0.052113134 -0.049467385 0.026338272 0.10176649 -0.05010928 0.14643073
0.12141959 0.12399317 0.08485758 -0.041775376 0.030422643 0.034698684 -0.0006883376 -0.014568783
0.1277789 -0.04898337 0.056448758 -0.11867195 -0.08727523 0.14156528 0.00027422706 0.07716641
0.060996406 0.008887322 0.047932982 -0.022712769 -0.087288894 -0.053671304 -0.045573663 0.008398166
-0.056129154 0.014718781 -0.056627933 0.05642743 0.076621406 -0.0046693254 -0.06977296 0.06303583
-0.07362247 -0.07060073 0.064768694 0.09571825 -0.010737822 0.10795202 0.003914406 -0.02681491
0.09529937 -0.021320736 -0.00292097 -0.03133115 -0.0725368 0.008010695 0.009134026 -0.09132541
0.07555398 -0.06254753 0.07808022 0.09067428 0.031171663 -0.099203646 -0.061278738 -0.051422022
0.033114042 -0.033321757 0.10462462 0.061656885 -0.049743477 0.00481568 -0.051234446 -0.026254525
0.07416624 0.1049692 -0.120902345 -0.015079257 0.06601093 -0.04575551 0.06557254 -0.018968208
-0.07867133 0.028724132 -0.04010745 -0.00066711626 0.045391865 0.0044731162 -0.078822844 0.00070419034
-0.07285437 0.032703687 -0.106895395 0.030809075 -0.10574264 -0.05115752 0.027457412 0.053419918
0.06329055 -0.11142719 0.07559375 0.115789734 0.07832448 0.05820735 0.07308794 -0.0036920235
-0.107944876 0.019347254 -0.040990315 0.00066806446 -0.10467126 -0.050586853 -0.05767294 0.057550326
-0.053508464 -0.1402905 -0.08078849 0.03077462 -0.079675004 0.11306593 0.080898404 -0.087901026
-0.09491307 0.055932418 0.052154988 0.10513897 -0.1026005 0.016043773 0.06235737 0.038486563
0.07813626 -0.05006316 0.06951066 -0.109683044 -0.07206268 -0.02112265 -0.0032850835 0.03878026
-0.018786639 0.050413854 -0.08450828 -0.05706971 -0.01941893 -0.054324605 0.052294876 -0.065897845
-0.05775309 -0.026532382 -0.025232641 0.027276356 0.016958566 -0.058337487 0.031379078 -0.061273675
0.037415866 -0.064181976 0.07037399 0.025035197 -0.068249315 -0.01218307 -0.03612438 -0.02107245
-0.021646352 -0.0118621625 0.0022999959 -0.03849743 0.057473242 -0.04891919 0.018090975 -0.032044698
-0.056924615 0.05966389 -0.022665318 -0.05245727 0.008926406 -0.028870089 -0.021896869 0.03311538
-0.050679676 0.06711462 -0.009924363 -0.08025211 0.063473135 0.0706598 0.023765132 0.032987732
0.04085175 0.028494213 -0.09087853 0.003994123 -0.048272636 -0.07571289 0.07623295 0.01021419
0.00095602893 0.055295225 0.039709236 -0.012512396 0.05067243 0.099247895 -0.05029441 -0.07032147
0.08521068 -0.035640303 -0.04233003 0.057998426 0.0009215268 -0.06778418 0.02463231 -0.13671255
0.015784504 0.0985765 0.0010597322 0.06135634 -0.10318886 -0.11576731 0.0390441 0.115832314
-0.05489816 -0.07949699 -0.050284132 0.0041905055 -0.0040640775 -0.011527738 -0.07901726 -0.109809846
0.06964793 0.016921228 0.03872582 0.069127336 0.034986798 0.0067027872 -0.035243817 -0.06259142
-0.05175696 -0.05209066 -0.01627705 0.13654716 0.03500306 -0.071124986 0.00064182933 -0.045216322
0.011288606 -0.02543267 -0.040451277 -0.058764286 -0.0036954668 -0.017482426 -0.008631247 0.10626398
0.06313184 0.033058908 -0.10629482 0.020424532 0.05527742 -0.08619256 0.12255659 0.045247186
00000000: 2082 0b3d f032 f4bc 9574 553d 509e 4abd
00000010: 5cc3 d73c f36a d03d 633f 4dbd f0f1 153e
00000020: d6aa f83d 22f0 fd3d d0c9 ad3d a81c 2bbd
00000030: e838 f93c 3520 0e3d 8e71 34ba e8b1 6ebc
00000040: 79d8 023e c9a2 48bd d036 673d 480a f3bd
00000050: 5bbd b2bd 7df6 103e 22c6 8f39 6c09 9e3d
00000060: 5ed7 793d 219c 113c 6055 443d 2110 babc
00000070: 85c4 b2bd 71d6 5bbd 73ab 3abd 7698 093c
00000080: afe7 65bd 0b27 713c b1f2 67bd 7320 673d
00000090: afeb 9c3d 2401 99bb 20e5 8ebd ee18 813d
000000a0: 61c7 96bd 1e97 90bd 73a5 843d ee07 c43d
000000b0: b1ed 2fbc f315 dd3d 6b44 803b f1aa dbbc
000000c0: 512c c33d d3a8 aebc bf6d 3fbb 1855 00bd
000000d0: 2c8e 94bd 4a3f 033c e2a6 153c d108 bbbd
000000e0: 0cbc 9a3d eb18 80bd 86e8 9f3d 70b3 b93d
000000f0: b75b ff3c 482b cbbd 6aff 7abd e69f 52bd
00000100: 97a2 073d 657c 08bd 6f45 d63d ee8b 7c3d
00000110: d1bf 4bbd dacc 9d3b 36db 51bd bb13 d7bc
00000120: 78e4 973d 18fa d63d a69b f7bd fd0e 77bc
00000130: bd30 873d 216a 3bbd e54a 863d 3763 9bbc
00000140: 6f1e a1bd df4e eb3c b647 24bd 6ae1 2eba
00000150: d2ec 393d 3893 923b df6d a1bd 6a99 383a
00000160: ac34 95bd 4df4 053d f9eb dabd 5063 fc3c
00000170: 998f d8bd 8c8a 51bd 5eee e03c d8ce 5a3d
00000180: 7a9e 813d f033 e4bd e5d0 9a3d 2b23 ed3d
00000190: 9668 a03d d56a 6e3d 21af 953d e0f5 71bb
000001a0: 3412 ddbd 227e 9e3c 76e5 27bd 0c21 2f3a
000001b0: e35d d6bd 2934 4fbd 763a 6cbd e4b9 6b3d
000001c0: b12b 5bbd 50a8 0fbe 7074 a5bd 0e1b fc3c
000001d0: a62c a3bd 1c8f e73d 10ae a53d 7405 b4bd
000001e0: c961 c2bd 6419 653d 78a0 553d 1a53 d73d
000001f0: 3620 d2bd 3b6e 833c 716a 7f3d 16a4 1d3d
00000200: e705 a03d 070f 4dbd 9b5b 8e3d 81a1 e0bd
00000210: 9995 93bd 6809 adbc 8e4a 57bb 0dd8 1e3d
00000220: 70e6 99bc c27e 4e3d ad12 adbd eec1 69bd
00000230: 7314 9fbc 7a83 5ebd 2733 563d 73f5 86bd
00000240: 818e 6cbd 705a d9bc afb4 cebc aa72 df3c
00000250: b1ec 8a3c 4af3 6ebd 5987 003d 1bfa 7abd
00000260: 6141 193d d771 83bd 3d20 903d 9d16 cd3c
00000270: 4cc6 8bbd 809b 47bc 28f7 13bd 21a0 acbc
00000280: b153 b1bc 8459 42bc 87bb 163b 7baf 1dbd
00000290: 1069 6b3d 7d5f 48bd 8633 943c 4d41 03bd
000002a0: c929 69bd 2062 743d 9eac b9bc 6fdd 56bd
000002b0: 0f40 123c f780 ecbc 1061 b3bc fea3 073d
000002c0: 7e95 4fbd 6473 893d cc99 22bc 385b a4bd
000002d0: 34fe 813d 16b6 903d 18af c23c 251e 073d
000002e0: 2a54 273d b26c e93c 861e babd 22e1 823b
000002f0: 87b9 45bd 5c0f 9bbd 0520 9c3d 6b59 273c
00000300: 049e 7a3a 3f7d 623d 27a6 223d cb00 4dbc
00000310: e58d 4f3d 7b42 cb3d 8301 4ebd b404 90bd
00000320: f082 ae3d 91fb 11bd 4162 2dbd c28f 6d3d
00000330: 9e92 713a 6fd2 8abd b3c9 c93c 60fe 0bbe
00000340: 814e 813c 7ae2 c93d b6e6 8a3a c950 7b3d
00000350: ae54 d3bd 6917 edbd b5ec 1f3d 7e39 ed3d
00000360: e5dc 60bd 51cf a2bd bcf6 4dbd 8250 893b
00000370: f42b 85bb d6de 3cbc cdd3 a1bd fce3 e0bd
00000380: 93a3 8e3d 639e 8a3c f79e 1e3d a292 8d3d
00000390: 514e 0f3d 0ea3 db3b d25b 10bd ee2f 80bd
000003a0: 1bff 53bd 045d 55bd 7357 85bc 05d3 0b3e
000003b0: 5e5f 0f3d faa9 91bd 7040 283a c034 39bd
000003c0: d8f3 383c 2d58 d0bc 3db0 25bd d2b2 70bd
000003d0: a52f 72bb 4e37 8fbc 136a 0dbc eea0 d93d
000003e0: 444b 813d c768 073d 19b1 d9bd 5951 a73c
000003f0: 936a 623d ba85 b0bd f3fe fa3d 1d55 393d

lstm.bias_ih_l0 f4 [256]
0.10063717 0.08060951 0.0639563 0.15068838 -0.0224845 -0.12006546 0.06806541 -0.045218714
-0.0762675 -0.02740429 0.00854978 -0.027944779 -0.028025065 -0.036949646 -0.035142656 0.14524086
0.13883112 0.054205492 -0.06552218 -0.05718361 0.030367104 0.14171536 -0.059743214 -0.016959386
-0.056794927 0.024259761 -0.08258778 -0.035654105 0.16295306 -0.0458604 -0.018188735 -0.102170065
0.003888214 0.054137897 0.11208154 0.086058564 0.021003569 0.14796399 -0.028727863 0.03641015
0.09580833 -0.07416048 0.102345675 -0.04023437 0.020503424 0.021949917 -0.0041549723 0.059394177
0.018133072 0.0358701 0.12554578 0.041930072 0.034184016 0.09570148 0.09780551 0.011569229
-0.06620507 -0.0922635 -0.033685695 -0.078329824 -0.06691057 0.11654979 0.0969198 0.0036457966
-0.0589212 0.12472151 -0.10107979 0.10962439 -0.040129684 0.026339956 0.037240773 0.07920153
-0.032980535 0.011675285 0.010271609 -0.057813305 -0.015249002 0.01648514 0.116097964 0.11064227
-0.066861235 -0.058460448 -0.010590655 0.062886655 -0.058510568 0.10515745 -0.027649399 0.010656025
0.01971744 0.08225066 0.063444674 -0.031658884 -0.062154796 0.109921485 0.0600551 -0.08202032
-0.058115922 -0.07492849 0.052410487 0.029194206 0.15337293 0.12250284 -0.041988764 -0.04850399
0.061013613 -0.008013415 -0.070058994 -0.10731439 0.065503 -0.068874605 0.09423748 0.05038826
-0.032347497 0.017360527 0.021963999 0.06713285 0.003091166 0.05794675 0.007765901 -0.04390072
0.08764593 -0.07365292 -0.061107233 0.02801749 0.11424427 -0.048238885 0.06656716 0.045207758
0.06980923 0.044135626 0.046940733 -0.06886271 0.11529601 0.092481926 -0.11229914 -0.09345355
0.03460872 -0.013220197 -0.021530364 0.0119960895 -0.09508338 0.10352646 -0.041503694 -0.020464903
-0.0040092645 0.011945311 0.037363555 -0.04006682 -0.0077754064 0.039457317 -0.07765704 -0.06433002
0.14961454 0.04329555 0.01806656 0.010419089 -0.10369528 -0.05143832 0.088097654 -0.047349308
0.070969045 -0.039968237 0.056485116 -0.010489126 0.05290757 -0.10480385 -0.11926711 0.075194314
-0.11927012 -0.017706152 -0.015128708 0.0605593 -0.06991205 0.013690537 0.040656276 0.13854022
0.083365746 0.034917843 -0.09807188 -0.060910992 -0.018618023 0.08520417 0.08597764 -0.06811711
0.0061615105 0.07443236 -0.07441323 0.017536897 -0.10731906 -0.11877821 0.007745511 -0.012177799
0.08841266 -0.0011720334 0.05935588 0.08583406 0.13640954 0.045758404 0.13095051 -0.04681109
0.10757458 0.004280041 0.0072465036 -0.078627214 -0.12599881 0.08564946 0.009775542 -0.07923551
-0.016574688 -0.05402301 -0.10441308 -0.087312706 -0.08161145 0.10863758 0.06775452 0.07274371
-0.00014751239 0.09249835 -0.102170564 -0.031223482 -0.06619873 -0.043645073 0.080516316 0.06431107
-0.0643994 0.07882972 -0.020269495 0.057079248 -0.0032559976 0.15148272 0.08359683 0.0020485509
0.11957623 -0.06003069 -0.025914822 0.026092023 0.1262166 0.004777834 -0.09250538 0.1297713
0.06980035 -0.040168345 -0.0096763745 -0.0014291947 0.0050311587 -0.052370045 0.070652306 -0.05695985
0.12504259 -0.032789763 0.062737755 -0.099643566 0.0124242455 -0.08065092 0.046487004 0.14902447
00000000: dc1a ce3d 9916 a53d 85fb 823d 0e4e 1a3e
00000010: 6a31 b8bc e1e4 f5bd e165 8b3d 4237 39bd
00000020: 2332 9cbd f67e e0bc 6014 0c3c 73ec e4bc
00000030: d294 e5bc 8358 17bd bff1 0fbd 05ba 143e
00000040: bf29 0e3e 9406 5e3d 7e30 86bd 5c39 6abd
00000050: 6fc4 f83c d51d 113e 4db5 74bd 69ee 8abc
00000060: cca1 68bd 68bc c63c c823 a9bd 0a0a 12bd
00000070: 2bdd 263e 1dd8 3bbd 8b00 95bc 8a3e d1bd
00000080: 68d1 7e3b b3bf 5d3d 028b e53d 793f b03d
00000090: ad0f ac3c df83 173e b256 ebbc cf22 153d
000000a0: 2837 c43d 73e1 97bd 9c9a d13d cbcc 24bd
000000b0: ccf6 a73c 50d0 b33c 6f26 88bb 4f47 733d
000000c0: cf8b 943c 87ec 123d 138f 003e debe 2b3d
000000d0: 8a04 0c3d 23ff c33d 414e c83d dd8c 3d3c
000000e0: 8696 87bd a5f4 bcbd 03fa 09bd 636b a0bd
000000f0: 6908 89bd a8b1 ee3d e37d c63d 51ee 6e3b
00000100: 5b57 71bd fe6d ff3d ec02 cfbd c182 e03d
00000110: 065f 24bd e4c6 d73c c889 183d 6934 a23d
00000120: 9916 07bd b249 3f3c 404a 283c a5cd 6cbd
00000130: f3d6 79bc d80b 873c c5c4 ed3d 6a98 e23d
00000140: 8bee 88bd 3974 6fbd 6d84 2dbc b8ca 803d
00000150: c7a8 6fbd ca5c d73d fe80 e2bc 9c96 2e3c
00000160: 7886 a13c 0973 a83d 48ef 813d bfac 01bd
00000170: 0796 7ebd 841e e13d 56fc 753d 45fa a7bd
00000180: f60a 6ebd 1c74 99bd 61ac 563d b028 ef3c
00000190: cb0d 1d3e c5e2 fa3d 69fc 2bbd 1fac 46bd
000001a0: 69e9 793d b34a 03bc 177b 8fbd a6c7 dbbd
000001b0: 7026 863d 210e 8dbd 94ff c03d ec63 4e3d
000001c0: cf7e 04bd aa37 8e3c d8ed b33c f37c 893d
000001d0: 2995 4a3b 9259 6d3d 1979 fe3b 3ed1 33bd
000001e0: b67f b33d 58d7 96bd 944b 7abd ef84 e53c
000001f0: e6f8 e93d 2396 45bd 5d54 883d c52b 393d
00000200: 24f8 8e3d 8fc7 343d ed44 403d e407 8dbd
00000210: 5120 ec3d 2a67 bd3d 17fd e5bd 9364 bfbd
00000220: e0c1 0d3d 8699 58bc 7260 b0bc 3f8b 443c
00000230: 13bb c2bd ae05 d43d c7ff 29bd 03a6 a7bc
00000240: 2660 83bb 44b6 433c 870a 193d 1b1d 24bd
00000250: d6c8 febb ff9d 213d a70a 9fbd 75bf 83bd
00000260: 8e34 193e ad56 313d 5300 943c d4b4 2a3c
00000270: 315e d4bd fdb0 52bd 8b6c b43d 59f1 41bd
00000280: 3858 913d bcb5 23bd f05c 673d 95da 2bbc
00000290: 9cb5 583d 67a3 d6bd 5142 f4bd 7aff 993d
000002a0: e543 f4bd 7e0c 91bc 67de 77bc 070d 783d
000002b0: 0d2e 8fbd 464e 603c 3287 263d 7ddd 0d3e
000002c0: a9bb aa3d 0306 0f3d e9d9 c8bd ce7d 79bd
000002d0: d384 98bc 867f ae3d 0b15 b03d fc80 8bbd
000002e0: 7fe6 c93b fe6f 983d f765 98bd 8aa9 8f3c
000002f0: 18ca dbbd fd41 f3bd 0ece fd3b 6485 47bc
00000300: b211 b53d ea9e 99ba 271f 733d c5c9 af3d
00000310: f1ae 0b3e 2a6d 3b3d e417 063e fcbc 3fbd
00000320: 1050 dc3d 963f 8c3b 1474 ed3b 4e07 a1bd
00000330: d505 01be fc68 af3d 9829 203c 3a46 a2bd
00000340: a4c7 87bc 3b47 5dbd 86d6 d5bd 01d1 b2bd
00000350: e723 a7bd 617d de3d e2c2 8a3d a7fa 943d
00000360: 8ead 1ab9 c66f bd3d cd3e d1bd 63c8 ffbc
00000370: 3393 87bd 2dc5 32bd bde5 a43d 86b5 833d
00000380: d5e3 83bd 7a71 a13d 360c a6bc eecb 693d
00000390: 9362 55bb 491e 1b3e d134 ab3d fb40 063b
000003a0: 62e4 f43d bee2 75bd 524b d4bc f0be d53c
000003b0: ed3e 013e 608f 9c3b 7673 bdbd c5e2 043e
000003c0: 7cf3 8e3d 9087 24bd a889 1ebc d153 bbba
000003d0: 6bdc a43b f981 56bd 28b2 903d bb4e 69bd
000003e0: 2a0b 003e 8f4e 06bd a77c 803d ed11 ccbd
000003f0: 108f 4b3c 4f2c a5bd 2869 3e3d df99 183e

lstm.bias_hh_l0 f4 [256]
-0.080828875 0.005099809 -0.036611065 -0.06522012 -0.016580643 -0.10970024 0.14771312 0.14387299
0.025500335 -0.05459893 0.13034885 0.10204989 0.030752102 -0.036783133 0.15017936 0.003149767
0.0089062555 0.0764118 0.09886526 -0.046888255 0.15891501 0.09928458 0.035150457 0.049808457
0.130396 0.00145396 0.11351507 -0.016782599 0.16442786 0.06131885 0.069601156 -0.062475644
0.00195039 0.034431446 -0.030530417 0.003704156 0.0544658 0.11777861 -0.005353435 0.14580126
0.038503725 -0.048725247 0.105603576 -0.1223242 -0.068022266 0.042979512 0.0431143 0.00572741
-0.03773917 0.096408345 -0.01720145 0.08349424 0.050749384 0.14266221 0.058026552 0.020373609
0.15384838 -0.051011406 0.097465895 0.119466744 0.15380608 -0.05626197 -0.08674474 0.014748461
-0.0018587235 0.026061367 -0.052519664 -0.03183045 0.073727414 -0.09714051 0.0072234366 0.029795462
-0.10891734 0.023276204 -0.038963724 0.073257074 0.04783821 -0.0047659026 -0.046844102 -0.03342489
-0.053323746 0.0859575 -0.112642445 0.07624074 -0.0053662597 -0.091725715 0.053989988 0.14115189
-0.01781156 -0.057476185 0.03553653 0.0654101 0.011181606 -0.028739654 -0.07163455 -0.08621655
0.062093545 -0.06512265 0.07116019 -0.04817981 -0.049163982 -0.07977063 -0.0062089185 0.103281006
-0.069968395 -0.07405286 0.036308255 -0.11150282 -0.006037702 0.096219614 0.06603399 -0.037724383
0.13006638 -0.039750196 -0.03740352 -0.09161154 0.04684579 0.0049825227 0.09506472 0.1007952
-0.06897499 -0.017431334 -0.104062945 0.064639285 -0.07249592 0.0330296 0.02438566 0.10319627
-0.12984268 0.089779906 -0.026568491 0.025917472 -0.10323864 0.1228878 -0.010560864 0.06946789
-0.07696461 0.06479162 -0.07317106 -0.013512902 0.11811051 0.01887134 0.02283493 -0.01142931
-0.01906302 0.057161015 -0.07333475 -0.019319575 -0.019253885 0.08297855 0.06092768 0.0685125
0.129879 0.048596907 -0.032536548 0.031590693 0.05797942 0.09988548 -0.026989182 -0.10007323
-0.020594684 0.07597519 -0.08637096 0.13270955 0.060468104 -0.08350569 -0.02904611 -0.06211898
0.04334993 0.059318423 0.04141606 0.027952956 -0.103176065 0.07064899 -0.13462214 0.05995076
0.020356104 -0.11568821 -0.062146135 -0.088942446 -0.09410324 0.055682354 0.07306182 -0.09165791
-0.020863049 0.1297798 0.0458915 -0.043760616 -0.060096394 -0.06828364 0.08741525 0.063862644
0.13943502 -0.07165247 -0.06277543 0.09076963 0.06198557 -0.13624611 0.084981024 0.039131623
0.044995576 -0.06040652 0.1041339 -0.0077906065 -0.12936921 0.12764257 0.074689485 -0.063224636
0.10081689 0.10925993 0.0358974 0.035825036 -0.053799115 0.0046433094 0.1261939 0.0014093093
-0.033945702 0.05044058 -0.017157601 0.069217294 0.012357192 0.1311789 0.086533606 -0.040690463
-0.047261212 0.1271379 0.0925309 -0.042472612 0.14700456 -0.0362821 0.12151377 -0.005156122
0.023335565 0.14315076 -0.052329723 -0.12715323 0.002665466 0.05455837 -0.07924375 -0.050740954
-0.06839422 0.044824407 0.12146698 0.13770033 0.102023326 0.0060260887 0.083212875 0.13394521
0.14354183 0.07358621 -0.07774706 -0.08533707 0.115049355 -0.015914008 0.0681059 -0.03141407
00000000: 9c89 a5bd 4c1c a73b 7cf5 15bd 2092 85bd
00000010: 21d4 87bc 85aa e0bd 1c42 173e 7153 133e
00000020: 14e6 d03c 21a3 5fbd 2b7a 053e 88ff d03d
00000030: d5eb fb3c e9a9 16bd 9ec8 193e 526c 4e3b
00000040: 8beb 113c ca7d 9c3d df79 ca3d e60d 40bd
00000050: 9eba 223e b755 cb3d edf9 0f3d f403 4c3d
00000060: 8786 053e cd92 be3a 977a e83d a97b 89bc
00000070: c75f 283e 7929 7b3d 0d8b 8e3d 76e6 7fbd
00000080: 3ba4 ff3a fd07 0d3d ed1a fabc 6dc1 723b
00000090: 8817 5f3d e935 f13d de6b afbb ed4c 153e
000000a0: 15b6 1d3d 2094 47bd b046 d83d 1c85 fabd
000000b0: 424f 8bbd 490b 303d 9f98 303d ffac bb3b
000000c0: 6394 1abd bd71 c53d 0eea 8cbc 07ff aa3d
000000d0: 96de 4f3d 0b16 123e 40ad 6d3d 8ee6 a63c
000000e0: 6e8a 1d3e 56f1 50bd 339c c73d fbaa f43d
000000f0: 577f 1d3e f472 66bd 3aa7 b1bd 87a3 713c
00000100: 69a0 f3ba a67e d53c dc1e 57bd a560 02bd
00000110: 66fe 963d 9bf1 c6bd 94b2 ec3b 9d15 f43c
00000120: 0e10 dfbd bdad be3c 6d98 1fbd ce07 963d
00000130: 00f2 433d 4a2b 9cbb 9adf 3fbd 8ae8 08bd
00000140: 006a 5abd 7c0a b03d 15b1 e6bd 1b24 9c3d
00000150: 73d7 afbb b1da bbbd 9b24 5d3d 1f8a 103e
00000160: 8ce9 91bc 266c 6bbd c18e 113d bbf5 853d
00000170: 0e33 373c 6c6f ebbc 23b5 92bd 4d92 b0bd
00000180: cd55 7e3d 065f 85bd 6fbc 913d 3158 45bd
00000190: 2c60 49bd c95e a3bd 2f74 cbbb fe84 d33d
000001a0: 974b 8fbd 07a9 97bd f7b7 143d 975b e4bd
000001b0: ead7 c5bb ca0e c53d d43c 873d e284 1abd
000001c0: 1f30 053e 1ad1 22bd 6f34 19bd d59e bbbd
000001d0: 5fe1 3f3d 6e44 a33b 4bb1 c23d b76d ce3d
000001e0: c242 8dbd 28cc 8ebc f41e d5bd 9a61 843d
000001f0: be78 94bd 0c4a 073d 70c4 c73c 9158 d33d
00000200: 7bf5 04be 87de b73d 2aa6 d9bc e150 d43c
00000210: c86e d3bd 99ac fb3d 7907 2dbc 2e45 8e3d
00000220: 9f9f 9dbd 78b1 843d b5da 95bd 3865 5dbc
00000230: ece3 f13d 1298 9a3c 5210 bb3c 0042 3bbc
00000240: 0d2a 9cbc ab21 6a3d 8830 96bd 1644 9ebc
00000250: 53ba 9dbc a8f0 a93d 4e8f 793d 4850 8c3d
00000260: 00ff 043e 8d0d 473d 0b45 05bd 3e65 013d
00000270: d47b 6d3d c290 cc3d 6b18 ddbc 32f3 ccbd
00000280: 2fb6 a8bc e198 9b3d 42e3 b0bd 03e5 073e
00000290: 67ad 773d 0805 abbd 1cf2 edbc 7970 7ebd
000002a0: b28f 313d e0f7 723d e3a3 293d 99fd e43c
000002b0: f94d d3bd 6bb0 903d 63da 09be ee8e 753d
000002c0: d8c1 a63c f1ed ecbd f28c 7ebd 7527 b6bd
000002d0: 33b9 c0bd 2e13 643d 6fa1 953d 24b7 bbbd
000002e0: fce8 aabc ffe4 043e baf8 3b3d 553e 33bd
000002f0: a327 76bd 4bd8 8bbd c406 b33d 6bca 823d
00000300: 0ec8 0e3e 88be 92bd 6890 80bd 6ee5 b93d
00000310: 95e4 7d3d 1a84 0bbe 880a ae3d 7b48 203d
00000320: 484d 383d d46c 77bd 2744 d53d 5848 ffbb
00000330: 5d79 04be bcb4 023e cdf6 983d eb7b 81bd
00000340: 1679 ce3d acc3 df3d 2709 133d 46bd 123d
00000350: 765c 5cbd e726 983b f938 013e 93b8 b83a
00000360: a60a 0bbd c89a 4e3d 198e 8cbc ccc1 8d3d
00000370: d275 4a3c c353 063e 8838 b13d 0bab 26bd
00000380: f994 41bd 7030 023e d780 bd3d c3f7 2dbd
00000390: 5d88 163e 8a9c 14bd 36dc f83d b0f4 a8bb
000003a0: 3a2a bf3c 1d96 123e b157 56bd 7534 02be
000003b0: 19af 2e3b 9978 5f3d 8c4a a2bd bfd5 4fbd
000003c0: 4512 8cbd cc99 373d aec3 f83d 5101 0d3e
000003d0: 9bf1 d03d 7f76 c53b 836b aa3d ef28 093e
000003e0: a1fc 123e 5eb4 963d da39 9fbd 34c5 aebd
000003f0: ff9e eb3d 185e 82bc 1b7b 8b3d 0aac 00bd

fc.weight f4 [1, 64]
0.11389419 -0.104961365 0.062392034 0.067994826 -0.101860754 -0.08183814 -0.06567913 -0.093283646
-0.07760517 -0.11732989 -0.029248394 0.088261165 0.059273016 -0.112331696 0.08593173 0.06923271
-0.12663032 -0.08757876 0.120205514 0.048857052 0.1569433 0.10307343 0.14802952 0.16274512
0.10103027 -0.106858924 -0.085250415 0.019708758 0.16148496 -0.13897437 0.04604751 -0.05025943
0.07216952 -0.13333873 0.015648955 -0.076734155 0.1201199 -0.07062035 0.13763686 0.14645076
0.063890055 -0.15566054 -0.11165549 0.04425192 -0.1602489 -0.033547863 -0.027466252 -0.046960004
-0.1276399 0.102234945 -0.092419095 -0.10500841 0.033302598 -0.1640977 -0.017684935 -0.12453824
0.052591726 -0.112167336 -0.15142056 0.09775148 0.013088464 0.06211319 -0.037853725 -0.088553876
00000000: 5b41 e93d fcf5 d6bd ca8e 7f3d df40 8b3d
00000010: 5f9c d0bd c19a a7bd c882 86bd 7f0b bfbd
00000020: 76ef 9ebd a74a f0bd 549a efbc 45c2 b43d
00000030: 43c8 723d 290e e6bd fafc af3d e1c9 8d3d
00000040: 61ab 01be 7e5c b3bd 4f2e f63d 551e 483d
00000050: bfb5 203e 2a18 d33d 0d95 173e a8a6 263e
00000060: f5e8 ce3d dad8 dabd c597 aebd 4374 a13c
00000070: 505c 253e 4c4f 0ebe 509c 3c3d d5dc 4dbd
00000080: 9dcd 933d f389 08be 3d32 803c cc26 9dbd
00000090: 6c01 f63d 67a1 90bd adf0 0c3e 30f7 153e
000000a0: cad8 823d 7a65 1fbe a2ab e4bd 8041 353d
000000b0: 4a18 24be 7c69 09bd e800 e1bc 2259 40bd
000000c0: 09b4 02be 8e60 d13d 3946 bdbd a60e d7bd
000000d0: 4e68 083d 3a09 28be ffdf 90bc e80d ffbd
000000e0: 6c6a 573d fdb7 e5bd fe0d 1bbe ee31 c83d
000000f0: ff70 563c 666a 7e3d 820c 1bbd bc5b b5bd
