checkpoints/North-East/best_model.pth (torch, 81193 bytes, 5 tensors)

lstm.weight_ih_l0 f4 [256, 11]
0	0x3d2a4dd3	0.041578125
1	0x3ab4d5d4	0.0013796636
2	0x3ac61538	0.0015112525
3	0xbd8d392e	-0.06895672
4	0xbd66cbaa	-0.056346573
5	0xbc9f2259	-0.019425558
6	0xbd8de897	-0.069291286
7	0x3be5f49f	0.0070176865
8	0xbbd3f2d4	-0.0064681564
9	0xbca28104	-0.01983691
10	0xbd9acf24	-0.0755904
11	0xbcebfd19	-0.02880721
12	0xbc80ff7f	-0.01574683
13	0xbd5642f2	-0.052309938
14	0x3d0cd515	0.0343829
15	0xbd866695	-0.06562535
16	0x3e12e7d3	0.14346246
17	0xbd652807	-0.055946376
18	0x3dfb8502	0.122812286
19	0xbd990a84	-0.07472709
20	0x3d3eb0b8	0.04655525
21	0xbd8d99ec	-0.06914124
22	0x3da6700c	0.0812684
23	0xbdad55ec	-0.08463654
24	0x3c8ddfa8	0.017318562
25	0xbda260fd	-0.07928655
26	0x3da2f4bd	0.079568364
27	0xbd91aa6b	-0.07112583
28	0xbd8583f7	-0.06519311
29	0xbd709724	-0.05873789
30	0xbd831bdc	-0.06401798
31	0xbdc310c1	-0.0952468
32	0x3bb59b30	0.0055421814
33	0xbd64c481	-0.055851463
34	0xbde408ac	-0.111344665
35	0xbd8569e9	-0.065143414
36	0x3d7601b2	0.06006021
37	0x3dc9c2fd	0.09851644
38	0x3d664c55	0.05622514
39	0x3e165161	0.14679481
40	0xbb24f890	-0.002517257
41	0x3dce0ce7	0.10061055
42	0x3dee90f3	0.116487406
43	0x3d498341	0.04919744
44	0xbbe7eeb3	-0.0070780157
45	0x3de26ab6	0.1105551
46	0x3c2b6420	0.010460883
47	0xbcf8427a	-0.030305136
48	0x3cbf1615	0.02332596
49	0xbcc7ca8e	-0.024388578
50	0xbd232545	-0.039830465
51	0x3d2053b4	0.039142326
52	0x3e03adc7	0.1285926
53	0x3cb8197a	0.022473086
54	0xbc54e370	-0.012993678
55	0xbc74ccf1	-0.01494144
56	0x3daa2867	0.083084874
57	0x3e0804e1	0.13283111
58	0xbbda5546	-0.0066629974
59	0xbdd75ed9	-0.10516138
60	0x3baffea6	0.0053709326
61	0x3ce9be4a	0.02853312
62	0xbda77e6a	-0.081784084
63	0xbdad4971	-0.084612735
64	0xbc0011a5	-0.007816707
65	0xbcfc0ae6	-0.030766916
66	0x3db552fa	0.08853717
67	0x3c282574	0.010262836
68	0x3dc4cde1	0.09609581
69	0xbd053f2b	-0.032530945
70	0x3d21ff42	0.039550073
71	0x3d66524a	0.05623082
72	0x3da95c91	0.08269609
73	0xbda702e6	-0.0815485
74	0xbdb81902	-0.08989145
75	0xbdcefd4d	-0.10106907
76	0x3ce05232	0.027382944
77	0x3ca2616b	0.019821843
78	0x3d62319b	0.05522309
79	0x3d757389	0.059924636
80	0xbdbceee5	-0.09225253
81	0xbd9f12fa	-0.07767291
82	0x3d766b19	0.06016073
83	0xbd24e165	-0.040254015
84	0x3dd5bccb	0.104364
85	0x3ddb43b2	0.10706271
86	0xbd8a8786	-0.0676413
87	0xbe1d0438	-0.1533364
88	0xbd9c073d	-0.07618568
89	0xbcda1eca	-0.02662601
90	0xbd109c1a	-0.03530512
91	0x3c40fe9a	0.011779452
92	0xbdb31173	-0.087435625
93	0xbcf1c3c7	-0.0295123
94	0xbc7bd407	-0.0153703755
95	0xbd344948	-0.0440152
96	0xbd14d27e	-0.036333553
97	0x3cfa851b	0.030581048
98	0xbd39e9b9	-0.04538891
99	0x3e0e7886	0.13913164
100	0xbdb97ff0	-0.09057605
101	0x3dca1084	0.09866431
102	0x3e108706	0.14114007
103	0x3bcd67a8	0.0062684603
104	0x3dc80200	0.097660065
105	0x3db91e8b	0.09039029
106	0xbd80923c	-0.06277892
107	0x3bf3a209	0.0074350876
108	0x3cc632f5	0.02419422
109	0x3da57b1d	0.080801226
110	0xbcad2013	-0.021133458
111	0xba817d63	-0.0009879287
112	0xbd0c34ce	-0.034230046
113	0x3c2c4535	0.010514547
114	0x3c5a22cc	0.01331396
115	0x38a17022	7.6979646e-05
116	0xbd385366	-0.04500141
117	0x3d4e9bf1	0.050441686
118	0xbd03a3c3	-0.032138597
119	0x3c310845	0.010805194
120	0xbe0c5ccc	-0.13707274
121	0x3e09ff22	0.13476232
122	0xbd95eab2	-0.07320155
123	0x3d5d5b29	0.054042015
124	0x3dc441ee	0.095828876
125	0x3a3e8599	0.00072678324
126	0x3d8cf3ff	0.06882476
127	0x3c674911	0.0141165415
128	0xbb8af1d5	-0.0042402544
129	0xbcce4af1	-0.02518222
130	0x3e0ca3d4	0.1373437
131	0xbc575d2e	-0.013144774
132	0x3d476f95	0.048690397
133	0x3d28977e	0.0411601
134	0x3dfb3d6d	0.122675754
135	0x3d04eb31	0.03245086
136	0x3db54801	0.08851624
137	0x3b1cbaab	0.0023914974
138	0xbd06c9f2	-0.032907434
139	0x3d8abd40	0.06774378
140	0xbad79321	-0.0016447046
141	0xbd43c624	-0.047796384
142	0x3d2fd067	0.042923357
143	0x3e1aa756	0.15102896
144	0x3d4e5516	0.050374113
145	0x3e1ad52f	0.15120386
146	0xbd86bf9a	-0.06579514
147	0x3d811f19	0.063047595
148	0x3d2692c5	0.040667314
149	0x3d256054	0.04037507
150	0xbd6a4186	-0.057191394
151	0x3dddfd43	0.108393215
152	0xbd10fb4a	-0.035395898
153	0xbd6d07de	-0.05786883
154	0x3d7f0b30	0.06226653
155	0x3d4d0da4	0.050061837
156	0xbda86fc6	-0.08224444
157	0xbd80cc03	-0.06288912
158	0x3db4f9eb	0.088367306
159	0x3cebb076	0.028770667
160	0x3d8f840a	0.07007606
161	0xbc2a4b1f	-0.010393887
162	0xbd84c16e	-0.06482206
163	0x3de359b9	0.111010976
164	0x3d9d10b3	0.07669201
165	0xbc8a94c6	-0.016916644
166	0x3dd557ec	0.104171604
167	0x3da44700	0.08021355
168	0xbd8ef035	-0.069794096
169	0xbd18f171	-0.03733963
170	0x3d815285	0.063145675
171	0x3daf849d	0.08570216
172	0xbcdb7b55	-0.026792208
173	0x3d856dfb	0.06515118
174	0xbc922b0a	-0.017842788
175	0x3d487773	0.04894204
176	0x3d4bc3f6	0.04974743
177	0x3d22e195	0.039765913
178	0x3d0d1bca	0.03445033
179	0x3dd885f6	0.10572426
180	0x3db01a14	0.08598724
181	0x3de05f08	0.10955626
182	0x3df6c97d	0.120501496
183	0x3c9d8eec	0.01923319
184	0xbda609af	-0.08107316
185	0x3d7b74c5	0.061390657
186	0xbd1ec981	-0.038766388
187	0xbc97cd06	-0.01853038
188	0x3da093a1	0.07840658
189	0xbd97a706	-0.07404904
190	0xbd8dc944	-0.06923154
191	0xbd3dd080	-0.04634142
192	0xbd3cdfe5	-0.04611196
193	0x38b16a05	8.4597654e-05
194	0x3dba5518	0.090982616
195	0x3d652386	0.05594208
196	0x3cb0abc2	0.021566276
197	0x3d977c8b	0.073968016
198	0xbcf3034b	-0.029664656
199	0xbb503473	-0.0031769543
200	0xbc455c1f	-0.012045889
201	0xbd4e4597	-0.050359335
202	0xbdad9b83	-0.08476927
203	0x3d9be085	0.07611183
204	0xbd6f58f6	-0.05843445
205	0xbde182b7	-0.1101126
206	0xbd0a5cf6	-0.03378006
207	0x3d6eaf7b	0.05827282
208	0x3e09ba7e	0.13450047
209	0xbd3d343a	-0.046192385
210	0xbd6c3b98	-0.05767402
211	0x3d2df645	0.04247119
212	0xbb9ff6d2	-0.004881718
213	0x3cd7f9a4	0.026364155
214	0x3dd468f4	0.10371581
215	0xbe0085a4	-0.1255098
216	0xbc8f2697	-0.017474456
217	0xbc2f1fe6	-0.0106887575
218	0xbdeb9127	-0.11502295
219	0xbdc2a602	-0.0950432
220	0xbd6ad92e	-0.057336025
221	0xbd4fe2c8	-0.050753385
222	0xbd3f4694	-0.046698168
223	0xbcb75119	-0.022377538
224	0x3d543b8f	0.051814612
225	0x3cdd0ae2	0.026982728
226	0x3c3e655b	0.011620845
227	0x3d98523a	0.074375585
228	0xbdcc4a02	-0.09975053
229	0x3c22aa7e	0.009928344
230	0xbd8b496d	-0.06801114
231	0xbb400006	-0.002929689
232	0xbdaa7baa	-0.08324368
233	0x3dfd1a82	0.123585716
234	0xbcdcf7ef	-0.026973693
235	0x3d224f22	0.03962625
236	0xbdc5d849	-0.09660394
237	0xbc9e99e7	-0.019360496
238	0x3dc9c70a	0.09852417
239	0xbd3d5cfb	-0.04623125
240	0x3e2f5973	0.17123966
241	0x3d6a818a	0.057252444
242	0x3dc5fc89	0.09667308
243	0xbd89deb8	-0.06731933
244	0xbda9d535	-0.08292619
245	0x3e2dcf0b	0.16973512
246	0x3d88fbe4	0.06688669
247	0x3e10155d	0.1407065
248	0xbd0d41a8	-0.034486443
249	0x3da5bfd8	0.08093232
250	0xbe043402	-0.12910464
251	0x3d82359e	0.06357883
252	0x3bb8e4d2	0.005642512
253	0x3e271386	0.16316041
254	0xbc7cfd09	-0.015441188
255	0xbd7adde4	-0.061246768

lstm.weight_hh_l0 f4 [256, 64]
0	0xbd873460	-0.066017866
1	0x3c178846	0.009248799
2	0x3d26483d	0.040596236
3	0x3a878d95	0.0010341877
4	0x3cf84ec3	0.030310994
5	0xbc46ea00	-0.012140751
6	0x3b9bcbc5	0.004754516
7	0x3cd80d3a	0.026373494
8	0xbd1c789d	-0.038200963
9	0xbde9dded	-0.11419282
10	0xbd9c47c6	-0.07630877
11	0xbdbf3baf	-0.093375556
12	0xbdfdfa64	-0.12401274
13	0xbd0df33f	-0.034655806
14	0xbd6a5bfc	-0.05721663
15	0x3d4c77b9	0.049918864
16	0x3d1c5bc1	0.03817344
17	0x3c84be14	0.016203918
18	0x3d8bf2b8	0.06833404
19	0xbd0e0ec0	-0.034682035
20	0x3d9cd356	0.07657497
21	0x3cc9e6bf	0.024646161
22	0x3ce80f4b	0.028327605
23	0x3cc4c83d	0.024021262
24	0xbd50391c	-0.050835714
25	0x3d8fe656	0.07026355
26	0xbdaa8755	-0.08326594
27	0xbdc9898e	-0.098406896
28	0x3cf7d6cd	0.030253792
29	0xbc77c4fb	-0.015122647
30	0x3d30a88e	0.043129496
31	0x3bc5657c	0.006024061
32	0xbbefb89b	-0.007315708
33	0x3d01564d	0.031576443
34	0x3d27ba81	0.04094935
35	0xbc852fd7	-0.016258163
36	0xbd0ece4d	-0.034864713
37	0x3dd64dc8	0.10464054
38	0xbccba9e4	-0.024861284
39	0xbca3eb9d	-0.02000981
40	0x3c6fe479	0.0146418745
41	0x3d9cea0b	0.07661828
42	0xbcdc42fe	-0.026887413
43	0xbdfa0e1d	-0.12209723
44	0x3d50ec7e	0.051006787
45	0xbd77bff1	-0.060485784
46	0xbcbb7317	-0.022882028
47	0xbc0f5fac	-0.008750837
48	0xbba52418	-0.005039703
49	0x3af59cb7	0.0018738721
50	0xbdaa0bf0	-0.08303058
51	0xbdb7cdfc	-0.08974835
52	0xbd5d5a88	-0.054041415
53	0xbc82c11a	-0.015961219
54	0x3d79b559	0.060963962
55	0x3d230e91	0.039808813
56	0xbdb8f460	-0.09030986
57	0xbd289a30	-0.04116267
58	0x3da7a32a	0.08185418
59	0x3bb2c6cc	0.0054558273
60	0xbcd41033	-0.02588663
61	0xbd1c809b	-0.038208585
62	0x3d42f744	0.047599092
63	0x3c6f1544	0.014592472
64	0xbd04860e	-0.032354407
65	0xbc1820fd	-0.009285209
66	0x3d753b4a	0.059870996
67	0x3de4d9a3	0.111743234
68	0x3d0df943	0.034661543
69	0x3c4de797	0.012567422
70	0x3d626f93	0.055282187
71	0xbce7c8a2	-0.028293911
72	0xbd734085	-0.059387702
73	0x3b8e1b91	0.0043367823
74	0xbda2191c	-0.079149455
75	0xbc120763	-0.008912894
76	0x3b34cc51	0.0027587602
77	0xbd2a27a6	-0.041541718
78	0x3d1eab11	0.03873736
79	0x3daa0d81	0.08303357
80	0xbd0c5592	-0.034261294
81	0xbd11ff72	-0.035644002
82	0x3d8b7005	0.068084754
83	0xbd98c0fa	-0.07458682
84	0x3d9a5362	0.07535435
85	0xbd7421d2	-0.059602566
86	0xbd87c812	-0.06629957
87	0x3cc109ed	0.023564303
88	0x3cab8719	0.020938443
89	0x3d90952e	0.07059704
90	0x3d504b7a	0.05085323
91	0x3d49135c	0.04909073
92	0x3deaddaa	0.1146806
93	0xbcd67ec3	-0.026183492
94	0x3d9d1776	0.076704904
95	0x3cfb7d6e	0.030699458
96	0xbd8e7eec	-0.06957802
97	0xbe058708	-0.13039792
98	0xbe1622df	-0.1466174
99	0x3d8bf8d3	0.06834569
100	0x3da39c4d	0.079887964
101	0x3ded94cc	0.116006464
102	0xbd5ce3fc	-0.05392836
103	0xbd958a1e	-0.073017344
104	0x3c6611e9	0.014042356
105	0x3dc5866c	0.096447796
106	0xbc220376	-0.00988852
107	0x3d94eda7	0.07271891
108	0x3d5b01d7	0.05346855
109	0xbe0a5bf9	-0.13511647
110	0xbd4560cd	-0.04818802
111	0xbceb0f45	-0.028693805
112	0x3d87eea8	0.06637317
113	0x3da08f8f	0.07839882
114	0xbc680de0	-0.014163464
115	0xbb4f07d5	-0.0031590362
116	0xbd318f9f	-0.04334986
117	0x3d16bca2	0.036800988
118	0x3d4e142a	0.0503122
119	0xbd9a94a3	-0.075478815
120	0xbc52b341	-0.01286012
121	0xbc39d42a	-0.011342088
122	0x3c3d464d	0.011552406
123	0x3d81353e	0.06308983
124	0xbd83c95a	-0.06434889
125	0x3d974d6e	0.073878154
126	0x3d8d668a	0.069043234
127	0x3c13c43f	0.009018957
128	0x3c7a3be5	0.015273069
129	0xbd31d51e	-0.043416135
130	0xbd970093	-0.073731564
131	0xbd7a135d	-0.061053623
132	0xbdc13a19	-0.094349094
133	0xbdb7a169	-0.089663334
134	0xbd450268	-0.048097998
135	0xbdeec046	-0.11657767
136	0x3c1c112d	0.009525579
137	0xb8908eab	-6.893029e-05
138	0xbc35af22	-0.011089118
139	0xbe016779	-0.12637128
140	0xbd276a17	-0.04087266
141	0xbdf24702	-0.1182995
142	0xbd5cc037	-0.053894248
143	0xbd4e87a4	-0.050422326
144	0x3b465821	0.0030264931
145	0xbce65a9b	-0.028119376
146	0x3d94c500	0.07264137
147	0x3b6a6c1d	0.0035770007
148	0x3dd3e607	0.103466086
149	0x3d89bf99	0.067259975
150	0x3d8150ad	0.06314216
151	0xbc731347	-0.014836139
152	0x3ba5b092	0.005056449
153	0xbc4c3a2a	-0.012465039
154	0x3d8c03e8	0.068366826
155	0xbd288a98	-0.0411478
156	0xbd1d0225	-0.038332123
157	0xbc363680	-0.011121392
158	0xbd4f73a3	-0.05064739
159	0x3bad2b80	0.0052847266
160	0xbcada080	-0.021194696
161	0xbc64bd7e	-0.013961194
162	0x3bed688f	0.0072451304
163	0xbcaaf311	-0.020867856
164	0x3d8a264a	0.06745584
165	0xbdc07ac1	-0.093984134
166	0xbcef8d30	-0.029242128
167	0x3cf78fa3	0.030219859
168	0x3d3c3940	0.045953035
169	0x3db65153	0.0890223
170	0xbcad28e9	-0.021137672
171	0xbbfe6a6b	-0.007764151
172	0x3d699c65	0.057033915
173	0xbdfff42c	-0.12497744
174	0xbd845891	-0.06462205
175	0x3d894c02	0.067039505
176	0x3d1371e5	0.03599729
177	0xbcf926f8	-0.03041409
178	0xbdbf80f6	-0.09350769
179	0x3d85eb24	0.0653899
180	0x3ccad31e	0.024758872
181	0xbd298fe4	-0.04139699
182	0x3dcbe714	0.09956184
183	0x3c4b70c6	0.012417024
184	0x3de51dc0	0.11187315
185	0xbd7d0c84	-0.061779514
186	0x3abe97f0	0.001454113
187	0xbcea88e7	-0.028629733
188	0x3c7f9f27	0.01560191
189	0x3cea0fc2	0.028571967
190	0x3d2354ec	0.03987591
191	0xbb385541	-0.0028126987
192	0xbde506ec	-0.11182961
193	0xbdabff7b	-0.083983384
194	0xbb762b76	-0.0037562526
195	0x3da14cdd	0.07875989
196	0xbe1145e3	-0.14186816
197	0x3dcc083b	0.09962507
198	0xbd3e1edf	-0.04641616
199	0xbc3ff461	-0.011715979
200	0x3d8c6657	0.06855457
201	0xbd3bd3a7	-0.045856144
202	0xbdc6954f	-0.09696447
203	0xbd0b3c98	-0.033993334
204	0xbc105b5d	-0.008810845
205	0xbd9c51b9	-0.07632775
206	0xbd34ea83	-0.04416896
207	0x3d18f3a7	0.03734174
208	0xbc0a5488	-0.008443005
209	0x3c998b99	0.018743323
210	0xbd03ffc6	-0.032226346
211	0x3ded1cdd	0.11577771
212	0xbdc2ef8e	-0.09518348
213	0xbaad9a40	-0.0013244823
214	0xbe18afb7	-0.1491078
215	0xbd3393d6	-0.04384216
216	0xbd737503	-0.059437763
217	0x3da8abf8	0.082359254
218	0xbcd7b15d	-0.02632969
219	0xbd4294e9	-0.047505293
220	0x3d47dc20	0.048793912
221	0x3d5ef583	0.054433357
222	0x3e08dc29	0.13365234
223	0x3c8cba6a	0.017178733
224	0xbd82e619	-0.06391544
225	0xbd9d34da	-0.07676096
226	0xbd6ede4d	-0.05831747
227	0x3cafc2f8	0.021455273
228	0x3d82759b	0.06370088
229	0x3d34455f	0.04401147
230	0xbd6ecb4d	-0.05829935
231	0xbd892813	-0.06697097
232	0xbe1aa719	-0.15102805
233	0x3d216d27	0.039410736
234	0xbcab5ed4	-0.020919241
235	0x3d9b6b33	0.07588806
236	0xbd7f495a	-0.062325813
237	0xbd07c8fd	-0.03315066
238	0x3da90b25	0.08254079
239	0xbd9c763f	-0.07639741
240	0xbd08ced5	-0.033400375
241	0x3dff30b1	0.12460459
242	0x3c9a7714	0.018855609
243	0x3d3e367b	0.046438675
244	0xbded9dae	-0.11602341
245	0xba102d66	-0.0005499929
246	0x3d646a4c	0.055765435
247	0x3d9d3455	0.07675997
248	0xbdccf727	-0.10008078
249	0x3d84c788	0.0648337
250	0x3d869b09	0.06572539
251	0x3d447890	0.04796654
252	0xbd50b15f	-0.050950404
253	0xbd38fd15	-0.045163233
254	0xbd31f659	-0.043447826
255	0xbd8547ce	-0.06507836

lstm.bias_ih_l0 f4 [256]
0	0x3df027d7	0.11726349
1	0xbda0beb6	-0.07848875
2	0x3cf36eb8	0.02971588
3	0x3d94c9d7	0.072650604
4	0x3df869bd	0.12129543
5	0x3d11f997	0.035638418
6	0x3d08802a	0.03332535
7	0x3e092bc5	0.13395603
8	0x3d9155b1	0.070964225
9	0xbd1f36eb	-0.038870733
10	0x3e010db2	0.1260288
11	0x3e226cd6	0.1586183
12	0x3d9aeb2c	0.07564387
13	0x3dccc876	0.099991724
14	0xbaa1a110	-0.0012331326
15	0xbc5a6c92	-0.013331549
16	0xbcd9a2cd	-0.026566887
17	0xbcf5ca03	-0.030003553
18	0x3cbbd239	0.02292739
19	0x3b214204	0.0024605999
20	0x3de404da	0.11133738
21	0xbdb64524	-0.08899906
22	0x3c724559	0.014787042
23	0x3dfa1bb7	0.122123174
24	0x3d07e8dd	0.03318106
25	0xbd9c5f1e	-0.0763533
26	0x3cc01f19	0.023452329
27	0x3d2fcfcb	0.042922776
28	0x3dde261d	0.10847113
29	0xbda37765	-0.07981757
30	0x3ddf97d6	0.10917632
31	0x3d2bd19c	0.041947946
32	0x3d5a21d2	0.05325491
33	0x3de57e00	0.11205673
34	0x3dbfdd6e	0.09368406
35	0xbc8784f4	-0.01654289
36	0x3d679204	0.056535736
37	0xbd0bb2f7	-0.03410622
38	0xbd3cc062	-0.046081908
39	0x3dba4a19	0.09096164
40	0xbd516868	-0.05112496
41	0x3db2496d	0.08705411
42	0x3de3bb8a	0.111197546
43	0x3da79c74	0.08184138
44	0xbdcf7636	-0.10129969
45	0x3dc271ba	0.09494348
46	0x3d7f6fb8	0.062362403
47	0xbd9d3c10	-0.07677472
48	0x3d796031	0.06088275
49	0x3d2e6284	0.04257442
50	0xbcd3e24c	-0.025864743
51	0x3d96c6cd	0.07362137
52	0x3df08ce7	0.11745625
53	0x3b8a1a5e	0.004214569
54	0x3e0daa47	0.13834487
55	0x3db0227a	0.08600326
56	0xbca9a316	-0.020707648
57	0xbd078ac2	-0.033091314
58	0x3cf9a51a	0.030474234
59	0x3d5d78b8	0.054070204
60	0xbd0b2d73	-0.03397889
61	0xbd7d7259	-0.06187663
62	0x3b0a6635	0.002111805
63	0x3c8b3ea1	0.016997637
64	0x3d8c4117	0.068483524
65	0xbd9cb03d	-0.07650802
66	0x3deb53a1	0.1149056
67	0xbc18c1d1	-0.009323553
68	0x3db4c1db	0.088260375
69	0x3d51d157	0.051225033
70	0xbd5a73ae	-0.053332977
71	0xbdbb4a75	-0.09145061
72	0xbdbbfcad	-0.091790535
73	0x3da13af8	0.078725755
74	0x3d6fe7f5	0.05857082
75	0x3ca2c010	0.019866973
76	0x3dcec28a	0.10095699
77	0x3c6dee19	0.014522099
78	0x3dcb495e	0.09926103
79	0xbd595f24	-0.05306925
80	0xbd728f34	-0.0592186
81	0x3c5c0641	0.013429225
82	0x3c148b6b	0.009066443
83	0x3d6427eb	0.05570213
84	0xbcb40cf0	-0.021978825
85	0x3dcdbb4f	0.10045492
86	0xbdc78352	-0.09741844
87	0xbc1d738e	-0.00961007
88	0xbd6b747d	-0.05748414
89	0xbcb80f4f	-0.022468237
90	0x3e1878f8	0.14889896
91	0x3cee1887	0.02906443
92	0xbdf68595	-0.120371975
93	0xbda0c88b	-0.078507505
94	0xbca21dc3	-0.019789582
95	0x3ca71819	0.020397233
96	0xb9efc2fa	-0.000457309
97	0x3e030e81	0.12798502
98	0x3db485a1	0.0881455
99	0x3ded12d7	0.11575859
100	0xbca2554a	-0.01981606
101	0x3d7e1ac7	0.062037256
102	0x3e15f463	0.14644007
103	0x3daa4ebf	0.08315801
104	0x3dd4612f	0.10370099
105	0x3dae10b0	0.08499277
106	0xbd170c65	-0.036877055
107	0x3da69cbd	0.08135364
108	0x3d53d650	0.051718056
109	0x3de17723	0.11009052
110	0x3cf14383	0.029451137
111	0xbdb58389	-0.08862979
112	0xbc03af1d	-0.008037356
113	0x3d8b3c60	0.06798625
114	0xbd1441e3	-0.036195647
115	0xbd0d4a2b	-0.03449456
116	0xbd8f680c	-0.07002267
117	0x3d8baf4e	0.06820546
118	0x3dd2bb29	0.10289604
119	0x3cc3658d	0.023852134
120	0x3dbd5f59	0.09246702
121	0x3db8a0de	0.09015058
122	0xbd5864a6	-0.05283036
123	0x3dbbce2d	0.09170184
124	0xbd218365	-0.03943195
125	0xbdc48bbf	-0.09596967
126	0x3d0d50af	0.034500774
127	0x3d638768	0.055549055
128	0xbdfbd2eb	-0.12296089
129	0xbdc1883d	-0.094498135
130	0xbe09a7f3	-0.13442974
131	0x3df92998	0.121661365
132	0x3dbc545a	0.09195776
133	0x3ddd042a	0.1079181
134	0x3d58331b	0.052783113
135	0x3df60eb1	0.12014521
136	0xbdbb036d	-0.09131513
137	0xbc89e780	-0.01683402
138	0xbd9651cc	-0.0733982
139	0xbc2bbda2	-0.010482224
140	0xbdc49bf9	-0.09600062
141	0x3c36c7fb	0.0111560775
142	0x3d3e37b1	0.04643983
143	0x3d9d2599	0.07673187
144	0xbd98a64e	-0.07453595
145	0x3d772937	0.06034204
146	0xbdf90510	-0.12159169
147	0x3dd2b3de	0.10288213
148	0xbdc8ee29	-0.098110504
149	0xbbe647db	-0.007027609
150	0xbd9bbd15	-0.07604424
151	0x3e12ef63	0.14349131
152	0xbd8a6975	-0.067583956
153	0x3d5d1fa3	0.05398525
154	0xbd5e69c9	-0.054300103
155	0x3dab3874	0.08360377
156	0x3dcce6d7	0.10004967
157	0x3d91791c	0.07103178
158	0x3e1362fb	0.14393227
159	0xbcfaa307	-0.030595316
160	0x3db21621	0.08695627
161	0x3dc58374	0.09644213
162	0x3ddd0745	0.10792402
163	0xbcaa2ae0	-0.020772398
164	0x3dde0872	0.108414546
165	0x3d932019	0.071838565
166	0xbdee513b	-0.11636587
167	0xbdc8162c	-0.09769854
168	0xbd5384f5	-0.05164047
169	0x3dbccfcb	0.09219321
170	0x3d98434a	0.07434709
171	0x3db75a2a	0.08952744
172	0x3dc3143c	0.09525344
173	0x3daca127	0.08429175
174	0xbcb0215f	-0.021500288
175	0xbdd3f9eb	-0.103504024
176	0x3aa86996	0.001284885
177	0x3d53ff34	0.051757053
178	0xbde7628a	-0.11298092
179	0x3d4aa879	0.049477074
180	0x3d9baeb1	0.07601679
181	0xbdb8f408	-0.0903092
182	0xbdaea42a	-0.085274056
183	0xbc17816b	-0.009247164
184	0xbd541d60	-0.051785827
185	0xbe0883c5	-0.13331516
186	0x3d6aa4d8	0.057286114
187	0x3dc6c305	0.09705166
188	0x3d5e7285	0.054308433
189	0x3d035c65	0.032070536
190	0x3daa0ad9	0.0830285
191	0x3d056214	0.032564238
192	0xbd8a4d13	-0.06752982
193	0x3e0bbcc9	0.13646235
194	0x3d8a8fd7	0.067657165
195	0x3d006064	0.031341925
196	0xbd27e741	-0.040992025
197	0xbd2652ae	-0.040606193
198	0xbd50228e	-0.050814204
199	0x3da87900	0.08226204
200	0xbdad2217	-0.08453768
201	0x3da4dcb0	0.08049905
202	0xbd8a1b03	-0.06743433
203	0x3d0129c1	0.03153396
204	0x3dc6bd39	0.0970406
205	0x3d749420	0.059711576
206	0xbd8e3ac4	-0.069448024
207	0x3cf0b18f	0.029381542
208	0xbc89445a	-0.016756225
209	0xbdc0e903	-0.094194435
210	0xbd0fcba4	-0.035106316
211	0xbd2f266d	-0.042761255
212	0xba8a08df	-0.0010531208
213	0xbdbd82f5	-0.09253494
214	0xbd96a502	-0.073556915
215	0xb908a32e	-0.0001303076
216	0x3ce0099c	0.027348332
217	0x3e01b642	0.12667182
218	0xbc7f0657	-0.015565476
219	0x3dc61b20	0.096731424
220	0xbd1afc70	-0.0378384
221	0xbd8eabcb	-0.06966361
222	0xbd0c8bf6	-0.034313165
223	0xbdf652c0	-0.12027502
224	0xbd750a9a	-0.059824564
225	0xbd3d0a02	-0.046152122
226	0x3bfac24f	0.007652558
227	0x3e139b84	0.14414793
228	0x3ddc7d95	0.1076614
229	0xbc50f00a	-0.012752542
230	0xbd38bada	-0.04510007
231	0xbd62f1fe	-0.055406563
232	0x3d27abb9	0.04093525
233	0x3d95f2b0	0.073216796
234	0x3d791848	0.060814172
235	0xbca19dcd	-0.019728566
236	0xbe165e0c	-0.14684314
237	0x3daf646e	0.08564077
238	0x3da946f8	0.08265489
239	0x3e0e2726	0.13882121
240	0xbdd6c7f9	-0.104873605
241	0xbd4775e5	-0.048696417
242	0xbd5ccdbf	-0.053907152
243	0x3b95fa95	0.004576991
244	0xbcc2e546	-0.023790967
245	0x3de8e6de	0.113721594
246	0x3dfd1642	0.12357761
247	0xbd254815	-0.040351946
248	0x3df7e80e	0.12104808
249	0x3d505c50	0.050869286
250	0x3d6b460e	0.057439856
251	0xbdc59b17	-0.09648722
252	0xbddda686	-0.108227775
253	0xbdf8bfca	-0.12145956
254	0xbc462448	-0.012093611
255	0x3d50ed24	0.051007405

lstm.bias_hh_l0 f4 [256]
0	0xbbd9ad9c	-0.0066430103
1	0x3afe1edf	0.0019387862
2	0x3c864f9b	0.01639538
3	0xbb9ee5de	-0.0048491796
4	0x3d3d6529	0.046239052
5	0x3e0ea71d	0.13930936
6	0x3cd3269d	0.025775248
7	0xbd8bfcde	-0.0683534
8	0xbd11a12c	-0.035554096
9	0x3db68074	0.08911219
10	0xbc1d7ba1	-0.009611995
11	0x3a23b001	0.0006244183
12	0x3deb5477	0.1149072
13	0x3de7553c	0.11295554
14	0x3c5d561e	0.0135093015
15	0x3d0e9cbd	0.034817446
16	0x3e05bb02	0.13059619
17	0x3d266d41	0.040631536
18	0xbd99cd24	-0.075098306
19	0x3d627ba5	0.055293698
20	0x3cb4b4e3	0.02205891
21	0x3da0c794	0.078505665
22	0xbd6fc22e	-0.058534794
23	0x3d55f2d5	0.052233536
24	0x3d93251e	0.07184814
25	0x3dba2c38	0.09090465
26	0x3d9b0bb6	0.07570593
27	0x3d5f692c	0.05454366
28	0xbd5cade7	-0.053876784
29	0xbd122605	-0.03568079
30	0x3ddef52b	0.10886606
31	0xbdc59a6b	-0.096485935
32	0xbcb4a522	-0.022051398
33	0xbd246848	-0.040138513
34	0xbd8254da	-0.063638404
35	0xbd1a6248	-0.037691385
36	0xbd236400	-0.03989029
37	0x3df492ab	0.11942037
38	0x3d5c1b99	0.053737257
39	0xbd09a446	-0.03360393
40	0x3dc10a84	0.09425834
41	0xbd53e921	-0.051736
42	0x3d872b6e	0.066000804
43	0x3ce9a2b8	0.028519973
44	0xbd8b33ab	-0.06796964
45	0xbbf38d56	-0.00743262
46	0xbdcd9bb0	-0.10039461
47	0xbb3d5f03	-0.0028895743
48	0xbde344e1	-0.11097122
49	0x3d74366f	0.059622224
50	0x3e1bd450	0.1521771
51	0xbc455ab1	-0.012045548
52	0xbd8974b0	-0.067117095
53	0xbbdecdb5	-0.0067994245
54	0xbc54eb74	-0.0129955895
55	0xbca6024a	-0.020264763
56	0x3e191ff8	0.14953601
57	0x3d113353	0.035449337
58	0xbd2e0b9c	-0.04249154
59	0x3d20345e	0.03911244
60	0xbda55d0f	-0.0807439
61	0xbdf564f9	-0.1198215
62	0xbc02921e	-0.007969407
63	0x3e1fe00f	0.15612815
64	0x3d95344e	0.07285367
65	0x3d28469a	0.041082956
66	0x3d17c72f	0.03705519
67	0xbcd88f4d	-0.026435519
68	0x3e0084e8	0.125507
69	0xbd3044a9	-0.04303423
70	0x3dbc2697	0.09187048
71	0x3d6f5592	0.058431216
72	0xbc2eecca	-0.010676572
73	0xbd29239f	-0.041293737
74	0x3cf92fa0	0.030418217
75	0x3d7e9242	0.0621512
76	0xbdcf7f3c	-0.1013169
77	0x3e1bc2c9	0.15211023
78	0x3de907a0	0.113784075
79	0x3d5c8f95	0.053847868
80	0x3df903a5	0.12158898
81	0x3c85f790	0.016353399
82	0x3da99625	0.08280591
83	0x3d7c32b4	0.06157179
84	0xbd8cde28	-0.068783104
85	0x3e13ca86	0.14432725
86	0x3e00a870	0.12564254
87	0xbd5c6ece	-0.05381661
88	0xbbd3db90	-0.006465383
89	0x3ddad9bb	0.1068606
90	0xbd75298c	-0.059854075
91	0xbbd75184	-0.0065709967
92	0xbb7a0f51	-0.0038156102
93	0x3dc48777	0.0959615
94	0x3d85107e	0.06497286
95	0xbc438b42	-0.011935057
96	0xbdb6be1c	-0.08922979
97	0xbc2b2914	-0.0104468055
98	0xbdb3c1bc	-0.08777186
99	0x3c998d20	0.018744051
100	0x3dbab285	0.09116081
101	0x3ddecbd3	0.1087872
102	0xbd970308	-0.07373625
103	0xbd13812c	-0.03601186
104	0x3dcb8fed	0.09939561
105	0xbd6f97e4	-0.058494464
106	0xbd783b81	-0.060603622
107	0xbce1ee9c	-0.027579598
108	0x3d79e7fc	0.061012253
109	0xbc1fc0ce	-0.009750558
110	0xbd90084f	-0.07032835
111	0x3c8787ac	0.016544186
112	0xbe085d8e	-0.13316938
113	0x3d971807	0.0737763
114	0x3dfc3b30	0.123159766
115	0xbcc9887c	-0.024601214
116	0x3d7b6108	0.061371833
117	0x3e29ba65	0.1657501
118	0xbd2f2caf	-0.042767223
119	0x3d38c494	0.045109347
120	0x3d83d3c8	0.064368784
121	0x3d295c08	0.041347533
122	0xbcb5fedc	-0.022216253
123	0x3d43e1b2	0.04782266
124	0x3daef1f3	0.08542242
125	0xbd994231	-0.07483328
126	0x3d6b4a79	0.05744407
127	0x3e03e335	0.12879641
128	0xbd95d565	-0.073160924
129	0x3ce4ff07	0.027953638
130	0xbdf18711	-0.1179334
131	0x3cd19919	0.025585698
132	0xbd914967	-0.070940785
133	0xbde00277	-0.1093797
134	0xbc33a4f7	-0.010964624
135	0xbd80db51	-0.06291831
136	0xbd57e3ce	-0.052707486
137	0x3c15ab64	0.009135101
138	0xbdbe78eb	-0.09300407
139	0x3d66baf2	0.05633063
140	0x3dceca66	0.10097198
141	0x3d550330	0.052004993
142	0x3dcaa71e	0.09895156
143	0xbdd77068	-0.10519487
144	0x3cb18487	0.02166964
145	0x3de168f7	0.110063486
146	0xbd2f49ba	-0.04279492
147	0xbdba0edb	-0.09084865
148	0x3ddb8c5c	0.10720131
149	0xbd1fdd88	-0.039029628
150	0xbdaa4384	-0.08313659
151	0xbd4bdcc8	-0.0497711
152	0xbd27789c	-0.040886506
153	0x3cab2b48	0.020894662
154	0x3d84b771	0.06480301
155	0xbdded97d	-0.10881326
156	0x3dc8cd32	0.09804763
157	0x3dd4317d	0.10361002
158	0xbd0a3ae8	-0.033747584
159	0xbd34d464	-0.044147864
160	0xbc7553a8	-0.0149735585
161	0xbd593490	-0.053028643
162	0xbdfb6e4f	-0.12276899
163	0x3d992a61	0.07478786
164	0x3cec1b42	0.028821591
165	0x3d4a0449	0.049320493
166	0x3dafe1e3	0.08588006
167	0x3d198eef	0.037489828
168	0xbcfe3dc6	-0.031035315
169	0x3dfe6daa	0.124232605
170	0xbdbb9b22	-0.091604486
171	0xbe037ff8	-0.12841785
172	0x3dfdf629	0.12400467
173	0xbdc612b2	-0.096715346
174	0xbd7e1a35	-0.06203671
175	0xbc12123a	-0.008915478
176	0xbc90260b	-0.017596265
177	0xbd889868	-0.06669694
178	0xbc58cbbd	-0.013232169
179	0xbd88e0b2	-0.06683482
180	0x3d437d4e	0.04772692
181	0x3b3ad1cf	0.0028506403
182	0xbde5d7e0	-0.112228155
183	0xbd0822d8	-0.033236355
184	0x3d5735f2	0.05254168
185	0x3be2c297	0.0069201696
186	0xbb0bb3d6	-0.0021316907
187	0x3cd5923f	0.026070712
188	0xbcca03b3	-0.024659967
189	0x3da7c16e	0.08191191
190	0xbd8c3b7b	-0.068472825
191	0xbd5ebbe7	-0.054378416
192	0x3e058d4a	0.13042179
193	0x3db177dd	0.0866544
194	0xbdb0de44	-0.08636144
195	0xbd75a1ce	-0.059968762
196	0x3dd5aa57	0.1043288
197	0x3c7aa4a1	0.01529804
198	0xbd941edb	-0.07232448
199	0x3c322915	0.0108740525
200	0x3d8e5f8a	0.069518164
201	0x3a047d53	0.0005054075
202	0x3dab4363	0.08362462
203	0x3d86e573	0.06586733
204	0x3d0d22a1	0.034456853
205	0x3c2ec265	0.010666464
206	0xbd07ebcb	-0.033183854
207	0xbd00cd55	-0.03144582
208	0xbd9aa584	-0.07551101
209	0xbc90ab8f	-0.01765993
210	0x3dba4b20	0.0909636
211	0xbd742e27	-0.059614327
212	0x3dd77414	0.10520187
213	0xbce55dd4	-0.027998842
214	0x3e1ef562	0.15523294
215	0x3e023a42	0.12717536
216	0x3dee5b59	0.11638517
217	0xbd89ffb1	-0.067382224
218	0x3de884dd	0.11353467
219	0x3dad80ac	0.08471808
220	0x3c95976a	0.018260676
221	0x3d8fa7f4	0.070144564
222	0xbdb3fc28	-0.08788329
223	0x3d031f79	0.032012437
224	0xbda1aaf7	-0.07893937
225	0x3ca97c81	0.02068925
226	0x3e17b20a	0.1481401
227	0x3e37a9a7	0.17935811
228	0x3d696608	0.05698207
229	0x3e181a24	0.14853722
230	0x3e15321e	0.145699
231	0x3df613b6	0.12015478
232	0x3dda7dd4	0.10668531
233	0x3c91b995	0.017788688
234	0xbd9608eb	-0.0732592
235	0x3e08e446	0.1336833
236	0xbd3f5b69	-0.046718035
237	0x3da7c725	0.08192281
238	0x3dbf6e05	0.093471564
239	0xbd58724f	-0.05284339
240	0xbdf06012	-0.11737074
241	0x3cfe907b	0.031074753
242	0x3d136456	0.03598436
243	0x3d96f70c	0.07371339
244	0x3e00ad99	0.12566222
245	0x3dc147e8	0.09437543
246	0xbdae938c	-0.08524236
247	0x3d9150ee	0.07095514
248	0x3cb4705f	0.022026239
249	0x3e11d105	0.14239891
250	0xbb8d1e72	-0.004306608
251	0x3dbf81f4	0.093509585
252	0x3dd247bf	0.10267591
253	0x3ca36bbd	0.019948835
254	0xbdb4d60c	-0.08829889
255	0x3df70561	0.12061573

fc.weight f4 [1, 64]
0	0xbcb368a9	-0.021900492
1	0x3df3093d	0.118669964
2	0x3da39108	0.07986647
3	0x3e22651f	0.15858887
4	0x3daae03b	0.0834355
5	0x3d2fa799	0.042884443
6	0xbda5212e	-0.08062969
7	0xbc165078	-0.009174459
8	0x3d700afc	0.058604226
9	0xbdd01971	-0.101611026
10	0x3bf2b4e6	0.0074068187
11	0xbde59a28	-0.112110436
12	0xbe16b722	-0.14718297
13	0x3db56d66	0.08858757
14	0x3dc99de8	0.09844571
15	0x3e0c0dc4	0.13677126
16	0xbd863491	-0.06552995
17	0xbdc7b404	-0.09751132
18	0xbd83e27d	-0.064396836
19	0xbccd2014	-0.02503971
20	0x3d4a53bf	0.049396273
21	0xbd192abf	-0.03739428
22	0x3e0bbd14	0.13646346
23	0x3de970a3	0.11398437
24	0xbe04d517	-0.12971912
25	0xbdd83f62	-0.10558964
26	0x3e114cc1	0.14189436
27	0xbdb60a41	-0.088886745
28	0x3dfda1fd	0.123844124
29	0x3d13da60	0.03609693
30	0x3e058be7	0.1304165
31	0xbc0c82fc	-0.008576151
32	0x3e104f8e	0.14092848
33	0x3dbfdf5e	0.09368776
34	0x3e1462ef	0.14490865
35	0xbda6fde9	-0.08153898
36	0x3d8b65d9	0.06806535
37	0x3d8588d4	0.065202385
38	0x3e0eee78	0.13958156
39	0x3e241b34	0.16026002
40	0x3ddb6d33	0.107141875
41	0x3e1ec527	0.15504895
42	0xbd52fc94	-0.05151041
43	0xbd89b85d	-0.06724618
44	0x3d95f6d1	0.07322467
45	0x3d735b40	0.059413195
46	0xbd9b8f48	-0.07595688
47	0x3dcb2930	0.09919965
48	0x3d5ae648	0.05344227
49	0xbe04349b	-0.12910692
50	0x3e1060f4	0.14099485
51	0xbd439eb3	-0.04775877
52	0x3d55672e	0.052100353
53	0x3d523b61	0.05132616
54	0xbdf51190	-0.119662404
55	0xbd204d30	-0.03913611
56	0xbe012b5a	-0.12614194
57	0x3e039f96	0.12853846
58	0x3d97e04e	0.074158296
59	0x3d6f2e8b	0.058393996
60	0xbd56aa84	-0.05240871
61	0x3db79908	0.08964735
62	0xbd95b920	-0.073107004
63	0x3dee39b5	0.116321005
