checkpoints/North-East/best_model.pth (torch, 820137 bytes, 9 tensors)

lstm.weight_ih_l0 f4 [512, 11]
00000000: 8a9c 26bd fd81 a13d 47f1 c7bb 92b3 e53c
00000010: 1250 d03d c2f6 793d 08ea 51bc 1dbc 0f3c
00000020: 6992 0cbd 6f68 5d3b 68fe a3bc d05b 253c
00000030: 0e10 e23b dfa4 753c 63da 373c f984 86bd
00000040: eeb8 01bd 194b 1b3d 78ad 0a3d 6089 d03d
00000050: 4c2b 753c c2f6 b4bc e87b 6cbd 5720 83bc
00000060: 712d a43b 8155 a83d f125 be3c a077 a0bd
00000070: d8f6 4dbd 4a78 b7bd 6b2b f13c 4bda a83d
00000080: 5a47 5e3d 4868 a43d fc99 af3d efca 51bc
00000090: d3e4 95bc 0065 8f3d 70fd 2abd 909d 443d
000000a0: 2d58 773d cb25 b93c 84dc 51bd c2ea 5d3c
000000b0: 5a0e 213d bfb5 77bd 735c f6bc cc72 553d
000000c0: 1608 efbc 1b65 3abc 3a1d 29bd 0f45 5a3d
000000d0: 2153 6dba adee 8fbd 8b16 20bd e7d5 263d
000000e0: d5d2 88bd c98a e3bc d9f2 78bc eb63 233b
000000f0: 7a38 133d a1da b4bc 5391 c33c d823 8d3b
00000100: 25a2 e4bc 6d6b 703d 8b21 32bd d665 2dbd
00000110: b09f 07bd 9b45 a93d 08aa c6bd 921b 65bd
00000120: 41b7 25bd 9330 9cbd 01c0 863d cacd b63d
00000130: 0e3c 913d b14a ecbb baa9 0dbd 5924 59bd
00000140: d349 073c 0a72 2b3d 6bb8 58bd e639 4d3d
00000150: 203d c93c 0456 043d 0e9e 36bd 4490 d8bd
00000160: f3e2 fdbb 093b aa3d d671 273d 9180 adbc
00000170: c66d ddbc ba0f eb3c 46b2 9fbd 5d40 36bc
00000180: d367 01bd 2b07 833d 1179 2a3d 7d5f 483c
00000190: a753 b9bd 8440 553d d990 973b 4738 87bc
000001a0: e810 a7bd d20b 9abc 1fbb 7e3c 927c 95bd
000001b0: 1305 9b3d bd1a 96bc 65e5 2ebd c73b 983d
000001c0: 0d0c 87bd c787 713b b0d1 eabc 06f1 203d
000001d0: 7796 9ebc dd02 1b3c ccb9 c43c cf5f 473d
000001e0: e0cb f8bc 90ea cbbc ab22 27bd ff80 053c
000001f0: 991b 91ba 6616 46bd 4416 483d 8512 5a3d
00000200: 41c3 32bd db45 623c e25c 0dbc e717 a13c
00000210: e1c5 d6ba aa8a 733d 9866 3b3d 694c 6abd
00000220: dbc0 8c3d b5cd 853c e930 83bd cda7 803c
00000230: f405 cc3c 7635 7bbc 59cf c93b e6e6 ecbb
00000240: 8c34 943d e2ed a83a ca86 6d3d 7d78 3e3d
00000250: a0a6 683d ae37 223c b2cd 313c 53e4 673c
00000260: f84e a7bb 0cb3 633d d1b8 b03d 4633 ccba
00000270: 4053 e4bc 09f7 943d b06a 813c 9a69 453c
00000280: 48d8 4abd d423 a43d 44a7 1f3c 12d3 d03c
00000290: 1c7f 5639 5ee8 ad3d 5837 8b3d 6098 433d
000002a0: 0628 88bb 1dcc 29bd 5a65 58bc d1e9 74bd
000002b0: 99bf 97bd e57f e0ba b1ae efbb f367 4e3d
000002c0: 8a29 c13b d1e8 16bd fdba 543d 4d62 cabc
000002d0: bfbe 88bd 7297 ae3d 16c8 d2bd 5b95 363d
000002e0: 37eb 8c3d cf95 f43c fab9 97bd f34d 69bd
000002f0: 58d4 cd3d 93e4 39bd 7a63 3c3a 83d0 8c3d
00000300: 4ba4 2f3d 126c b5bd a17d 41bd 3914 303d
00000310: e6b8 a8bd 0a1e aebd f501 6a3c 088f 1c3d
00000320: 0891 923c 3614 a53d 351c 303d 8ea6 04bd
00000330: 8ae1 ce3c e1f8 723d f3d2 ef3c a09b 583d
00000340: 2a82 663d d325 833c e141 593a aaf2 ccbd
00000350: 08e4 37bd 6f99 04bd cbb8 ffbb 51f4 c9bd
00000360: c1e0 6b3c e036 1dbd 6f82 29bd 9776 b9bc
00000370: 3778 37bb 2ea9 2dbd bc49 4dbd 67e9 283d
00000380: d3f4 1d3d acce cf3d efc1 64bc fb7a 43bd
00000390: 2425 243d d470 6e3d 3feb a6bd d422 6b3d
000003a0: fa12 5bbd 6ab6 a63d 4ee8 1cbd cf2b 9c3d
000003b0: bcf5 ebbc bbad 3fbd 91ca e1bc 5b37 7cbd
000003c0: 68c5 463d b67e af3d 6e96 953d 38ab 59bd
000003d0: 3a22 23bd 496d d33c 907e 7abd 9847 08bc
000003e0: c587 a4bc f9bd a5bd 3319 c83d 07d4 513d
000003f0: 5ada 0fbc 6d5d d8bc ad94 7b3c 3c09 353d
-0.04067663 0.078861214 -0.0061017605 0.028039727 0.10171522 0.061026342 -0.012812145 0.008772877
-0.034319315 0.003378417 -0.020018771 0.010092691 0.0068988865 0.014992922 0.011221501 -0.06568331
-0.031670503 0.037913416 0.03385684 0.10182452 0.014963936 -0.02209032 -0.057735354 -0.016006632
0.0050103 0.082194336 0.023211451 -0.07835317 -0.050284237 -0.0895849 0.029439649 0.08244761
0.054267265 0.080277026 0.08574292 -0.012804731 -0.018297588 0.07001686 -0.041745603 0.048001826
0.060386825 0.022601029 -0.05123569 0.01354474 0.039320327 -0.06047606 -0.03007338 0.052111432
-0.02917866 -0.0113766445 -0.04128764 0.053288516 -0.00090532197 -0.07027946 -0.039084 0.040731337
-0.06680838 -0.027776139 -0.015194618 0.0024931382 0.035942532 -0.022076907 0.023873007 0.0043072514
-0.027909348 0.0586962 -0.04348902 -0.042333446 -0.033111274 0.08265229 -0.097004 -0.055934496
-0.040457968 -0.07626452 0.065795906 0.0892597 0.07091533 -0.0072110523 -0.034585692 -0.05301318
0.008257347 0.041856803 -0.05291025 0.050104044 0.02456528 0.032308593 -0.044584326 -0.105743915
-0.0077480017 0.08312041 0.040880047 -0.02117947 -0.027029883 0.028694022 -0.07797675 -0.011123744
-0.031593155 0.063978516 0.041619364 0.012229797 -0.090491585 0.05206348 0.0046254215 -0.016506327
-0.081575215 -0.018804464 0.015547543 -0.072991505 0.07569327 -0.018323297 -0.042699236 0.074332766
-0.065940954 0.0036854611 -0.02866444 0.039292358 -0.019358857 0.009461132 0.024014376 0.048675355
-0.030370653 -0.024892122 -0.040804546 0.008148431 -0.0011070847 -0.048361205 0.04884936 0.053240318
-0.04364324 0.0138106 -0.008628102 0.019664718 -0.0016385877 0.059458412 0.045752138 -0.057201777
0.06872722 0.01633344 -0.06405813 0.015705014 0.024905182 -0.01533257 0.006158751 -0.0072296737
0.07236585 0.0012888277 0.057989873 0.046501625 0.05679953 0.00990097 0.010852264 0.014153558
-0.0051058494 0.055590674 0.08629001 -0.0015579246 -0.027871728 0.07273681 0.015797943 0.012049103
-0.049522668 0.08014646 0.009744469 0.025491271 0.00020455982 0.08491586 0.06797665 0.047752738
-0.004155162 -0.041454423 -0.013207758 -0.059793297 -0.07409591 -0.0017127959 -0.007314526 0.050392102
0.0058948444 -0.036843125 0.05193614 -0.024705077 -0.06677007 0.0852498 -0.102920696 0.04457603
0.06880801 0.02985659 -0.07408519 -0.056959104 0.10050267 -0.045384 0.0007186454 0.06875708
0.04288129 -0.088585034 -0.04723895 0.042988036 -0.082383916 -0.08501823 0.014282693 0.038222343
0.017891422 0.080604956 0.04299565 -0.0323854 0.02525403 0.05931938 0.029275393 0.05288279
0.056276478 0.016009247 0.000828771 -0.10007222 -0.044895202 -0.03237289 -0.0078040115 -0.09861053
0.014396847 -0.03838241 -0.041384157 -0.022639556 -0.0027995238 -0.04239767 -0.050119147 0.041238215
0.03856356 0.101468414 -0.013962253 -0.047724705 0.040074483 0.05821307 -0.081503384 0.05740626
-0.053484894 0.081402615 -0.03830748 0.07625543 -0.028803699 -0.04679654 -0.027562412 -0.06157623
0.048528105 0.0856909 0.07304083 -0.053141803 -0.039827563 0.025808947 -0.061155856 -0.0083178505
-0.020084271 -0.08092875 0.09770431 0.051227596 -0.008780086 -0.026411736 0.015355271 0.04419826

lstm.weight_hh_l0 f4 [512, 128]
00000000: acaa cfbc 5505 613d df4a 6abc 7952 53bd
00000010: f1c5 a33c da74 203c 584b 63bd f4b2 88bc
00000020: b33b 8cbb db44 82bd e19a d63c 7e89 cc3d
00000030: 62dc d93c 015f a4bd 7cd1 253d a9e3 76bd
00000040: 06c3 133d ba75 49bd 932e 443d 8374 933c
00000050: 8601 b33d c5a4 d7bc 5134 323d 7c41 ad3c
00000060: 0994 c43c 337f 25bd 0582 26bb 878e b6bd
00000070: 9570 6ebd 70e2 343d 95f7 5bbc cd44 123d
00000080: 4244 543c d074 823d 1546 8ebc 3aa8 5dbd
00000090: bda6 b7bd 8ea4 233d bc62 c5bd 3059 8abd
000000a0: 63a1 133d 03c3 0d3c d0b2 04bd 4b75 ad3d
000000b0: 673a 273c 5799 f73c 6496 333d 2584 9bbd
000000c0: 02d7 89bd 1ac9 91bc 1638 ecbb a2c1 e43c
000000d0: 85df cbbd 51c6 4dbd 0de7 4abd df5e 9d3d
000000e0: 20b1 8f3d 2d26 a1bd 5a5a eeba cf59 d13c
000000f0: 1ae7 9a3c a831 613d d230 e9bb 7047 4d3d
00000100: 15f6 42bd 5739 fbbc b456 9d3d e589 3abd
00000110: a669 68bd 3841 323d 3bb3 74bd f2b5 6b3d
00000120: 44e2 28bc 4519 3f3d 8e45 9d3c 83ba 96bc
00000130: d101 6e3d 5266 773d f3fd f03a 9be0 643d
00000140: f60e 803d fbfe b9bd 0c69 6f3d a9a8 d53c
00000150: f606 66bd b683 cd3d cd8b 343d 8a37 aabd
00000160: 913c 823d a278 4b3d 0980 603b 393e 423d
00000170: 3a0c 8b3d ae27 313d 4cf9 a63c b778 3bbc
00000180: 0e44 b2bd b188 c73d 1e47 6abd 3ad1 3fbd
00000190: e8ea ff3c c035 9e3c 4505 51bc 3939 aabd
000001a0: 0f6d f3bc fbf2 f0bc d919 e43c b807 91bc
000001b0: f313 53bd 9e7e e03c e8ec 8abd dd24 0dbd
000001c0: a3ea 333d a08a 3ebd d7ec 43bd 41f3 813c
000001d0: d8e6 e1bb df57 ad3c 7326 5fbd feea 8b3d
000001e0: daae 8bbb f345 e3bc 0721 bd3d aef0 a5bd
000001f0: a582 3bbd 80d8 e73c adf9 bd3c b756 0dbd
00000200: 3a3c a0bd 6eb2 c63d 3c6f 263d 55c8 4a3d
00000210: e581 bf3c 28c8 b13d 9819 2c3d 0402 bfbd
00000220: 41f4 95bc a680 fc3c 037b 6b3d ee89 5f3d
00000230: 6f02 84bd 6c76 8cbd 68ce ae3c 0f1e 2e3d
00000240: f90a babc 2d84 8f3d ccbe 1f3d 2f89 64bd
00000250: b7aa f3bc 4acf 74bd e819 83bd d2e4 c73c
00000260: d5a6 3a3d 702a 69bd fcd1 9d3d 08d7 62bd
00000270: d755 8ebd 939e 9dbc c9cf 7b3d 5d73 4abd
00000280: 808f 273c d89b 153b 5397 bfbc 00e3 663c
00000290: 59c9 953d 6a9f 493d d802 c4bc 8867 b7bb
000002a0: 5e36 863d 3dd2 4e3c a001 97bd c78e 603c
000002b0: d9b4 3abd e858 27bd 593c 1cbd 3134 0cbd
000002c0: 58f0 9a3d 5fff 9cbd 2fe2 28bd 6030 63bb
000002d0: ab0d 4f3d 1eb4 56bd e2bc a23c 4cf7 08bc
000002e0: 1e8f 70bd 580c ed3c d3f6 01bb 38b0 8ebd
000002f0: 367e 9fbd a250 9c3c bda2 66ba 46fa 573d
00000300: f8f7 88bd 4565 38bd 782f 17bc cf1b acbd
00000310: 51db 85bd f584 e6bc 8a82 4b3d 3769 2b3b
00000320: 2f9b 923c 8261 4d3d 17fe 5c3d 0fba 193d
00000330: cfc9 7fbd 4309 f1bc 1e29 4e3d c21d 0abd
00000340: 5766 bd3d 9184 bbbc 53b4 2e3d 428a 1cbc
00000350: 91fa 983c 0084 aa3d 2ad3 92bc eee2 a0bd
00000360: 2ae7 f2bc 1f3f 343d a522 723c df2c 1bbd
00000370: c534 64bd fbdf 0bbd 3c2d 7c3d 1d6e b83b
00000380: dab9 2bbd 9d79 393d 529c 133d eb2f 6bbd
00000390: 9316 81bd 1ab2 953d 6e43 80bc dbbf 97bd
000003a0: bdcc 3d3d f33b 6ebd 75d6 793d adcf 4cbd
000003b0: e0a9 ae3c d515 823c 97e3 d73c 858c a13d
000003c0: 5be3 c4bc 0e5e 053d d8f6 d8bc 3e20 5ebd
000003d0: 766f 313d dd9b 97bc 3df5 bd3c e985 463c
000003e0: 46c6 ef3b 7404 b6bc 6190 a73d a853 a9bd
000003f0: c18a 8dbc 213d 0bbd 760a 563d 061c 22bd
-0.025349937 0.054936726 -0.014300077 -0.051592324 0.019991847 0.009793485 -0.055491775 -0.016686894
-0.0042795776 -0.063607894 0.026196899 0.09987162 0.026594345 -0.08025933 0.040482983 -0.060275707
0.03607466 -0.04918454 0.04789598 0.017999893 0.08740525 -0.026323685 0.043506924 0.02114939
0.02399637 -0.04040451 -0.0025407088 -0.08913904 -0.058212835 0.04416126 -0.013425727 0.035710145
0.012955727 0.063699365 -0.017367402 -0.05411551 -0.0896735 0.039951853 -0.09637973 -0.067552924
0.036042582 0.008652451 -0.03239709 0.084696375 0.010206795 0.030224485 0.043844596 -0.07593564
-0.067304626 -0.017796088 -0.0072088344 0.027924363 -0.09954742 -0.050237957 -0.049536753 0.07684111
0.07016206 -0.078686096 -0.0018184886 0.02555552 0.018909026 0.054978997 -0.0071164155 0.050116956
-0.047597963 -0.03066699 0.07682553 -0.045541663 -0.05674138 0.04351923 -0.05974124 0.057546563
-0.010307852 0.04665496 0.019198205 -0.018399483 0.0581072 0.060400315 0.001838623 0.055878263
0.062528536 -0.09081837 0.05844979 0.0260814 -0.056158982 0.100348875 0.044078637 -0.083113745
0.063592084 0.04967559 0.0034256002 0.04742262 0.067894414 0.043250732 0.020382546 -0.011442355
-0.08704387 0.09742869 -0.05719673 -0.046830393 0.031239942 0.01931274 -0.012757604 -0.083116956
-0.02971509 -0.029412737 0.027844356 -0.017703876 -0.051532697 0.027404126 -0.067834675 -0.034458984
0.04392494 -0.04651892 -0.04783329 0.015863063 -0.006893974 0.021160064 -0.054480027 0.068319306
-0.0042627873 -0.027743315 0.09234815 -0.08102547 -0.04577889 0.028301477 0.023190344 -0.034506526
-0.07823987 0.097020015 0.040633425 0.049507458 0.023377368 0.08680755 0.042016596 -0.09326556
-0.018304946 0.030823063 0.05749036 0.0545749 -0.06445777 -0.06858525 0.021338657 0.042509135
-0.02271031 0.070076324 0.039000317 -0.05579489 -0.02974449 -0.059768 -0.064014256 0.024401102
0.04556926 -0.056925237 0.07706067 -0.05538085 -0.069499664 -0.019240653 0.061477456 -0.049426425
0.010227084 0.0022828486 -0.023387587 0.014092207 0.07313795 0.049224295 -0.023927137 -0.0055970587
0.065533385 0.012623367 -0.07373357 0.013705916 -0.045582626 -0.040856272 -0.03814349 -0.03422946
0.07565373 -0.07665896 -0.04123133 -0.0034666285 0.050550144 -0.052417867 0.019865457 -0.008359741
-0.058730237 0.02893655 -0.0019830957 -0.06967205 -0.07787745 0.019081417 -0.00087980536 0.052728914
-0.06687921 -0.045018453 -0.009227626 -0.084037416 -0.06535972 -0.02813957 0.04968504 0.0026155242
0.017896263 0.05014182 0.053953256 0.037530955 -0.06244832 -0.029423362 0.05033218 -0.033719786
0.092480354 -0.022890361 0.04265244 -0.009554448 0.018674167 0.08325958 -0.017922956 -0.078557834
-0.029651243 0.04400551 0.014778768 -0.03788459 -0.055714387 -0.03414915 0.061566576 0.005628361
-0.04192529 0.045281995 0.03603775 -0.057418745 -0.06303134 0.07309361 -0.015657153 -0.074096404
0.04633783 -0.05816264 0.060995538 -0.050002743 0.021321237 0.015879551 0.02635364 0.0788813
-0.024034193 0.0325604 -0.026484892 -0.054229967 0.043319188 -0.018506939 0.023188228 0.012116888
0.007317337 -0.02221892 0.08181835 -0.08267909 -0.017278077 -0.033993844 0.05225607 -0.039577506

lstm.bias_ih_l0 f4 [512]
00000000: 7498 683b cb0e 2dbc 7543 04bd a5c0 a63d
00000010: 193a a53d e431 603b 61f9 b3bc 5055 07bd
00000020: 52f9 cb3c fa78 87bd ff37 7f3d 3601 2c3d
00000030: 4ad3 09bd e0a8 b03c b5ad 923c e661 26bb
00000040: 4d52 5cbd b0ea 1d3c 18b8 513d 3ba0 793d
00000050: 99b5 5abd 69d3 0d3d c757 983d 22c2 853d
00000060: b7c5 50bd fd7e 4abd 8b73 27bd ae7c 633d
00000070: a19c 833d 940d 34bd 2b82 bf3d f44e 633d
00000080: f135 46bd 5e40 d73d 1f9f 5c3d 994e 6dbd
00000090: 2fbb d53c 989e d43d bb4b 533c 676a e0bc
000000a0: f2d3 d83c 2d14 f23c b5e0 dfbb 95c8 dd3c
000000b0: b028 2d3d 234a 2cbd b671 8a3d c82e f6bc
000000c0: fad7 973c ba74 213d 3171 fc3b 903c 80bd
000000d0: 0e73 863d 48e3 603d 7c0a a23d 952e d93d
000000e0: b839 003c b2fb 1c3d 3809 593d 6c7b babc
000000f0: b281 b2bb a43f 3c3d 0cb1 00bd 438b 93bd
00000100: 988b 7dbd 13bb 82bc 4490 49bd a4ce d63d
00000110: a8f5 e9bc bb1e ab3d 4f01 233d 0209 c53d
00000120: 2485 ce3d aeb9 89bd 4fca 953b c81e 31bb
00000130: ef59 4ebc ed98 2d3d 195e dabc ffac 93bb
00000140: ca71 9c3d 89fd db3d 3904 54bb 467a 593d
00000150: 7588 f8bc 2123 e43c 6785 4a3d f0cc 033d
00000160: 120d 813d c8a6 90bd 8fee c43c 1f6e ffbc
00000170: 5d10 af3b 0e8c 893d 4919 573c 9cf8 3cbd
00000180: d793 b5bc 796b 28bb 59ba 87bc 4a85 52bc
00000190: 8417 f73c 190e 8dbd a281 47bd 67cf 5abb
000001a0: b47e 46bc 0201 4c3d 812d a0bc 288d 173d
000001b0: 1401 aa3d cb50 a03d 97cd e0bc 0093 5ebd
000001c0: fca2 73bd 8e77 973d 01a9 ebbc 5911 3fbd
000001d0: 01ff 4bbd 7417 8a3d 808b 52bd 7d82 5ebd
000001e0: c2e6 a1bd ca15 cd3b 99d3 efba 068f 123d
000001f0: c0bb 3d3b 4e1a a73d 7ad1 28bd 1e4b 843d
00000200: df12 7fbd 8ac3 453c 31d6 163d 81b5 91bc
00000210: c4c4 a93c d1e5 9d3c 1c58 d93c e095 7c3b
00000220: 466c dc3b 686c 91bb e836 6abc 57e2 86bd
00000230: 3253 aa3c 5bd8 b93d e1ef a7ba b5f2 58bd
00000240: 493a 593d 2cdd 1abd 3960 3bbc b1a9 203d
00000250: d00a 5d3d 65ee 363c 607b 25bc 6436 36bd
00000260: 6a70 d7bc d4fd d5bc b9a2 2c3d 5cab 3c3d
00000270: caff 943d 8f0e 90bd 6a9d 813d 0d6d 32bd
00000280: 4dd5 9b3c e339 d83d 55dd 373d d225 733d
00000290: 19e9 2d3d 29c0 873c 0cf3 90bd 50a4 da3d
000002a0: 6987 9c3b f448 a2bd 8d7c 69bc c7b6 733c
000002b0: bf7c 85bc 7d31 c2bc c192 013d 7a0f 92bd
000002c0: 8f4d c43d 6ef0 9d3d c183 97bc 8732 aa3b
000002d0: 8829 2bbc 47d4 c53d 17be 10bd d07d c83d
000002e0: 2686 923d 4741 a3bc 0dcf f73c d46d 093c
000002f0: f9d5 a03d 1e4c 86bd 4c75 553d 9c62 963b
00000300: 7624 a3bd 5bee 13bd e363 853b a81c eabc
00000310: 9388 a13d b8f7 973d 3725 2e3c b5f2 bf3a
00000320: c9f4 14bd f9ae 4e3d f656 413d 7737 80bd
00000330: 565d f33a 2c0b 9f3d b84d ef3c 56f5 95ba
00000340: 5f2b 0ebc c6dd d53d bad9 70bd d5ad 3a3d
00000350: 6d76 a63d 804f 6bba fc19 753d 20c0 52bd
00000360: 58dc 54bd baa9 b23b 96c3 8e3d 805f 79bd
00000370: 4e5e 8ebc 8009 4e3d ea81 47bc cc0f 653c
00000380: 24fe 8ebc 1280 24bd 55a5 1ebd 54fd f83c
00000390: 3c72 aebd 66a5 1a3d b137 a13d ec75 cc3d
000003a0: e7b7 64bd ba5b 1cbd 7d3b 643b 0b7f c63c
000003b0: 510e 293d 8b21 103c a095 88bd 15b2 9a3d
000003c0: 3fde 3f3d 01b5 503c cea6 8f3c 12e9 18bd
000003d0: c2a7 403d b477 333d 4d9a 863d d5fa 913d
000003e0: 47df a63d 6c93 063d 6306 563d e096 6cbd
000003f0: 98b0 723c d218 c3bc 39ca 4ebc 31af 8a3d
0.003549126 -0.010562609 -0.032290895 0.08142213 0.08067722 0.0034209425 -0.021969499 -0.033040345
0.024899159 -0.06614871 0.06230926 0.041993342 -0.033648767 0.0215649 0.017905096 -0.0025387942
-0.053789426 0.009638473 0.051200956 0.060943823 -0.05339584 0.034625445 0.07438617 0.065311685
-0.050969806 -0.04943751 -0.040881675 0.055538826 0.06426359 -0.04395826 0.093509994 0.055495217
-0.048391286 0.10510324 0.053862687 -0.057936285 0.026090233 0.10381812 0.0128964735 -0.027394487
0.02646825 0.029550636 -0.006832207 0.027073184 0.04227513 -0.04206289 0.0675997 -0.030051604
0.018535603 0.03941796 0.007703923 -0.062615514 0.06564914 0.054904252 0.07912156 0.10604588
0.007826261 0.038325973 0.052987307 -0.02276393 -0.00544759 0.04595913 -0.031418845 -0.072042964
-0.061900705 -0.015958345 -0.049209848 0.10488632 -0.02855952 0.08355471 0.03979617 0.09620859
0.10083988 -0.06724869 0.004571236 -0.0027026404 -0.012594684 0.04238217 -0.026656197 -0.0045067067
0.07638891 0.10741717 -0.003235115 0.053095125 -0.030338505 0.027848782 0.04944363 0.032177866
0.06301321 -0.07063061 0.024039535 -0.03118044 0.005342527 0.067161664 0.013128587 -0.04613553
-0.022165222 -0.0025698824 -0.01656835 -0.012849161 0.03016258 -0.068874545 -0.04870761 -0.0033387782
-0.012115169 0.04980565 -0.019552948 0.03699985 0.08300987 0.0782791 -0.027441783 -0.05433941
-0.059481606 0.0739585 -0.02876711 -0.046647403 -0.049803738 0.067427546 -0.05140257 -0.054323662
-0.07905342 0.006258701 -0.0018297314 0.03578093 0.002895102 0.08159314 -0.041215397 0.0645964
-0.062273856 0.012070546 0.036825363 -0.017786743 0.020723708 0.019274624 0.026531272 0.003854148
0.0067267744 -0.004437972 -0.014295317 -0.0658614 0.020791624 0.0907447 -0.0012812578 -0.05296584
0.0530341 -0.037808582 -0.0114365155 0.03922433 0.05396539 0.011165236 -0.010100216 -0.044485465
-0.02629872 -0.026122011 0.042147372 0.04606186 0.072753504 -0.07034027 0.063288525 -0.04356103
0.019022608 0.10557916 0.044888813 0.05936224 0.042458627 0.016571121 -0.070776075 0.10675871
0.0047768843 -0.07924071 -0.014250887 0.0148751205 -0.016294835 -0.023705238 0.031634096 -0.07131858
0.09585106 0.07711874 -0.018495442 0.0051940116 -0.010446914 0.09659629 -0.035337534 0.09789622
0.07154493 -0.019928588 0.030250097 0.0083880015 0.07853312 -0.06557487 0.052113816 0.004589392
-0.07965939 -0.036115985 0.0040707453 -0.028578117 0.078873776 0.074202955 0.01062899 0.0014644476
-0.036366258 0.050459836 0.047202073 -0.06260579 0.0018567245 0.07765803 0.029211864 -0.0011440914
-0.008677333 0.104426906 -0.05880139 0.045575935 0.08128057 -0.0008976385 0.059839234 -0.051452756
-0.05196795 0.005452362 0.06970899 -0.06088209 -0.017378952 0.05030203 -0.01217697 0.013980817
-0.017455168 -0.0401612 -0.03873189 0.030394234 -0.08517882 0.037755392 0.078719504 0.09983429
-0.055839445 -0.038173415 0.0034825497 0.0242305 0.04127342 0.00879706 -0.06669164 0.07553498
0.04684281 0.012738467 0.017535593 -0.03733165 0.047034986 0.04381533 0.06572399 0.071279205
0.081480555 0.032855436 0.052252185 -0.057761073 0.014812611 -0.023815546 -0.012621456 0.06771696

lstm.bias_hh_l0 f4 [512]
00000000: c812 5fbd a863 07bc b233 8bbd 28b9 f3bc
00000010: 7d7a 60bd fcb8 603c 2c24 b63d 1227 9c3d
00000020: 2b6f ac3d 2ae8 dabc a0f0 9d3d c0bc 03bd
00000030: 9dd2 7dbd bd4a 343d 9720 c23d 184a 8a3c
00000040: 0614 1dbd 28d7 ad3d 0fab b83d 1a21 6d3d
00000050: 5517 6b3d ad10 483d 3880 ec3c 828d 47bd
00000060: f1ec 973c 4a7e e4ba 23c0 063d 3403 53bd
00000070: 7278 3abd 1b24 23bc c7b9 2b3d 6aaa 42bb
00000080: c03b 423d f4d4 ae3c 9032 3f3c e9bb 37bd
00000090: 9d14 a93d 3a0f f43b b8c0 ae3a dba4 7e3d
000000a0: 690a 013d cb9a 83ba 954d 74bc ddd7 a6bc
000000b0: 20bd c93d 2594 62bd 50d5 4bbd 15af 943b
000000c0: 386e 983d e7c0 72bc a4ad b83c 4164 20bc
000000d0: fe33 6cbd 49b6 79bd 13c5 34bd 8a34 6bbd
000000e0: c079 7bbd 2c50 65bd 461d ebbc de62 833d
000000f0: 3582 9d3b 98f6 17bd 0c1f 3abd de71 003d
00000100: 9d67 a2bd 9029 96bd 0931 d5bc 19c7 1d3d
00000110: a220 5abd ffc1 c23c 2228 9c3d e698 bb3d
00000120: e5dd 9c3d 88f1 5bbd 852e b43d cceb 98bd
00000130: 841f bf3d 2565 58bd dbde a2bc ce71 0b3d
00000140: 4758 e53c 2e74 38bd c03f cc3d b229 023d
00000150: dd79 77bd fcd4 a83d d949 9abb 2de0 263d
00000160: aa09 3cbd 8b9e 373d 3308 edbc a829 8cbc
00000170: 065b 61bd 4f71 8d3c bc9f b5bc 337e 263d
00000180: 73a7 493d 65dc d539 672d 683d 9f18 3ebd
00000190: bc9b aebc 04fb 733d 0f9f b2bc 2dab 6ebd
000001a0: 00e3 48bd 8dc9 11bc f627 403d 6276 a6bd
000001b0: 0caf 2cbd 1e1f 3bbd 5aea 563d 0fd7 a43d
000001c0: 89e2 863d 80d8 77bc 6037 a83d 7880 593d
000001d0: ec70 3f3d af66 813d da58 9fbd ed07 a5bc
000001e0: 4b1e 99bd 4d6a 60bd aa64 75bd d9a8 1c3d
000001f0: 8237 c1bc 15ab d73c 35a6 4b3b f49a 06bb
00000200: 63bf 14bd 2853 d23c 9aea 0ebd f9af 903d
00000210: 42b5 17bc 4c2e 543d 91ae 5cbd 6821 c3bc
00000220: 659f 1ebd 882e c6bc db75 f7bb fd33 9a3d
00000230: 53a6 58bd d6e9 783d c0c2 e0bc 7c25 22bd
00000240: 7519 2a3d 449a 02bd 3842 863d aef7 a33d
00000250: a0e0 cfbc 3382 67bd 3191 2cbd 7c34 80bb
00000260: 1f24 14bd 64ef 44bd d2c0 533d 6af0 82bd
00000270: a99c 60bd ee43 28bc 6512 073d fa3b d5bb
00000280: 7049 a13d 7e05 c03d bf69 243d 7cd3 5fbd
00000290: ed4e da3c 3e1e ae3c 083c 90bd 0b08 043c
000002a0: 7af5 b13d 60fa 81bc 8594 8cbc 47c6 583d
000002b0: 048d adbc b99c a43d 2b5a cc3c 069b 4f3d
000002c0: bf53 853b df10 ff3b 71bb 8b3d 8e8d 253d
000002d0: f9ad 77bd e805 b03b dc76 bdbc 8dc0 003c
000002e0: eb6f 043d 695d bb3c 0625 cfba 9a32 bebb
000002f0: 12cc fe3b 36de e9bc 8a54 973c a6d3 3abd
00000300: 4695 cbbc d4be 06bc 5751 c0bb 2232 ad3d
00000310: 5518 eb3c ebc9 b73d 5826 a93d 8cbc 8b3d
00000320: 291d bf3d f196 a5bd a6ae 8f3d 56b4 c63d
00000330: ad0c 87bb edda 253d 669b be3d 1e4d e0bc
00000340: c4d2 7d3c 8b2c 28bd f8a8 2d3d aa30 08bd
00000350: 6272 b93d 4c1c 94bc 8eca 94bb 3488 963d
00000360: 87f3 99bd f560 fe3b 03d3 673d 162d babb
00000370: 7199 013a 3c48 2cbc 5b2c 65bd cb35 42bd
00000380: 9898 c03d fba5 cabc dd2e 87bb be93 7ebd
00000390: 5a74 7e3b d5a9 85ba e577 8d3d c733 8a3d
000003a0: c46c 0c3d 3741 7d3d 8000 02bc 57be 6f3d
000003b0: d2f1 0ebd a5ac 913d 7706 abbc 1369 1e3d
000003c0: 60cc 6e3d 132a 5c3b 5dc3 3bbd 81ea 623d
000003d0: 87d6 b63d 5b40 4f3d f76c 883d 1b9d 52bd
000003e0: 5603 093c 53f4 f63c c056 923d 28d4 6e3d
000003f0: 7900 a1bc 7d4b 233d 45d0 72bd 610e aabd
-0.05446127 -0.008263506 -0.067969695 -0.029751375 -0.054804314 0.013715979 0.08893618 0.076246396
0.08419641 -0.026722033 0.07711911 -0.032162428 -0.061968435 0.04401659 0.09478872 0.016881034
-0.038349174 0.084883034 0.09017002 0.057892896 0.057395298 0.04884403 0.028869733 -0.048718937
0.0185456 -0.0017432657 0.03289808 -0.051516727 -0.04552502 -0.009957339 0.041925218 -0.0029703625
0.047420263 0.021341778 0.01166977 -0.04485694 0.08255885 0.007448104 0.0013332581 0.062168937
0.03150407 -0.0010040639 -0.014911075 -0.020366604 0.09850526 -0.055317063 -0.049763978 0.004537473
0.074428976 -0.014816499 0.022543736 -0.009789527 -0.05766677 -0.060964856 -0.044133257 -0.057423152
-0.061395407 -0.05598466 -0.028700482 0.06415342 0.0048067817 -0.037100405 -0.045439765 0.031358592
-0.07929919 -0.07332146 -0.026024358 0.038519952 -0.053253777 0.023774145 0.07624842 0.091600224
0.076595105 -0.05369714 0.087979354 -0.0746685 0.09332183 -0.052830834 -0.019881656 0.03404408
0.027996195 -0.045032673 0.09973097 0.031778045 -0.060418952 0.082437485 -0.0047085104 0.040741134
-0.045907654 0.044828933 -0.028934574 -0.017109707 -0.055018447 0.017265944 -0.022170894 0.040647697
0.049231958 0.00040790733 0.056683924 -0.0464102 -0.021314494 0.05956556 -0.02180436 -0.058268715
-0.04904461 -0.008898151 0.04691311 -0.081280485 -0.042159125 -0.045683973 0.05246959 0.08048832
0.06586177 -0.015127301 0.08213687 0.053101033 0.04673855 0.063184135 -0.07780619 -0.02014538
-0.07476481 -0.054788876 -0.059910454 0.038246963 -0.023586039 0.026326695 0.003107441 -0.0020539137
-0.036315333 0.025674418 -0.034891702 0.07064814 -0.009259524 0.051801965 -0.053877417 -0.02381964
-0.03872623 -0.02419211 -0.0075518913 0.07529447 -0.052892994 0.06076988 -0.027436614 -0.03958653
0.041528184 -0.0318854 0.06555599 0.080062255 -0.025375664 -0.056520652 -0.042130653 -0.0039125066
-0.03616726 -0.048079863 0.05169756 -0.063935116 -0.054836903 -0.010270102 0.032976527 -0.006507394
0.07875335 0.093760476 0.04013991 -0.054645047 0.026648963 0.021254655 -0.070427 0.008058558
0.08689399 -0.015866458 -0.017160663 0.052923467 -0.021185406 0.08037705 0.02494534 0.05068495
0.004068821 0.0077839936 0.06822861 0.0404182 -0.060468648 0.005371798 -0.023127966 0.007858408
0.032333296 0.02287169 -0.001580388 -0.005804372 0.007775792 -0.028548341 0.018472929 -0.045612
-0.024851453 -0.008224208 -0.0058690715 0.08456828 0.028698126 0.0897406 0.082592666 0.06823072
0.09331734 -0.080854304 0.070157334 0.09702365 -0.004121384 0.040491987 0.09306984 -0.027380522
0.015492145 -0.041058104 0.04239747 -0.033249535 0.0905502 -0.0180799 -0.004540748 0.073501974
-0.07517152 0.007763023 0.05659772 -0.005681644 0.0004943824 -0.010515269 -0.055950504 -0.047414582
0.09404105 -0.024737349 -0.0041254596 -0.062152617 0.0038826675 -0.0010197709 0.06907634 0.06748157
0.034283414 0.06182977 -0.0079346895 0.05853113 -0.034898587 0.071130075 -0.020877106 0.038674425
0.058300376 0.0033594414 -0.04584061 0.05539942 0.089276366 0.050598484 0.066614084 -0.05141936
0.008362612 0.0301458 0.071454525 0.058307797 -0.019653546 0.039866913 -0.059280653 -0.08303524

lstm.weight_ih_l1 f4 [512, 128]
00000000: 51f5 dbbb 9150 fe3c 8c54 563c 51a2 7c3d
00000010: 2b91 0dbd 2aac 013d 55d3 49bd 9e7e 60bd
00000020: acdb 50bc e6b8 4fbd fb97 8cb9 02df 28bd
00000030: 80a5 4dbd 4f9f a2bd c654 a23d c082 4abc
00000040: 019c c93c 6aa5 1dbc 48a1 19bd 4e25 91bd
00000050: a741 20bc 1ab3 9ebd 343b 483c 0bcd 39bd
00000060: b80f e4bc 1387 51bd 39eb 3fbc f2e9 0abd
00000070: 21bb 603c a86d 813d 6a5b 6dbc b537 ab3a
00000080: df7a 743c 5191 bebd 6ec7 0b3d 695b 7cbd
00000090: ab89 6d3d 235a c63d 1d86 103c 7523 263d
000000a0: 5c53 63bd a6c7 4a3d eca3 39bc a578 373a
000000b0: df11 883c 2738 fabc e12c 3a3b f9f6 9ebd
000000c0: f5f7 e3bb 7103 b03c bf32 8fbb 86b5 b23d
000000d0: f86c dd3c a0a5 a0bd a168 ba3d b8c9 04bc
000000e0: f956 70bd 3c5a e1bc b5dc 213d 9ca1 bdbd
000000f0: 0307 553c 5469 aabd 7641 a83d 47f5 633d
00000100: 160d 20bd 296e 6d3d f0a8 4e3c 0e97 0d3d
00000110: 0276 a9bc 19b4 d7bc 0978 24bd ce34 883b
00000120: 8145 64bd 1619 8c3d 36a9 69bc 179a 06bd
00000130: df30 11bd 9852 763d c5cd 5f3d 7c6f 15bb
00000140: e913 5a3d 49e9 6bbd e4f7 14bd 75a9 87bd
00000150: ea3e 1dbc a1e4 ff3c e5d6 693c f769 f8b9
00000160: d542 0dbc 79be f0bc df78 c5bc 7d9d 473c
00000170: e732 503d 3d24 643d cab1 72bd 39df 993d
00000180: 6334 233d e040 42bc 45d1 92bc 2189 4d3d
00000190: 70fd 63bd fb20 80bd d618 783d e87f 18bd
000001a0: 5c10 98bb 6d2d 6f3c e74a 8dbc 9a90 babc
000001b0: 1dbf a9bc 72df 693d 2015 31bd 54ee c73c
000001c0: 7ec3 2a3c 990f 723d 48af 8d3a fbdb 563d
000001d0: 1fb9 41bd dd68 c4bb d23a 433d 1a7a d0bc
000001e0: 281d 8dbb 3f07 f33c 41d3 b23d 7e7b 9f3d
000001f0: f430 2abd 768b 6c3d 6924 04bc 1eff a2bd
00000200: 9f8e d13b c99b 1cbd 6645 d6bb 7b59 533d
00000210: f241 11bd 9a47 6d3d dfc0 673d bee8 543c
00000220: 01f6 043d 67a5 89bd 0cb9 813b a70d 6dbd
00000230: 3c64 dfbc bf52 48bd f568 d2bd 94ba dc3c
00000240: 242b cd3c 0915 4e3c 7bcc 86bd abca 153d
00000250: 85e0 d2bc 9f19 513d e729 76bd 7b7b 8abc
00000260: 595d 443d c5d6 68bd eacb 0cbd 1ff6 a63c
00000270: 9fee 86bd 5e62 4e3d cf56 21bd 7356 3a3c
00000280: 1b53 473c 6fed f4bc c068 9b3c 2798 5d3d
00000290: 58e0 433c 4684 a3bd a40d 993d b733 58bd
000002a0: dc4a 983c 2132 d63b ea14 5c3c 00b9 54bc
000002b0: fad1 5dbc bcbb af3d 6975 af3c 90dd 3f3d
000002c0: 475e ac3d 58b9 77bd eaa8 e23c cd13 8cbc
000002d0: 185d 793d 72a0 323c 8cde 5abd e372 9e3d
000002e0: 32b7 e8bc 11ed 58bd 9dd6 023d 5a25 35bd
000002f0: cdd4 abbd 5039 753d c01c 1e3d 244f 583c
00000300: c0ca 363d 9836 863d 260f 86bd b416 febb
00000310: e6f7 32bd 383b 2b3d 4b1a aabd c2df ab3c
00000320: 5912 8c3d 8062 e0bc 4f73 2a3d 29b9 7b3d
00000330: 1612 f2bc 6c28 ab3d 46b8 3d3d b7cf 50bd
00000340: b836 1e3c 1555 f0bb 40e7 203d f956 ef3c
00000350: 7e37 a93d 67b9 54bc d74c ab3d 4e04 403b
00000360: b90f 4cbd e6e3 e4bb 66fc e93c 8767 bcbc
00000370: aeac 5f3d a6ef 84bd 42de febc 2dba 1ebd
00000380: bc08 a6bd ea9b 653d 36d6 903d cb83 9fbd
00000390: d0d5 16bb 1230 233d cc12 173d a15e bdbd
000003a0: 69e2 55bd 149f 27bd 2f4a 853d 4156 4d3d
000003b0: 344f e9bb 4791 763d a8e2 62bd 0b1a 61bc
000003c0: d893 1abd 331c a03a 341a 75bd 348d 6b3d
000003d0: 1278 22bd 0642 753d 5a18 aebc 8aa3 933c
000003e0: c962 81bd 1119 d5bc 0c25 193d 1d58 8d3d
000003f0: 2faa fc3c 8fa1 adbc 9824 573b 2cde 6dbd
-0.0067125936 0.031044276 0.013081681 0.061678234 -0.03456227 0.03165833 -0.049273808 -0.05480825
-0.012747686 -0.050713442 -0.00026816115 -0.0412283 -0.05020666 -0.07940542 0.079263255 -0.012360275
0.024610521 -0.009621957 -0.037507325 -0.070871934 -0.009781278 -0.07749005 0.012221146 -0.04536156
-0.027839527 -0.051154207 -0.011713796 -0.033914514 0.01371649 0.063197434 -0.014487127 0.0013062867
0.014921873 -0.09305061 0.034125738 -0.061610613 0.05799262 0.09685161 0.008821038 0.04056116
-0.05549942 0.049506806 -0.011330586 0.00069988734 0.016610084 -0.030544354 0.0028408098 -0.0776195
-0.006957049 0.021486016 -0.004370063 0.08726029 0.0270295 -0.078440905 0.09101988 -0.008104734
-0.058676694 -0.027508847 0.039517123 -0.0925934 0.01300216 -0.08320871 0.08215611 0.055653837
-0.03907498 0.057966385 0.01261352 0.034567885 -0.020686153 -0.026330994 -0.040153537 0.0041566854
-0.055730347 0.06840722 -0.014261534 -0.032861795 -0.035446998 0.06013736 0.054639596 -0.0022802046
0.053241644 -0.057595525 -0.03636922 -0.06624118 -0.009597519 0.031236948 0.014272426 -0.00047381196
-0.008621891 -0.0293877 -0.024105487 0.012183544 0.050829794 0.055698622 -0.059251584 0.075132795
0.03984488 -0.011856288 -0.017922053 0.050179604 -0.05566162 -0.062562905 0.06057056 -0.037231356
-0.004640622 0.014598233 -0.01724763 -0.02277403 -0.020721013 0.05709786 -0.043233037 0.024405636
0.0104225855 0.059096906 0.0010809684 0.052455883 -0.047295686 -0.005993946 0.047663517 -0.025448848
-0.004306454 0.029666541 0.087317 0.07787226 -0.04155059 0.057750188 -0.0080653215 -0.07958816
0.0063951756 -0.038234506 -0.0065390347 0.051599007 -0.03546328 0.057929613 0.05658042 0.012994943
0.03246117 -0.06721001 0.003958827 -0.057874348 -0.027269475 -0.048907038 -0.10273925 0.026944436
0.025044985 0.012578257 -0.0658197 0.036570232 -0.025741825 0.051049825 -0.060098555 -0.016904583
0.047940586 -0.056845445 -0.034374155 0.020381032 -0.06588482 0.05038678 -0.039389428 0.01137315
0.01216581 -0.029898373 0.018970847 0.054100182 0.011955343 -0.079842135 0.07473305 -0.052783694
0.018590383 0.0065367376 0.013432721 -0.012983561 -0.013538832 0.08580729 0.02141829 0.046842158
0.084164195 -0.060479492 0.027668435 -0.017099285 0.060879797 0.010902511 -0.053434893 0.07736757
-0.028407667 -0.05296046 0.031942952 -0.044225074 -0.08390198 0.05986911 0.038601637 0.013202462
0.04462695 0.06553382 -0.06545858 -0.0077541713 -0.043693446 0.041804522 -0.08305796 0.02098072
0.06839437 -0.027390718 0.041613873 0.06145588 -0.02954964 0.08357319 0.046318315 -0.050979342
0.009656601 -0.0073343613 0.039283037 0.029216276 0.082625374 -0.0129836565 0.083642654 0.002929944
-0.04981968 -0.0069851754 0.028562736 -0.022998584 0.05460804 -0.06491022 -0.03111184 -0.03875177
-0.08107135 0.056056894 0.070721075 -0.077888094 -0.0023015626 0.039840765 0.03688316 -0.09246565
-0.052217875 -0.040923193 0.0650829 0.050131086 -0.0071200375 0.06019714 -0.055391937 -0.013739119
-0.03773865 0.0012215435 -0.059839442 0.05750771 -0.03966529 0.059877418 -0.021251846 0.018022317
-0.0631767 -0.02601293 0.037388846 0.06901572 0.030842869 -0.021195201 0.0032828208 -0.058073208

lstm.weight_hh_l1 f4 [512, 128]
00000000: 0e63 84bc 98a5 ecbc b33e 9c3d 0e7c 05bb
00000010: 8413 5fbd 2860 9abd 33e7 2d3d 33bd 13bd
00000020: d048 b03d 4f05 10bd 8af1 02bd 0527 763d
00000030: b887 56bd cf08 8bbd 6416 26bc 59a6 f33c
00000040: 721d d3ba 5d5e 61bd 5806 8a3d 6de8 2a3d
00000050: d8d8 213d 58ad 313d c41c 0cbd 3867 b13c
00000060: e503 c93b 9093 e6bb ad7c 98bd 7130 163c
00000070: 12aa 653d 569c 163d d90e 513d 11e2 30bd
00000080: fee6 25bd 542e 6e3c 5567 eb3c d54f 453c
00000090: 894a 143d 1309 853d 17a6 5bbd f88d 97bd
000000a0: f9e0 643d 240b 80bd 11e9 083d 272d 5e3d
000000b0: 1137 793d 0584 543d dbf4 403b a392 f23c
000000c0: eb3c 16bd 9b05 a7bd fdb0 88bd 073a 02bd
000000d0: 4f11 5a3d 6978 023d 03bd 2a3c 85f2 863c
000000e0: cc06 123d 1de5 a1bd 488f 7e3d cc7a 873d
000000f0: 5dc4 c63b a8be 8abd fb6e 0c3d 070c 813b
00000100: 8367 14bd 2a76 183d 30ea b43d 958a 6cbd
00000110: 3cfc 7e3d 2006 533d f567 9bbd 953f 6f3d
00000120: 043e 00bd da58 75bc 5288 b8bc bf3f 76bd
00000130: 2e23 103c fc85 1fbd c745 97bd 3e7a 533d
00000140: fb29 0cbc ce7d 8ebd fca1 923b 310f 7e3d
00000150: c5a6 243d be97 033d e954 a1bd 71af 873d
00000160: 32a7 9abd c9b9 4c3d d93e 5ebd 7159 43ba
00000170: bf01 7d3d 54be 7d3d d60b 123d 8ec9 ebbc
00000180: da99 b5bc a1d0 82bd 2b28 c03c e536 103c
00000190: 9315 7fbd f5cf 72bc b8a0 903d 9b88 203d
000001a0: 0346 edbc 3e6d 903d bb5f 9a3d 18aa 69bd
000001b0: 9f92 d1bc f45e 6e3d 2ada 61bd e7b8 49bd
000001c0: a08a b2bc 0af5 343d fa39 293d 496c 1c3d
000001d0: c34d 4dbd 72ad e3ba 8f1b c0bd cc7b 9e3d
000001e0: f7e9 fdbc 6bd0 a73d a405 743d bbd8 533d
000001f0: 4e6e 8b3c a43e 83bd f7b6 993b 1176 213c
00000200: e743 1c3d 02ea 733d ad80 59bd 189d 003d
00000210: 4cbe 54bd 8620 3ebb de97 1cbc da56 863c
00000220: fcba 90bb ddd9 8a3d 74be bf3b 6ec3 003d
00000230: 0653 cdbc 4dcb 313d 4a21 3c3d 968b 863c
00000240: b258 d6bc 8d28 e53b 4acc 0bbd f722 59bd
00000250: 9c04 7e3d 7c75 afbd 952c 9eb9 feb5 4a3c
00000260: 1cee bb3b 90d4 273d 71e9 87bd 8be7 47bd
00000270: 90a7 e5bc f4e4 8d3d 3380 5ebd 8081 ac3c
00000280: 0ab3 fbbb 500e 2b3d e5b5 8abd 79ed 5a3d
00000290: 43fd cc3c 6252 123c 1f3b 25bd f6d1 2d3d
000002a0: 7db4 58bd 96dc 5a3c bafa 543d 152d 83bd
000002b0: b90e c3bb d8be 95bd 42d9 83bd 3476 13bd
000002c0: e5c1 7d3d ff10 4dbd 8106 85bd 5e81 efbc
000002d0: 9e1b 8a3d 8214 3dbd 705b 253d be49 4039
000002e0: ebf9 61bd 2bbe 2fbd 3ce5 843d d446 28bd
000002f0: 6dca 063d 26ea 463d 92af 90bc 6713 c1bc
00000300: 0365 e93c 4379 f9bc fec9 b93c 000b 533d
00000310: afa5 8bbd 4d22 653b fc9f 2e3c 72e8 743d
00000320: d5a7 883d c823 143d 43eb fc3a 1e4b 8d3d
00000330: 57ec 8bbd 45fa 343c 6c0b 5fbd e13c 46bd
00000340: 2662 4bbd e0de d2bc 6874 45bc 238f 3cbc
00000350: b125 993d 6042 053d 4218 95bd 5d67 07bd
00000360: b29d 543c 4a90 eebc 0a22 993d c2b0 a13c
00000370: f78d f3bc 53c0 513d 021e 9ebb f54b 7cbd
00000380: 0b9f 91bc 95f3 a8bb bd30 6cbb b5d8 ba3a
00000390: 5fc5 2fbb 9e9f 5cbd b3a3 b4bc 5760 1d3d
000003a0: a976 1d3c d6ec 90bd 4b1c 583d 3969 923d
000003b0: 276c 0a3d 79d0 2b3d 3abf 0dbc a4d3 fc3c
000003c0: ca6d f1bc d9e3 70bc 8417 483d ca5d b5bb
000003d0: 0a70 113d d11c 23bd bb17 45bb fa1c 353d
000003e0: bdd2 973d 1eff af3c f19a 103d 2f27 60bc
000003f0: c163 3e3d 79b2 d53b 936c 99bc 15d1 cf39
-0.016160514 -0.028887555 0.076291464 -0.0020368132 -0.05446197 -0.075378716 0.042456817 -0.036069106
0.08607638 -0.035161313 -0.03196863 0.060095806 -0.052375525 -0.067887895 -0.010137174 0.029742407
-0.0016106798 -0.055021632 0.06739491 0.041725565 0.03951344 0.043378204 -0.03420712 0.021655664
0.0061344975 -0.007036634 -0.07445655 0.009166823 0.056070395 0.036770187 0.05103955 -0.043184344
-0.040503494 0.014537413 0.028735796 0.012042959 0.036203895 0.064958714 -0.053625192 -0.07400125
0.055878613 -0.06252125 0.033425394 0.05424228 0.06084353 0.051883716 0.002944282 0.029610937
-0.03667919 -0.08155366 -0.06674383 -0.03179362 0.053239163 0.031853113 0.0104210405 0.016473064
0.035651013 -0.07905028 0.062148362 0.066152185 0.006065889 -0.06774646 0.034285527 0.0039382013
-0.03623153 0.037222065 0.0883373 -0.05774935 0.06225227 0.051519513 -0.075881876 0.058410246
-0.031309143 -0.014974797 -0.02252594 -0.060119387 0.00879745 -0.038946137 -0.07386356 0.05163025
-0.008554931 -0.06957589 0.0044748764 0.062026206 0.040198106 0.032127135 -0.078775235 0.0662526
-0.07551421 0.049981866 -0.054259155 -0.00074519875 0.061769243 0.06194909 0.03565582 -0.028782632
-0.022168089 -0.06387449 0.023456654 0.00880215 -0.062276434 -0.014820089 0.07061905 0.039192777
-0.028964048 0.07052086 0.075377904 -0.05704698 -0.02558261 0.058196023 -0.055139698 -0.049248602
-0.021794617 0.044179 0.041315056 0.038189206 -0.050122987 -0.0017370416 -0.093802564 0.07738456
-0.030995352 0.081940494 0.05957569 0.051720362 0.01702037 -0.06408432 0.0046910006 0.009854809
0.038150694 0.05954934 -0.05310123 0.031399816 -0.051939294 -0.0029011085 -0.009557692 0.016398836
-0.0044168215 0.067798354 0.005851561 0.031436376 -0.025064003 0.043406773 0.045930184 0.016423982
-0.02616534 0.0069933594 -0.034130372 -0.05301186 0.062016115 -0.0856733 -0.00030169325 0.012372492
0.005735172 0.0409742 -0.06636322 -0.0488048 -0.028034002 0.06928435 -0.05432148 0.021057844
-0.007681255 0.041761696 -0.06772975 0.053449128 0.025023108 0.008930774 -0.040339585 0.042436562
-0.052906502 0.013358256 0.051996924 -0.06405083 -0.005952683 -0.07311791 -0.06437923 -0.0360014
0.06195249 -0.050065037 -0.06495381 -0.029236492 0.06743549 -0.046162136 0.040370405 0.00018338018
-0.05516998 -0.042905968 0.064890355 -0.041083172 0.032907892 0.048563145 -0.017661843 -0.023568822
0.028490549 -0.03045333 0.022679325 0.051524162 -0.06818711 0.0034963072 0.01065826 0.05979199
0.066726364 0.036166936 0.0019296188 0.06899093 -0.068321876 0.011045997 -0.054454252 -0.048397902
-0.04965415 -0.02574104 -0.012051679 -0.011508736 0.07477892 0.032534003 -0.072800174 -0.03305756
0.012977051 -0.029121537 0.074771956 0.019737605 -0.02973078 0.051208805 -0.0048253546 -0.061595876
-0.017776033 -0.0051559904 -0.0036039792 0.0014255258 -0.0026820523 -0.05386316 -0.022050714 0.038421955
0.00961081 -0.07076423 0.052761357 0.07148976 0.03379455 0.041946862 -0.008651549 0.030862637
-0.029471297 -0.014702761 0.04885055 -0.005534862 0.03550724 -0.039822403 -0.003007396 0.044217087
0.07413242 0.021483954 0.035304014 -0.013681217 0.04648185 0.0065215197 -0.01872853 0.00039637895

lstm.bias_ih_l1 f4 [512]
00000000: a6df b73d b2fa 183d 7344 1abd aefd fa3b
00000010: 2d67 50bd e515 4f3c f148 cf3d 1f82 e53d
00000020: 7e30 713d c049 833d 0f6e 903c 662d 803c
00000030: 1311 983d 68db 8e3c 71d0 ca3d 7fa1 acbb
00000040: 2cb6 363d b73f 353d 382a 8abb fcea 8ebd
00000050: deda dcbb 2198 fbbc 51b2 5b3d 9671 d03d
00000060: ad21 c63c 9180 24bd 34dd a2bc 2e71 18bd
00000070: cf75 c4bb 8bc5 b23d 255a 3b3d 6078 37bd
00000080: ed0a 0a3d 266e 6c3d ebe4 263d 2a4d b5ba
00000090: 304d 223d 9766 bc3d f62d ad3d 086c 87bd
000000a0: 5d37 ff3c 1914 b6bb 5ac0 ac3c 4b1e 57bc
000000b0: 04fa a9bb f594 b63d 5d11 3c3d 12c9 4ebd
000000c0: 9dfd 273d e7e3 9c3c 54e5 b6bc 26a7 98bc
000000d0: 5830 853d f2d3 7ebd 63f4 893d cff8 99bd
000000e0: 0690 42bd eed0 563c 8595 7ebd f40f de3d
000000f0: 0f96 d23c ec15 c2bc 4847 a33d d5ff 4dbd
00000100: b6dc 163d 1c7d a7bc e5af bfbc 9bda b93b
00000110: 42e2 9a3d 485a 6b3d 45ac 0ebd 7f55 943d
00000120: 9d41 b9ba ca48 fa3c 83b0 fdbc 964c 95bd
00000130: d9d0 9f3d 697c c53d 15ac 843c 9e7c e23b
00000140: 0a6b 703d cd55 b43d 5e23 473d 864f 4e3c
00000150: d1fb 9e3d f95d 37bb 9aa5 b43d 0589 873d
00000160: bfb4 a73d ea9e a3ba 365f 643c b52b 18bd
00000170: 1bcc 5fbd 3f25 be3d cc32 883a 1f3b c1bc
00000180: 056d 6ebd 631e 3f3c a198 54bd 1c29 173d
00000190: d9ad 83bc 8af9 06bd ec44 9c3d e4a7 3f3d
000001a0: b60c 3cbd 38e0 0ebc 1a45 f23b 2dcc ab3d
000001b0: 68a6 743c 2979 1abd d7e0 6c3c cfd6 e5bc
000001c0: fbf0 a03c c0c7 a73d 22e7 ce3d f681 c93c
000001d0: 1658 98bc b3b0 ac3d 78be 833d aa7d b13d
000001e0: 01f8 52bd 0c4a 173d 494d f9bc 9f4a 3a3d
000001f0: 2eaf 10bd 411c a1bd ccb6 313c c439 6e3d
00000200: 138b 5abd 7afc 8fbc c8cd 4bbc 89f3 12bd
00000210: a3ba 7abd 90a0 84bc 63ee 79bd 78ac 0fbd
00000220: 3a64 08bd 61f3 873d 782d 6e3d eac7 f53c
00000230: c9cb 6fbd 3fb8 a3bd 87b0 393d 5edf 85bd
00000240: b493 653d 807c 06bc 61c3 70bd 85c3 52bd
00000250: 083f 8cbd 4253 9b3d ac7e 203c 1bfe b23d
00000260: 18d6 a8bc fc73 3d3d d3e4 85bd 9e00 503d
00000270: 9444 893c 3de6 c33d a5b8 fdbc c2e1 683c
00000280: 71b1 cc3c 96aa 0d3b b993 a03d 2cc6 4c3c
00000290: 7bea b8bc b5fb 5ebb f3ad 3a3d d943 193d
000002a0: c500 463d b7ae 33bd 34b0 9e3d dc0b d13d
000002b0: c5e5 d63b 069d 30bd 568b 96bd 4b6f 3a3d
000002c0: a3cd 29bd 1834 153d be8c 923c c32e 3b3d
000002d0: b6ae 89bd 939f 973d 1be6 d33c 5f00 cb3d
000002e0: 2cc4 553c 1321 963d 9013 cfbb cb46 0d3c
000002f0: 7f82 6c3d fbb3 9e3d 66bf de3c 90e3 bb3c
00000300: 5986 c93c 3619 2e3d 3cf6 81bc 7886 783c
00000310: c124 80bd f752 89bd fcdd 913d becd ccbc
00000320: 4033 873c c6cb 7cbd 066f 44bd 4377 f03c
00000330: a69d ba3c 32c6 9bbc 5746 44bd 0643 ffbc
00000340: a339 3fbd da3c 1f3d 80dc 71bd 3531 80bd
00000350: e7db 31bd 5cdf d9bc 0dee 8c3d 6381 d63d
00000360: 844c 483d d9b9 ac3d f3ac 6f3d 0aad 7f3d
00000370: b7aa cb3d e5fe 81bc 5a7f 733b 55b0 95bd
00000380: f1d3 673d 0236 acbd e823 c13b 1fdb 833d
00000390: 3d15 05bd 47bc 873d c3af 813d 1fb1 1f3c
000003a0: 5886 883d 366b 59bd e690 92bc 3fb9 8a3d
000003b0: d26c ddbc 37d7 00bd e44d 2fbd c489 80bd
000003c0: ddfa a53c 3bf6 6ebd c953 01bb f253 9b3d
000003d0: 5998 443c 7c4a e93c 509d fd3c 7fde 153c
000003e0: d017 13bd 7822 0a3d 5d6a 98bd ccd7 7ebd
000003f0: 2afd c7bc bef1 79bb d4f5 d43c 76bf 733d
0.089782044 0.037348457 -0.037662935 0.0076596355 -0.050879646 0.012639497 0.10121334 0.11206459
0.058884136 0.06410551 0.017630605 0.015646648 0.07425132 0.017438605 0.09903038 -0.0052682753
0.044607326 0.044250216 -0.0042164586 -0.069784135 -0.006739958 -0.03071219 0.053636853 0.10177915
0.02418598 -0.040161673 -0.019880868 -0.03721731 -0.005995489 0.087290846 0.045740265 -0.044792533
0.033701826 0.057722233 0.040745657 -0.0013832201 0.039624393 0.09199255 0.08456032 -0.06612402
0.031154329 -0.005556595 0.021087814 -0.013129781 -0.005187275 0.0891513 0.045914996 -0.050484724
0.04101335 0.019151641 -0.022326149 -0.01863439 0.065033615 -0.062213846 0.06736066 -0.075181596
-0.047500633 0.013111336 -0.06215431 0.108428866 0.02570632 -0.023692094 0.0797258 -0.05029281
0.03683158 -0.020445399 -0.023399303 0.0056718118 0.075626865 0.057459146 -0.034832258 0.072428696
-0.0014133934 0.030552287 -0.030967956 -0.07289998 0.078035064 0.0964287 0.016195336 0.006911828
0.05869583 0.08805428 0.048617713 0.012592202 0.07762874 -0.0027979596 0.088206485 0.06617931
0.081887715 -0.0012483273 0.013938716 -0.037151057 -0.05463801 0.09284448 0.0010391115 -0.023587761
-0.058209438 0.01166496 -0.05190337 0.03690444 -0.016074108 -0.032952823 0.07630333 0.046790972
-0.04591056 -0.00872045 0.0073934915 0.08388553 0.0149322525 -0.037713204 0.014457903 -0.02805653
0.019646158 0.08192396 0.10102679 0.024598103 -0.01859669 0.0843214 0.064328134 0.08666547
-0.051506046 0.03693585 -0.03043236 0.04548132 -0.035323314 -0.07866717 0.010846805 0.05816056
-0.053355288 -0.017576445 -0.012439199 -0.035876784 -0.061213147 -0.016189843 -0.06101836 -0.03507659
-0.03329871 0.06638218 0.05814883 0.030002553 -0.058543954 -0.079941265 0.045334365 -0.065367445
0.056049064 -0.008208394 -0.058780078 -0.051455993 -0.0684796 0.075842395 0.009795826 0.08739873
-0.0206099 0.04625319 -0.065377854 0.05078184 0.016756333 0.09565399 -0.030971834 0.014213981
0.024986954 0.002161657 0.07840676 0.01249842 -0.022572747 -0.003402454 0.045576047 0.03741822
0.048340578 -0.043867793 0.07748452 0.1020734 0.0065581524 -0.0431185 -0.07350795 0.045516293
-0.041455876 0.036426634 0.017889377 0.045698892 -0.067227766 0.07403483 0.025866559 0.0991218
0.013047259 0.07330527 -0.0063194707 0.008622835 0.05774164 0.07749172 0.027190875 0.022935659
0.024600195 0.04250451 -0.015864484 0.015168779 -0.0625701 -0.067052774 0.07122418 -0.02500045
0.01650393 -0.06171777 -0.047957443 0.029353743 0.02278025 -0.019015405 -0.047918644 -0.031159889
-0.046685826 0.038876392 -0.059048176 -0.062593855 -0.043422606 -0.026595764 0.06881342 0.10473897
0.048901096 0.08433885 0.058514547 0.062420882 0.09944671 -0.015868613 0.0037154765 -0.07309023
0.056598607 -0.08408739 0.005894173 0.064382784 -0.032490958 0.06627708 0.06332352 0.009746819
0.06666249 -0.05308076 -0.017891359 0.06773614 -0.027029429 -0.031455245 -0.04279889 -0.06276277
0.020261222 -0.058340292 -0.0019733778 0.07584371 0.011999213 0.0284779 0.030958802 0.0091472855
-0.03591138 0.03372428 -0.07442162 -0.06221752 -0.02441271 -0.0038138474 0.025996126 0.059508763
