checkpoints/North-West/best_model.pth (torch, 81193 bytes, 5 tensors)

lstm.weight_ih_l0 f4 [256, 11]
00000000: 7ff3 553d 31f5 6d3c 9eca 47bd ace0 c3bd
00000010: 4bb4 f93d 324f 93bd 35dd d8bd 9dcb 83bd
00000020: 066f c0bd d4f2 8c3d aa7c cebd 0d1b 0b3e
00000030: c7fc 1a3e 6dd4 04bc fa90 013c 9b47 1c3c
00000040: 1531 b23d 9352 debd 073d dc3d fe79 063e
00000050: 0e90 03be 1b9f ccbd 7174 3abd 15c7 df3d
00000060: cace 8d3c 16a5 e43c a218 233d 16c6 df3d
00000070: 6efe 5dbd 64a4 e6bc 60af 9c3d 85bd a0bd
00000080: 8a06 263d 8eb9 6cbb 3eb7 583d da25 55bc
00000090: cb52 58bd fe67 ba3d cff7 163d c98e 2d3d
000000a0: 8301 4c3d 117c 8abc 72cf 603d b76a c1bd
000000b0: 4d8c f03d 9b82 2bbd 1c15 6cbd 98ee bd3d
000000c0: 906e 48bb 8bdc 7a3d f18c 7fbd 0247 95bd
000000d0: 4420 863c fac2 883d 4525 92bc 53f5 0bbd
000000e0: e255 d2bb ece6 10bd 8746 63bd 2071 e93d
000000f0: 493f 263e fc1f 2e3d cb31 903d ca78 49bc
00000100: 83a4 e0bd 820a d53c febe 65bd cae7 e33d
00000110: ca9b 0cbd 7241 f93d 6638 133d 36ec b6bc
00000120: 44c6 03be 3f53 8bba 86ef 933c 44f4 c4bd
00000130: 390b bdbd 04b8 d5bc 2878 9bbc c74b 72bb
00000140: c3e8 223e 70ac e3bc ffa6 4f3c a312 e8bb
00000150: 4e71 853c 4ebb a3bd 58ae 953d 156d f7bd
00000160: f1f7 1f3e 8b43 0f3e 7675 f13d 83c1 41bc
00000170: 8d47 603c 612a 413d ab75 f33a 8a68 de3d
00000180: 4748 d03b 6268 e5bd a243 4e3d 7407 b8bd
00000190: bf2b 093d e3ed fd37 2140 e03d 30e0 f8bc
000001a0: e792 273d 468f 85bc a6c4 64bd 8571 1cbe
000001b0: 144d 6fbd 9d62 1fbd 7b60 633d 28be ddbc
000001c0: 8fa4 723c 6d10 a8bd 97bf ee3d 2af1 05bd
000001d0: 1d27 933d 25a6 2d3e a0ea 103d bab7 9bbd
000001e0: b75c cdbd 9b2d 21bd 3a7e 163d f640 243c
000001f0: ec34 453d a0db d6bc e313 bf3d cf2c e83d
00000200: cca2 69bd 6a29 113c 1fd4 9cbd f7c1 e8bc
00000210: afe6 49bd e4f0 6abb 5f64 913c ffd7 a6bd
00000220: 0606 c13c 54f2 cc3d 0697 6d3c 120d c13d
00000230: dafb 49bd cd3e 843d a082 123e 5bd4 de3b
00000240: 34fd 19bd ede3 a1bc 7854 e7bd 4201 0a3d
00000250: 3980 403d e8ba b8bd 0999 f73d 9097 623d
00000260: 0f8a 1dbd 6839 82bd ceee 6bbd 54cc e639
00000270: afb6 bb3d d428 0e3e 1ea5 1cbd f247 ed3d
00000280: 7835 f03c 76b7 0a3d 28a8 863c 5d87 693c
00000290: d254 b33d d995 abbd 9bc1 0f3d 568f 893d
000002a0: ecb8 babc 107c c0bd f095 b73d c69d eb39
000002b0: d2a0 5fbd 4e7e bdbc bc10 913d cb5c 8dbd
000002c0: 2593 2c3d 8574 b13c b703 a03d c78e 76bd
000002d0: 9193 bcbd ec5a 9abd 8b68 86bd 11a0 793d
000002e0: 378e 12bd 13b7 5a3c 6099 273d 55b7 9fbd
000002f0: 2da0 ab3d e278 81bd 280c 7d3c 00b9 7ebd
00000300: 52e8 8cbd 0a82 d6bc dd7e e7bc 4fd7 66bd
00000310: f6cb b43d 00a1 003e eed9 853b 8644 e3bd
00000320: 2e65 f2bc dd0e df3d b2a3 873d f0e9 ab3c
00000330: 45be be3d 9de1 303b d0c6 143d 2982 ab3c
00000340: 9c3d b73d 4a99 5cbd e91e 883d 6804 c53c
00000350: d4e5 c93d 20ea 98bc 820e cbbd 70dc 0a3c
00000360: a0d2 98bd d08b a5bc bbed 60bd 8847 0bbd
00000370: 79c5 45bd 8005 e93d 6319 e13d df12 a4bc
00000380: ac9c ec3d 441a 60bd c410 a6bd 45cb 8d3d
00000390: 069f 2d3d ca6b 93bc 5c41 123d 5296 0ebb
000003a0: 3e5a fc3c 51ea 993d b2f9 dc3c b211 e33d
000003b0: 1ec1 c6bd da91 7dbc 57f5 96bd 08b1 28bd
000003c0: 1099 17bd 1c47 853b ea0e 8238 ee99 0b3d
000003d0: d188 4e3d 9dfa 3abd 25f4 8e3d 8649 d23d
000003e0: 8e19 d73c 4832 53bd c4e6 d2bc 4dd0 c6bc
000003f0: 454e ce3c d7b1 a93d c31e c43d dfe6 553d
0.05223417 0.01452379 -0.048777215 -0.09564337 0.12192591 -0.0719284 -0.10589067 -0.064353205
-0.09396176 0.06882253 -0.100823715 0.13584538 0.1513549 -0.008107287 0.0079081 0.009538556
0.08700768 -0.108555935 0.107538275 0.13132474 -0.12847921 -0.099912845 -0.045521203 0.10926644
0.017310519 0.02791075 0.039818414 0.10926454 -0.05419772 -0.02815456 0.076506376 -0.07848648
0.04053358 -0.0036121341 0.05290913 -0.013009513 -0.052813333 0.09101866 0.036857422 0.0423725
0.04980613 -0.016904863 0.054885335 -0.09444182 0.1174551 -0.041872602 -0.05763732 0.09274024
-0.0030583479 0.061245482 -0.06239027 -0.07288934 0.016372807 0.06677814 -0.017840037 -0.034169506
-0.0064189294 -0.035376474 -0.055487182 0.1139853 0.16235079 0.04251097 0.07040747 -0.012296865
-0.10968878 0.026005987 -0.056090347 0.11128195 -0.03432826 0.12170686 0.035942458 -0.022329431
-0.12868601 -0.0010629668 0.01805855 -0.096169025 -0.09230656 -0.026088722 -0.018978193 -0.0036971436
0.15909104 -0.027792186 0.012674092 -0.0070823 0.01628938 -0.0799471 0.07308644 -0.120813526
0.15621926 0.1399061 0.11789982 -0.011825922 0.013688934 0.047159556 0.0018574496 0.10859783
0.0063562724 -0.1120155 0.05035747 -0.089857966 0.033488985 3.0270725e-05 0.109497316 -0.030380338
0.04091158 -0.01630367 -0.0558516 -0.1527768 -0.058423117 -0.038912404 0.055511933 -0.027068213
0.014809742 -0.08206258 0.116576366 -0.032700695 0.07185195 0.1695791 0.035380006 -0.076034024
-0.100274496 -0.039350133 0.036741473 0.0100252535 0.048146173 -0.026227772 0.09329965 0.113366716
-0.05704002 0.008859972 -0.076576464 -0.028412802 -0.049292263 -0.0035849148 0.017748056 -0.08146667
0.023562443 0.10007158 0.014501339 0.09426321 -0.04931245 0.06457291 0.14307642 0.006800217
-0.03759499 -0.019762004 -0.11295408 0.033692606 0.046997283 -0.090200245 0.12089736 0.055320323
-0.03846174 -0.063586056 -0.05760079 0.00044021255 0.091657035 0.13882762 -0.038243406 0.11585988
0.02932237 0.03386637 0.016437605 0.0142534645 0.087564126 -0.083781905 0.035096746 0.06716792
-0.022793256 -0.09398663 0.08964145 0.00044940243 -0.05459673 -0.023131516 0.0708327 -0.069024645
0.042132515 0.021662006 0.078132086 -0.060194757 -0.092078336 -0.07536873 -0.06562909 0.060943667
-0.035780158 0.013349312 0.040917754 -0.0779864 0.083801605 -0.06321885 0.015444793 -0.06218815
-0.06880249 -0.026185054 -0.028258735 -0.056357678 0.08827965 0.12561417 0.004084817 -0.11097054
-0.029589262 0.10891507 0.06623019 0.020985574 0.09313635 0.0026989945 0.036322415 0.020936089
0.08947298 -0.053857125 0.06646521 0.024049953 0.09858289 -0.018666327 -0.099148765 0.008475408
-0.074620485 -0.02020827 -0.054914217 -0.034003764 -0.048284028 0.11378002 0.1099117 -0.02002853
0.1155332 -0.05471255 -0.081086665 0.06923536 0.042387985 -0.017995734 0.035706863 -0.0021757078
0.03080475 0.075153954 0.026974533 0.110873595 -0.09704803 -0.015476668 -0.073710136 -0.041184455
-0.037011206 0.004067315 6.201661e-05 0.034082346 0.050423447 -0.04564916 0.069801606 0.1026793
0.026257303 -0.051561624 -0.025744803 -0.024269247 0.025183806 0.082858734 0.0957618 0.05222213

lstm.weight_hh_l0 f4 [256, 64]
00000000: 26ca d7bd a622 2bbd d7d8 4a3c a5cd 813d
00000010: fe0d 9a3d 56bb 83bb dde3 2fbd b4f6 57bd
00000020: abeb 8ebd 70bd 5bbc a799 47bd 5258 fabc
00000030: 4211 af3d 3ce3 a8bd 3344 94bd 028f d73c
00000040: 8c52 8abd 9f11 0dbd bac1 623c ab91 6a3d
00000050: 88cb 94bd 3c02 4ebd 6d2b 953c d3a2 fd3c
00000060: ceb8 e63d e7e1 89bd 8cda 933d ebc2 6ebd
00000070: 923c 083e 116a ad3d 2066 cf3c b788 41bd
00000080: 535b 793d 108f 6b3d 7bb0 183d bc7e bebb
00000090: 4ff9 19bd 5fe4 b1bc 0059 e3bc 1ed4 943c
000000a0: 950d 333c f871 ba3c 9512 f0bd 15f5 dc3c
000000b0: ff70 53bd 86a0 8e3d 562f 283c 39c3 80bd
000000c0: 616a 6f3d 5371 21bd 8829 18bd 1e47 293d
000000d0: 907e c23d dd9e e0bd 9652 c13d 2b8a 5bbd
000000e0: 94b0 823d 4114 493c 3392 843d 914f c93d
000000f0: b840 cc3d 345d 833c ef39 82bd 7f70 6fbd
00000100: d6d0 b4ba 9871 c5bd 1ca9 56bc 903e 223d
00000110: ebbb 9c3c a8f4 db3c f4f5 efbb 684d 6e3c
00000120: 7030 03bd 2cc4 c1bd a2ed 0a3d 8373 f3bc
00000130: 1804 493d 055c f1bc 2fb4 53bd 6a75 323d
00000140: a76a 013c 9a6c bb3c 391c 05bd 408a 923b
00000150: e3e9 5e3d 0948 0a3d 418e 543d 50e3 c43c
00000160: f70b e53d cbb8 0a3d d4f4 8b3c 5263 753c
00000170: 20f7 91bc 4669 9fbd df1a 70bc f354 6abc
00000180: 2c32 0dbd 045e c63d e09c 60bd 55d8 9bbc
00000190: ed88 4abb 6003 d03c 3d50 ba3d 2584 0bbe
000001a0: 1c96 023d 2923 a03c 2935 82bc b23f febc
000001b0: 0088 d03b 37b6 55bd 6c0d 9b3c 6629 b5bb
000001c0: d176 c9bd 451d a0b9 f56f 79bc a5ee d3bc
000001d0: 571b 9bbd d917 4abd c569 bc3d 22c0 4a3c
000001e0: f9c6 13bd 5031 a33c a77c 70bd 8344 303c
000001f0: 3835 88bb f116 8c3c cce5 0fbd 8299 d6bc
00000200: aabc acbd 7516 10bd 607e a5bc f6ea f5bc
00000210: b858 2a3d 445f cb3d 4a5a 46bd f935 c6bc
00000220: 8e87 8bbd 8723 093d cb1f 623d 560e 61bd
00000230: e178 273c ccce 013d 84ee 263b 1aff 43bd
00000240: d700 333d d99f e0bc eb13 c5bd b8a5 e23c
00000250: 337a 933d 7bf4 aebd ca13 b83d 457c a03d
00000260: 14ef f23d 3206 f43d bc11 b93d 7b52 a2bd
00000270: 3d92 0a3e 013a e3bd 503a 1abd a301 93bb
00000280: 6915 623d b1f8 453a 4d7b 4a3d 50d1 cfbd
00000290: e452 91bd 902f 9b3c 4bb7 83bd 8c00 7c3d
000002a0: 10e5 583c 0696 b5bc 51a6 5ebd beff 4f3d
000002b0: 7cc5 343d 6718 573b 181e 7a3d 501d 463d
000002c0: 7fe9 3b3c 6134 833b 9e1d b03d 0f7b f83d
000002d0: 19e7 e43d 48e0 cc3c 7411 85bc 45f4 5e3d
000002e0: cb56 a1bb 3499 dbbd 7277 9ebb 7ba0 9d3d
000002f0: d6c9 31bd f7b8 10bc de20 f7bd d912 9d3d
00000300: 076f 973d ddfa 6abd b4b1 6a3d 1b5b 04bc
00000310: e4be a3bc 1de8 7fbc b4d6 7b3d 5dda afbc
00000320: bf71 ce3d e96d a2bc 6e6d edbc 4d96 0e3d
00000330: 68c2 983d 5ae6 62bc c85d a1bc 818b 153d
00000340: a731 233d ac27 a13b 2833 a73d f59a 893c
00000350: c1d0 dfbc 2f4d 60bd 81a3 97bb 6474 b4bc
00000360: 8c79 d7bc f428 f43b aa60 613d 1535 21bd
00000370: 27e9 0e3b 2e24 bb3d 2291 4dbd d6da 393b
00000380: dfd7 06bd 0112 c2bc fe49 0f3d 1b1e a43c
00000390: 2424 b3bc ec4c 493b 53f5 1abd 2f84 cc3d
000003a0: ff47 a73d 6bb4 7e3c b268 e33c 15f3 81bd
000003b0: 7501 893d 54fc 543d dcdd 693d 1968 12bd
000003c0: 0c13 d63c b155 a1bb b58a ae3c df1c 093d
000003d0: 4438 a53b f3f8 293c 95a1 c73c 405b 56bd
000003e0: e2eb 0b3d da6a 16bd c02c b9bc 730b 7bbd
000003f0: d5c0 e0bc efcf f4bb 070f 07bd 47fa 983d
-0.10536604 -0.04178109 0.0123808 0.06338052 0.075222 -0.004020135 -0.042941917 -0.05272551
-0.06978544 -0.013411865 -0.04873052 -0.030559693 0.085482135 -0.082464665 -0.072395705 0.026313309
-0.06754026 -0.034440633 0.013840133 0.057267826 -0.07265383 -0.0502951 0.018209184 0.03096143
0.112657174 -0.067325406 0.07219419 -0.058291357 0.13304356 0.08467496 0.025317252 -0.047249522
0.06087811 0.057509482 0.03727768 -0.0058134478 -0.037591275 -0.021715341 -0.0277524 0.018167552
0.010928531 0.022759423 -0.11722294 0.026972333 -0.051621433 0.06964211 0.010265192 -0.06287236
0.05845106 -0.039414715 -0.037148982 0.04132759 0.09496796 -0.10967801 0.0943958 -0.053598564
0.06381336 0.012272895 0.06473198 0.09829629 0.099732816 0.016035654 -0.06358706 -0.058456894
-0.0013795148 -0.09640807 -0.013101842 0.039610445 0.019132575 0.02685006 -0.007323021 0.014544822
-0.032028615 -0.09461245 0.03391803 -0.029718166 0.04907617 -0.029462824 -0.05168551 0.043569006
0.007898963 0.022878934 -0.03249762 0.004472047 0.05442227 0.033760104 0.051893476 0.024034172
0.11183923 0.03386764 0.017084517 0.014977293 -0.017818034 -0.07783751 -0.014654844 -0.01430248
-0.034471676 0.09685901 -0.054837108 -0.019024054 -0.0030904368 0.025392234 0.090973355 -0.13624628
0.031881437 0.019548016 -0.01589449 -0.031036232 0.0063638687 -0.052175727 0.018927298 -0.0055286167
-0.098371156 -0.00030539386 -0.015224447 -0.02587063 -0.07573574 -0.04933915 0.091998614 0.01237491
-0.036078427 0.019920975 -0.058712628 0.010758522 -0.004156735 0.017100783 -0.03513126 -0.026196245
-0.08434422 -0.035177667 -0.020201862 -0.030019265 0.041588515 0.0993028 -0.04842595 -0.024195658
-0.068129644 0.033481147 0.0552061 -0.054945312 0.010221691 0.031691357 0.0025471756 -0.047850706
0.043701973 -0.027419971 -0.0962294 0.027666911 0.07201042 -0.08542725 0.089881495 0.078362025
0.11862007 0.11915244 0.09036586 -0.07925888 0.13532348 -0.11095048 -0.037653267 -0.004486279
0.0551962 0.00075520115 0.049433995 -0.10147345 -0.07095888 0.018943578 -0.06431445 0.06152396
0.0132382065 -0.022166263 -0.05435783 0.050781004 0.04413365 0.0032820941 0.061063856 0.0483678
0.011469244 0.004004047 0.08599399 0.121328466 0.11176891 0.02500929 -0.016243674 0.054432172
-0.0049236766 -0.107225806 -0.0048360163 0.07696625 -0.043405376 -0.008833162 -0.12066816 0.076696105
0.07394224 -0.057368148 0.057298377 -0.008078362 -0.019988485 -0.015619305 0.061484054 -0.021466428
0.10080289 -0.0198278 -0.028982844 0.034811307 0.07458955 -0.013848865 -0.019698039 0.036509994
0.039842274 0.0049180593 0.08164054 0.016797522 -0.027321221 -0.054761108 -0.0046276455 -0.022028156
-0.026303075 0.007451171 0.055023827 -0.039357264 0.002180645 0.0913776 -0.050187238 0.0028359196
-0.032920714 -0.023690226 0.034982674 0.020033887 -0.02186782 0.0030716015 -0.037831616 0.099861495
0.08168029 0.015545945 0.027759884 -0.06345192 0.06689731 0.05199845 0.057096347 -0.035743807
0.02613213 -0.0049235453 0.021306375 0.0334748 0.005042108 0.0103742955 0.02436904 -0.052333117
0.034160502 -0.036722995 -0.022604346 -0.061290216 -0.0274357 -0.0074710767 -0.032973316 0.074696116

lstm.bias_ih_l0 f4 [256]
00000000: f547 91bc d468 003e 283d 8d3d 2c74 b9bc
00000010: 3353 5f3d d1e9 8bbd b337 023e 3107 2c3e
00000020: 9b87 103e c617 a8bc 6c34 a73d 9c01 bdbd
00000030: aa30 19bd 6afb 0aba 38f2 ddbc 1468 c23d
00000040: 6b9d 54bd 2274 ffbd ef71 113e 7b7e 333b
00000050: bed7 063e 25f7 70bd 67c7 e6bd 6c42 80bd
00000060: e6cf 393e dd64 32bd 1c20 b53d 2478 d6bc
00000070: b09c 9b3d acad 273b 03b9 a33d 1bfe 08be
00000080: 8634 98ba 8013 0b3e 60b3 093d c6bb 093d
00000090: cbf8 083e e714 f33c 876a fb3d af6c 3f3d
000000a0: 0ada 253e 2c3c 38bd a377 86bc d2da b33a
000000b0: 72f5 083c bbb0 8ebd cf8e 44bd 0885 3dbd
000000c0: 3857 4fbd fb73 973d a7bd 01bc a3b2 d33c
000000d0: e184 183e fe95 4a3d 8196 c23d 8cc9 0abd
000000e0: a2b3 a73d 3aef b3bd 17f6 b63c 088f bb3c
000000f0: 0715 2e3d 7d4a 8fbd befe 8a3c 6051 943d
00000100: f3ff c33d f842 8ebb 4159 d9bd f16a edbd
00000110: 2cf6 a93d 5241 bd3d 1317 5db8 4f7c 0dbd
00000120: aa85 c4bd ec9d 843d c0be a0bd 6c7b a63d
00000130: 3f80 6dbd 1412 e7bc 2d47 493d 1a18 d3bc
00000140: 787d 98bc 0944 073d 7ed6 9d3d d1a7 e23d
00000150: 4e94 5abd 75ea c6bd 81f2 bdbd cad4 80bd
00000160: 61c1 683d 404c 99bd 92f3 cebb 8dbd a1bd
00000170: ef90 90bd afb2 153e 876a 8d3c fe69 7bbd
00000180: e95e 183e ace3 cf3c dc38 e5bd 7bb1 8a3d
00000190: 0953 873d b5ed 90bd 64ec 253e d5a8 2abd
000001a0: 0c6c 5b3d 8424 c43d cb5f 4cba fb7a 763d
000001b0: b227 15ba d2ed ad3d 3144 bebd 1e97 e53d
000001c0: adfc 513c 0009 a8bd a901 5a3d 9feb 86bd
000001d0: 16ba 23bd 0b3d c6bd 5011 1f3e 2105 c6bc
000001e0: bdc9 243d 4831 67bd 0dac e03d fbb9 95bc
000001f0: 14f2 cc3d 7351 d53d 8241 263d 6cf4 fa3d
00000200: bf3d 1abe 7fed 6d3d 91fc a43d a9eb eebd
00000210: 55fa b7bd bd2d ff3d c1f1 b93c 32f6 0bbb
00000220: a178 833d b328 d9bd a05a 9fbd 4dd3 9c3d
00000230: 925f 8c3d 5750 cfbd f7d2 95bd 5088 d6bd
00000240: e5b9 2e3d de0b 453d 8854 cfbd f5cd c6bc
00000250: 70d0 b2bb 3595 be3d fb5d 113d 31c7 913d
00000260: bd85 c83d 7fb3 0c3d a8c2 27bd 8fc3 8fbd
00000270: fa4a 97bb 69fb c5bd 4a7c 8fbc 282b 12bd
00000280: 30b8 ecbc 1521 a43d 098a 853d c080 e5bc
00000290: f543 0dbd 73ef cb3d c3eb c9bc 1d06 a6bd
000002a0: 6ec0 863d 13d7 76bc d4c5 f6bd fa08 963d
000002b0: 8e4e 74bd f357 cb3d c158 e03b 2980 b23d
000002c0: 9481 ae3d 7683 d4bc fc5b 9e3d 838b b8b8
000002d0: 50c5 003d c886 46bd 4dee bcbd eba1 23bc
000002e0: 89bd f7bd 5e31 3d3d 9938 e4bd 8897 13bd
000002f0: 0f66 99bd 68bc 9c3d 35dc 10be c5f7 913d
00000300: c929 893d 566e 1ebd 50be 34bd c428 413c
00000310: e37b db3d b503 04bc 75a9 033e 6cbf 09bd
00000320: 4bab 943d fe80 03be cdc9 203d 32d0 b03c
00000330: 7ee4 953b 201b e2bd 8d4d 15bc da3b a73d
00000340: 2379 bd3c 1809 973d c3d2 813d 3959 543d
00000350: 1d93 a83d 9705 97bc db51 333d 7938 403d
00000360: 92a2 173e facd 373d 169b 7c3d 7335 e0bd
00000370: 5ae0 b3bd b0c1 063e d053 15bd a244 a0bd
00000380: 4fad baba 39f3 0d3e a621 f6bd b360 b13d
00000390: e077 bd3d feff a3bc 49e9 82bd 20f5 113e
000003a0: b3ef dc3d a572 35bc 6325 053c 5b06 493d
000003b0: 3f2a dabc 5cf7 0f3e 5f05 21bd faff bcbd
000003c0: 635b 4d3d 1737 573c 32bf 9c39 03ab e1bc
000003d0: b57c 353d f866 cb3c be4b 873d 1db9 c2bd
000003e0: 3d36 923d 650e ec3d fd14 a73d a300 9bbd
000003f0: 5b4b 36bd f28e a5bd cfb2 0d3e 5783 d3bd
-0.017734507 0.12539989 0.0689643 -0.022638403 0.054522704 -0.06831706 0.1271656 0.16799618
0.1411423 -0.020519149 0.081642956 -0.092288226 -0.037399925 -0.0005301746 -0.027093038 0.094925076
-0.051907938 -0.124733225 0.14203618 0.002738862 0.13168237 -0.058829445 -0.11268502 -0.06262669
0.18145713 -0.043553222 0.08844015 -0.026180334 0.07598245 0.0025585694 0.079942726 -0.13378184
-0.0011612333 0.13581657 0.03361833 0.03362634 0.13376157 0.029673053 0.12276178 0.046734508
0.16196457 -0.04497926 -0.01641447 0.001372183 0.0083593 -0.069673024 -0.047987755 -0.046269447
-0.050620288 0.073951684 -0.007918752 0.025842017 0.1489444 0.04945945 0.095013626 -0.033883616
0.08188559 -0.08785863 0.022334142 0.022895351 0.042500522 -0.069966294 0.016967174 0.072420835
0.09570303 -0.0043414794 -0.10612727 -0.11592663 0.08298907 0.092409745 -5.2711996e-05 -0.034542378
-0.09595807 0.06475434 -0.07848883 0.081290096 -0.057983633 -0.028206863 0.049140144 -0.025768328
-0.018614516 0.033023868 0.07706927 0.11067165 -0.05336409 -0.09712688 -0.092747696 -0.06290586
0.056825045 -0.07485247 -0.006315657 -0.07897482 -0.07058894 0.14618944 0.01726271 -0.06138038
0.14879955 0.025377117 -0.11192486 0.06772133 0.066076346 -0.07076589 0.16203457 -0.041664917
0.05356984 0.09577277 -0.00077962567 0.060175877 -0.0005689814 0.08492626 -0.0929035 0.11210464
0.01281659 -0.082048416 0.05322424 -0.0658791 -0.039972387 -0.09679612 0.15533948 -0.024172368
0.040231455 -0.056443483 0.10970316 -0.018277159 0.1000711 0.10415926 0.040589817 0.12253651
-0.15062617 0.058087822 0.08055986 -0.11666042 -0.08983294 0.12459896 0.022698285 -0.002135646
0.064194925 -0.10603466 -0.07780957 0.0765749 0.06854166 -0.101227455 -0.07315629 -0.10475218
0.04265775 0.04810702 -0.10123545 -0.02426813 -0.0054569766 0.09305803 0.035490017 0.07118071
0.097911336 0.03435087 -0.040957123 -0.07019722 -0.004617092 -0.09667093 -0.01751532 -0.03568569
-0.028896421 0.080141224 0.06520469 -0.028015494 -0.034488637 0.09957781 -0.024648553 -0.08106635
0.06579672 -0.015065926 -0.120494515 0.07325931 -0.059645228 0.09928884 0.006846518 0.08715851
0.08520809 -0.025941592 0.077323884 -8.79979e-05 0.031438172 -0.04846838 -0.0922514 -0.009987335
-0.12096698 0.04618966 -0.11143608 -0.036033183 -0.07490169 0.07653123 -0.14146502 0.071273364
0.06697423 -0.038679443 -0.04412681 0.011789504 0.10716989 -0.008057524 0.12857611 -0.03362982
0.07259234 -0.12842175 0.039254952 0.02158365 0.0045743575 -0.1104033 -0.009112728 0.08165713
0.023129052 0.07374781 0.06339028 0.0518429 0.08231185 -0.018435283 0.043779235 0.046928857
0.1480811 0.04487417 0.06167134 -0.10947695 -0.08783026 0.13159823 -0.036456883 -0.07825591
-0.0014242324 0.13862313 -0.12018137 0.08661022 0.0925138 -0.020019528 -0.06392152 0.14253664
0.107879065 -0.011074697 0.0081265895 0.049078327 -0.026631473 0.14059204 -0.039311763 -0.09228511
0.05013598 0.013135693 0.0002989709 -0.027547365 0.044308383 0.024829373 0.066062436 -0.09507964
0.071392514 0.11526183 0.081583 -0.07568481 -0.04450546 -0.08083905 0.13837741 -0.103277855

lstm.bias_hh_l0 f4 [256]
00000000: 23e7 03bd 8b8e 14bc 30fd 37bc 5c29 743d
00000010: d8f8 c5bb 692d a63c 9b47 fc3d 86de ef3d
00000020: f3e4 69bd a3dc bcbd 1de0 d63d 0417 7a3c
00000030: 139e 04bd dcaf 143d c967 40bd 35e7 d7bd
00000040: 2505 6a3d 980a 603d a9c1 193e 8660 d2bc
00000050: 35da d03d 6ed4 e53d 4d03 503d ec6f 723d
00000060: b6b3 da3d fdf6 af3d 39a0 a4bd 3eb3 c23d
00000070: 5be6 0a3e 0393 9fbc a7c3 743c d1b0 c6bd
00000080: fede 46bd 9afd 16bd 3a20 5cbd 338b de3d
00000090: 5b58 dc3d 1cf1 51bd afe1 193e 55ea a5bb
000000a0: 5145 073e 83f7 a4bd b2a4 ae3d d951 75bd
000000b0: 18ad cb3d 2881 73bd 9b79 39bd 41ea 12bd
000000c0: 5904 a7bc 5be4 1f3e e03d f7ba f867 913d
000000d0: 19d7 123e 8d7a aebd 6e4a ed3d 7400 de3c
000000e0: 8fe7 073c 2b55 a5bd d3c6 cf3c bc42 0ebc
000000f0: 2507 5a3c f54f b0bd 268e 433d 13ae ec3d
00000100: 538a 79bd ef30 6d3c 6eac af3d eb30 45bc
00000110: b20b db3d c27a c8bd fdb9 8a3d cb83 a8bd
00000120: 4ff5 c43d 56a2 043d b89e 843d 1234 b6bd
00000130: 9be7 bbbc 596a 733d de24 a8bd c057 043d
00000140: 07a5 8cbd 51af c1bd 614c b0bd 001c c4b9
00000150: 4146 a6bd 7230 c9bd 1e73 86bd e515 8e3d
00000160: b22f b53d 4a72 3b3c d2bb dcbd 53a9 f73d
00000170: 8add 8cbd 55e1 9fbc b3d2 0ebe d1cb 363d
00000180: d74e d13d e4dd 15bc 4fab d7bd 56d0 183e
00000190: 29ba b6bc f7ec 8dbd a193 d338 bfa0 b83d
000001a0: aa15 8cbd 37ea 4d3d 8309 943d 2142 8b3d
000001b0: a490 2e3d c24f 1b3d 2d23 cbbd 4dda 963d
000001c0: 7dcc 9e3d 022c 1b3e ae6d 493d 11f1 013e
000001d0: 167a ad3d 1164 23bd 9ac9 14bd 3981 db3d
000001e0: 3fd0 fdbd 80c6 823d e7ea 183e 47e5 233e
000001f0: 6e81 8fbd 89d6 923d af6b ebbc ecec e83d
00000200: eb22 1c3c 8543 d7bd 0065 36bd a5dc f8bc
00000210: 4c36 bdbd 9ae7 7fbd c5e4 29bd 3345 dfbd
00000220: 5add 4cbd c487 82bd e7e2 cabd 9a53 b2bd
00000230: 1aa5 823d 0854 04be a42d 093d d39c 913c
00000240: cf09 843d 53a0 e83d 7e37 18bd 845f b0bd
00000250: b880 1dbd ab43 cabd 4d36 0abc 05aa 17be
00000260: c51e 53bd 6f55 553d 187f d23d 41ad 1e3d
00000270: c347 013e 1a7d abbd 0354 743d 0f55 90bb
00000280: 8a48 b5bb 6c36 68bc 879f 48bd 019c f3bd
00000290: 6165 433d bd3b 19bd 6dbd 09be f80f b5bd
000002a0: fad2 fd3d 2720 9a3d 8cbb f2bd d3c5 8dbc
000002b0: da83 92bd 1dfb f5bd 0317 1d3d 84ba 9d3d
000002c0: 353e 06be 0e55 f43c 70b3 203d f86d 1bbd
000002d0: faec a3bd c9df dcbd 8085 aa3d e4eb 073e
000002e0: b838 cb3b b7f7 b5bd 70d2 b93d b24a 66bd
000002f0: dc12 03be e8bd 7cbd fa6f 1a3d be86 05be
00000300: 894a 2a3d 014e 2e3d fb17 e53c 0097 5abc
00000310: 7209 9d3d b2bd 033e 2d3a dbbc a266 633c
00000320: c734 e03d 1df4 803d 5506 bcbc fa9b 41bd
00000330: 4090 01bd 3cdb 383d cebb 103c 878e 063d
00000340: bb15 c2bd b166 82bd 386f 013e 4cd8 e93c
00000350: 6b59 433c c53b b8bc 929b e1bc 5163 dc3c
00000360: 48e3 083e 26b1 2e3d b9d2 16be 9dbe d93d
00000370: 45a0 62bd 9828 0e3e afaa ee3c 244d d2bd
00000380: c210 163c 453f ccbc a12f 253d 80c9 58bb
00000390: ab0a fb3d b194 c1bd bef2 b43d 29cf 593d
000003a0: 6c46 6b3d 0c6c 993d 6e0e 573d 317d 173d
000003b0: 0f44 8d3c d99b 743d bf5d b9bd b9b1 c33d
000003c0: bdc9 5abc 9f93 5f3a b97f bd3d 3df3 e23d
000003d0: f57f a23c 7175 06bd 8789 96bd ad2c d43d
000003e0: 25f8 42bd 581f a6bd ebef 3b3c 5883 933d
000003f0: dc35 ca3d 5f48 9f3d ffea 7abd abc9 d53d
-0.03220285 -0.009067188 -0.011229798 0.059609756 -0.0060416274 0.020285325 0.12318345 0.11712365
-0.05710311 -0.092217706 0.10491965 0.015264276 -0.032377314 0.036300525 -0.046973977 -0.10542146
0.057133812 0.054697603 0.15015282 -0.025680792 0.1019787 0.11222158 0.050784398 0.05918877
0.106788084 0.08592031 -0.080383725 0.09506844 0.13564436 -0.01947928 0.014939225 -0.09701694
-0.048552506 -0.036862947 -0.05374167 0.10866394 0.1075904 -0.05125533 0.15027498 -0.005063335
0.13210036 -0.080550216 0.08527507 -0.05989251 0.099451244 -0.059449345 -0.045281988 -0.035867933
-0.020387815 0.15614454 -0.0018863045 0.070999086 0.14339866 -0.085194685 0.11586462 0.027099825
0.008294954 -0.08072885 0.025363361 -0.008682903 0.013307367 -0.086090006 0.047742985 0.115566395
-0.060922932 0.014476999 0.0857781 -0.012035589 0.1069559 -0.09789039 0.06773756 -0.082282625
0.096171014 0.032381378 0.06475586 -0.088966504 -0.022937587 0.059427593 -0.08210157 0.032310247
-0.06867414 -0.09457267 -0.08608318 -0.00037404895 -0.081188686 -0.09823693 -0.065649256 0.0693777
0.08846988 0.011440823 -0.107780114 0.12092843 -0.06878193 -0.019516626 -0.13947563 0.04462797
0.10220116 -0.009147141 -0.105307214 0.14923224 -0.022305565 -0.06929963 0.00010088762 0.09015035
-0.068400696 0.050272193 0.07228377 0.067997225 0.04261841 0.03791786 -0.099188186 0.07365856
0.07753847 0.15153506 0.049176864 0.12689616 0.08470552 -0.039890353 -0.036325075 0.10718007
-0.123932354 0.06385517 0.14933358 0.16005431 -0.07007109 0.071698256 -0.028737871 0.11373314
0.0095298095 -0.10510925 -0.044529915 -0.030378649 -0.09238872 -0.06247673 -0.041477937 -0.109018706
-0.050015785 -0.063735515 -0.099065594 -0.08707352 0.06379147 -0.1292268 0.033490792 0.017774975
0.06447183 0.113587044 -0.037162296 -0.08611968 -0.038452834 -0.09876188 -0.008435798 -0.14810951
-0.051543016 0.05208343 0.102781475 0.038739447 0.12625031 -0.083734706 0.059650432 -0.004404671
-0.005532329 -0.014173131 -0.048980262 -0.1189499 0.047704104 -0.037410486 -0.13451166 -0.088409364
0.12393756 0.07525664 -0.11852178 -0.017306244 -0.07154055 -0.12010787 0.038352024 0.07701591
-0.13109668 0.029825713 0.039233625 -0.03794667 -0.08004184 -0.10784871 0.08326244 0.13273579
0.0062018298 -0.088851385 0.09073341 -0.05622358 -0.12800163 -0.061704546 0.037704445 -0.13039681
0.04157499 0.04255486 0.027965536 -0.013341665 0.07667817 0.12865332 -0.026761139 0.01387945
0.109475665 0.06296561 -0.022952238 -0.04726789 -0.03163171 0.045130953 0.008833839 0.03285077
-0.09476801 -0.06367243 0.12640083 0.028545521 0.011923174 -0.022489438 -0.027540002 0.026902827
0.13367951 0.04264941 -0.14728822 0.1063206 -0.055328626 0.13882673 0.029134123 -0.1026862
0.009159269 -0.024932513 0.040328626 -0.0033079088 0.12257894 -0.09452189 0.08835362 0.05317608
0.057440206 0.074913114 0.052503996 0.036984626 0.017244367 0.05971894 -0.09051084 0.09555382
-0.013353762 0.0008528772 0.09252877 0.1108155 0.019836405 -0.032826845 -0.0735045 0.10360084
-0.04759993 -0.08111447 0.011470775 0.07202786 0.09873554 0.077774756 -0.061259266 0.10438856

fc.weight f4 [1, 64]
00000000: c966 063e 83e2 593d 3df2 33bd a0db 7e3d
00000010: 4c41 4bbd 4008 c3bd f982 ba3d 5854 183e
00000020: 8c38 dbbd fa33 acbd 5d9e c43d 8748 333c
00000030: 2073 08be 6739 3b3d aef3 fcbd 00fa 60bd
00000040: 74d8 72bd c12a 193d 3304 13be c70c 39bd
00000050: 92c0 0abe 541e 4d3b 49b7 9abd 37e0 bf3d
00000060: af57 dc3d 4b77 d1bd a5fa ba3d c504 e03d
00000070: a156 c0bd f256 fa3a b6e2 a9bd fb4c d53d
00000080: bba3 c4bd 912f be3d 6d62 99bd 20a5 eebd
00000090: 8e1a f23d d7ce 84bd 8070 cb3d 534a a1bd
000000a0: b61b 83bd 386c b0bd 08df 1d3e fffd db3d
000000b0: e35c fbbd b517 02be b7b6 7a3d 6763 f73d
000000c0: 19f8 043e e65b b2bd 6c72 febd fd59 a7bc
000000d0: defb 91bd 7ab1 61bd 009a dd3d ba04 90bd
000000e0: 8c93 803c 30d2 4b3d 2d39 1f3e 2d4f dbbd
000000f0: a02d 9d3c 6706 9ebd 22ee 723d 486c 6abd
0.13125147 0.053194534 -0.04393219 0.06222117 -0.04962282 -0.09523058 0.09107012 0.14875925
-0.10704145 -0.08408351 0.09600518 0.010942585 -0.13325167 0.04570904 -0.12351166 -0.05492592
-0.059288457 0.03739429 -0.1435707 -0.0451782 -0.13550022 0.0031298595 -0.0755449 0.093689375
0.10758912 -0.102278315 0.09129838 0.1093841 -0.09391523 0.0019099398 -0.08295195 0.104150735
-0.096015416 0.09286416 -0.07489476 -0.11652589 0.11821471 -0.06484764 0.09933567 -0.07875504
-0.0640177 -0.08614391 0.15417111 0.10741805 -0.12273576 -0.12704356 0.061209407 0.12079506
0.12985267 -0.087089345 -0.12424168 -0.020428652 -0.07128118 -0.055100895 0.10820389 -0.070321515
0.015695356 0.049760997 0.15549155 -0.10708461 0.019186795 -0.07716065 0.059309132 -0.05723217
