checkpoints/North-West/best_model.pth (torch, 81193 bytes, 5 tensors)

lstm.weight_ih_l0 f4 [256, 11]
00000000: 9a8e 163d bc89 d43c f951 1c3e 73fe 3a3d
00000010: ebb8 b0bc 2bfd 653d cb0b dbbd 1253 60bd
00000020: dd13 753d 1017 353c 0af5 bdbd 9003 823d
00000030: 7266 023e b1cb 313d 235a acbd 1b80 043e
00000040: 49df 1b3c aa17 b1bd ae31 963b 4ee9 6f3d
00000050: 4f00 8b3c 37c2 2cbd c885 29bb cf53 d0bd
00000060: 2a31 3f3d a067 15bd cc32 fabd c201 b73d
00000070: f253 a03c 81ac dcbd f05c c4bd effa 55bd
00000080: e905 2c3e 5b95 f63c 7b19 183d f0ef 663c
00000090: 2907 62bd f49c 0f3e d373 b33d 459e 033c
000000a0: af6b dbbc f1c1 ae3d 50b6 bb3d 8df3 c13c
000000b0: f55a 4abd b398 f4bb 3de0 cbbc 3878 2b3e
000000c0: 8bba 583d 7ee4 bf3c f910 ee3a 4202 bcbd
000000d0: b6b2 88bd 81e3 013d 5069 fd3c dfef f73d
000000e0: 3488 3abc b68a c53d a022 b3b9 45ad c23d
000000f0: 2725 833d 3234 b23d 9179 fabd c534 ac3d
00000100: 9bbf 753d 484a 8c3d 6cbd 353d 24ff 28bd
00000110: efdc 923d 2e66 f4bc b353 05bd 6160 a5bd
00000120: c695 3a3d 3a10 bc3c 5a0f 06bd f1a1 493d
00000130: f776 c0bd 58bb aabd 175c 5d3d ff59 a3bd
00000140: a50b 87bd de86 42bd f868 753d 5724 4b3d
00000150: 61c7 e8bd 19c8 e3bc ed35 a1bd 5e68 acbd
00000160: 9620 a83d e42f f03d 4f41 87bd f253 8dbd
00000170: 0653 0f3e 15f1 53bd d6ff 9cbd 4f59 283e
00000180: fd70 ea3c 793b 33bd 70b3 bdbc 85bc 34bd
00000190: 9be7 9bbd bb35 743d 0d6c 43bc 56fd 95bd
000001a0: 8362 f7bc 953f de3d e26e 933c 98f3 833d
000001b0: c5a3 c93d c214 673c a4c8 3abc b0ca 0d3e
000001c0: 33a2 013c 599a f03d 8bcb 993d 7676 533d
000001d0: 8f77 cdbd 803f fbbc 511d e33d aaaf 81bd
000001e0: 22a7 833c 255e b73c 5464 08bc ba10 63bd
000001f0: a483 013d ba2e 753d 826e a0bc 0e09 08bc
00000200: c332 8b3d e73d 9c3a 9aa9 023b 0825 813c
00000210: 317c 883c 98ec 513d 69c8 7c3d 3d3b 13be
00000220: c4da 50bd 4e74 cbbc 0b52 55bd 256f 52bd
00000230: 8fb3 da3d 94b7 843c 7595 1dbe 9bde cdbc
00000240: bb73 bd3d d8b9 d73d 4906 1dbe cc80 e63d
00000250: 999c f7bc 81d6 0fbe a4d7 2dbd 2988 9abd
00000260: f0b2 13be b32e 913d 2b16 1a3e 56c1 5bbc
00000270: 86c8 10bd f891 ca3d 3517 b7bc b4c1 d83c
00000280: 26e5 833d d10e 0c3d 7772 7dbc 1231 363d
00000290: 4a2e 663d b1ec c13d 2635 ce3b 55b8 86bd
000002a0: 1355 2c3d 1494 91bc 254e f43d 79f3 a1bc
000002b0: 01fe 28bd 36f2 113c a7d3 86bc 0d7c 913d
000002c0: b568 8e3d 766f 9fbc e705 7b3d 86fa 80bb
000002d0: 9e63 2dbd 3523 b5bd 0f43 73bd 9978 83bd
000002e0: a3ba ea3d 4193 a13b bee8 f23d 3b12 7f3d
000002f0: b331 bbbb bc85 fb3b 848a d23d 94b1 d93d
00000300: 153a 773d b24d 493d 3b7b 5c3d 2a08 8ebd
00000310: cb6f 583d 9720 a33c ba12 ed3d be4e 0cbe
00000320: 20af a0bc 1021 103e 36e4 af3c fbc2 cd3d
00000330: 0958 9f3d eb2a aa3d 25b2 873d 42a3 0bbd
00000340: 57d3 113d 6722 82bd 9493 d2bc bcf0 4a3d
00000350: ac78 433c cfdc 38bc 000a fbbd 1803 f0bd
00000360: 4654 16bc 32c4 4bbc 3448 4abd 20b0 c0bd
00000370: 25ad 02bd efc3 323d 4ef0 b93d 7bfd 3f3d
00000380: 875a d43c 4528 afbc d9d8 9b3d 10b1 a43a
00000390: a942 b33c c533 98bc ea3e 893d f96f 2bbd
000003a0: d98b e23d 230b 743d dfe6 0e3c 5e47 d93d
000003b0: 72c6 943d 8628 db3d 5e33 00be d6aa 5ebc
000003c0: fbc6 14be 3734 c0bd e073 1c3e babb 6abd
000003d0: 8092 883d 545f a5bd 5896 c0bd e0d6 65bd
000003e0: 324e d4bd a4b2 c73d 925b 783b f6e5 3abd
000003f0: 3609 16bd e633 ea3d 2d57 80bd 2ec1 81bd
0.03675709 0.025944583 0.15265645 0.045652818 -0.02157255 0.056149643 -0.10695609 -0.054766722
0.059833396 0.011052862 -0.09275253 0.06348336 0.12734392 0.043407146 -0.0841563 0.12939493
0.009513685 -0.08647092 0.004583559 0.058572106 0.01696792 -0.042177405 -0.0025867093 -0.10172235
0.046677746 -0.036475778 -0.1221672 0.08935882 0.019571278 -0.1077509 -0.09588039 -0.052241262
0.1679913 0.030100515 0.037133675 0.0140952915 -0.05518261 0.14024717 0.08762326 0.00803334
-0.026784746 0.08533085 0.09165633 0.023675704 -0.04940315 -0.007464492 -0.024887199 0.16745079
0.052912276 0.023424383 0.0018163017 -0.09180118 -0.066747114 0.031711105 0.030934006 0.12106299
-0.011385012 0.09645598 -0.00034167338 0.09505705 0.064035706 0.08701362 -0.12230218 0.084085025
0.059997182 0.068501055 0.0443701 -0.041258946 0.07171046 -0.02983388 -0.032550525 -0.080750234
0.04555299 0.022956956 -0.032729484 0.049226705 -0.09397691 -0.08336514 0.0540429 -0.0797615
-0.06594018 -0.0474919 0.05991456 0.049595203 -0.113661535 -0.027805375 -0.07871614 -0.08418344
0.0820934 0.117278844 -0.066042535 -0.06900777 0.13996515 -0.051743586 -0.07665984 0.16440319
0.02861833 -0.04375789 -0.023156852 -0.0441251 -0.076125346 0.059621554 -0.011927617 -0.073237106
-0.030198341 0.10851971 0.017997209 0.06442946 0.0984569 0.01410407 -0.0114003755 0.1384685
0.007912206 0.117481895 0.07509526 0.051626645 -0.100325696 -0.030669928 0.11089576 -0.063323334
0.016070906 0.022383759 -0.008324701 -0.055435874 0.031619683 0.059859015 -0.019583944 -0.00830294
0.067967914 0.0011920304 0.0019937516 0.015764728 0.016660782 0.051251024 0.061714564 -0.14378066
-0.05098988 -0.024835732 -0.052080195 -0.051375527 0.10678779 0.016200818 -0.15389045 -0.02513056
0.092505895 0.10533494 -0.15334429 0.11255035 -0.030226039 -0.1404667 -0.04244198 -0.07545502
-0.14423728 0.07088985 0.15047519 -0.013412794 -0.035347484 0.098911226 -0.022349933 0.026459552
0.06440191 0.034193818 -0.015469185 0.04448039 0.05619649 0.094689734 0.006292957 -0.06578127
0.04207332 -0.017770804 0.119289674 -0.019769417 -0.041257862 0.008907845 -0.016458346 0.07103739
0.06953565 -0.019462328 0.061284926 -0.0039361147 -0.04233133 -0.08844606 -0.059390124 -0.064194866
0.114613794 0.004930884 0.11860798 0.062273245 -0.0057127117 0.0076758545 0.10280326 0.106295735
0.060358126 0.04914636 0.05382846 -0.06935151 0.05284099 0.019913001 0.115758374 -0.13701913
-0.019614756 0.14075112 0.021471124 0.10046955 0.07780463 0.08308967 0.06625775 -0.03409124
0.03560194 -0.06354218 -0.025705136 0.04954599 0.011930626 -0.011283114 -0.12257767 -0.1171934
-0.009175366 -0.012436913 -0.049385265 -0.09408593 -0.031903405 0.043643888 0.090790376 0.046872597
0.025922073 -0.021381507 0.0760972 0.0012564976 0.021882372 -0.018579373 0.06701453 -0.041854832
0.1106183 0.059580933 0.008722036 0.10609315 0.07264413 0.107010886 -0.12519595 -0.013590535
-0.1452903 -0.09384959 0.15278578 -0.057307936 0.06668568 -0.08074823 -0.09403676 -0.056113124
-0.10366477 0.0975087 0.0037896377 -0.045629464 -0.036629878 0.1143568 -0.062666275 -0.06335674

lstm.weight_hh_l0 f4 [256, 64]
00000000: 74b9 153d f02c d9bd a00a 213d f2c2 c93d
00000010: c170 483c 89bf e7bc 7ce5 cabc 5185 86bd
00000020: b5a8 f6bc 7c78 063d d5b6 8abd c382 4abc
00000030: 4ad3 bd3c 3181 f2bd 86a1 e13c 7446 07be
00000040: 4d48 503d 4ecf 39bd 7116 bd3d 327e b6bc
00000050: 6fcc 8f3d 0841 0b3e 31de 903d c9c8 fc3b
00000060: 11fb dabd ef8c 88bd 8248 99bd e245 973b
00000070: 07f4 4fbc 88fa 043e cfcc 85bd 2283 bfbb
00000080: 303a 85bd 354e dcbc f886 f4bd 86b9 243d
00000090: 6c4a 9b3d 0db2 98bd c0d5 48bd 7aba a83d
000000a0: f033 8c3d 448e f2bd 8f3d 50bd dfc7 02bd
000000b0: 60f8 cf3d dfa8 043e c752 97bd 59db fe3c
000000c0: 4713 a83d 3e0e 86bc 021c cfbd 2428 2fbd
000000d0: 61da 063e a329 623c 9df6 8d3d c8d4 963d
000000e0: fcf8 e53a 58bf 2fbc 537e 8f3d 1842 0e3d
000000f0: 8d17 a5bd cfa1 503c 2a93 ad3c a3e6 f63d
00000100: 83f0 583d fd4b dfbd 6b16 293c b3be 31bd
00000110: 8c37 c83d 79f2 c43d 2abb 963d 7343 993d
00000120: c118 32bd b399 15bd 4a73 053d 70aa 85bd
00000130: 174f 023d 40b4 5bbd ab0a e13c c9ec 1f3d
00000140: a70f a3bd 6e5b af3d f186 c63c 4b92 18bd
00000150: d2cc 97bd 0ae8 3dbd 1932 8fbd 6cd1 163d
00000160: 61cb 8abd da66 273d a63c 0dbd c119 f7bd
00000170: b5b7 babd b61e 913d b59a 8e3c ac1e a83c
00000180: 9bca 30bd 2657 c33d 34fa ae3d 4f99 bf3d
00000190: c777 06bd dee0 6e3d f1e6 0abd b31f 853d
000001a0: 85e6 e83c 85b3 8b3d 3948 1dbd 384b 6abd
000001b0: 33a0 6a3d 8511 013e cb77 2abd f068 9ebd
000001c0: 5123 d0bc 72d3 82bc 3179 5abd 5c81 3f3c
000001d0: a2ba b8bc 4afa 91bd 2415 debc 1445 b8bd
000001e0: fb3d 2cbd b405 ffbd 986a 03bd 357b 9ebd
000001f0: 38f5 89bd 3432 b3bd 690e 55bd 458a d23d
00000200: 8853 573d 7bec 5ebd 5c57 a8bd 68b1 6f3d
00000210: cbcd 0c3d 720c ec3d 60e9 adbd d5b3 293d
00000220: 429a cebd ac08 e83c 9e56 733d c5ec c2bc
00000230: d682 133d 2bc6 823d 8d87 963d a444 483d
00000240: 14e8 82bc 0e1c 65bd 97bf 70bd e672 fabc
00000250: abf7 5cbd fcb1 52bd 28f8 9d3d bad6 c9bd
00000260: abb4 563d 217a 1ebd 33f0 133d 53b8 3ebd
00000270: 67d2 9dbb 1236 693c bf12 b93d a34e b2bc
00000280: 3b57 07bd 5da8 cd3c f97c 8fbc 8f96 2abc
00000290: 4706 b0bd a62d 673d 1229 3c3d 86a7 88bd
000002a0: e4be 66bd 1ec4 9d3c c8e1 103d 0eb5 8abc
000002b0: ac86 5d3c 2f65 aabc 69e1 ce3d b017 b73c
000002c0: 1e09 83bd 1a3d e03c f5de d9bd fe50 f4bc
000002d0: 1a58 fe3d 06be ef3d ca1e f4bc fa30 8c3d
000002e0: a3ed 0bb9 5138 d0bc 14a9 de3c 2984 1bbd
000002f0: 42eb d1bd 7ebe 24bd 2285 dd3c b592 9f3d
00000300: 2e73 6cbd db3b 1b3c 6f64 e9bc 3bf0 00bd
00000310: 9bb0 85bd c090 5f3d 330a 353d 1d0e 413d
00000320: 077f b6bd 905d debc 5f4e b33d 95ad 41bb
00000330: 1618 933d b653 993c f71c 51bd 249b ad3c
00000340: 2cdc b7bd 8dfd ebbc 5b27 06bc 7d85 c1ba
00000350: c7fb 00bd e5bd 19bc 1208 c83c 31ff 3dbd
00000360: ec46 d83c 46b3 c23d f714 d83d 23cf 303d
00000370: 3a67 dc3c 664e ce3d 60e5 f8bc cb02 46bd
00000380: 651b 493d f18b 673d dc52 80bd 83fd 2dbd
00000390: 62eb 833d ccb0 e83d 3e5f 7bbc ea18 fb3c
000003a0: df28 d03d 2579 99bb b480 373d e2bf 0c3d
000003b0: 0105 093d cf5b 60bc 158e 10bd 526e bd3c
000003c0: c476 5f3d 745f 423d 534c 6b3d 9773 81bc
000003d0: a3db 8b3d 9363 95bd 2a93 c2bd 1027 7c3d
000003e0: 79b9 fb3d 0fc3 5c3d 4073 41bc 4c07 ffbc
000003f0: ad07 09bc 5913 e6bd 40ce f6bd cde6 72bb
0.036553815 -0.10604274 0.039316773 0.09851636 0.012233914 -0.028289573 -0.02476763 -0.06568397
-0.030109743 0.032829747 -0.06773154 -0.012360278 0.02317204 -0.118410476 0.02754284 -0.1321047
0.0508502 -0.045363717 0.09232796 -0.022276971 0.070214145 0.13599026 0.0707363 0.007714365
-0.10692418 -0.06667506 -0.07484533 0.004616485 -0.012692458 0.12986195 -0.06533205 -0.0058444897
-0.06505239 -0.02689276 -0.11939806 0.04021599 0.07582554 -0.074558355 -0.049031973 0.082386926
0.06845844 -0.11843541 -0.050839957 -0.031928893 0.10154796 0.12955044 -0.073888354 0.031110452
0.08206802 -0.016364213 -0.10112764 -0.04276289 0.13169242 0.013803872 0.069318034 0.073648036
0.0017545517 -0.010726772 0.07006516 0.034731 -0.080611326 0.012733891 0.021188337 0.12055709
0.052963745 -0.109031655 0.010320286 -0.043394756 0.0977622 0.096165605 0.073599175 0.07483568
-0.04348064 -0.036523532 0.03258065 -0.06526649 0.031813707 -0.053638697 0.027470907 0.039044175
-0.0796197 0.08562361 0.024234267 -0.03724889 -0.07412113 -0.046363868 -0.06991977 0.036820814
-0.06777073 0.04086957 -0.034481667 -0.12065459 -0.091170706 0.07085936 0.017407754 0.020522438
-0.04316197 0.095381066 0.08543816 0.09355413 -0.032829072 0.05831992 -0.03391165 0.06500187
0.028430233 0.0682135 -0.038398955 -0.05720064 0.057281684 0.1260434 -0.04161815 -0.07734859
-0.025407465 -0.015969966 -0.053338233 0.0116885565 -0.022549931 -0.07127817 -0.02710969 -0.089975506
-0.042051297 -0.1245226 -0.032084078 -0.077383436 -0.06736225 -0.0874981 -0.052015696 0.10280279
0.052569896 -0.054424744 -0.082197875 0.058518797 0.034375947 0.11525811 -0.084917784 0.041431267
-0.10088016 0.028324448 0.059408776 -0.023794541 0.036013447 0.06385454 0.07350073 0.048893586
-0.015979804 -0.05593496 -0.058776464 -0.030572366 -0.053947132 -0.05143927 0.07713348 -0.09855409
0.052418392 -0.03869069 0.036117744 -0.046562504 -0.0048163417 0.014234083 0.09036779 -0.021766013
-0.033042174 0.025104696 -0.017515646 -0.0104118725 -0.08594947 0.056440018 0.045937605 -0.066725776
-0.05633439 0.019258555 0.03537157 -0.016932037 0.013520878 -0.020800201 0.10101587 0.022350162
-0.06398223 0.027372885 -0.10638229 -0.029823776 0.12419148 0.11706166 -0.029799838 0.06845279
-0.000133446 -0.025417479 0.027180232 -0.037967835 -0.1024995 -0.04022073 0.027041022 0.07791654
-0.05772703 0.00947472 -0.028490273 -0.0314791 -0.065278254 0.054581404 0.04419918 0.0471326
-0.08910947 -0.027144223 0.087551825 -0.0029552926 0.071823284 0.018716674 -0.051053014 0.02119214
-0.08977541 -0.028807426 -0.008188094 -0.0014764514 -0.031490114 -0.009383653 0.02441791 -0.046385948
0.026401006 0.0950685 0.10550874 0.04316629 0.026904691 0.10073547 -0.030382812 -0.048342507
0.04909839 0.056529943 -0.06265804 -0.042478096 0.0644138 0.11361846 -0.015342532 0.030651528
0.101640455 -0.004683631 0.044800475 0.03436268 0.033452038 -0.013693764 -0.03529175 0.023123894
0.054556623 0.047454312 0.057445835 -0.015802188 0.06829002 -0.07294383 -0.095007256 0.06156069
0.122912355 0.05389696 -0.011807263 -0.03113141 -0.008363646 -0.11234159 -0.12051058 -0.0037063838

lstm.bias_ih_l0 f4 [256]
00000000: 47f2 f83d 67de f1bc 140a ca3d 7492 88bd
00000010: d7bc a8bc 6be3 a53d 847a bdbd 72c3 c73d
00000020: c0c7 063e f0d4 2f3d f2f6 d03d 2a47 91bd
00000030: f366 b2bb ea07 0e3e e90b c03d 47fc 763d
00000040: 5d85 acbd ea39 76bd 81b6 973b 7498 003d
00000050: a2f4 813d 14c7 73bd e529 933d 0935 7cbd
00000060: baee 2bbc 13c9 93bd da12 7f3d 90f9 233d
00000070: 83e9 48bc b547 33bd 1ca5 de3d cf79 073e
00000080: d086 773d 799d a5bd 5df2 acbd d404 943d
00000090: e0ed 9cbd 76a0 a23d 0be3 73bd 1aec edbc
000000a0: a146 003e aa3b 87bd faee 1bbd e002 4dbd
000000b0: 4541 82bd 77f7 0a3d bf00 34bd ec43 25bc
000000c0: d6c7 8c3c 2f6d e8bd 0b83 743d 2d2c adbd
000000d0: 0d5e a63d 78bb e43d b2cb f43d 9f02 193b
000000e0: f205 3d3d 21ed 36bd c9b8 e53c 8a21 1e3c
000000f0: 7fe9 d23d 7288 893d 4a74 c13d a91c 8d3d
00000100: e881 073e c1da 74bd dcb3 c93d 8c4f debd
00000110: d122 72bd 0159 b93c a05d 61bd 87a9 b93d
00000120: ebb9 b4bd 92f3 1cbd 4b38 a43d f0f2 7c3c
00000130: 085c 3ebd aa6d 9c3d da68 b3bb 784f 27bc
00000140: 6f59 37bc 1add 98bc e249 bdbd 8774 d3bc
00000150: 1cdf 4a3d 579e 99bb 2856 f03c 1ed9 11bd
00000160: ba59 9d3d b235 ab3d 2db1 e43d 99a4 26bc
00000170: d28c d33c d831 3b3d f0fb f33c 1c93 2f3d
00000180: 2b08 b03d b823 503d 7c96 2f3c 91d3 2dbd
00000190: 9e42 a6bd 4f42 ff3d c76a 4d3d 6cf7 30bc
000001a0: 1ec2 85bd 9ac0 0c3e 3f28 b53c 34a8 eabc
000001b0: 7064 a7bd f5d6 c73d 20c5 b2bd 0d32 063e
000001c0: 074b 053e 3d87 52bc ca77 2a3c d1da 1b3d
000001d0: 63cd a3bc cd5c d93c 7906 89bd 5670 13bd
000001e0: 9f5e 223e c481 0d3e 21d2 ca3d 0750 6a3d
000001f0: b997 adbc f0d0 ac3d 7959 983d e5d1 033d
00000200: 8720 00be 92cf d13d 240c b53d a517 903d
00000210: 87a8 34bc a9bf 0d3d f3ea 0d3d b3fd 273d
00000220: 0e79 40bd cc7e b93d 833b 25ba 56c9 253d
00000230: d11b 26bd bdac 07be 1424 e73d bf21 9d3d
00000240: d6a0 3e3a 90c8 70bc bd11 8e3d b907 9bbc
00000250: 5fe1 003e 8ade b6bd 9883 143c e5b1 c5bd
00000260: d85b e13d f71e 823d f836 b7bd 824e d9bd
00000270: 6a46 6ebd 792f ce3d 9653 c83b 353b 673d
00000280: 6788 ebbc 3709 973d aed2 8cbd a752 9c3c
00000290: d382 d4bd b0f9 9ebc 5ba1 c3bc f505 783d
000002a0: 5323 3a3d 9af9 7e3b 270d d5bd c116 823d
000002b0: 8b6d 7b3c 796e 503c 1f15 763d 7f6d 8ebd
000002c0: 4f2a 2dbc 2eff 893c 78e8 c8bc 06bb 8f3b
000002d0: bb5f 8fbc 5f0a cfbd a644 c5bb 7302 adbd
000002e0: a9d3 bfbb 8390 e3bd 651e b7bd 2e21 d6bd
000002f0: 169b fcbd ec21 6dbd a8a3 54bc 87b7 923c
00000300: 1a42 c13d 3835 afbc 3d31 e8bc 9591 03bd
00000310: be64 44bd bbc6 f83d 0a04 943d 7322 f63d
00000320: 281d 683d 5edd 66bd 364a 053e 840b 903d
00000330: e59b 143d 526e 163d 59e3 103e 6f6e c73d
00000340: 62ea 363d f3ac aebc 4a3d c5bd f5ec e1bc
00000350: e67c bcbd 4eda 203e b5a3 1a3e 4082 90bd
00000360: fc7f 79bc 2717 81bc 9320 f13d 2eeb 80bc
00000370: be10 153c 225a 42bc 84c3 18ba dc8d c23c
00000380: a6ba 203d e9ed 4c3d c137 da3d ab7f 0c3c
00000390: 731c 8ebd 89cf 073d 990d fb3d 69a7 66bc
000003a0: ebaf 58bd 09f5 0a3e 1cc3 a23d 0b87 943d
000003b0: 8398 c33d 417b be3d 3ee1 ea3d 83d6 0f3d
000003c0: bed8 873c a2d1 b4bc aa5b fa3c c5f9 c4bd
000003d0: e4d3 bcbd e7aa ea3d 73a5 97bd b0d1 d73d
000003e0: 3112 ed3d 4115 d63d 47b2 ae3d fe3f cc3b
000003f0: 93a5 87bd c1e6 063d 098f cb3d 120b c93c
0.12155586 -0.029524995 0.098652035 -0.06668559 -0.020597858 0.08100017 -0.092518836 0.09754075
0.13162136 0.042927682 0.10203351 -0.070936516 -0.0054444014 0.13870206 0.09377272 0.060299184
-0.084238745 -0.060113825 0.0046299105 0.03139539 0.06345488 -0.059516028 0.07185725 -0.061574016
-0.010493929 -0.07216086 0.062273838 0.040032923 -0.012262705 -0.043769557 0.10871336 0.1323006
0.0604313 -0.08086676 -0.084446646 0.072274834 -0.076625586 0.07940762 -0.059542697 -0.029043246
0.12526943 -0.06603177 -0.038069703 -0.05005157 -0.063601054 0.033927407 -0.043946024 -0.010086995
0.017185133 -0.1134895 0.059695285 -0.084556915 0.081234075 0.11168569 0.11952914 0.002334751
0.046148248 -0.044659737 0.028042214 0.009651551 0.10298442 0.06715478 0.094460085 0.06890232
0.13233149 -0.059778932 0.098487586 -0.10855016 -0.059115235 0.022625448 -0.05502093 0.09065538
-0.088245235 -0.038318224 0.080185495 0.01543878 -0.046474487 0.07638104 -0.0054751458 -0.010211818
-0.011190756 -0.018660117 -0.09242608 -0.0258124 0.04952918 -0.004688065 0.029337958 -0.03560745
0.076831296 0.08359851 0.11166606 -0.010171079 0.025823984 0.04570183 0.02978322 0.042864904
0.08595308 0.050815314 0.010717031 -0.042438094 -0.08118175 0.12463819 0.05015066 -0.0108011775
-0.065311655 0.13745347 0.022113917 -0.028644659 -0.08173454 0.09757797 -0.08729005 0.1310503
0.13016902 -0.012849626 0.0104045365 0.038050476 -0.019995397 0.026533509 -0.06690688 -0.035995804
0.15856408 0.13819033 0.0990336 0.057205226 -0.021190511 0.08438289 0.074389406 0.032182593
-0.12512408 0.10244669 0.08840206 0.0703576 -0.011026508 0.03460661 0.034647893 0.04101343
-0.046990447 0.09057388 -0.00063031184 0.040475212 -0.04055387 -0.13249488 0.11286178 0.07672452
0.0007271891 -0.014696255 0.06936977 -0.01892458 0.12585972 -0.08929165 0.0090645775 -0.09653071
0.11003846 0.06353562 -0.08946031 -0.10610677 -0.05817262 0.100676484 0.00611348 0.05645295
-0.028751565 0.073748045 -0.068761215 0.01908238 -0.10376515 -0.01940617 -0.023880651 0.060552556
0.045443844 0.0038906098 -0.10402899 0.06351996 0.015345941 0.012721651 0.060078736 -0.069544785
-0.010569169 0.016845312 -0.024524912 0.0043863086 -0.017501703 -0.101094 -0.0060201464 -0.08447733
-0.0058540893 -0.11111548 -0.08941344 -0.10455547 -0.12334268 -0.05789368 -0.012978472 0.017909778
0.09436436 -0.021387681 -0.028343791 -0.03212126 -0.047947638 0.1214728 0.07227333 0.120182894
0.05666843 -0.056363456 0.1301659 0.070334464 0.036281485 0.036726303 0.14149226 0.097378604
0.04465712 -0.021322703 -0.096308306 -0.02757881 -0.0920351 0.15708277 0.15101512 -0.07056093
-0.015228268 -0.01575811 0.11773791 -0.015737142 0.00909823 -0.01186231 -0.0005827474 0.023749284
0.0392405 0.050031576 0.106551655 0.00857536 -0.0693902 0.033156905 0.12258453 -0.014078
-0.052902143 0.13570036 0.079473704 0.0725232 0.09550574 0.093008526 0.11468743 0.035116684
0.016582843 -0.022072617 0.030561287 -0.09617952 -0.092201024 0.11458378 -0.07404604 0.105380416
0.11575735 0.104532726 0.085300975 0.0062332144 -0.06623378 0.032934908 0.09939391 0.024541412

lstm.bias_hh_l0 f4 [256]
00000000: 4b9e db3d e11b 643d a1d1 79bc bcbf 0e3e
00000010: 6bbb 0c3e 07c7 183e 7847 75bd ce8b 9bbd
00000020: 17cd 7d3d 9315 9abd 55fc 6abd 4888 febd
00000030: 364b d43c 8af1 313d d76a cb3d 3b4c 47bd
00000040: a65e 22bd a8c5 70bd 0e79 e13c 7ea3 e8bd
00000050: 6651 8b3d b043 ac3d baa1 073e bdf2 05bc
00000060: cc01 afbd 57e2 f8bc 46a8 503d 148c cfbc
00000070: c21d f23d d4ea 2abd c2f5 1fbc 7126 01bd
00000080: 45b4 143e 369c f8bd 5cf7 0abc f166 fd3c
00000090: a07e bb3d 2488 e43c 1727 a63c 25f7 183e
000000a0: f4af 2e3e 6207 183e e13e 41bd ef97 983d
000000b0: cd35 8cbd c508 963d 38a9 26bd c544 90bc
000000c0: 64bb 8fbd 0794 babd b4a7 053e 4334 dcbd
000000d0: b9c1 8ebd 80d4 723d 74d7 823c b49d d53d
000000e0: 35bc 1e3e 9bee b73c 90d0 ae3d 5c7f 2dbb
000000f0: 68ec aa3d 0ea3 cd3d 917c 10bd e07b 623d
00000100: 12d6 1abd 0754 dd3d 3dfb e4bc 8a8f a0bd
00000110: c33d 683d 04a3 0f3e a9dd 673d 8ef6 acbd
00000120: 351c 853c 81e9 cebd 81ed 9cbc 4a26 90bd
00000130: c4f6 d63d 41ff 04bd 58d2 5b3b 4689 013e
00000140: b7cf 13bd a7b3 86bd fde1 8cbd 3e42 7b3c
00000150: 62b8 b3bd 9d51 893d 5c4d 0d3e 9cf3 a93d
00000160: da68 b5bd bff3 f43d 7ba0 e9bd fc9d 0d3e
00000170: 809f 973d 5a94 0d3e 7a7c e23d e1c8 353d
00000180: 453f 1d3e 3573 c9bd 6483 17bd 7eba 3dbd
00000190: f336 6e3c bb2c 33bd 914b 92bc 6bec a83d
000001a0: 0c70 a8bd 6930 ff3d dbb2 8bbd 7f4b bdbd
000001b0: a3a7 203d b9d7 fe3d 716d 8abd 9fa2 13bd
000001c0: 97eb 033e 3ce5 81bd fede d83d 0bd5 39bd
000001d0: 521d 173d c559 45bb 7b61 f6bd 5502 f73d
000001e0: e6fe 233d c961 58bd 0a6c b33d 4e3c a2bd
000001f0: 609d 473d 1be4 90bd 9244 793d a120 acbd
00000200: 5b0b d03d be9b 05bd 0ae1 123d a887 c33d
00000210: 738e 3ebd c75b 8e3d 250f d13d 6b11 0dbd
00000220: 073b 193d 9340 c0bb 5987 a93d 7480 c93d
00000230: d951 873d acbd 313c 44cd de3d e08c 13bd
00000240: c0c5 0ebb 22d3 753c 4236 0d3d 3ccc dc3c
00000250: 6a27 b43d 30f4 b93d 8e3c dabd 9a05 0e3c
00000260: 0347 b8bd c62f babd df0d b93d 8c6e 843d
00000270: 3b2c 52bd 60ca d4bb 5003 31bd 1e56 a0bc
00000280: 70ad 8d3d caeb 8c3c 05ac 7abd cd91 c73d
00000290: b65b 983d 8004 033e 57aa 0abc bfd0 f7bc
000002a0: 11e9 c13d 7a5e 0cbe 032d 48bd feb3 a93d
000002b0: 6cac e33d 9685 e43d 356d f43d 4d7b a63d
000002c0: 22d5 8ebd 170c b8bd e7a2 08be a85a 3abd
000002d0: ea73 e43c b9b0 e73d b4a8 733d ebe4 5fbb
000002e0: c85d a5bc 5691 51bd c7e4 f93d 1a18 bb3d
000002f0: 46dc ccbc a00a f4bc 05ad 23bd 10ea ff3d
00000300: aaec 1c3e 12cc 203d a97f 9d3b 790c 10bd
00000310: 939e 233d c03f 55bd ca30 763c ad4d 8e3d
00000320: e1ad 80bd 9b03 a9bd 8ae4 52bc f3e2 903c
00000330: eeed 8e3d 3c31 3abd 85aa 263e b6c0 ae3d
00000340: 4cbc 853d 4d68 aa3d c718 0bbd 51cb a6bd
00000350: 9d95 acbd 5f94 87bc f6a9 ee3d 3175 99bd
00000360: d205 083e ceeb 93bd 29b7 983d 5b03 213d
00000370: c718 033e fc36 bbbd 9b83 62bc 8ef9 143d
00000380: adca 613c ae89 c0bd 0036 e13d 7844 d3bd
00000390: ab1a ccbc 3fc6 be3d edf6 85bc 73f1 49bd
000003a0: a888 143a 7092 3a3d 172d ef3c 6f7f 3ebc
000003b0: 8c26 4ebd bbd1 babc fd3e 36bc 2e0e 00bd
000003c0: e00a 3f3d a585 923d 67db 32bd 93a9 3f3d
000003d0: 9705 4ebd cf19 143e e919 e9bb 7d7a fa3d
000003e0: c1b0 2fbc e297 563d 50a5 b83d 4348 173e
000003f0: 5c50 c93d c4c6 44bc 4320 d33d b5c5 0dbd
0.10723551 0.05569065 -0.015247733 0.13940328 0.1374337 0.14919673 -0.05988261 -0.07595025
0.061963167 -0.07523646 -0.05736955 -0.12428337 0.02591477 0.04344324 0.099324875 -0.048656683
-0.039641045 -0.05878225 0.027523544 -0.11359309 0.06802635 0.08411348 0.13245288 -0.008175549
-0.085452646 -0.030381365 0.050941728 -0.02533535 0.11822082 -0.041727856 -0.009763183 -0.0315308
0.14521892 -0.1213917 -0.008481827 0.030932875 0.09155011 0.027896948 0.020282311 0.14938028
0.17059308 0.14846566 -0.047179107 0.07450854 -0.06846199 0.073258914 -0.040688723 -0.017610917
-0.07018164 -0.09110265 0.13052255 -0.10752156 -0.069705434 0.059284687 0.015971877 0.1043047
0.15501483 0.022452643 0.08535874 -0.0026473617 0.08345872 0.10040866 -0.035275046 0.055293918
-0.03780181 0.108070426 -0.027951831 -0.07839878 0.056699526 0.1402703 0.056607876 -0.08445464
0.016248802 -0.10103131 -0.01915622 -0.07038553 0.104962856 -0.03246999 0.0033542123 0.12650022
-0.036086764 -0.06577235 -0.06879041 0.015335618 -0.087754026 0.067050196 0.13799042 0.08298418
-0.088578895 0.119605534 -0.11407562 0.13829798 0.07403469 0.13826123 0.11058898 0.044381026
0.15356167 -0.09836427 -0.03699054 -0.04632043 0.014539468 -0.04374383 -0.017858298 0.08248218
-0.08224496 0.124604054 -0.06821223 -0.09242915 0.03922237 0.124434896 -0.067591555 -0.03604376
0.12882839 -0.06342551 0.105894074 -0.04536919 0.036893196 -0.0030113321 -0.12030312 0.12060992
0.040038012 -0.05282763 0.08760841 -0.079216585 0.04873407 -0.07074758 0.06085641 -0.08404661
0.10158416 -0.03261923 0.035859145 0.09547359 -0.04652257 0.06951099 0.10207967 -0.03444044
0.03740981 -0.005867073 0.08277769 0.098389536 0.06607408 0.010848444 0.10878995 -0.03602302
-0.0021785349 0.015003951 0.034475572 0.026952855 0.0879658 0.09079778 -0.10656081 0.008668328
-0.089979194 -0.09091143 0.09035849 0.06466398 -0.051311713 -0.0064938515 -0.04321605 -0.019572314
0.06917846 0.017202277 -0.061199207 0.09744606 0.074393675 0.12794685 -0.008463464 -0.030250905
0.09468282 -0.13707915 -0.04887105 0.08286284 0.11116871 0.11158292 0.11934892 0.081289865
-0.069742456 -0.08986681 -0.13343392 -0.045496613 0.027887303 0.11313004 0.05948706 -0.0034163545
-0.02018632 -0.051163994 0.12201839 0.091354564 -0.025007378 -0.029790223 -0.039959926 0.12495816
0.15324655 0.039257117 0.004806478 -0.035168145 0.03994615 -0.05206275 0.015026281 0.06948409
-0.06283165 -0.08252641 -0.012871871 0.017686343 0.06978975 -0.04545711 0.16275986 0.085328504
0.065300554 0.08320675 -0.033959176 -0.08144248 -0.08426974 -0.016550241 0.11653511 -0.074930556
0.1328347 -0.072227105 0.0745681 0.03930984 0.1280242 -0.09141347 -0.0138253225 0.036370806
0.013781232 -0.0940126 0.10996628 -0.10315794 -0.02491506 0.09315156 -0.016353095 -0.04930253
0.00056661153 0.04554981 0.029196305 -0.011627062 -0.05032973 -0.022805085 -0.011123416 -0.031263523
0.04664123 0.07154397 -0.04366627 0.046792578 -0.0502983 0.1446297 -0.0071136844 0.12230394
-0.010723294 0.05239094 0.09015906 0.1477366 0.098297805 -0.01201028 0.10308888 -0.034612376

fc.weight f4 [1, 64]
00000000: 59e3 06be d168 b23d 2dd2 013e 5a3f cbbd
00000010: a5c2 d6bd 6a27 773d 4f1d 71bc 715a 0a3e
00000020: eb26 083e 709a 093e 3fa2 efbd a849 013d
00000030: 4da1 9f3d 5d4b 8f3d c27c b4bd c4e4 bf3d
00000040: 76d8 823d 3d9e 01be 32c3 eb3d e9d1 5cbd
00000050: f843 fd3b c0f8 073e ef4d d43d 3c85 adbd
00000060: 29cc b7bd 547f b73d 03cc 4d3d f130 c5bd
00000070: c3e5 543d 6ef2 03be 0b33 2bbd 9f71 f33d
00000080: 1327 efbd adba bd3d 231f 05be 34f9 3f3d
00000090: 8603 403d 11c7 113d 276a ad3d d3b2 c13d
000000a0: da76 1c3e adeb a9bc bfe0 e83d 8ef1 6cbd
000000b0: e39a e53d d414 e4bd b495 1bbe b282 57bd
000000c0: a5d0 58bd 06c8 0ebd 902b a43d 6719 97bc
000000d0: 99a3 bd3d 18bb c5bd 1856 1abe e01e d33d
000000e0: 6c39 073e 6b88 6f3d 1961 b93d 005d 073e
000000f0: 36db 2a3d bf6e 113e dcd1 02be eb93 903d
-0.13172664 0.087113984 0.12677832 -0.09924193 -0.10486344 0.060340323 -0.01471646 0.13511063
0.13296096 0.1343782 -0.11700868 0.031564385 0.077944376 0.06996796 -0.08812858 0.093698055
0.06388943 -0.1265802 0.1151184 -0.053911123 0.00772905 0.13278484 0.10366427 -0.08472678
-0.08974487 0.08959833 0.05024339 -0.096284755 0.05197693 -0.12885448 -0.041796725 0.11886906
-0.11677375 0.09264121 -0.13000159 0.046868518 0.04687836 0.035590235 0.084675126 0.09457936
0.15279713 -0.020742262 0.11370992 -0.057847552 0.11211183 -0.11136785 -0.15193826 -0.052614875
-0.052933354 -0.034858726 0.080161214 -0.01844473 0.092597194 -0.09654826 -0.15071905 0.10308623
0.13205498 0.058479708 0.09051723 0.1321907 0.041712962 0.14202403 -0.12775367 0.07059463
