checkpoints/North-West/best_model.pth (torch, 820137 bytes, 9 tensors)

lstm.weight_ih_l0 f4 [512, 11]
0	0x3d9d2c68	0.076744854
1	0xbdaf2fdf	-0.085540526
2	0x3d977c61	0.0739677
3	0x3d393d6c	0.045224592
4	0xbc9bba13	-0.019009626
5	0x3d55faf8	0.052241296
6	0x3d9de929	0.077104874
7	0x3c9d4a15	0.019200364
8	0xbd8e06e3	-0.06934907
9	0x3d7d2068	0.061798483
10	0x3dc82518	0.097727
11	0x3d3ed9b2	0.04659433
12	0x3d8939a3	0.067004465
13	0x3bd5ca0f	0.0065243314
14	0x3c548ffc	0.012973782
15	0x3cb39128	0.021919802
16	0x3cc1aa47	0.023640765
17	0xbb37f8af	-0.002807181
18	0xbc1ee606	-0.009698397
19	0xbd2608b0	-0.04053563
20	0xbccda4ce	-0.025102999
21	0xbd9564e7	-0.07294636
22	0x3d6c2f95	0.057662565
23	0x3bceb1de	0.0063078245
24	0xbcf4eeb6	-0.029898982
25	0x3c98abad	0.018636549
26	0xbd2d67de	-0.042335384
27	0xbd07cb77	-0.033153024
28	0xbdb7e3d8	-0.089790046
29	0xbd8d9d3e	-0.06914757
30	0xbc2a41a6	-0.010391628
31	0x3ce68f87	0.028144611
32	0x3bedeb87	0.007260743
33	0x3da02b1a	0.07820721
34	0xbd2f689c	-0.042824373
35	0x3dcb97d7	0.099410705
36	0xbd4937da	-0.04912553
37	0xbc9222bc	-0.017838828
38	0x3d6947ca	0.05695323
39	0x3c408496	0.011750361
40	0x3c904e85	0.017615566
41	0x3db1f482	0.08689214
42	0xbc4cfb7c	-0.01251113
43	0xbd503bf5	-0.05083843
44	0x3d9ed364	0.07755163
45	0xbd69bb34	-0.057063296
46	0xbd82b715	-0.063825764
47	0x3d200714	0.03906925
48	0xbd20136d	-0.039081026
49	0xbaf36275	-0.0018568771
50	0x3d52c0b3	0.051453304
51	0xbc809195	-0.015694419
52	0x3dbf0523	0.093271516
53	0xbc5b7c27	-0.013396299
54	0xbd2a3728	-0.041556507
55	0xbc902325	-0.017594883
56	0x3dd1ea26	0.102497384
57	0xbd98802b	-0.07446321
58	0x3d241006	0.040054344
59	0x3d93ea49	0.07222421
60	0x3daae023	0.08343532
61	0x3d5ad465	0.05342521
62	0x3d4a397e	0.049371235
63	0x3c831005	0.01599885
64	0x3d5958ba	0.053063132
65	0xbc44be71	-0.012008295
66	0xbd82f7e9	-0.06394941
67	0xbc2c8b60	-0.010531276
68	0xbd714bcf	-0.058910187
69	0xbd9f932d	-0.077917434
70	0x3b28cd3c	0.0025757095
71	0xbc96a400	-0.018388748
72	0xbd81f8e3	-0.063462995
73	0xbd2af8f3	-0.041741323
74	0x3da5e5e0	0.08100486
75	0xbd64c7c4	-0.055854574
76	0xbd85dd43	-0.06536343
77	0x3dceff85	0.1010733
78	0x3dc679af	0.09691178
79	0xbd3d2866	-0.046181105
80	0xbc6b298e	-0.014353169
81	0x3cf17050	0.0294725
82	0x3c8e19ad	0.017346228
83	0x3d330768	0.043708235
84	0x3d263596	0.040578447
85	0xbd775c92	-0.060391016
86	0xbd0eec43	-0.034893285
87	0x3d8e033c	0.06934211
88	0x3dc4deb4	0.0961279
89	0x3bad8928	0.0052958913
90	0x3d354d5a	0.04426322
91	0xbbd0800c	-0.0063629206
92	0x3cf07794	0.029353894
93	0x3c66d696	0.014089247
94	0x3c61e9aa	0.01378862
95	0xbda11794	-0.07865825
96	0x3d0c38df	0.034233924
97	0xbd512315	-0.051058847
98	0xbcea1d2b	-0.028578361
99	0xbca16ba5	-0.01970465
100	0xbd5e0a4f	-0.05420905
101	0x3d1560ff	0.036469456
102	0x3db345df	0.08753561
103	0x3c80472b	0.015658936
104	0x3d377ee9	0.044798765
105	0x3da96a88	0.08272272
106	0x3c825470	0.015909404
107	0x3d1c81f4	0.03820987
108	0xbcc59e43	-0.024123317
109	0x3d901acd	0.07036362
110	0x3c8c6b9d	0.017141158
111	0x3d8f2559	0.069895454
112	0xbcf925a2	-0.030413453
113	0xbbaa6495	-0.0051999786
114	0xbba8f779	-0.005156454
115	0x3c4c1bf5	0.012457837
116	0x3d673c01	0.05645371
117	0xbd4faf6a	-0.050704397
118	0xbd51d4c6	-0.051228307
119	0xbcc7e3c4	-0.0244006
120	0x3c8ea19b	0.017411044
121	0xbd54ded3	-0.051970314
122	0x3d735f2e	0.059416942
123	0xbdd8b67d	-0.10581682
124	0x3d917605	0.071025886
125	0xbadafd6c	-0.0016707606
126	0x3d86092a	0.06544717
127	0xbdb43dda	-0.0880086
128	0xbdb2989a	-0.08720513
129	0x3d7f18aa	0.06227938
130	0x3cc3af04	0.023887165
131	0x3cbc9ac1	0.023023011
132	0x3d434bae	0.047679596
133	0xbd7e26c4	-0.06204869
134	0x3d3177ba	0.04332707
135	0xbd3a8c66	-0.04554405
136	0x3cde005c	0.02709978
137	0x3d816843	0.063187145
138	0x3d78e6bb	0.060766917
139	0x3d43a7bf	0.047767397
140	0xbbdb7251	-0.006696977
141	0x3d0bf311	0.034167353
142	0x3d108a4b	0.035288136
143	0x3da486cd	0.08033524
144	0x3d751203	0.05983163
145	0x3db2628c	0.087102026
146	0x3d02f5b5	0.031972606
147	0x3c516f92	0.012782948
148	0x3d9d7723	0.07688739
149	0x3dabaa4a	0.083820894
150	0xbd0e3def	-0.034727033
151	0xbc278e1f	-0.010226755
152	0xbdae2100	-0.08502388
153	0xbd383cbd	-0.0449798
154	0xbc10899f	-0.008821874
155	0x3cbfe77b	0.023425808
156	0xbd126b99	-0.035747144
157	0xbd327c5d	-0.043575633
158	0x3d1a866e	0.03772586
159	0x3cefa307	0.029252542
160	0xbd4cc79f	-0.04999506
161	0xbb8d1b9f	-0.004306271
162	0x3d2f4bcc	0.042796895
163	0x3d5f2784	0.054481044
164	0x3c6cff52	0.01446517
165	0xbd1d1753	-0.03835232
166	0xbd527ade	-0.051386707
167	0x3d188e20	0.037244916
168	0x3c493009	0.012279519
169	0x3d5af4dc	0.053456172
170	0x3d890d83	0.0669203
171	0xbc3ba5f6	-0.011453142
172	0xbd92cdd5	-0.071681656
173	0xbd281169	-0.04103223
174	0x3cd30c89	0.025762813
175	0x3d29730e	0.04136949
176	0x3d38e9b1	0.04514474
177	0xbcd7acbf	-0.026327489
178	0xbc7d3ba9	-0.015456119
179	0xbdc171df	-0.09445547
180	0xbd87f3e1	-0.06638313
181	0xbd9a760f	-0.07542049
182	0x3d0e30f5	0.034714658
183	0xbd7a2b2f	-0.06107634
184	0x3d398bed	0.04529946
185	0xbcd94374	-0.026521422
186	0x3bff6e03	0.007795097
187	0xbb6f5f8b	-0.0036525454
188	0x3ce9789c	0.028499894
189	0x3d1cd91a	0.03829298
190	0xbd704626	-0.05866065
191	0xbd98e81a	-0.07466145
192	0x3db1ba75	0.08678142
193	0xbd982f48	-0.07430893
194	0xbd1586fc	-0.036505684
195	0xbcff3275	-0.03115199
196	0xbd7917d9	-0.06081376
197	0x3d93d3d4	0.072181374
198	0x3d32cdf5	0.043653447
199	0x3dad0158	0.08447522
200	0xbbbbb29b	-0.0057280785
201	0xbd758cb3	-0.059948634
202	0x3d3dfe92	0.046385355
203	0x3d5c70dc	0.05381857
204	0xbd13e016	-0.036102377
205	0xbc8ecbcc	-0.017431162
206	0xbd019c2b	-0.031643074
207	0xbd5e7458	-0.054310173
208	0xbcaee65f	-0.021350084
209	0x3d889b8b	0.066702925
210	0x3d173a87	0.03692105
211	0xb9ed82df	-0.0004530167
212	0xbc9e863e	-0.019351121
213	0x3d83a79e	0.06428455
214	0x3de11fe8	0.10992414
215	0x3dc78192	0.097415105
216	0x3d85e9ba	0.065387204
217	0xbd800fd4	-0.06253019
218	0xbd4368ab	-0.04770724
219	0xbd6f4a3e	-0.058420412
220	0x3c828646	0.015933167
221	0x3d5ad9ea	0.053430475
222	0xbd138fff	-0.036025997
223	0x3d45f19a	0.048326112
224	0x3d1fee98	0.0390459
225	0x3d148dc7	0.036268022
226	0xbd21230f	-0.039340075
227	0xbd56c5db	-0.052434783
228	0x3dbaef16	0.09127633
229	0x3cc9c3e4	0.02462954
230	0x3da1ee92	0.07906832
231	0xbca4adae	-0.020102348
232	0x3dab4cf9	0.08364291
233	0xbc8e45c9	-0.01736726
234	0x3d22402c	0.03961198
235	0xbcf8619d	-0.030319983
236	0x3d5d7b73	0.05407281
237	0xbd0cdf45	-0.034392614
238	0x3b052c50	0.0020320602
239	0xbccef338	-0.02526246
240	0xbdbd32f4	-0.09238234
241	0x3c85c8c0	0.016331077
242	0xbd9384a2	-0.07203032
243	0x3dd3b2f2	0.103368655
244	0xbd1eb4fe	-0.038746826
245	0x3dc71afb	0.09721943
246	0x3cea8bea	0.02863117
247	0xbd55c3fe	-0.052188866
248	0x3dbeddb9	0.09319634
249	0xbd921cb6	-0.071343824
250	0x3d3d3781	0.04619551
251	0xbda05d1f	-0.078302614
252	0x3de0069f	0.10938763
253	0x3ce02ba0	0.027364552
254	0xbcddef11	-0.027091535
255	0x3d919fce	0.071105585

lstm.weight_hh_l0 f4 [512, 128]
0	0xbbf9f71d	-0.007628335
1	0xbb856e24	-0.0040719677
2	0x3cb16132	0.021652792
3	0xbd20b5f0	-0.03923601
4	0x3c023999	0.007948303
5	0x3c08b201	0.008343221
6	0xbb035922	-0.002004214
7	0x3d83d704	0.06437495
8	0x3caf866a	0.021426398
9	0x3d27ae71	0.040937845
10	0x3c5e71e5	0.013576959
11	0x3d8b89b2	0.06813373
12	0x3d61aff0	0.055099428
13	0x3b206a1b	0.0024477306
14	0xbd7d1f37	-0.061797347
15	0xbb9e3cab	-0.0048290095
16	0xbd4aad5e	-0.049481742
17	0x3c9c218b	0.019058963
18	0x3d2ee565	0.042699236
19	0xbd23292a	-0.03983418
20	0x3c1fed26	0.00976113
21	0x3d21e0bc	0.039520964
22	0x3d43d770	0.04781288
23	0xbca5db1e	-0.020246085
24	0x3bb88c26	0.0056319414
25	0xbd31f2d3	-0.043444466
26	0xbceca9bb	-0.028889528
27	0x3d679f3b	0.05654834
28	0xbca910b3	-0.020637846
29	0xbd87456c	-0.06605038
30	0x3d04d60e	0.0324307
31	0x3c3d2de8	0.011546589
32	0x3d7a3d3d	0.061093558
33	0xbd04b669	-0.032400522
34	0x3cafe686	0.021472227
35	0xbca483f3	-0.02008245
36	0x3d173c6a	0.03692285
37	0x3dbc0530	0.09180677
38	0xbcd62b6f	-0.026143758
39	0xbcf089d0	-0.02936259
40	0x3d428ba9	0.04749647
41	0x3c01e31d	0.007927683
42	0xbce4a06e	-0.02790853
43	0x3c25ea46	0.010126656
44	0xbd1f1cf8	-0.038845986
45	0x3d43300a	0.047653235
46	0x3d5e51a1	0.054277066
47	0x3d2ae6dc	0.04172407
48	0xbb57c83b	-0.0032925743
49	0x3c59113b	0.013248737
50	0x3d1b2b98	0.03788337
51	0x3d715aab	0.05892436
52	0x3d2783f9	0.040897343
53	0xbd386536	-0.045018397
54	0x3d07a6b2	0.033117957
55	0xbd522abb	-0.051310282
56	0xbcee179b	-0.02906399
57	0xbc869c3d	-0.016431922
58	0xbce4dd36	-0.027937513
59	0xbcecc54c	-0.028902672
60	0xbd1a9903	-0.03774358
61	0xbb8e67a3	-0.0043458506
62	0x3d20b93d	0.039239157
63	0x3c62c368	0.013840534
64	0x3ba4e56d	0.0050322325
65	0x3c12f1f6	0.008968821
66	0x3ca90e41	0.02063668
67	0xbc79ab5d	-0.01523861
68	0x3d0b6204	0.03402902
69	0x3c769837	0.015050939
70	0xbd187856	-0.037224136
71	0xbd427f5b	-0.047484737
72	0x3c426f2c	0.011867326
73	0xbd15bd9d	-0.036557782
74	0xbd27c663	-0.04096068
75	0xbc8472c5	-0.016168008
76	0xbcbf6c05	-0.023366937
77	0x3cb3df87	0.021957172
78	0xbb01e560	-0.0019820556
79	0xbd5ce3a8	-0.053928047
80	0xbd4ee953	-0.050515484
81	0x3d064113	0.032776903
82	0x3d266bcb	0.040630143
83	0xbd58f5e7	-0.052968886
84	0xbd4e3a47	-0.050348546
85	0x3d34c2e9	0.044131193
86	0xbd99d295	-0.075108685
87	0x3d15d32f	0.036578353
88	0x3cd36d70	0.02580902
89	0xbd261544	-0.040547624
90	0xbd3b131e	-0.04567253
91	0x3d6f63a4	0.058444634
92	0xbd4b9301	-0.04970074
93	0xbc5ecbcc	-0.013598394
94	0x3d4e1d17	0.05032071
95	0x3d507812	0.050895758
96	0x3cc98ab7	0.024602277
97	0x3acedf99	0.001578319
98	0x3c84f9dd	0.016232425
99	0x3c06e327	0.008232868
100	0xbd7c76b1	-0.06163663
101	0xbd7599ef	-0.059961256
102	0xbc7445da	-0.014909232
103	0xbcaf46ba	-0.02139603
104	0xbc75a491	-0.014992849
105	0x3cf431c4	0.029808886
106	0xbb94a8b5	-0.004536713
107	0xbd2a43cc	-0.041568562
108	0x3d3314c7	0.043720987
109	0x3ccb4246	0.024811875
110	0xbd039403	-0.032123577
111	0x3c8e0f04	0.017341144
112	0xbb346f9f	-0.0027532352
113	0x3cebaa2c	0.028767668
114	0xbca1d368	-0.019754127
115	0xbd7a026d	-0.06103747
116	0x3d3ae216	0.04562577
117	0x3bf96262	0.007610605
118	0xbd78fd88	-0.06078866
119	0x3d531682	0.051535137
120	0x3cc1e62e	0.023669329
121	0x3d6c5df2	0.05770678
122	0xbd236c69	-0.03989831
123	0x3d4a27a7	0.04935422
124	0xbd9879bd	-0.07445095
125	0xbd951184	-0.072787315
126	0x3c3412cb	0.010990809
127	0xbd1f9640	-0.03896165
128	0x3d050a2c	0.032480404
129	0x3d842523	0.06452396
130	0xbd35656a	-0.04428617
131	0xbd29e692	-0.041479655
132	0x3d51e54b	0.05124406
133	0xbc11b05f	-0.008892148
134	0xbd7182be	-0.058962576
135	0xbcc28a69	-0.02374764
136	0xbd6e80f2	-0.05822844
137	0x3cea8101	0.028625967
138	0xbd1c8c60	-0.03821981
139	0xbd6ffbec	-0.05858986
140	0x3d912241	0.070866115
141	0x3d071d57	0.032986965
142	0x3cfba23e	0.030717012
143	0xb9bf5c77	-0.0003649925
144	0x3d5b3e85	0.05352642
145	0xbd05ebd0	-0.03269559
146	0xbd58e9bb	-0.052957278
147	0xbd0a16a3	-0.033712994
148	0xbd3726fb	-0.04471491
149	0x3d130533	0.03589363
150	0xbdc407f2	-0.09571828
151	0x3d802173	0.0625638
152	0xbbc8b1bb	-0.0061247027
153	0x3d326eab	0.043562572
154	0x3d6d6d3f	0.057965513
155	0x3d82ceeb	0.06387123
156	0x3d38900f	0.04505926
157	0x3d146f6d	0.036239076
158	0x3d52a374	0.051425412
159	0xbd88932b	-0.06668695
160	0x3d9a2c3d	0.07527969
161	0x3d804b45	0.062643565
162	0xbbe49887	-0.0069761905
163	0xbd086694	-0.03330095
164	0xbd7f5aa8	-0.062342316
165	0x3d76a600	0.060216904
166	0x3d96f350	0.07370627
167	0xbc76e5b0	-0.01506941
168	0xbd34e41b	-0.04416285
169	0xbd1fdb9c	-0.039027795
170	0xbd6a9166	-0.05726757
171	0xb9cd758f	-0.00039188235
172	0x3d7899cd	0.06069355
173	0xbcf3e094	-0.029770173
174	0x3cb7b9f6	0.02242754
175	0x3d6fce4e	0.058546357
176	0x3d630200	0.05542183
177	0x3c0d09f9	0.008608335
178	0x3d3281d6	0.043580852
179	0xbd2adc28	-0.041713864
180	0x3c83ba63	0.016080087
181	0xbd040d49	-0.032239232
182	0xbd338b60	-0.04383409
183	0xbd8cfba9	-0.06883938
184	0x3c7c1af9	0.01538729
185	0x3d16d9c9	0.03682879
186	0xbd8ef9c9	-0.069812365
187	0xbd69e904	-0.057106987
188	0x3d8a6c8d	0.06758986
189	0xbd7e4cbd	-0.062084902
190	0x3c79cee2	0.015247079
191	0x3cace7bd	0.021106595
192	0xbd57a9eb	-0.05265228
193	0xb95b89e2	-0.00020936833
194	0x3d299bc3	0.04140831
195	0x3d2fcbd9	0.042919014
196	0xbd3cb61e	-0.046072118
197	0x3d99b785	0.07505707
198	0x3c6ccd02	0.014453175
199	0xbd14c910	-0.03632456
200	0xbd46dd00	-0.048550606
201	0x3d61d0f0	0.0551309
202	0xbca1447a	-0.019685972
203	0x3c9d264f	0.019183306
204	0xbd0f63f5	-0.035007436
205	0x3d3608c8	0.04444197
206	0x3c99763a	0.018733133
207	0x3d5f148f	0.054462966
208	0x3d4524e0	0.04813087
209	0x3b862fbf	0.0040950472
210	0x3d07a7d2	0.03311903
211	0x3cc641f0	0.024201363
212	0x3d1afb47	0.037837293
213	0xbb5a14de	-0.0033276598
214	0x3d3f00c7	0.0466316
215	0xbcd70347	-0.02624668
216	0xbcb539e0	-0.022122324
217	0xbce67ecd	-0.028136635
218	0x3d66907d	0.05629014
219	0x3d2c1712	0.04201419
220	0x3cafa08d	0.021438861
221	0xbd0c7a9d	-0.03429662
222	0x3d8854b4	0.06656781
223	0x3d01e09c	0.031708345
224	0x3cecc3e2	0.028901998
225	0x3d7a0916	0.06104382
226	0xbd33f92a	-0.043938793
227	0xbd64f6db	-0.055899482
228	0xbce0515d	-0.027382547
229	0xbd9df3d2	-0.07712521
230	0xbd7a250a	-0.06107048
231	0x3d90c0cb	0.07068022
232	0x3d695a1e	0.056970708
233	0xbc1a528f	-0.009419098
234	0xbc57cec1	-0.013171853
235	0xbd769d0d	-0.06020837
236	0x3d1bd71c	0.03804694
237	0x3c75eadb	0.015009607
238	0x3d936a46	0.071980044
239	0xbd3226dc	-0.04349409
240	0x3cb82fec	0.022483788
241	0x3cad56c8	0.021159545
242	0xbd2a1fdf	-0.0415343
243	0x3d8032d2	0.06259693
244	0xbc0ca036	-0.008583119
245	0x3d842994	0.06453243
246	0xbcd56114	-0.026047267
247	0x3bf19855	0.0073728957
248	0xbb8353c9	-0.0040077907
249	0xbd0bedf3	-0.034162473
250	0xbd65757c	-0.056020245
251	0xbd4992a2	-0.049212106
252	0x3d1095e9	0.035299215
253	0x3d94e71e	0.072706446
254	0xbd84c76f	-0.064833514
255	0x3c09f7a6	0.00842086

lstm.bias_ih_l0 f4 [512]
0	0xbd999de3	-0.075008176
1	0xbd4b3dbe	-0.04961943
2	0xbb56d77e	-0.0032782252
3	0xbd425eb4	-0.047453597
4	0x3d87e15b	0.0663478
5	0x3d39e520	0.045384526
6	0x3cf5d8f2	0.030010674
7	0x3d89c98d	0.06727896
8	0x3ba7452d	0.005104682
9	0xbd51fe14	-0.0512677
10	0x3db0bfe8	0.08630353
11	0x3d24f9e6	0.040277384
12	0x3dba9b07	0.091116
13	0x3c5cd40d	0.013478291
14	0xbd29869e	-0.041388147
15	0xbc8a554b	-0.016886374
16	0x3d9f4d0e	0.07778369
17	0x3d82fcb1	0.06395853
18	0x3d1868b8	0.037209243
19	0xbd1eb40e	-0.038745932
20	0x3db993b2	0.09061374
21	0xbd5fec13	-0.054668497
22	0xbd2e78c8	-0.042595655
23	0x3db9e4d5	0.09076849
24	0xbd023958	-0.03179297
25	0xbcf6f3a8	-0.030145481
26	0xbd0881ce	-0.033326916
27	0xbb70e120	-0.0036755279
28	0xbd834312	-0.06409277
29	0x3ca97442	0.020685319
30	0xbd48958f	-0.048970755
31	0x3d4d8219	0.0501729
32	0x3cf527f5	0.02992628
33	0x3d9670df	0.07345747
34	0x3c861e4c	0.016371869
35	0x3db2de7a	0.0873384
36	0xbd68ecf9	-0.05686662
37	0x3cb6b46a	0.022302825
38	0x3cac24c0	0.021013618
39	0x3dc41107	0.0957356
40	0xbd668c07	-0.056285884
41	0x3ccec40a	0.025239963
42	0xbb270f79	-0.00254914
43	0x3d39760f	0.045278605
44	0xbd74ca0f	-0.05976301
45	0x3d52887b	0.05139969
46	0x3d625eec	0.055266306
47	0xbd7e2a2c	-0.062051937
48	0x3bf231b6	0.00739118
49	0xbd9af61c	-0.07566473
50	0xbccfe1fc	-0.025376312
51	0x3d865b3a	0.06560369
52	0x3c2e7cee	0.010649903
53	0xbc0fd37b	-0.008778448
54	0x3d26a3e9	0.04068366
55	0x3daeec56	0.08541171
56	0xbd2ad623	-0.041708123
57	0xbd8f25cb	-0.0698963
58	0x3d9ca4b0	0.07648599
59	0x3d1a59d5	0.037683327
60	0x3cf8c6ad	0.030368173
61	0x3d871ce7	0.065973096
62	0xbcefed2b	-0.029287895
63	0xbcee8402	-0.02911568
64	0xbcb27b81	-0.021787407
65	0x3d5236a6	0.051321648
66	0x3da003b4	0.07813206
67	0xbd3781ca	-0.04480151
68	0x3ca05931	0.01957378
69	0xbc10c6dc	-0.008836474
70	0x3da4a358	0.08038968
71	0xbd29bbee	-0.04143899
72	0xbca9c95c	-0.020725898
73	0x3c226466	0.009911632
74	0x3d759e9e	0.059965722
75	0x3d6e5e32	0.0581953
76	0x3c0c8410	0.008576408
77	0xbd87bff6	-0.066284105
78	0x3d3db69e	0.046316735
79	0x3cdf2e21	0.027243676
80	0x3d865d5d	0.065607764
81	0x3d6665d9	0.056249473
82	0xbd6668fa	-0.056252457
83	0x3da0cf8f	0.07852089
84	0x3d933f26	0.07189779
85	0x3d85f7b8	0.06541389
86	0xbbcf8cbc	-0.0063339155
87	0xbd47be4a	-0.04876546
88	0xbd8b7777	-0.068098955
89	0xbd8fedba	-0.070277646
90	0xbcfdb3b9	-0.030969488
91	0x3d1bc164	0.03802623
92	0x3bb73333	0.00559082
93	0x3da79701	0.081830986
94	0x3d960722	0.07325579
95	0x3dad25cb	0.08454474
96	0x3c0c5abd	0.008566556
97	0xbd672358	-0.05643019
98	0x3d40873c	0.04700397
99	0x3cde2b10	0.027120143
100	0x3cd84e19	0.026404427
101	0x3dc9e5fd	0.0985832
102	0xbd975d2e	-0.073908195
103	0x3d1a261e	0.037634008
104	0x3d028676	0.031866513
105	0xbd82af43	-0.06381085
106	0x3d6c9f0a	0.05776886
107	0xbd686d6d	-0.05674498
108	0xbcf70ef6	-0.030158501
109	0x3ca941c7	0.020661248
110	0xbd2bb269	-0.041918192
111	0xbc9c301b	-0.019065907
112	0xbd73513c	-0.059403643
113	0xbd7589dd	-0.05994593
114	0x3c776f4d	0.01510222
115	0x3d2b0b18	0.041758627
116	0x3d149717	0.036276903
117	0x3d186a17	0.03721055
118	0xbc2230f1	-0.009899364
119	0xbcdf1046	-0.02722944
120	0xbd460e99	-0.048353765
121	0xbd35abea	-0.044353403
122	0xbd909cbd	-0.070611455
123	0xbc969186	-0.018379938
124	0x3bbdbcec	0.0057903435
125	0xbcac7c8f	-0.021055488
126	0x3da4c133	0.08044662
127	0x3ba47296	0.0050185425
128	0xbd860268	-0.06543428
129	0x3d92e72f	0.07173001
130	0xbc544825	-0.012956654
131	0xbc9e8e91	-0.01935509
132	0x3dc08ea5	0.09402207
133	0x3d7dbc2e	0.06194704
134	0x3d3f8522	0.046757825
135	0xbc32ba08	-0.010908611
136	0xbd54853b	-0.05188487
137	0x3c07c55a	0.008286798
138	0x3d60d64e	0.054891877
139	0xbd9c91e5	-0.07645015
140	0xbc0c707c	-0.00857174
141	0x3d988dfb	0.074489556
142	0x3cf69c84	0.03010393
143	0xbcff4102	-0.031158928
144	0xbb35cf93	-0.0027742132
145	0x3bd96718	0.006634604
146	0xbcd90c32	-0.026495073
147	0x3dd3a9ba	0.10335107
148	0xbcb698a1	-0.022289576
149	0xbd6f199b	-0.05837403
150	0x3d73f071	0.059555475
151	0xbd7cf572	-0.061757512
152	0xbc7f3366	-0.015576219
153	0xbd3e87c0	-0.04651618
154	0xbd6645cf	-0.05621892
155	0x3d53cdf2	0.051710077
156	0x3d6dbd79	0.058042023
157	0x3dad36c1	0.08457709
158	0xbda67c16	-0.08129136
159	0x3b135c37	0.0022485384
160	0x3b897ce3	0.004195796
161	0xbcb54e45	-0.022132048
162	0xbcd9bd5a	-0.026579548
163	0xbce83d7b	-0.028349629
164	0x3d56cec2	0.052443273
165	0x3dc53268	0.09628755
166	0xbcab0e5f	-0.020880876
167	0x3d9e2ab5	0.077229895
168	0x3c46f00b	0.012142192
169	0xbc063905	-0.008192305
170	0xbd6951bb	-0.05696271
171	0xbd6eebbe	-0.05833029
172	0x3d9b0d5b	0.07570907
173	0x3d2cf26b	0.042223375
174	0xbd911418	-0.07083911
175	0xbcecdc5d	-0.028913671
176	0x3d3db41f	0.046314355
177	0xbd8597ba	-0.0652308
178	0x3da6c422	0.08142878
179	0x3b84ddb9	0.0040547517
180	0xbd35b23f	-0.04435944
181	0x3dcf5c4a	0.101250246
182	0xbcdd8cd0	-0.027044684
183	0xbd17b05e	-0.03703343
184	0x3d5eac89	0.05436376
185	0xbce3d559	-0.027811693
186	0xbd662e29	-0.056196366
187	0x3ce1ee2c	0.02757939
188	0xbd370cc5	-0.044689912
189	0xbca29665	-0.019847104
190	0xbd1bf5b1	-0.038076106
191	0xbcc510d0	-0.024055868
192	0x3d7ec053	0.062195133
193	0x3c9b8fc2	0.018989448
194	0xbd84697e	-0.064654335
195	0xbc94b7f9	-0.018154131
196	0xbd6d373a	-0.057913996
197	0x3d11f943	0.035638105
198	0xbd137a1e	-0.036005132
199	0x3d7c8e76	0.0616593
200	0x3bfddee8	0.0077475198
201	0x3d207ea6	0.03918328
202	0x3d927aac	0.07152304
203	0xbd9d6ca2	-0.07686736
204	0xbd9f70e5	-0.07785205
205	0xbc18cb63	-0.009325835
206	0x3d0d5f1b	0.034514528
207	0x3d4da913	0.05021007
208	0x3d12b989	0.03582147
209	0xbd8c3282	-0.06845571
210	0xbbdd06e5	-0.0067452067
211	0xbb11a2c0	-0.002222225
212	0xbd904337	-0.0704407
213	0xbd51d3a3	-0.051227223
214	0x3c609428	0.013707198
215	0xbc553c85	-0.013014917
216	0x3c9d5ff4	0.019210793
217	0x3da62dc1	0.081141956
218	0x3d8a234f	0.06745016
219	0xbce3dc90	-0.027815133
220	0x3d8ed573	0.06974306
221	0xbcec283f	-0.028827785
222	0x3b8b26e1	0.004246578
223	0x3db281bc	0.08716151
224	0x3c126848	0.008935995
225	0xbd369e95	-0.04458483
226	0x3d75b96f	0.059991296
227	0xbbe51930	-0.006991528
228	0xbc029d18	-0.007972024
229	0x3da3b1be	0.07992886
230	0xbd55c151	-0.052186314
231	0x3bdbc6df	0.006707057
232	0x3da13bf4	0.07872763
233	0x3da59eff	0.08086967
234	0x3d60dfb9	0.05490086
235	0x3c71c59d	0.014756587
236	0x3d12d18f	0.035844382
237	0xbd289cf6	-0.041165315
238	0xbd81e0bf	-0.06341695
239	0xbd3b75eb	-0.045766752
240	0x3d81bab4	0.06334439
241	0x3c93f4b2	0.018061016
242	0x3db1f7e1	0.08689857
243	0x3c9d8141	0.019226672
244	0x3d33c4eb	0.043888967
245	0x3d3354a1	0.04378188
246	0xbca75dd9	-0.020430492
247	0x3c88a185	0.016678581
248	0x3cbc43c4	0.022981532
249	0x3d13d5b9	0.036092494
250	0xbd319c20	-0.043361783
251	0xbd533b19	-0.05157003
252	0x3d36dacb	0.04464225
253	0x3d4f1aec	0.050562784
254	0xbd22663b	-0.039648276
255	0x3d044510	0.032292426

lstm.bias_hh_l0 f4 [512]
0	0x3d0e0a6f	0.03467792
1	0x3cd3d101	0.025856497
2	0xbc8cc588	-0.017184034
3	0xbd9c7de3	-0.076411985
4	0x3d4b34ac	0.04961078
5	0xbd94ce47	-0.07265907
6	0xbd6ce1e1	-0.057832602
7	0x3cc3edd4	0.023917116
8	0x3dca1523	0.09867313
9	0xbd18187d	-0.03713273
10	0x3d5834d9	0.052784774
11	0xbdbbaada	-0.09163447
12	0xbc595191	-0.013264076
13	0xbd04058c	-0.032231852
14	0x3d3ab85a	0.045585968
15	0x3c05224d	0.008125854
16	0x3c9b5293	0.018960273
17	0x3d52e9e8	0.0514926
18	0x39f329b1	0.00046379634
19	0x3b59e78c	0.0033249585
20	0x3c9eba7c	0.019376032
21	0xbd57d6ad	-0.052694965
22	0x3dbf2821	0.09333826
23	0xbd00a927	-0.031411316
24	0x3cc4f4ea	0.024042565
25	0xbd8443aa	-0.064582184
26	0x3d84580b	0.06462105
27	0x3d5f7197	0.054551687
28	0xbd2f734c	-0.042834565
29	0x3cd31852	0.025768433
30	0xbd4ee938	-0.050515383
31	0x3db0c2a6	0.08630876
32	0xbd446007	-0.04794314
33	0x3cc5cbc8	0.024145022
34	0x3d8ff6c3	0.07029488
35	0xbc9258da	-0.017864633
36	0x3d252d8b	0.040326636
37	0x3d12cbcd	0.03583889
38	0xbd125487	-0.035725143
39	0xbbdf88a1	-0.0068217074
40	0x3ccbfe55	0.024901548
41	0x3dc885a2	0.097911134
42	0x3d3ff0ec	0.04686062
43	0x3bcb7a15	0.0062096217
44	0x3d43ac33	0.047771644
45	0xbd40b39f	-0.0470463
46	0xbda0d1b5	-0.078524984
47	0xbd6ef22a	-0.058336414
48	0xbd97d515	-0.07413689
49	0x3d949f79	0.072569795
50	0x3d7c96da	0.0616673
51	0xbb88e7e7	-0.0041780355
52	0x3dbe0b27	0.09279471
53	0x3db7b567	0.089701466
54	0x3d254479	0.040348504
55	0x3c20bc3a	0.009810502
56	0xbd63569c	-0.05550252
57	0x3db8f349	0.09030778
58	0xbd5943ca	-0.053043164
59	0x3d95fbb5	0.073234
60	0x3da27532	0.079325095
61	0x3bd121db	0.0063822097
62	0xbd838305	-0.06421474
63	0x3c4c07a3	0.012452993
64	0xbd81d092	-0.0633861
65	0x3c2de4c0	0.01061362
66	0x3da1de8c	0.079037756
67	0x3cd40ffe	0.025886532
68	0x3d8ab049	0.06771905
69	0xbb38efe3	-0.0028219156
70	0x3d612c2d	0.05497377
71	0xbd8c77a4	-0.06858757
72	0xbd53fc9e	-0.051754586
73	0x3d542ce9	0.051800642
74	0xbd5293ba	-0.051410414
75	0x3d988b78	0.074484766
76	0xbd877347	-0.06613784
77	0x3d9c6a70	0.07637489
78	0x3d05ff0b	0.03271393
79	0x3d1ef828	0.03881088
80	0x3d27383a	0.040825106
81	0x3dc9aa7d	0.09846971
82	0x3cf5afa0	0.029990971
83	0xbd30b286	-0.043139003
84	0x3d6cb773	0.05779214
85	0x3cce4efb	0.025184145
86	0x3d9e39f5	0.07725898
87	0x3c18a272	0.009316074
88	0xbd0983b6	-0.033572875
89	0xbd51cdee	-0.05122178
90	0xbd093eff	-0.033507343
91	0x3d85c587	0.06531816
92	0x3c8f3169	0.017479615
93	0x3d2a5ef6	0.041594468
94	0xbd4a639f	-0.049411412
95	0xbcb22e3d	-0.021750564
96	0xbda55ec1	-0.080747135
97	0xbd7f1ec2	-0.062285192
98	0x3da3ac02	0.07991792
99	0xbd230752	-0.039801903
100	0xbc245367	-0.01002965
101	0xbc23b6e6	-0.009992337
102	0x3dae666a	0.08515628
103	0x3d95648d	0.07294569
104	0xbd32d326	-0.043658398
105	0x3d33f81f	0.0439378
106	0xbd30c225	-0.0431539
107	0xbc21659d	-0.009850887
108	0x3c49e45a	0.01232251
109	0x3da77e82	0.08178426
110	0x3d39c36a	0.045352377
111	0x3d99c63b	0.075085126
112	0x3db41d1f	0.08794617
113	0x3d8caeb2	0.06869258
114	0xbcf2dcc3	-0.029646283
115	0x3d182b12	0.03715045
116	0x3bb02dca	0.005376552
117	0xbd55bc5a	-0.05218158
118	0x3d0d2524	0.03445925
119	0xbd0d6c61	-0.034527186
120	0xbca63992	-0.020291124
121	0x3cf48dbd	0.029852742
122	0x3d94f706	0.072736785
123	0x3c1a7e35	0.009429504
124	0xbd583ffe	-0.052795403
125	0x3dbdb8a7	0.09263735
126	0x3d3265c0	0.043554068
127	0x3c749429	0.014927902
128	0x3c436234	0.011925269
129	0xbb8534be	-0.0040651252
130	0x3d2942e0	0.041323543
131	0x3d8ee2ce	0.06976853
132	0x3db9b7d4	0.090682656
133	0x3dc2544b	0.09488734
134	0x38cbc7f8	9.7170414e-05
135	0x3d46cbef	0.04853433
136	0x3d272408	0.040805846
137	0xbd411051	-0.0471347
138	0x3d8968fa	0.06709476
139	0x3d051964	0.032494918
140	0xbd84a460	-0.064766645
141	0x3d8db68b	0.06919583
142	0x3cffce88	0.031226411
143	0x3d3a1f01	0.045439724
144	0xbdc581e6	-0.09643917
145	0x3c213bb8	0.009840898
146	0xbcd16a79	-0.025563465
147	0x3dae6afa	0.08516498
148	0x3cd72517	0.026262803
149	0x3d95eace	0.07320176
150	0xbd70a9fc	-0.05875586
151	0xbce2d358	-0.027688667
152	0x3cdddd86	0.02708317
153	0x3d047859	0.032341335
154	0xbc565594	-0.013081927
155	0x3d564f96	0.052321993
156	0xbd0f85c6	-0.035039686
157	0x3d4570d7	0.048203316
158	0x3d27393e	0.040826075
159	0x3c08851c	0.008332517
160	0xbd8a9ff7	-0.06768792
161	0x3c9b24e2	0.018938486
162	0xbc5267a6	-0.0128420945
163	0x3d8a64ec	0.067575306
164	0xbd5d1229	-0.053972397
165	0x3d877bce	0.06615411
166	0x3d417dbd	0.047239054
167	0x3d1147c5	0.035468835
168	0xbda39e62	-0.079891935
169	0x3d93539e	0.07193683
170	0x3d55a1e5	0.052156348
171	0x3ca543ec	0.02017399
172	0x3d039a05	0.032129306
173	0x3d0b7a00	0.034051895
174	0x3cf12af7	0.029439433
175	0x3c8d0336	0.017213445
176	0xbda29f55	-0.079405464
177	0x3d6bed43	0.057599317
178	0x3da7a3a1	0.081855066
179	0x3d0e459f	0.034734365
180	0xbc8579ad	-0.016293371
181	0xbc2fe952	-0.01073678
182	0xbd987ea7	-0.07446032
183	0xbb47ce74	-0.0030488046
184	0xbd13ff61	-0.03613222
185	0x3ac92951	0.0015347396
186	0xbc69c687	-0.014268524
187	0x3d853eb0	0.06506097
188	0xbc75b394	-0.014996428
189	0x3d7c4779	0.0615916
190	0x3caaf362	0.020868007
191	0x3db3ba45	0.087757625
192	0xbd827710	-0.063703656
193	0x3a963c22	0.0011462013
194	0x3d89f0c8	0.067353785
195	0xbd40373f	-0.046927687
196	0x3d307ab0	0.043085754
197	0x3c6a98cb	0.014318655
198	0x3d328382	0.043582447
199	0x3beec564	0.0072867144
200	0xbbace009	-0.0052757305
201	0x3daca76b	0.0843037
202	0x3cce2223	0.025162762
203	0xbc81c26e	-0.015839782
204	0x3d01d453	0.03169663
205	0x3d40bf8c	0.047057673
206	0xbc598c94	-0.013278145
207	0xbd1bf4a0	-0.03807509
208	0xbb9f00fb	-0.004852412
209	0x3d4d4b93	0.0501209
210	0x3bc28927	0.00593676
211	0xbd743c9d	-0.059628118
212	0xbd528907	-0.05140021
213	0x3d44b1df	0.048021194
214	0x3caa25b9	0.02076994
215	0xbdada61c	-0.084789485
216	0x3d2e16f2	0.04250235
217	0x3cbefd31	0.02331409
218	0xbcc6d7ff	-0.024272917
219	0xbd07f594	-0.033193186
220	0x3da2218b	0.07916554
221	0x3cd929e2	0.02650923
222	0xbc288298	-0.010285042
223	0x3d8a2832	0.06745948
224	0x3d3c7387	0.046008613
225	0xbcea2ce5	-0.02858586
226	0x3b89e067	0.004207659
227	0x3db3bfd2	0.08776821
228	0xbac47dbe	-0.0014991087
229	0x3dab860b	0.08375176
230	0xbc0ae7ff	-0.008478164
231	0x3da5ac21	0.080894716
232	0x3dbebacb	0.09312972
233	0xbd86f5b4	-0.06589833
234	0xbd91908a	-0.07107647
235	0x3d9101cb	0.0708042
236	0x3d5d29c5	0.053994913
237	0xbc962180	-0.01832652
238	0xbdaef76f	-0.08543288
239	0xbda71b54	-0.08159509
240	0x3d840b2d	0.06447444
241	0x3d2e770d	0.042594004
242	0xbc0eaa77	-0.008707634
243	0x3d1eb8a9	0.038750324
244	0x3d2fea71	0.04294819
245	0xbd871325	-0.065954484
246	0x3d72393d	0.059136618
247	0xbd218102	-0.039429672
248	0x3d6fb5e7	0.058523085
249	0xbc5edbda	-0.013602221
250	0xbd66d686	-0.05635693
251	0xbdaf5241	-0.085606106
252	0xbd93e665	-0.07221679
253	0x3c137f6f	0.0090025505
254	0xbb7ba8b4	-0.0038400115
255	0xbdac7007	-0.08419805

lstm.weight_ih_l1 f4 [512, 128]
0	0xbd8f1422	-0.06986262
1	0xbd39550d	-0.045247126
2	0xbb89bfe9	-0.0042037857
3	0x3d5a6adb	0.05332456
4	0xbd3bcb2b	-0.045848053
5	0x3d43fdde	0.04784953
6	0xbb114d31	-0.0022171254
7	0x3d1cd6ee	0.03829091
8	0xbd8e6952	-0.06953682
9	0x3cab3b2a	0.020902235
10	0x3d625a79	0.055262063
11	0xbcd7af1a	-0.026328612
12	0xbdb2732e	-0.08713375
13	0xbc9a363d	-0.018824691
14	0x3d3d9361	0.04628313
15	0x3c280cd7	0.0102569675
16	0xbc6f2c32	-0.014597939
17	0x3bb897f4	0.0056333486
18	0xbd4314c9	-0.047627244
19	0xbb8f9f8f	-0.0043830345
20	0x3d6979af	0.057000812
21	0x3d29a741	0.04141927
22	0xbd53be94	-0.05169542
23	0xbb6e272b	-0.0036339264
24	0xbcb8f560	-0.022577941
25	0x3da47697	0.08030432
26	0x3d218d76	0.03944155
27	0x3d00a6f7	0.03140923
28	0xbdb6f664	-0.08933714
29	0xbca99208	-0.020699516
30	0xbd8b007a	-0.067872
31	0x3c9f3431	0.019434066
32	0x3d50d887	0.050987747
33	0xbca90880	-0.020633936
34	0x3b5d0cdf	0.0033729596
35	0xbc63c467	-0.013901806
36	0x3c5ce777	0.01348292
37	0x3d29ce36	0.041456424
38	0x3d0c2e20	0.034223676
39	0xbd1426f6	-0.03616997
40	0xbd4219ad	-0.047387768
41	0x3ce69bfb	0.02815055
42	0xbd807a7b	-0.06273361
43	0xbc4812bf	-0.012211501
44	0xbd64c5f1	-0.055852834
45	0x3d990611	0.0747186
46	0xbbe4b651	-0.0069797416
47	0x3a66be34	0.0008802146
48	0x3d1e1159	0.038590763
49	0xbd1a80eb	-0.037720602
50	0xbd4ae0bf	-0.04953074
51	0xbcbc1c1d	-0.022962624
52	0xbd8f8b18	-0.07008952
53	0xbb41a482	-0.0029547517
54	0x3c4bae11	0.012431637
55	0x3d36f527	0.04466739
56	0xbbfb5ae5	-0.0076707476
57	0xbd3456a7	-0.04402795
58	0x3d34d35e	0.044146888
59	0x3cd24604	0.025668152
60	0xbd93cfb0	-0.072173476
61	0xbcef72b4	-0.0292295
62	0x3d04997e	0.032372944
63	0x3d8a53b5	0.06754247
64	0xbd7feecc	-0.062483594
65	0xbda5a08a	-0.08087261
66	0xbbed65a9	-0.007244785
67	0xbd919c48	-0.071098864
68	0x3dab4c96	0.08364217
69	0xbd8c3808	-0.068466246
70	0xbc016d9b	-0.007899667
71	0xbcaffbe5	-0.021482417
72	0xbd86c5ef	-0.065807216
73	0x3c475d0b	0.012168179
74	0xbd111df7	-0.035428967
75	0xbd659bf4	-0.05605693
76	0x3d73fefe	0.05956935
77	0x3a09e305	0.0005259964
78	0xbd801694	-0.062543064
79	0xbd498eed	-0.04920857
80	0xbc65b7dd	-0.014020887
81	0xbd56f3a8	-0.052478462
82	0x3c32bd90	0.010909453
83	0xbd288a5a	-0.041147567
84	0xbd690de9	-0.05689803
85	0x3ca76a54	0.020436443
86	0x3d57bc11	0.05266959
87	0x3d2f1d6a	0.04275266
88	0xbcc45dd6	-0.023970526
89	0x3d87177e	0.06596278
90	0xbc9d9a9f	-0.019238768
91	0xbcdbd65b	-0.026835611
92	0xbd564e7d	-0.052320946
93	0x3c402997	0.011728666
94	0x3d01fa2b	0.03173272
95	0x3d91d812	0.0712129
96	0xbcd36576	-0.025805216
97	0x3d28bf48	0.041198045
98	0x3d64e90f	0.055886324
99	0x3d0fb18b	0.035081428
100	0x3d40573d	0.046958197
101	0xbdb97299	-0.09055061
102	0x3d63cd80	0.055615902
103	0xbc9e74da	-0.019342829
104	0x3cc3af14	0.023887195
105	0x3d851f8e	0.06500159
106	0x3b4fc424	0.0031702602
107	0x3d1756c4	0.03694798
108	0xbcc86f0f	-0.02446702
109	0xbd52d8b2	-0.051476188
110	0xbd423965	-0.047418017
111	0x3d52b2e8	0.05144015
112	0xbdb15236	-0.086582586
113	0x3d10c561	0.035344485
114	0x3d87b276	0.066258356
115	0xbd997502	-0.074930206
116	0xbd0bd535	-0.034138877
117	0x3cc6a3ba	0.024247993
118	0x3d7a5850	0.061119378
119	0x3ca24d85	0.019812355
120	0x3bf4268c	0.007450884
121	0xbd8eac07	-0.06966405
122	0xbc96d0ce	-0.018410113
123	0xb960197c	-0.00021371798
124	0x3d5e2bf8	0.05424115
125	0xbba4703f	-0.0050182636
126	0xbd0e4afb	-0.034739476
127	0xbd31a755	-0.04337247
128	0xbd51a08a	-0.051178493
129	0x3c5bba1e	0.013411073
130	0xba6f3dd3	-0.0009126339
131	0xbb93a3f9	-0.004505631
132	0x3dbeb718	0.09312266
133	0xbbf960ad	-0.0076104016
134	0x3d2e647d	0.0425763
135	0x3d48072a	0.048834957
136	0xbc2d8dce	-0.010592891
137	0xbcac01bf	-0.020996926
138	0x3cb42427	0.021989895
139	0xbd8d33af	-0.068946235
140	0x3c5b9363	0.013401839
141	0xbbcde669	-0.0062835705
142	0x3cf999bb	0.030468812
143	0x3cad461f	0.0211516
144	0x3d137773	0.036002588
145	0xb9ce2c73	-0.000393245
146	0xbd8d6c61	-0.06905437
147	0xb97f66f3	-0.00024357047
148	0x3cb349d0	0.021885782
149	0xbd87caac	-0.066304535
150	0x3d789f39	0.06069872
151	0x3cf46771	0.029834481
152	0x3d8a0ced	0.06740747
153	0xbc469e42	-0.012122693
154	0xbcd633b3	-0.026147699
155	0xbd2c8da0	-0.04212725
156	0xbc331eef	-0.010932668
157	0x3d73f33a	0.05955813
158	0x3b965009	0.0045871777
159	0x3da570ff	0.08078193
160	0xbd94e258	-0.07269734
161	0xbd838bd4	-0.064231545
162	0x3adb705e	0.0016741862
163	0xbd4a6093	-0.049408507
164	0x3d01b34b	0.031665128
165	0x3cb967b6	0.022632461
166	0x3ceb5da5	0.028731177
167	0x3c300e90	0.0107456595
168	0xbd708428	-0.058719784
169	0x3d53687a	0.05161331
170	0xbb7509c7	-0.003738986
171	0xbd82f1ac	-0.063937515
172	0xbd93b553	-0.07212319
173	0xbc86729d	-0.016412074
174	0xbce0e426	-0.02745254
175	0x3d2b5de3	0.041837584
176	0xbd56ce4e	-0.05244284
177	0xbd48a0d2	-0.048981495
178	0xbcb8bcb0	-0.02255091
179	0x3d8f2d64	0.069910794
180	0xbc294dd3	-0.010333496
181	0x3cdfe57d	0.027331108
182	0x3b965a32	0.004588389
183	0xbcc6bff7	-0.024261458
184	0xbd1d06dd	-0.038336623
185	0xbd5fb6b1	-0.054617587
186	0xbd82ae16	-0.063808605
187	0x3c9d68d1	0.01921502
188	0xbc9c94b8	-0.019113883
189	0xbd2759de	-0.04085719
190	0x3cacc71f	0.021091042
191	0xbd07617f	-0.033051964
192	0xbd80c02b	-0.06286653
193	0xbd1f2368	-0.038852125
194	0x3ceda6b7	0.02901016
195	0x3d1904b7	0.037358012
196	0xbd09405c	-0.033508644
197	0xbd3acde5	-0.045606513
198	0xbda939ef	-0.08263003
199	0x3b8e3e08	0.004340891
200	0xbca2788e	-0.019832876
201	0x3d8780f9	0.066163965
202	0xbd8e1aa4	-0.06938675
203	0xbd955679	-0.07291884
204	0x3d562f47	0.05229118
205	0xbd31e356	-0.043429695
206	0x3d3ca131	0.04605216
207	0x3d1b0469	0.037846003
208	0x3a5d0523	0.00084312464
209	0x3cda1ae6	0.026624154
210	0xbc2ca213	-0.010536688
211	0xbc65321f	-0.013989001
212	0xbd38ef04	-0.045149818
213	0x3b146421	0.002264269
214	0xbd54bb30	-0.05193633
215	0xbd63298a	-0.055459537
216	0x3cca4e62	0.024695579
217	0xbca21f15	-0.019790212
218	0xbbfdd09a	-0.0077458145
219	0xbd2e162c	-0.042501613
220	0x3c58c11c	0.013229635
221	0xbcd178ee	-0.02557036
222	0xbd1a07b4	-0.037605003
223	0xbd63d6f6	-0.055624925
224	0xbc9dd11d	-0.019264752
225	0xbd7a46b5	-0.061102588
226	0xbca87b5d	-0.020566637
227	0x3d5019dd	0.050805915
228	0xbd30b8e7	-0.043145087
229	0xbd644451	-0.055729214
230	0x3ce217c0	0.027599216
231	0x3cab7b8d	0.020932937
232	0x3c6e85a2	0.014558228
233	0xbc675cb5	-0.014121224
234	0x3d720af4	0.059092477
235	0x3d5ac6ad	0.05341213
236	0xbd2d4d59	-0.042310093
237	0xbcafb947	-0.021450652
238	0x3bd1e0d7	0.006404977
239	0xbd842bc5	-0.06453661
240	0x3d0c5e7f	0.034269806
241	0xbd83896b	-0.06422695
242	0xba3f20d6	-0.0007290965
243	0xbd86eaba	-0.06587739
244	0x3c6632a6	0.0140501615
245	0xbd6280b1	-0.05529851
246	0x3c798c99	0.015231275
247	0x3c0da210	0.008644596
248	0xbd3c8b57	-0.046031322
249	0xbd6ee8a6	-0.05832734
250	0xbc9f8aac	-0.019475304
251	0xbd31d585	-0.04341652
252	0xbd033a1e	-0.032037847
253	0xbd0d716e	-0.034532003
254	0x3d96f93d	0.07371757
255	0x3b89c1e4	0.0042040218

lstm.weight_hh_l1 f4 [512, 128]
0	0x3ce83cd6	0.028349321
1	0xbd64f883	-0.05590106
2	0xbd422337	-0.047396865
3	0xbd5c6e0d	-0.05381589
4	0xbd4739f0	-0.048639238
5	0x3bdb7431	0.0066972007
6	0xbd41a72e	-0.047278576
7	0x3d6bc862	0.057564147
8	0x3d4ed87d	0.050499428
9	0xbd4b1c37	-0.049587455
10	0x3bfdd08b	0.0077458075
11	0xbd7fa5ef	-0.062414106
12	0xbd7115e9	-0.058858786
13	0xbc2e61a8	-0.0106434
14	0x3b7cd295	0.0038577665
15	0xbc77f378	-0.015133731
16	0xbc58c83a	-0.0132313315
17	0xbcfc7993	-0.03081969
18	0x3c29cb75	0.010363449
19	0xbd094a10	-0.033517897
20	0x3dbe6ee6	0.09298496
21	0x3d8918c3	0.06694176
22	0x3da1214b	0.07867678
23	0xbd314e01	-0.04328728
24	0xbcbf5aec	-0.023358785
25	0xbd556032	-0.052093692
26	0x3d9a51e7	0.07535153
27	0x3d36ccd6	0.04462894
28	0xbca34b35	-0.019933322
29	0x3d2d0112	0.04223735
30	0xbd7ed801	-0.062217716
31	0xbbc785be	-0.0060889414
32	0x3c94dcdb	0.018171718
33	0xbc8f3f97	-0.017486377
34	0x3b8e7dc3	0.004348488
35	0x3dac4f15	0.08413521
36	0xbd532cb4	-0.051556304
37	0x3cd53d44	0.02603019
38	0x3bdfd91f	0.006831303
39	0x3d36b8eb	0.044609945
40	0xbd306903	-0.043068897
41	0x3c09fbd0	0.008421853
42	0x3c6c93b0	0.014439508
43	0xbd91a11b	-0.071108066
44	0xbd112e8a	-0.035444774
45	0xbd188044	-0.0372317
46	0x3cfa4e8c	0.030555032
47	0xbd8edf5f	-0.069761984
48	0x3d616236	0.055025302
49	0xbd80bef3	-0.06286421
50	0x3cd73f47	0.02627529
51	0x3d580471	0.05273861
52	0x3c9252f8	0.017861828
53	0xbd8d7d1c	-0.06908628
54	0xbd2317a2	-0.03981746
55	0xbc8e8913	-0.017399346
56	0x3db40913	0.08790793
57	0xbd03f7a1	-0.03221858
58	0xbd7ffeb4	-0.062498763
59	0x3d58785c	0.05284916
60	0x3d1a02ef	0.037600454
61	0x3d77b87c	0.060478672
62	0x3d81cf7f	0.06338405
63	0x3b7c180d	0.0038466484
64	0x3cefd7bb	0.029277673
65	0x3d4c831f	0.049929734
66	0x3ceeddce	0.0291585
67	0x3da65c3a	0.081230596
68	0xbd57d7a1	-0.052695874
69	0x3d18a99d	0.03727113
70	0xbd859099	-0.065217204
71	0xbbafb38e	-0.0053619808
72	0xbd8f6cc8	-0.0700317
73	0xbcc36029	-0.023849564
74	0xbcd2d122	-0.025734488
75	0xbd36c776	-0.044623815
76	0xbd6fbd56	-0.058530174
77	0x3d093689	0.033499274
78	0xbd229ad1	-0.039698426
79	0x3b8485ab	0.004044255
80	0xbc3dea03	-0.011591437
81	0x3caea718	0.02131991
82	0x3d01d1d2	0.03169424
83	0xbb1ee4d6	-0.0024245284
84	0x3b15564f	0.002278704
85	0xbd402c96	-0.04691752
86	0xbc21e77a	-0.0098818485
87	0xbd73f5c1	-0.05956054
88	0x3cc7ea52	0.024403725
89	0x3d811582	0.063029304
90	0x3d1c32dd	0.038134445
91	0x3d910b50	0.07082236
92	0xbd70ac9b	-0.05875836
93	0xbd767041	-0.060165647
94	0x3d1760c6	0.036957525
95	0x3bf8ded6	0.0075949235
96	0xbc1497cf	-0.009069397
97	0x3d00fb88	0.03148988
98	0x3d027d3c	0.031857714
99	0xbbf60828	-0.0075082965
100	0x3c5b6c9a	0.013392592
101	0xbce4ed3b	-0.027945152
102	0x3c360d5b	0.011111583
103	0x3d0476a0	0.032339692
104	0xbcd7c198	-0.02633743
105	0x3c80d7e7	0.01572795
106	0xbcb8da31	-0.02256498
107	0x3d8fd6c6	0.07023387
108	0x3b96c702	0.0046013603
109	0xbd733a79	-0.059381936
110	0xbd546323	-0.051852357
111	0x3c7d495c	0.015459385
112	0x3d907e21	0.07055307
113	0x3d80659a	0.06269379
114	0xbc11e572	-0.008904802
115	0x39e88170	0.00044346927
116	0xbda29618	-0.07938784
117	0x3d39e3f1	0.045383397
118	0x3d32daf4	0.04366584
119	0x3cf69cc7	0.030104054
120	0x3d8793b5	0.0661997
121	0x3d566517	0.0523425
122	0xbc274123	-0.010208401
123	0x3b86a814	0.004109392
124	0x3d3ac990	0.04560238
125	0x3d26ec5f	0.040752765
126	0xbd6faf0d	-0.05851655
127	0x3d41880f	0.047248896
128	0x3c6d6256	0.014488777
129	0xbc00c71a	-0.0078599695
130	0xbcd9c075	-0.026581028
131	0x3bcfecea	0.006345381
132	0xbc56a4e4	-0.013100836
133	0xbd382742	-0.044959314
134	0xbcf50793	-0.029910838
135	0x3d5ef795	0.05443533
136	0x3be06632	0.00684812
137	0xbd2d65a3	-0.042333256
138	0xbd20e732	-0.039282985
139	0x3c4e04a3	0.012574348
140	0xbd4ceca8	-0.05003038
141	0x3d3630c8	0.044480115
142	0x3cfb2b9f	0.030660449
143	0xbcbff40d	-0.023431802
144	0x3d369360	0.04457414
145	0x3cb5fc39	0.022214996
146	0x3c922edb	0.017844608
147	0x3ce3e7b5	0.027820447
148	0x3cc1607d	0.02360558
149	0xbd0d19d5	-0.034448463
150	0xbc3bfbbb	-0.011473591
151	0xbd5c8e97	-0.05384692
152	0xbd34cce0	-0.044140697
153	0x3d8b5968	0.06804162
154	0x3c097e3e	0.008391915
155	0xbc492d1f	-0.012278824
156	0xbd535f5c	-0.051604614
157	0xbd0b93ca	-0.03407649
158	0xbd984235	-0.07434503
159	0x3d100263	0.035158526
160	0x3d37477b	0.044745903
161	0x3d0c190a	0.034203567
162	0x3c91b81d	0.017787987
163	0x3bc9f143	0.006162794
164	0x3d5da0cd	0.05410843
165	0xbc6a7782	-0.014310719
166	0xbd7a48f7	-0.06110474
167	0x3d40d533	0.047078323
168	0x3d124eea	0.03571979
169	0xbd6d76aa	-0.057974495
170	0xbd0645a5	-0.032781262
171	0x3cceae67	0.025229646
172	0xbd4a921a	-0.04945574
173	0x3c128573	0.00894295
174	0xbd5343ff	-0.051578518
175	0x3c2cf906	0.010557419
176	0xbd5bf6b0	-0.053702056
177	0xbd8358dc	-0.06413433
178	0x3af981a2	0.0019035826
179	0x3d330a20	0.043710828
180	0x3cdd9e9d	0.027053172
181	0x3d0c0501	0.03418446
182	0x3d15cb45	0.036570806
183	0x3c7f5bb6	0.01558583
184	0xbc8aadfb	-0.016928663
185	0xbd2c1d0c	-0.04201989
186	0xbcfdc1df	-0.030976234
187	0x3c4580bb	0.0120546175
188	0x3cd44813	0.025913274
189	0x3d7d761b	0.061880212
190	0x3d2617cd	0.040550042
191	0x3d128f6a	0.0357813
192	0x3d577f0b	0.052611392
193	0xbca31b60	-0.019910514
194	0xbbc1a8c4	-0.005910011
195	0x3cb514f9	0.022104727
196	0x3d3d6483	0.046238434
197	0xbd8249c2	-0.063617244
198	0xbce4cc47	-0.027929438
199	0xbd80b13a	-0.06283803
200	0xbd2c433c	-0.042056307
201	0x3cc5bf91	0.024139198
202	0x3d89ca24	0.067280084
203	0x3c9d846e	0.019228186
204	0xbd8317ff	-0.06401061
205	0x3d8c4685	0.06849388
206	0x3d0744ef	0.033024725
207	0x3c8599c0	0.016308665
208	0xbd7c401d	-0.06158458
209	0x3bb1c757	0.0054253745
210	0x3ae1cf24	0.001722787
211	0x3d1f9676	0.03896185
212	0x3c6dbbe8	0.014510132
213	0xbd1241fb	-0.035707455
214	0xbd97e9db	-0.07417651
215	0xbca61a22	-0.020276133
216	0xbd849c3c	-0.06475112
217	0x3d38cd8b	0.045117896
218	0xbd845c7a	-0.06462951
219	0x3c94fda6	0.018187355
220	0xbcb41082	-0.021980528
221	0x3d901782	0.07035734
222	0x3c98b787	0.0186422
223	0x3cd09bc5	0.025464902
224	0xbd0900b4	-0.033447936
225	0xbc81d12d	-0.015846813
226	0xbd673af0	-0.05645269
227	0x3b0d2291	0.0021535496
228	0xbbbc2098	-0.00574119
229	0x3d387103	0.04502965
230	0x3ce699af	0.028149454
231	0xbcafb41d	-0.02144819
232	0xbd868007	-0.06567388
233	0x3aaf3e88	0.0013370076
234	0x3cccac20	0.02498442
235	0x3cf4b5a9	0.029871779
236	0x3d306007	0.04306033
237	0xbd83dd6b	-0.064387165
238	0x3cefd45c	0.029276066
239	0x3d3e651e	0.04648315
240	0x3cc85e8b	0.024459144
241	0xbbf87b2b	-0.007583042
242	0xbb16cd81	-0.0023010673
243	0xbd558316	-0.052126966
244	0x3d4167cf	0.04721814
245	0xbd5d5631	-0.054037277
246	0x3d2d9e57	0.042387333
247	0xbce4a4da	-0.027910639
248	0x3bcfc787	0.006340924
249	0xbd867af8	-0.06566423
250	0x3d6fc68a	0.05853895
251	0xbd5c4f7a	-0.053786732
252	0x3d8a15f4	0.067424685
253	0xbd250579	-0.040288422
254	0x3c91cb41	0.017797114
255	0xbc8ffe7c	-0.017577402

lstm.bias_ih_l1 f4 [512]
0	0xbd27e96c	-0.040994093
1	0xbd16af5f	-0.03678834
2	0xbcb00198	-0.021485135
3	0x3d9e1aa3	0.07719924
4	0x3d4e698e	0.050393634
5	0x3d98eb87	0.07466798
6	0xbc5f5cc8	-0.013632961
7	0xbd16f088	-0.036850482
8	0x3dc14e6a	0.094387844
9	0x3da39edd	0.07989285
10	0x3c855dac	0.016280018
11	0xbd57a248	-0.052644998
12	0x3d3d7ac8	0.04625967
13	0x3ce617ff	0.028087614
14	0x3cc02d1b	0.023459008
15	0x3dc9104a	0.0981756
16	0x3ce67eeb	0.028136691
17	0x3daa64d9	0.083200164
18	0xbd54d23f	-0.05195832
19	0xbd9d953c	-0.0769448
20	0x3d584f8a	0.05281023
21	0xbd72fea7	-0.059324887
22	0x3d53a4fd	0.051671017
23	0x3da9bf08	0.082883894
24	0xbc214ee3	-0.009845468
25	0x3d89511b	0.06704923
26	0xbda4d2ec	-0.08048043
27	0x3d423e4b	0.04742269
28	0xbbb720fc	-0.005588649
29	0x3d9c20f3	0.07623472
30	0xbc04c34f	-0.008103206
31	0xba8f034d	-0.0010911018
32	0x3c709410	0.014683738
33	0xbd512c90	-0.05106789
34	0xba8f9c82	-0.0010956677
35	0xbd800bcd	-0.06252251
36	0xbd00ad5b	-0.031415325
37	0x3c19995e	0.0093749445
38	0x3cd69dd7	0.02619831
39	0x3d1ed46c	0.0387768
40	0x3d73f268	0.05955735
41	0xbd5f404f	-0.05450469
42	0x3cfed668	0.031108096
43	0x3c037660	0.008023828
44	0x3d197985	0.037469406
45	0x3d7cb44d	0.061695386
46	0x3d35624d	0.0442832
47	0x3daace7e	0.083401665
48	0xbd221134	-0.039567187
49	0x3d6f474c	0.058417603
50	0x3c36259e	0.011117367
51	0x3ab27ea3	0.0013618063
52	0xbcfa6e08	-0.030570045
53	0x3d56a50f	0.052403506
54	0xbd33f510	-0.04393488
55	0xbd574ce3	-0.05256356
56	0x3d93b63b	0.07212492
57	0xbd805eda	-0.062680915
58	0x3ba042df	0.004890784
59	0x3bfb5f0e	0.0076712435
60	0x3dd92264	0.106022626
61	0xbd253444	-0.040333048
62	0xbda9a6fa	-0.082838014
63	0xbdb5225d	-0.08844445
64	0xbc980e9e	-0.018561658
65	0xbc299c3c	-0.010352191
66	0xbbc9aa67	-0.0061543467
67	0xbd512f91	-0.051070753
68	0xbccfa399	-0.025346564
69	0x3d8c46a0	0.06849408
70	0x3cef20af	0.02919039
71	0x3d880c6d	0.06642995
72	0x3d35df79	0.044402573
73	0x3dd68eae	0.10476433
74	0xbc3d9fc9	-0.01157374
75	0x3dd2c11b	0.10290738
76	0xbd8283f1	-0.06372822
77	0x3c9dac8d	0.019247318
78	0xbd6c04eb	-0.057621878
79	0x3db7059d	0.089366175
80	0x3bb7279b	0.005589438
81	0x3c9d5abc	0.019208305
82	0x3d399e85	0.04531719
83	0x3da9f404	0.082984954
84	0x3bc19f93	0.0059089153
85	0x3d858c73	0.06520929
86	0xbb48a56d	-0.003061618
87	0x3d8df543	0.069315456
88	0x3aa9c073	0.0012951031
89	0xbda43a44	-0.08018926
90	0x3dbca671	0.09211434
91	0x3dc60f0b	0.09670838
92	0x3dbebf53	0.09313836
93	0x3d7948df	0.06086051
94	0x3d918b14	0.07106605
95	0xbd0f75bf	-0.0350244
96	0x3dc2d7d5	0.09513823
97	0x3d676c5e	0.05649983
98	0xbd0dae1d	-0.034589875
99	0x3dc7cc77	0.097557954
100	0xbd0f7a73	-0.035028886
101	0xbd39735b	-0.045276027
102	0x3d9351db	0.07193347
103	0xbced7c97	-0.028990073
104	0xbd123c53	-0.03570206
105	0x3d775415	0.06038292
106	0x3cbca130	0.023026079
107	0x3da6fd29	0.08153755
108	0x3cf92019	0.030410813
109	0x3c7b0b66	0.015322542
110	0x3d715f80	0.058928967
111	0x3c5f2d35	0.013621618
112	0xbd38aa41	-0.04508424
113	0x3bf68784	0.007523479
114	0xbd441fd2	-0.04788191
115	0x3da9df0b	0.08294495
116	0xbd544f82	-0.051833637
117	0xbd82c317	-0.06384867
118	0x3b88ce4a	0.004174982
119	0xbd1e629e	-0.038668267
120	0x3ba2491b	0.0049525625
121	0xbb70e5f6	-0.003675816
122	0x3c82421f	0.01590067
123	0xbd1df233	-0.038561057
124	0x3c34e577	0.011041037
125	0xbd0e5608	-0.034750015
126	0x3be2a3f3	0.006916517
127	0x3c6d71b0	0.014492437
128	0xbd942b75	-0.07234851
129	0xbd25d648	-0.040487558
130	0xbca5a3e0	-0.020219743
131	0x3dbfa430	0.09357488
132	0x3daa74d6	0.08323066
133	0x3bfbe99f	0.007687762
134	0x3d4783ed	0.0487098
135	0x3cc2c71b	0.023776582
136	0x3d493e9e	0.049131982
137	0x3d40de3f	0.04708695
138	0x3dc51a95	0.09624211
139	0xbc90694d	-0.017628336
140	0xbd94bfcd	-0.072631456
141	0x3c49dbd1	0.012320475
142	0x3d9cc5d3	0.076549195
143	0x3dadc1a2	0.08484198
144	0xbc0b642d	-0.0085077705
145	0x3cb4cd57	0.02207057
146	0x3ca7ebfb	0.020498266
147	0x3c6cae00	0.014445782
148	0xbd78e2b1	-0.060763065
149	0x3ce034e7	0.027368976
150	0x3d1cc295	0.038271505
151	0x3c128bbd	0.008944449
152	0x3d41ab89	0.04728273
153	0xbd40aa42	-0.04703737
154	0x3b4519cd	0.0030075193
155	0xbd59ad9c	-0.053144082
156	0x3cc842d3	0.024445927
157	0xbd0c679a	-0.03427849
158	0x3d1d1bf8	0.03835675
159	0xbd820e67	-0.06350403
160	0x3d75fd0b	0.060055774
161	0xbcb557cb	-0.02213659
162	0x3bdba334	0.006702805
163	0xbce5902b	-0.028022846
164	0x3d20dced	0.03927319
165	0xbc3d509e	-0.011554865
166	0x3c98a5c6	0.018633734
167	0x3daae567	0.08344536
168	0x3c9a4947	0.01883377
169	0xbc4ecb8d	-0.0126217725
170	0xbd4e96b0	-0.050436676
171	0x3d9e8c68	0.07741624
172	0x3dccd9d3	0.10002484
173	0x3d8c2276	0.068425104
174	0xbba9f96c	-0.005187204
175	0x3c3938c8	0.011305042
176	0x3d10dae5	0.035365004
177	0xbccaadee	-0.02474114
178	0x3da9cee2	0.08291413
179	0x3d347f5d	0.044066776
180	0xbcba8f6e	-0.02277347
181	0x3d48995c	0.04897438
182	0x3d9acbaf	0.07558381
183	0xbd6bdcd6	-0.057583652
184	0xbc780118	-0.0151369795
185	0xbd8276db	-0.06370326
186	0xbd7b6357	-0.061374035
187	0x3d83600f	0.06414806
188	0xbc1fcdb0	-0.00975363
189	0xbda10011	-0.07861341
190	0x3ce3e0d0	0.02781716
191	0xbcf861cd	-0.030320073
192	0x3d00ca18	0.03144273
193	0xbd792cdc	-0.060833797
194	0xbd1a107e	-0.037613384
195	0x3d516849	0.051124845
196	0x3d8ef635	0.06980554
197	0xbd8383ba	-0.06421609
198	0x3db91e7b	0.09039017
199	0x3db009cb	0.08595618
200	0xbd916f31	-0.07101286
201	0xbd9c7510	-0.076395154
202	0xbd06aa94	-0.03287752
203	0xbcbb166f	-0.022837846
204	0x3cc13efe	0.023589607
205	0x3d9223a4	0.07135704
206	0x3d935555	0.0719401
207	0x3bba727d	0.0056899176
208	0xbc4d99d5	-0.012548883
209	0xbdb835c2	-0.089946285
210	0xbc87f443	-0.016595965
211	0xbd94d4db	-0.072671615
212	0xbd674118	-0.056458563
213	0x3c626b5b	0.013819541
214	0xbd944be6	-0.07241039
215	0xbb6cc5c2	-0.0036128615
216	0x3d47f1ee	0.048814707
217	0xbd7cb094	-0.061691836
218	0xbc50af89	-0.012737163
219	0xbd2c4a2d	-0.042062927
220	0x3db62096	0.08892934
221	0xbd655923	-0.05599321
222	0xbd1628e4	-0.03666009
223	0xbd52f66b	-0.051504534
224	0xbd75fceb	-0.060055654
225	0x3aa582c1	0.0012627469
226	0x3c7f85ba	0.015595848
227	0x3cc44eda	0.02396338
228	0xbd1924b9	-0.037388537
229	0xbd6cef06	-0.057845138
230	0xbd578be0	-0.05262363
231	0x3d1fd90b	0.039025348
232	0xbc919bf6	-0.017774563
233	0xbc387a34	-0.011259604
234	0x3ce6b02d	0.028160179
235	0x3cb06143	0.021530753
236	0xbd837b18	-0.06419963
237	0x3d514377	0.05108973
238	0xbcf2fcc4	-0.029661544
239	0xbd617375	-0.05504175
240	0xbd08f097	-0.03343257
241	0x3c6c75cf	0.014432385
242	0xbd89151f	-0.06693482
243	0xbd0153e1	-0.031574134
244	0xbd721848	-0.059105188
245	0xbd486c76	-0.04893156
246	0x3d60619b	0.054780584
247	0x3c8fd01e	0.017555293
248	0x3cda5b65	0.026654908
249	0x3c1a3190	0.009411231
250	0xbc9720db	-0.018448284
251	0xbd07bafc	-0.033137307
252	0xbd2830fb	-0.041062336
253	0x3dadd1e0	0.08487296
254	0x3c453341	0.012036146
255	0xbd7429ae	-0.05961006
