checkpoints/South-East/best_model.pth (torch, 81193 bytes, 5 tensors)

lstm.weight_ih_l0 f4 [256, 11]
0.046267398 -0.0020269514 0.032357156 -0.0751011 -0.06078442 0.11770213 -0.08036862 0.004134422
-0.0742022 0.09203747 -0.09146548 0.07245402 -0.08091088 -0.03351407 0.080355436 -0.14226067
-0.12457767 0.0354176 -0.1320802 0.07943669 0.008728257 0.09767173 0.00865141 0.075996086
0.07441675 0.03554162 -0.065060444 0.023089565 0.14992581 -0.046351153 -0.033912133 0.061364487
0.052251182 0.17901573 -0.065808855 -0.048513573 0.02398603 0.07557486 0.081040636 -0.019090086
-0.13078868 0.058380272 -0.022679165 -0.035495773 0.06451498 0.12329575 0.14754908 0.092607364
-0.02439326 0.022043172 -0.012384672 0.047013063 -0.028931528 -0.00033085796 0.056393288 -0.035326812
0.05422717 -0.08341604 0.040625524 -0.07021046 0.08931096 -0.052058995 -0.06488329 0.0020929582
0.16717531 0.034192253 -0.080402 -0.07473406 -0.019375967 -0.029449953 0.0028039615 0.008394307
-0.06774755 0.07855565 -0.11734385 0.13835374 -0.066338345 -0.03217872 -0.062781654 -0.060889844
0.069800265 -0.028400382 -0.043613702 0.02541748 0.08908294 -0.078032464 0.035160948 0.0053518876
0.14381874 -0.050334573 -0.08938141 0.030588184 -0.01693897 0.13342243 -0.11625914 0.044491116
0.05103559 0.0057394034 -0.07198486 0.11121639 0.052567277 0.059299465 -0.07159766 0.01726441
0.050026134 -0.15502687 -0.049504526 0.008006161 0.0502316 -0.07306333 0.1274005 -0.03168123
0.010645215 0.09528322 0.13061734 -0.00022177189 -0.022199411 0.010348669 -0.040319614 -0.03515785
0.07032644 0.007119107 0.10693689 0.16083881 0.04778991 0.037897218 0.033438724 -0.07886191
0.0113992095 0.10142528 0.05680388 0.021104135 -0.09828048 0.038479503 -0.036979694 0.06675137
0.07397983 -0.09196926 0.01579318 0.002384247 -0.009911633 0.008570621 0.103611454 0.1769338
0.05969853 -0.022728926 -0.027488679 -0.035512768 0.023329016 0.02852173 0.06413256 -0.024918504
-0.041457977 0.021110984 -0.022571985 -0.07963522 -0.08837905 0.01291953 0.018275619 0.05301567
0.015370216 -0.071753405 0.01379951 -0.026755856 0.1227912 0.005751127 -0.028650064 0.09470249
0.02293423 -0.046478778 -0.08255207 0.039976947 -0.058280945 -0.074607 -0.121323384 0.024222229
0.039409116 -0.086184174 -0.08691975 0.029683534 0.033979375 -0.045177016 0.04432096 -0.0422571
-0.14678644 -0.07118021 0.03092947 0.03302474 0.13689436 -0.028025847 -0.03313448 -0.08897764
0.048641454 -0.007050089 0.027905663 -0.021145906 0.052426144 -0.06360202 0.0464017 -0.06306363
0.11331872 -0.0502884 -0.09856461 0.0036455297 -0.061407045 -0.13697197 0.0006381925 0.10570858
0.15833822 0.117448114 0.124452375 -0.010411734 -0.016524786 0.019629665 0.13622262 -0.020164775
-0.056130353 0.035591915 -0.037651192 -0.000968962 0.10060437 0.1344599 -0.01699913 0.04881401
-0.095764875 0.10304258 -0.13504222 -0.0050226827 -0.14103772 -0.04740289 -0.052548703 0.079403326
-0.05678116 -0.043536734 0.111007735 0.14966364 0.13177085 -0.09463236 -0.11413028 0.10229003
0.10092239 0.02607744 0.08120071 0.055495583 0.035412937 0.015749129 0.05615873 -0.09937245
0.081642106 0.05562634 -0.07102789 -0.005024523 -0.017465385 0.09829669 -0.025612904 0.14509693
00000000: e282 3d3d 9ad6 04bb f088 043d 9bce 99bd
00000010: 16f9 78bd d00d f13d 4e98 a4bd 0c7a 873b
00000020: 53f7 97bd 247e bc3d 4152 bbbd c662 943d
00000030: 9ab4 a5bd 0d46 09bd 6491 a43d c8ac 11be
00000040: 9422 ffbd 0c12 113d 0840 07be b4af a23d
00000050: f700 0f3c 1e08 c83d a5be 0d3c d6a3 9b3d
00000060: cf67 983d 1794 113d 693e 85bd 5426 bd3c
00000070: 2786 193e b5da 3dbd 73e7 0abd 5459 7b3d
00000080: 5605 563d e64f 373e cbc6 86bd 2bb6 46bd
00000090: 5a7e c43c fec6 9a3d a2f8 a53d d062 9cbc
000000a0: 78ed 05be 2720 6f3d a8c9 b9bc 0464 11bd
000000b0: 6e20 843d 7b82 fc3d 1b17 173e eea8 bd3d
000000c0: 60d4 c7bc e293 b43c 14e9 4abc c590 403d
000000d0: d001 edbc 0177 adb9 a6fc 663d d9b2 10bd
000000e0: 4f1d 5e3d 07d6 aabd f366 263d 80ca 8fbd
000000f0: aae8 b63d d03b 55bd 88e1 84bd 032a 093b
00000100: 0130 2b3e 2d0d 0c3d cea9 a4bd 2c0e 99bd
00000110: 59ba 9ebc 0741 f1bc abc2 373b 4788 093c
00000120: 3abf 8abd c9e1 a03d f951 f0bd 9aac 0d3e
00000130: 66dc 87bd d5cd 03bd ab93 80bd a167 79bd
00000140: 71f3 8e3d eba7 e8bc 48a4 32bd 5238 d03c
00000150: 1e71 b63d 7ccf 9fbd ed04 103d e35e af3b
00000160: 3845 133e a02b 4ebd 9a0d b7bd 1294 fa3c
00000170: 98c3 8abc e49f 083e 4619 eebd 513c 363d
00000180: b20a 513d 9b11 bc3b cc6c 93bd 6bc5 e33d
00000190: c950 573d ffe3 723d cba1 92bd 186e 8d3c
000001a0: 34e8 4c3d 5dbf 1ebe 42c5 4abd 462c 033c
000001b0: a6bf 4d3d 3aa2 95bd 4775 023e 2dc4 01bd
000001c0: 4569 2e3c d923 c33d 8dc0 053e 708b 68b9
000001d0: 8adb b5bc 778d 293c 2e26 25bd ad01 10bd
000001e0: 4f07 903d 6647 e93b ba01 db3d eeb2 243e
000001f0: 5abf 433d 1d3a 1b3d 0bf7 083d 5a82 a1bd
00000200: c0c3 3a3c 0fb8 cf3d 2fab 683d 94e2 ac3c
00000210: 4747 c9bd af9c 1d3d 0578 17bd f1b4 883d
00000220: bd82 973d 615a bcbd b360 813c 0741 1c3b
00000230: 6764 22bc ca6b 0c3c 3e32 d43d 222e 353e
00000240: 7286 743d 0332 babc f02f e1bc d675 11bd
00000250: 7e1c bf3c 67a6 e93c ee57 833d e421 ccbc
00000260: d7cf 29bd f1f0 ac3c e2e8 b8bc ca17 a3bd
00000270: 1300 b5bd 70ac 533c c0b6 953c f626 593d
00000280: 5cd3 7b3c 73f3 92bd 5717 623c 192f dbbc
00000290: f479 fb3d f373 bc3b 8ab3 eabc 61f3 c13d
000002a0: 91e0 bb3c 8860 3ebd 0f11 a9bd debe 233d
000002b0: 00b8 6ebd 8ecb 98bd 6578 f8bd b26d c63c
000002c0: 746b 213d 5481 b0bd fb02 b2bd e22a f33c
000002d0: f52d 0b3d 890b 39bd e589 353d c815 2dbd
000002e0: 2f4f 16be eec6 91bd cd5f fd3c f344 073d
000002f0: 092e 0c3e 7696 e5bc 05b8 07bd e939 b6bd
00000300: 433c 473d 6f04 e7bb 6b9a e43c 2e3a adbc
00000310: ccbc 563d c741 82bd b50f 3e3d 8127 81bd
00000320: a513 e83d 36fb 4dbd 3edc c9bd d7e9 6e3b
00000330: f485 7bbd 6142 0cbe 604c 273a bd7d d83d
00000340: 6a23 223e a388 f03d e3e0 fe3d fa95 2abc
00000350: fd5e 87bc 64ce a03c f17d 0b3e 9930 a5bc
00000360: f1e8 65bd d4c8 113d 2338 1abd f001 7eba
00000370: aa09 ce3d dbaf 093e c241 8bbc 33f1 473d
00000380: 6020 c4bd fd07 d33d 8248 0abe 5195 a4bb
00000390: 316c 10be 8829 42bd 4f3d 57bd 369e a23d
000003a0: 5d93 68bd 9353 32bd 0658 e33d 6d41 193e
000003b0: f0ee 063e 9cce c1bd 23bd e9bd 6f7d d13d
000003c0: 66b0 ce3d 5ba0 d53c 8f4c a63d 564f 633d
000003d0: 280d 113d 5104 813c b206 663d c883 cbbd
000003e0: fa33 a73d 72d8 633d 1277 91bd c1a4 a4bb
000003f0: 9113 8fbc c64f c93d 27d2 d1bc 4a94 143e

lstm.weight_hh_l0 f4 [256, 64]
0.05366302 0.04809325 0.08001389 -0.012008802 0.05039796 -0.13280627 -0.0773872 -0.06959188
0.0062760506 0.05835811 0.03699077 -0.07317035 -0.040333606 0.00838325 0.023089685 -0.02329778
-0.034943573 0.05344121 0.09033395 -0.011124501 0.03237291 -0.008907703 -0.017679399 0.10818557
0.06679794 0.031388268 0.03269743 -0.09691177 -0.06241528 0.106502 0.0082126465 0.06631002
0.027803123 0.035488926 -0.017396828 0.13231604 0.0663728 -0.05149888 -0.028084664 -0.0728971
-0.03466727 0.07321296 0.05635751 -0.068161905 0.029260216 -0.07698936 0.1396245 0.044806942
0.040366273 0.009685499 0.13380976 -0.0022737659 -0.019607365 0.03662057 0.04157982 0.012328235
0.13066651 -0.016693901 -0.06085663 -0.06521162 -0.03435192 0.04986851 -0.06341425 0.001220945
0.11327769 0.05690548 0.0043629827 -0.011848147 0.039691955 0.08586773 -0.023135355 0.015427428
0.04705745 0.044485275 -0.007274707 -0.0038955645 0.011007876 0.013556535 0.027692178 -0.008689112
-0.031192115 -0.046215888 0.06373014 0.030017018 0.06724615 0.026125219 0.020291192 0.029590668
-0.008815579 0.0036865983 0.036151674 -0.003265993 -0.037564542 -0.0101045035 -0.07013369 -0.053965982
-0.104153745 -0.018584395 -0.1062568 0.083546326 0.051425986 0.032952096 -0.11305808 -0.067450605
0.0044993954 0.04278922 -0.10815453 -0.0037749803 -0.051995013 -0.019465545 -0.085683644 -0.010386433
-0.042181898 -0.032861788 -0.122071885 0.03177297 0.04316581 -0.021189421 -0.067207806 0.0018290023
-0.08206439 -0.008207276 -0.10571219 0.068803914 0.01263656 -0.10906516 0.0018675219 -0.013667143
-0.022353696 0.047097955 0.046471797 -0.02346296 0.0042956998 0.06596517 -0.0019401303 0.07307118
0.013822357 -0.12314872 0.02253849 0.036485832 0.061292622 -0.06597233 -0.021936245 0.050174594
-0.0841866 -0.03944767 0.11498489 -0.007999187 0.08579196 0.066922195 0.06849044 -0.058867875
-0.029156879 0.039881226 0.12149835 -0.019209487 -0.024422526 -0.0751445 -0.008154679 0.054224942
-0.02297531 -0.10890935 0.065016635 -0.04395615 0.07101399 -0.048286315 -0.11308936 0.064610496
-0.048865974 0.036683425 0.07253791 -0.038364638 0.024334189 0.021172624 -0.023279596 -0.0005598019
0.023602372 0.09760727 0.09254219 -0.0019262847 0.09688063 -0.033732537 0.11998659 -0.046759278
-0.06467763 -0.040163327 0.028072981 -0.041895103 -0.037343897 0.0072492706 -0.059528127 -0.07261743
0.122398645 0.028195225 0.12681828 0.001364082 -0.09689596 -0.008402347 -0.01608935 0.085253015
-0.019117195 0.07079247 0.112691045 -0.026452476 -0.007894202 0.031005846 -0.032453354 0.07515865
-0.049203925 0.016625745 0.09154781 0.06807845 0.041975524 -0.03710848 -0.020120285 0.053907093
-0.037829097 0.014122036 0.03432754 0.027674647 -0.015887326 -0.08772414 0.041774783 0.043624826
0.04662736 0.056196734 0.11147362 0.03228387 0.0589979 -0.0049002552 -0.10609272 -0.10480316
0.0031838072 0.028910225 -0.01768185 -0.019348409 0.032937363 -0.09526607 0.05836257 0.03190686
-0.006024552 0.0006089863 0.06750971 0.010146986 -0.013571721 0.03583176 -0.03579298 0.07456961
0.068858996 -0.07481189 -0.020784067 0.11820936 -0.016899377 -0.026186036 -0.027662665 0.04672628
00000000: c1cd 5b3d 6dfd 443d 53de a33d 91c0 44bc
00000010: 176e 4e3d 5efe 07be 2e7d 9ebd 3086 8ebd
00000020: 54a7 cd3b ea08 6f3d a283 173d 56da 95bd
00000030: da34 25bd e659 093c 9426 bd3c fcda bebc
00000040: fe20 0fbd 2ce5 5a3d 0201 b93d 8a43 36bc
00000050: 7599 043d 9df1 11bc 63d4 90bc 6590 dd3d
00000060: 5ccd 883d fc90 003d beed 053d ae79 c6bd
00000070: 2aa7 7fbd b81d da3d 568e 063c 8ccd 873d
00000080: 60c3 e33c d65c 113d cb83 8ebc db7d 073e
00000090: 76ee 873d 7df0 52bd cf11 e6bc 134b 95bd
000000a0: 44ff 0dbd adf0 953d 22d7 663d 7898 8bbd
000000b0: 1fb3 ef3c 99ac 9dbd baf9 0e3e 7c87 373d
000000c0: 1b57 253d edaf 1e3c 6d05 093e 7603 15bb
000000d0: a09f a0bc 73ff 153d 9a4f 2a3d 5efc 493c
000000e0: 71cd 053e a6c1 88bc cd44 79bd ab8d 85bd
000000f0: 99b4 0cbd ec42 4c3d 55df 81bd 1e08 a03a
00000100: 22fe e73d b815 693d 5af7 8e3b bb1e 42bc
00000110: 0894 223d 6cdb af3d 5b86 bdbc 53c3 7c3c
00000120: 50bf 403d 3136 363d aa60 eebb ba4c 7fbb
00000130: 615a 343c 3b1c 5e3c b5da e23c c75c 0ebc
00000140: 9b86 ffbc df4c 3dbd f384 823d 40e6 f53c
00000150: 59b8 893d 8e04 d63c b739 a63c 2168 f23c
00000160: 386f 10bc db9a 713b c713 143d 450a 56bb
00000170: 47dd 19bd 5c8d 25bc 41a2 8fbd 6f0b 5dbd
00000180: 8f4e d5bd 4d3e 98bc 2a9d d9bd 561a ab3d
00000190: 0ea4 523d c7f8 063d ff8a e7bd 8b23 8abd
000001a0: aa6f 933b c043 2f3d 1f80 ddbd a965 77bb
000001b0: b9f8 54bd 3576 9fbc e87a afbd dc2b 2abc
000001c0: edc6 2cbd 159a 06bd d300 fabd 6024 023d
000001d0: a2ce 303d 7095 adbc 3fa4 89bd 22bb ef3a
000001e0: 6011 a8bd d077 06bc a27f d8bd 11e9 8c3d
000001f0: 9309 4f3c 8e5d dfbd a3c7 f43a 27ec 5fbc
00000200: 191f b7bc c9e9 403d 3659 3e3d 6535 c0bc
00000210: f1c2 8c3b bf18 873d f84b feba 58a6 953d
00000220: 2b77 623c 6535 fcbd a4a2 b83c 2b72 153d
00000230: f90d 7b3d 801c 87bd a4b3 b3bc e083 4d3d
00000240: 066a acbd e193 21bd 337d eb3d 060f 03bc
00000250: b2b3 af3d 810e 893d b744 8c3d 711f 71bd
00000260: 68da eebc 7f5a 233d 20d4 f83d 375d 9dbc
00000270: c011 c8bc 5ce5 99bd 349b 05bc f91a 5e3d
00000280: b836 bcbc de0b dfbd 7127 853d 5d0b 34bd
00000290: c86f 913d dfc7 45bd 659b e7bd 8252 843d
000002a0: b027 48bd 5c41 163d c18e 943d 3d24 1dbd
000002b0: 7e58 c73c 3672 ad3c dab4 bebc abbf 12ba
000002c0: c359 c13c 52e6 c73d c286 bd3d 647b fcba
000002d0: 5a69 c63d 212b 0abd 88bb f53d a886 3fbd
000002e0: b575 84bd 4d82 24bd 4ff9 e53c 339a 2bbd
000002f0: eaf5 18bd 4a8b ed3b c4d3 73bd 72b8 94bd
00000300: 24ac fa3d acf9 e63c a7dc 013e ffca b23a
00000310: 6471 c6bd ffa9 09bc d0cd 83bc 2299 ae3d
00000320: aa9b 9cbc a4fb 903d 90ca e63d ddb2 d8bc
00000330: af56 01bc f9ff fd3c cfed 04bd c7ec 993d
00000340: 0e8a 49bd b732 883c 6b7d bb3d b76c 8b3d
00000350: 87ee 2b3d 10ff 17bd 4cd3 a4bc afcd 5c3d
00000360: aff2 1abd 1d60 673c 099b 0c3d f1b5 e23c
00000370: 2326 82bc b7a8 b3bd 091c 2b3d f2af 323d
00000380: 55fc 3e3d 8c2e 663d 484c e43d 173c 043d
00000390: c8a7 713d 5292 a0bb 2447 d9bd 0aa3 d6bd
000003a0: 6ca7 503b 23d5 ec3c 87d9 90bc 8e80 9ebc
000003b0: 54e9 063d db1a c3bd 970d 6f3d c5b0 023d
000003c0: 9b69 c5bb 61a4 1f3a 8842 8a3d 8b3f 263c
000003d0: ec5b 5ebc 53c4 123d a99b 12bd f4b7 983d
000003e0: f205 8d3d fa36 99bd 5943 aabc c017 f23d
000003f0: 9070 8abc 1984 d6bc d09c e2bc 0e64 3f3d

lstm.bias_ih_l0 f4 [256]
0.12194892 0.083661675 0.033915598 0.05528066 0.02057884 -0.06356892 -0.080987856 -0.04946688
0.109557375 0.027990792 0.14530669 0.080922395 -0.06083299 0.084843956 0.09575584 0.09722699
0.019241976 -0.010983296 0.028739456 0.055500496 0.13345975 -0.0138143655 -0.01895896 0.126111
0.03345923 -0.014314351 0.14562535 0.056561228 -0.015222821 -0.10954042 -0.0918813 -0.11342295
0.004173639 0.0011502712 0.04544804 0.030003592 0.08594824 0.08962017 0.107381254 -0.041636914
0.017713338 0.09458404 -0.070336185 0.11269727 0.009552006 -0.05869841 0.14025557 -0.059584185
-0.057445824 -0.019812644 0.09026199 0.0017939601 -0.05875307 0.021629643 0.021033661 0.10518743
0.04527968 -0.018279584 -0.037337117 -0.07786535 0.008628673 0.05036361 0.07597127 0.1250383
0.023636183 0.04739184 0.14755385 -0.076028086 -0.064121515 0.023942612 -0.09965754 0.061514586
0.075517885 -0.01775966 0.045222696 0.10887346 0.08938409 0.007825671 -0.10534639 0.082095526
-0.037252303 0.11298442 0.14227465 -0.055579435 0.017671159 -0.026541332 -0.034796536 -0.010022161
-0.101410665 -0.12164079 -0.013769116 -0.07324954 0.03354915 0.10513732 0.0859879 -0.033582423
0.10121351 0.11425998 -0.012275377 0.02016439 -0.092955336 0.12559138 -0.056819804 -0.00871609
-0.010962799 0.114252076 -0.026215779 0.06803227 -0.0815799 -0.09210661 -0.061205443 -0.10684205
0.097713955 -0.11450026 -0.11153048 0.04015633 0.053840145 -0.06778813 -0.12068059 -0.07269936
0.015167343 -0.012969313 -0.027641594 -0.09084044 0.07633392 -0.058665078 -0.07387108 0.106646664
-0.04169536 -0.13933451 0.0550036 0.034903545 -0.075254664 -0.056758855 0.042436756 0.1336271
-0.051405508 -0.030564431 0.039297346 -0.054997228 -0.11193695 -0.06506151 0.12287253 -0.061438806
0.068291664 0.056646466 0.118879065 0.12257462 0.04461994 0.066956826 0.08791815 -0.03226876
0.073191635 0.05696219 -0.058590535 -0.0044898847 0.008129307 0.043723263 -0.0642677 -0.07651596
0.057364754 -0.013997218 0.06417259 0.07141047 0.0142955305 0.12556128 -0.092783734 0.0728197
0.021119552 0.108903676 -0.00980157 -0.019750886 -0.090510406 0.0066582826 0.115673505 0.00750165
-0.02427991 0.112026826 0.13295062 -0.05151559 0.12062838 0.038310077 0.10294571 0.043454904
0.054865822 -0.059160188 -0.012097559 0.04858766 -0.039359197 -0.037085935 0.06145956 -0.12720527
0.12193534 -0.09930766 0.12086894 0.1350382 0.15145807 0.07217263 0.0065487768 -0.080400094
0.0476263 0.021553747 0.065246165 0.08882457 0.018556716 -0.06519183 0.08206547 -0.06465374
-0.037368417 -0.07163855 -0.09447129 -0.013233637 0.135598 -0.07009005 -0.084205955 0.03724524
0.008957308 -0.1004754 0.018104184 -0.018502621 0.002703082 -0.059606284 -0.067710325 0.033358566
-0.02342366 0.113771565 0.1025763 0.04167558 0.13098854 -0.038649116 0.06294625 -0.06463404
-0.012941422 -0.08433441 -0.0098754205 0.005525431 -0.018368943 0.155193 -0.03902796 -0.013807689
0.013479705 0.121307775 0.07641464 0.09746356 0.10692565 0.07271452 -0.016498523 0.097811595
-0.0945305 -0.0082466155 0.060559295 0.114477634 0.114972904 0.08253679 -0.06294588 0.009884381
00000000: 5bc0 f93d d056 ab3d 15eb 0a3d f96d 623d
00000010: f594 a83c 6c30 82bd f6dc a5bd c89d 4abd
00000020: 9e5f e03d f24c e53c 47cb 143e a4ba a53d
00000030: 032c 79bd abc2 ad3d a31b c43d f21e c73d
00000040: 59a1 9d3c 48f3 33bc 026f eb3c 7d54 633d
00000050: aca9 083e a655 62bc d24f 9bbc 3e23 013e
00000060: 8c0c 093d bd86 6abc d01e 153e bfac 673d
00000070: 2469 79bc ba56 e0bd 432c bcbd 4b4a e8bd
00000080: 06c3 883b b2c4 963a b927 3a3d 18ca f53c
00000090: a105 b03d c88a b73d b4ea db3d 788b 2abd
000000a0: 901b 913c 47b5 c13d 6b0c 90bd d4cd e63d
000000b0: 0480 1c3c be6d 70bd 289f 0f3e 8c0e 74bd
000000c0: 504c 6bbd 204e a2bc 47db b83d 5023 eb3a
000000d0: 0fa7 70bd a630 b13c c94e ac3c 826c d73d
000000e0: 3077 393d 11bf 95bc ceee 18bd de77 9fbd
000000f0: 475f 0d3c 134a 4e3d d396 9b3d 0a0a 003e
00000100: aba0 c13c f21d 423d 5b18 173e 9db4 9bbd
00000110: 2452 83bd 4c23 c43c 4119 ccbd b8f6 7b3d
00000120: 1fa9 9a3d b57c 91bc 6f3b 393d 0cf9 de3d
00000130: 010f b73d 3e37 003c d9bf d7bd b321 a83d
00000140: df95 18bd 6064 e73d 72b0 113e 43a7 63bd
00000150: 1bc3 903c 356d d9bc d086 0ebd fd33 24bc
00000160: 65b0 cfbd ce1e f9bd dc97 61bc db03 96bd
00000170: d56a 093d 3c52 d73d 6d1a b03d b98d 09bd
00000180: 0749 cf3d 2301 ea3d aa1e 49bc ca2f a53c
00000190: 5e5f bebd 079b 003e e2bb 68bd eecd 0ebc
000001a0: 509d 33bc fefc e93d 79c2 d6bc 8154 8b3d
000001b0: 5d13 a7bd 64a2 bcbd 8fb2 7abd 01d0 dabd
000001c0: 411e c83d 1d7f eabd 186a e4bd f77a 243d
000001d0: 7c87 5c3d 81d4 8abd 6327 f7bd 67e3 94bd
000001e0: 7380 783c 3e7d 54bc a070 e2bc 8d0a babd
000001f0: f554 9c3d cb4a 70bd b949 97bd 9169 da3d
00000200: c1c8 2abd b5ad 0ebe 744b 613d 05f7 0e3d
00000210: 1e1f 9abd f97b 68bd 2ad2 2d3d 8bd5 083e
00000220: 958e 52bd 4262 fabc 41f6 203d c644 61bd
00000230: 333f e5bd f83e 85bd 98a4 fb3d 42a7 7bbd
00000240: 80dc 8b3d 2006 683d de76 f33d 6708 fb3d
00000250: 66c3 363d a920 893d 6e0e b43d 3f2c 04bd
00000260: 7fe5 953d 2f51 693d a1fc 6fbd e21f 93bb
00000270: c930 053c 2a17 333d c99e 83bd 66b4 9cbd
00000280: 4ef7 6a3d 9654 65bc eb6c 833d a73f 923d
00000290: cd37 6a3c 2393 003e 6605 bebd 7f22 953d
000002a0: e902 ad3c e408 df3d c496 20bc 9ccc a1bc
000002b0: 855d b9bd b92d da3b 3be6 ec3d 67d0 f53b
000002c0: a9e6 c6bc 526e e53d 3524 083e 0302 53bd
000002d0: 030c f73d 07eb 1c3d 33d5 d23d c5fd 313d
000002e0: fcba 603d f451 72bd d734 46bc db03 473d
000002f0: 1c37 21bd 6ce7 17bd 05bd 7b3d 1942 02be
00000300: 3cb9 f93d d061 cbbd 238a f73d 7447 0a3e
00000310: d317 1b3e 3ecf 933d 1f97 d63b cea8 a4bd
00000320: cc13 433d 7c91 b03c c89f 853d a8e9 b53d
00000330: 4104 983c 4b83 85bd f111 a83d 2e69 84bd
00000340: a00f 19bd 3bb7 92bd 2a7a c1bd e6d1 58bc
00000350: 34da 0a3e 5f8b 8fbd 2c74 acbd 778e 183d
00000360: acc1 123c 0cc6 cdbd 3a4f 943c cf92 97bc
00000370: 3126 313b b825 74bd b6ab 8abd fea2 083d
00000380: fae2 bfbc 1101 e93d 8613 d23d 03b4 2a3d
00000390: dc21 063e 894e 1ebd f7e9 803d da5e 84bd
000003a0: 4208 54bc 85b7 acbd 84cc 21bc ad0e b53b
000003b0: 777a 96bc eaea 1e3e c8db 1fbd a539 62bc
000003c0: fbd9 5c3c 3670 f83d 477f 9c3d fa9a c73d
000003d0: d6fb da3d 5aeb 943d e927 87bc 7251 c83d
000003e0: 3599 c1bd d01c 07bc 060d 783d 4073 ea3d
000003f0: ea76 eb3d 0c09 a93d c5e9 80bd 19f2 213c

lstm.bias_hh_l0 f4 [256]
0.104641825 -0.075275466 0.1120789 0.002029966 0.07783191 0.113719165 -0.11606425 0.021840245
-0.05301485 -8.424625e-05 -0.0013533427 0.035303663 0.060983423 -0.05238392 0.021777943 0.12570748
0.019400468 -0.06130556 -0.03374303 0.12487224 -0.059700992 0.08049509 0.045982007 -0.051436927
-0.047527805 1.7935548e-05 0.1561986 0.009207743 0.108868495 0.00393903 0.037445832 -0.016013369
0.06453152 -0.014813695 0.13046107 0.016687434 -0.04150786 0.09846053 -0.012677959 0.12593353
-0.09412356 0.06330223 0.05256837 0.122772254 -0.050469723 0.135145 0.1295017 0.062268008
-0.010568844 -0.038705416 0.029573755 -0.055951215 0.06271908 0.03733837 0.079568975 0.02329443
-0.035376344 -0.06727334 -0.070097074 0.12131266 -0.11414008 -0.06734863 0.107896626 -0.09683036
0.043946967 0.06492761 0.047813915 -0.073224895 0.07949564 0.00041331688 -0.0009271284 0.045978248
0.0720848 0.07135934 0.08682335 0.058489352 -0.006751285 0.07767129 -0.07432152 0.09354975
0.0075638313 0.14535871 0.025102228 0.04168187 0.07714966 -0.033523433 -0.055868316 0.041991793
-0.14178854 0.059676312 -0.042361714 0.06655375 0.07857698 -0.0007450969 -0.025286078 0.06335928
-0.00011027538 -0.038004145 0.1332216 0.026886957 0.08914826 -0.08765443 0.1498362 0.13519609
0.044779282 0.06508567 0.11068947 -0.09539762 0.006519177 0.07271657 0.01104994 0.07677655
-0.02231787 -0.08493912 0.10766958 -0.058839492 -0.123003386 0.067107975 0.092337206 0.026450552
0.021722484 -0.036474723 -0.070956185 -0.123296455 -0.097015604 -0.08805812 0.030843593 0.11498445
0.015733967 -0.14265636 0.05557182 0.10137168 -0.10088653 -0.0670445 -0.11061189 0.11351117
0.07530802 0.0590695 0.021973094 -0.01625342 0.101948336 -0.03261318 0.12045466 0.051509205
-0.008619598 0.06328801 0.13831104 -0.059974827 0.011648214 0.072203144 0.08737571 0.12112751
0.10125103 0.057259418 -0.005799297 -0.06947175 0.057575934 -0.007566545 -0.06574933 -0.06801307
0.11361311 -0.008095419 0.08395076 0.13167909 -0.1180595 0.0020100744 0.0119148195 -0.111693874
0.06416353 0.0019467133 0.11720206 0.10344926 -0.012115852 0.07424177 0.061978847 -0.052578397
-0.08748522 -0.08665268 -0.020655118 0.08258599 0.14130974 0.056969605 -0.07185233 0.033461206
-0.00513883 0.11448368 0.0033610233 0.045792855 0.06732916 -0.09757707 0.085983135 -0.040273316
-0.03577032 -0.09945409 0.015630348 0.08675487 0.15634148 -0.05018296 0.0029037974 0.061463784
0.11266037 -0.016509544 0.06527135 -0.06516712 0.014950787 0.11564299 0.0017950552 0.058238853
-0.06949833 0.017442679 0.1261571 -0.03783061 0.03045462 -0.056133147 -0.04637854 0.09903535
-0.041904528 -0.029395228 -0.052288447 -0.09622395 0.14812951 0.050760444 0.10382656 -0.08577844
-0.016430836 0.0075581945 -0.07679303 -0.074516304 0.027294101 0.09865822 0.06491603 -0.056493975
0.032655936 0.09489039 0.12616506 -0.017747538 -0.06383798 0.07748272 0.13146767 0.07631586
-0.06268027 0.118393354 0.050266184 -0.0043635 0.03192811 0.016005915 0.09364122 0.11930023
-0.056914028 0.027045738 0.06300313 0.026587086 -0.11071008 -0.0020256597 -0.013570084 0.041007694
00000000: 744e d63d 062a 9abd 9f89 e53d 2e09 053b
00000010: 5666 9f3d 98e5 e83d 18b3 edbd 50ea b23c
00000020: 1926 59bd 5cad b0b8 a562 b1ba 939a 103d
00000030: c1c9 793d 8590 56bd a867 b23c 76b9 003e
00000040: bbed 9e3c 8a1b 7bbd 2236 0abd 04bd ff3d
00000050: 0789 74bd 9cda a43d a157 3c3d 87af 52bd
00000060: 84ac 42bd 4c74 9637 87f2 1f3e 13dc 163c
00000070: 72f6 de3d fb12 813b cd60 193d 782e 83bc
00000080: 1a29 843d 24b5 72bc 9697 053e 16b4 883c
00000090: 2504 2abd ada5 c93d 37b7 4fbc b8f4 003e
000000a0: dac3 c0bd 99a4 813d ee51 573d 0570 fb3d
000000b0: 57b9 4ebd 7363 0a3e 189c 043e bd0c 7f3d
000000c0: f228 2dbc 9289 1ebd a944 f23c 1a2d 65bd
000000d0: dc72 803d 1ef0 183d 0ff5 a23d f6d3 be3c
000000e0: c9e6 10bd 9bc6 89bd 0e8f 8fbd c672 f83d
000000f0: 46c2 e9bd 14ee 89bd e8f8 dc3d ff4e c6bd
00000100: bc01 343d c4f8 843d 86d8 433d eff6 95bd
00000110: 9cce a23d 74b2 d839 890a 73ba b053 3c3d
00000120: 32a1 933d d824 923d 71d0 b13d 8892 6f3d
00000130: e239 ddbb 2012 9f3d e235 98bd 0397 bf3d
00000140: 04da f73b ead8 143e 30a3 cd3c 9cba 2a3d
00000150: a400 9e3d de4f 09bd 2dd6 64bd 96ff 2b3d
00000160: 0431 11be 266f 743d 7a83 2dbd 554d 883d
00000170: f8ec a03d 9b52 43ba c024 cfbc 83c2 813d
00000180: a543 e7b8 3caa 1bbd 3e6b 083e 0942 dc3c
00000190: 5d93 b63d 2a84 b3bd a96e 193e d870 0a3e
000001a0: 7b6a 373d a34b 853d 29b1 e23d d45f c3bd
000001b0: d29e d53b 6dec 943d cf0a 353c 063d 9d3d
000001c0: f7d3 b6bc 90f4 adbd de81 dc3d ae01 71bd
000001d0: 33e9 fbbd e86f 893d 4a1b bd3d d4ae d83c
000001e0: 5af3 b13c 8566 15bd 7a51 91bd da82 fcbd
000001f0: 1eb0 c6bd d157 b4bd b4ab fc3c f87c eb3d
00000200: 85e4 803c 8214 12be 479f 633d f59b cf3d
00000210: 999d cebd a04e 89bd 7d88 e2bd 8b78 e83d
00000220: 173b 9a3d dcf2 713d eb00 b43c e425 85bc
00000230: 4aca d03d 6695 05bd efb0 f63d 51fb 523d
00000240: 3739 0dbc 259d 813d 69a1 0d3e 2aa8 75bd
00000250: 27d8 3e3c 3edf 933d 09f2 b23d b311 f83d
00000260: b35c cf3d da88 6a3d 0708 bebb 3447 8ebd
00000270: bed4 6b3d c8f0 f7bb 96a7 86bd 704a 8bbd
00000280: fdad e83d a6a2 04bc 60ee ab3d e2d6 063e
00000290: 2ec9 f1bd 74bb 033b 6036 433c c2bf e4bd
000002a0: 2b68 833d dc28 ff3a a207 f03d 35dd d33d
000002b0: 9181 46bc 120c 983d 88dd 7d3d 725c 57bd
000002c0: 732b b3bd f676 b1bd ec34 a9bc d822 a93d
000002d0: 80b3 103e f658 693d 5027 93bd 9e0e 093d
000002e0: a163 a8bb 6b76 ea3d 9d44 5c3b 4a91 3b3d
000002f0: dfe3 893d 7dd6 c7bd ed17 b03d a2f5 24bd
00000300: e683 12bd 96ae cbbd 370b 803c 8aac b13d
00000310: fb17 203e a68c 4dbd a34d 3e3b 73c1 7b3d
00000320: 7bba e63d 063f 87bc fcac 853d 5776 85bd
00000330: 25f4 743c 3bd6 ec3d 0f48 eb3a dd8b 6e3d
00000340: 2455 8ebd f3e3 8e3c 542f 013e 45f4 1abd
00000350: f87b f93c dfeb 65bd 6df7 3dbd 0cd3 ca3d
00000360: 15a4 2bbd 43ce f0bc 692c 56bd 1011 c5bd
00000370: 43af 173e 2fea 4f3d 05a3 d43d 9bac afbd
00000380: f699 86bc bbaa f73b aa45 9dbd 019c 98bd
00000390: e197 df3c 520d ca3d b2f2 843d 3a66 67bd
000003a0: 3bc2 053d e555 c23d 6a31 013e 4963 91bc
000003b0: 7dbd 82bd 43af 9e3d 769f 063e 7d4b 9c3d
000003c0: 835e 80bd 3778 f23d eae3 4d3d b1fb 8ebb
000003d0: 0dc7 023d d61e 833c f8c6 bf3d ae53 f43d
000003e0: af1e 69bd 068f dd3c c907 813d 29cd d93c
000003f0: f7bb e2bd eec0 04bb 0f55 5ebc aff7 273d

fc.weight f4 [1, 64]
0.04650628 -0.09416047 0.07853823 0.15907517 -0.11257658 -0.09545214 -0.042343616 0.032167025
0.059182633 0.083638825 -0.0524344 -0.08369969 -0.0008999695 -0.17228302 -0.009682345 0.1681727
0.08152537 0.090481706 0.07844716 0.09768711 0.061037675 0.1593835 0.039504148 0.035178237
-0.0455865 0.0052915 -0.17064038 0.06910789 0.07534559 0.06474692 -0.10728621 -0.05500623
-0.012653856 -0.08987777 -0.12793109 0.12198492 0.13208501 0.054147247 -0.09878859 -0.17109577
-0.10097706 0.06540362 -0.12577169 0.14982343 0.06739916 0.12085871 0.16143332 0.122200504
-0.09729226 -0.07054555 0.05608209 0.030949313 -0.14701863 -0.07827173 -0.11724675 -0.12998928
0.12214233 0.10070329 0.109875 0.020343045 0.104058675 -0.12637207 0.13351497 0.020544041
00000000: 5e7d 3e3d 34d7 c0bd a7d8 a03d 9ae4 223e
00000010: 8d8e e6bd 697c c3bd 8070 2dbd 92c1 033d
00000020: 7d69 723d d54a ab3d 74c5 56bd be6a abbd
00000030: eeeb 6bba f66a 30be b3a2 1ebc 7735 2c3e
00000040: c6f6 a63d 794e b93d e8a8 a03d 2e10 c83d
00000050: a402 7a3d 6e35 233e 1acf 213d 0e17 103d
00000060: e9b8 3abd 5264 ad3b 5abc 2ebe 7088 8d3d
00000070: ca4e 9a3d 089a 843d dfb8 dbbd 364e 61bd
00000080: 1e52 4fbc d611 b8bd 5e00 03be 3bd3 f93d
00000090: 4b41 073e 81c9 5d3d ac51 cabd bb33 2fbe
000000a0: 10cd cebd 55f2 853d 4bca 00be 506b 193e
000000b0: 9208 8a3d c584 f73d c74e 253e 4244 fa3d
000000c0: 2a41 c7bd 2f7a 90bd 55b6 653d 6a89 fd3c
000000d0: 0d8c 16be ee4c a0bd 101f f0bd e91b 05be
000000e0: c225 fa3d 873d ce3d 2506 e13d 75a6 a63c
000000f0: b71c d53d ae67 01be 26b8 083e fa4b a83c
