checkpoints/South-East/best_model.pth (torch, 81193 bytes, 5 tensors)

lstm.weight_ih_l0 f4 [256, 11]
0	0xbc896672	-0.016772483
1	0x3d809668	0.06278688
2	0x3d4203e4	0.04736699
3	0xbc220b04	-0.009890322
4	0xbdb785f0	-0.089610934
5	0x39cce162	0.00039077835
6	0xbcb14fe3	-0.021644538
7	0x3d9227b0	0.07136476
8	0xbe017d96	-0.12645563
9	0x3d30f08a	0.043198146
10	0xbda23012	-0.07919325
11	0x3e1bcd7b	0.15215103
12	0x3db44f86	0.088042304
13	0x3d4d6765	0.050147433
14	0xbe19ec1d	-0.15031476
15	0xbca30bc9	-0.01990308
16	0x3d6d2e20	0.057905316
17	0x3d19a970	0.037515104
18	0xbd57f0cf	-0.052719887
19	0x3d55d0ee	0.052201204
20	0x3be3ab74	0.006947929
21	0xbc77a8c0	-0.015115917
22	0xbddcd3c0	-0.107825756
23	0x3dcac39d	0.099005915
24	0xbda479b3	-0.08031025
25	0x3c720fb6	0.014774254
26	0xbdad3a68	-0.08458406
27	0x3dae9b78	0.08525747
28	0xbb87d42e	-0.004145167
29	0x3d84774a	0.06468065
30	0xbdad9a19	-0.084766574
31	0x3c5b6165	0.01338992
32	0x3dce1eee	0.10064493
33	0x3db7ed37	0.08980792
34	0xbcc78805	-0.024356851
35	0xbe1abb4c	-0.1511051
36	0x3c06eda1	0.008235366
37	0xbdbdef7e	-0.09274195
38	0x3c441e4c	0.011970114
39	0x3d4c037f	0.04980802
40	0x3d9f97df	0.07792639
41	0xbd8367cf	-0.06416284
42	0xbd7ad3e3	-0.061237227
43	0xbbd49297	-0.0064872014
44	0xbdbd6b17	-0.092489414
45	0x3cf30143	0.029663688
46	0x3d134fd8	0.035964817
47	0x3ce85762	0.02836198
48	0x3d8a1b31	0.067434676
49	0x3e10296a	0.14078298
50	0xbda885b1	-0.082286246
51	0x3e207fb6	0.15673718
52	0x3d8bdf3c	0.06829688
53	0xbe0c9af3	-0.13730983
54	0xbdc8efe1	-0.09811378
55	0x3de3b903	0.111192726
56	0xbdc74981	-0.09730817
57	0x3d8dee12	0.06930174
58	0x3e0582aa	0.13038126
59	0x3d94bf21	0.072630174
60	0xbdaeab2d	-0.08528743
61	0x3cc79aea	0.024365861
62	0xbd9586db	-0.07301112
63	0xbd1ca98a	-0.038247623
64	0x3de65fb1	0.112487204
65	0x3e222c7b	0.1583728
66	0xbd0a4ce0	-0.03376472
67	0xbdc94c27	-0.09828978
68	0xbdd39d62	-0.10332753
69	0xbc924208	-0.017853752
70	0x3d643f4c	0.055724427
71	0x3c28d553	0.010304767
72	0xbc1a12d5	-0.009403904
73	0xbda43487	-0.08017831
74	0x3d93d8e2	0.072191015
75	0x3c5b6561	0.01339087
76	0x3d2ad518	0.04170713
77	0x3e097a53	0.13425569
78	0xbe030221	-0.12793781
79	0x3d71d5be	0.05904173
80	0x3ddb7196	0.10715024
81	0xbd58880b	-0.052864116
82	0x3d94f5ed	0.07273469
83	0x3d88db63	0.0668247
84	0x3de081f8	0.109622896
85	0x3dda14f9	0.106485315
86	0x3bde1260	0.006777093
87	0x3ba0403f	0.004890471
88	0xbd07a647	-0.03311756
89	0x3e101d06	0.14073572
90	0xbd1411ab	-0.036149662
91	0xbe23a35f	-0.1598029
92	0x3cc674a2	0.024225537
93	0xbc8f0168	-0.017456725
94	0x3d859786	0.065230414
95	0x3d335976	0.04378649
96	0xbdc3e2b8	-0.095647275
97	0xbdd5fbf6	-0.10448448
98	0xbdf2e779	-0.11860556
99	0x3dfecaf7	0.12441056
100	0xbda11dfd	-0.07867048
101	0xbc05c232	-0.008163976
102	0x3d65c3b5	0.056094844
103	0x3e0912b5	0.13386042
104	0x3db1e4f9	0.08686251
105	0x3ce713ad	0.028207624
106	0xbd1e55a9	-0.03865591
107	0x3dc7f75c	0.09763977
108	0xbe16fc1a	-0.14744607
109	0x3c830de9	0.015997844
110	0xbba4518b	-0.0050146035
111	0x3d73ee12	0.059553213
112	0xbd8300cd	-0.06396637
113	0xbbc7fe64	-0.006103324
114	0xbd79b2c9	-0.06096152
115	0x3dfb4dce	0.122706994
116	0xbde56473	-0.112008
117	0x3d83caa7	0.06435137
118	0x3d2bc288	0.041933566
119	0xbd8338a3	-0.06407287
120	0xbc4bf522	-0.012448581
121	0x3e1b98cd	0.15195008
122	0x3df3bfec	0.119018406
123	0x3bc08bbf	0.005876034
124	0xbdb086ea	-0.08619483
125	0x3d99657d	0.074900605
126	0x3dd4e842	0.10395862
127	0xbe1ae6ce	-0.15127108
128	0xbda4774c	-0.080305666
129	0x3d48de91	0.04904038
130	0x3d5322f5	0.05154701
131	0xbe175045	-0.14776714
132	0xbcf2ea2d	-0.02965268
133	0xbd75e139	-0.060029242
134	0xbdadd71c	-0.084882945
135	0xbdfe5f03	-0.12420466
136	0x3c458381	0.012055279
137	0xbdc9aa70	-0.098469615
138	0x3d83cdf8	0.0643577
139	0xbc8d4f9e	-0.017249878
140	0xbda60d48	-0.08108002
141	0xbdb05ab4	-0.0861105
142	0xbcc47d46	-0.023985516
143	0x3dbebc4e	0.0931326
144	0xbd93838d	-0.07202826
145	0x3d1074d8	0.03526768
146	0x3d9ac60c	0.07557306
147	0x3d03783a	0.03209708
148	0xbd03cde1	-0.032178763
149	0xbd02b064	-0.0319065
150	0x3ce160d5	0.027511993
151	0x3dccebdb	0.10005923
152	0xbc0c4c3d	-0.0085630985
153	0x3c886bb3	0.016652917
154	0x3d05f0cd	0.03270035
155	0x3dfba2e3	0.122869276
156	0xbdbcf57f	-0.09226512
157	0xbd1cf3aa	-0.038318314
158	0x3de7ef92	0.11324991
159	0x3d5d056d	0.053960253
160	0xbd7e9361	-0.06215227
161	0xbd88c6a8	-0.06678516
162	0xbd941379	-0.072302766
163	0x3dc1f3ce	0.0947033
164	0xbdd5dda7	-0.104426675
165	0xbceba5ce	-0.028765585
166	0x3d89ea1f	0.06734108
167	0xbc1d6a33	-0.009607839
168	0xbc5d49bf	-0.013506352
169	0xbde70f7e	-0.11282252
170	0x3dba1317	0.09085672
171	0x3da3df36	0.080015585
172	0x3c1b4755	0.009477456
173	0x3d97d0da	0.07412882
174	0xbd00cf12	-0.031447478
175	0x3b0d994a	0.002160626
176	0x3cffda4d	0.031232024
177	0xbda68191	-0.081301816
178	0xbd031beb	-0.032009047
179	0xbdbfef2f	-0.093717925
180	0x3db00a27	0.085956864
181	0xbc6aedd0	-0.0143389255
182	0xbd99df4b	-0.07513293
183	0x3e163c19	0.14671363
184	0x3d997b6c	0.07494244
185	0x3d11901b	0.03553782
186	0x3d81d236	0.06338923
187	0x3d873996	0.066027805
188	0x3dffa9d5	0.12483565
189	0x3d1af348	0.037829667
190	0x3c576b20	0.013148099
191	0x3d1be29f	0.03805792
192	0x3e116284	0.14197737
193	0xbd10ff31	-0.03539962
194	0xbd2a2a04	-0.041543975
195	0x3cad3ab4	0.021146156
196	0xbdfc8d51	-0.123316415
197	0xba2de2bc	-0.00066332123
198	0x3d9d7bf2	0.07689656
199	0xbd90e90b	-0.070756994
200	0xbda93d40	-0.08263636
201	0x3cf982b8	0.03045784
202	0x3d7953a4	0.06087078
203	0x3dbb2923	0.091387056
204	0xbda47bfb	-0.0803146
205	0xbbf3b80a	-0.0074377107
206	0x3c53d199	0.01292839
207	0xbd8f8c17	-0.07009142
208	0xbc9073bd	-0.017633313
209	0x3deadbd3	0.114677094
210	0x3df56770	0.1198262
211	0xbd46ecad	-0.048565555
212	0x3cbd6fe8	0.02312465
213	0xbdabe73d	-0.083937146
214	0x3db2e68e	0.08735381
215	0x3db88e9f	0.09011578
216	0xbe0a338f	-0.1349623
217	0x3caf7758	0.021419212
218	0xbdc2e40b	-0.09516152
219	0x3e0cc200	0.1374588
220	0xbd6a7536	-0.057240687
221	0xbd951b11	-0.07280553
222	0x3b69665a	0.0035613985
223	0xbe0a0bd0	-0.13481069
224	0x3e03f3c8	0.12885964
225	0xbdb02a3d	-0.08601806
226	0xbd60f06a	-0.054916777
227	0x3e0d6ff3	0.13812236
228	0xbc718a10	-0.014742389
229	0xbdf1227c	-0.117741555
230	0x3d5cb19b	0.053880315
231	0x3c8864d1	0.016649636
232	0xbda20996	-0.079119846
233	0xbdfd6e2c	-0.12374529
234	0x3d79b84c	0.060966775
235	0xbded165b	-0.115765296
236	0xbd5a2e62	-0.05326689
237	0xbba09e2b	-0.0049016676
238	0xbc335623	-0.01094583
239	0xbd3e75a5	-0.046498913
240	0xbdd471af	-0.10373246
241	0xbd412d4c	-0.04716234
242	0x3dbf89f0	0.09352481
243	0x3cf81ac1	0.030286195
244	0x3d2c6bd9	0.04209504
245	0x3e2125d5	0.15737088
246	0x3ddef5c5	0.108867206
247	0x3d36a73e	0.04459309
248	0x3c801a0f	0.015637426
249	0xbd02e3d3	-0.03195555
250	0xbc2c1369	-0.010502675
251	0xbc7c04ff	-0.015382051
252	0xbdb5dac0	-0.08879614
253	0x3db09e92	0.08623995
254	0x3dfa3700	0.12217522
255	0x3d63ef89	0.05564836

lstm.weight_hh_l0 f4 [256, 64]
0	0x3d53b20d	0.051683474
1	0x3caced9d	0.021109397
2	0x3c596f4b	0.013271163
3	0x3d112066	0.03543129
4	0x3dab88c6	0.08375697
5	0x3dea5ebc	0.114438504
6	0x3d5a238f	0.053256568
7	0x3a28af76	0.0006434837
8	0x3d420f8f	0.04737812
9	0xbbfac563	-0.007652925
10	0x3dee4465	0.11634139
11	0xbde172bf	-0.11008214
12	0x3da2b4b9	0.07944626
13	0x3d5376fd	0.051627148
14	0x3d84a4a1	0.06476713
15	0x3df9eaa0	0.12202954
16	0xbd6982a0	-0.05700934
17	0x3dd74d29	0.10512764
18	0x3e089dd5	0.13341458
19	0x3da1e327	0.07904654
20	0x3c0ce137	0.008598617
21	0xbde5ef18	-0.11227244
22	0x3deac148	0.11462647
23	0x3d3c4b8e	0.045970492
24	0x3cba94eb	0.022776088
25	0xbc00895d	-0.00784525
26	0xbc97b40c	-0.01851847
27	0x3caeea38	0.021351919
28	0xbd036a60	-0.03208387
29	0xbe0049ff	-0.12528227
30	0x3bf475d0	0.0074603334
31	0xbce27436	-0.027643304
32	0xbcd87908	-0.0264249
33	0x3dc9524f	0.09830152
34	0xbd1b3fa3	-0.037902486
35	0xbdb5ba90	-0.088734746
36	0x3d909c02	0.07061006
37	0xbc87d7c2	-0.016582374
38	0xbd3f64b2	-0.04672689
39	0x3da04c05	0.078269996
40	0xbda4d382	-0.080481544
41	0xbdc5867d	-0.09644792
42	0x3d8ee51e	0.069772944
43	0x3df96bbd	0.121787526
44	0xbd56e188	-0.052461177
45	0xbd6dde01	-0.058073048
46	0x3d414a39	0.047189925
47	0xbdd6ba62	-0.104847685
48	0xbb2d090e	-0.0026403102
49	0x3dc7bdb1	0.09752978
50	0x3d3f13b3	0.046649646
51	0xbd85a30c	-0.06525239
52	0xbca79088	-0.02045466
53	0x3dce864e	0.1008421
54	0xbc8a9294	-0.016915597
55	0x3d94af64	0.072600156
56	0x3d86ff88	0.065917075
57	0x3e021cad	0.12706251
58	0x3bfff72b	0.007811447
59	0xbce6ecd9	-0.02818911
60	0x3dc89d79	0.097956605
61	0x3d8b229b	0.0679371
62	0x3dcfd0bf	0.10147237
63	0x3dc60275	0.096684374
64	0x3d9569fc	0.072956055
65	0x3e0d7ba7	0.13816701
66	0x3db0b9f0	0.08629215
67	0x3d950bf5	0.07277671
68	0x3df3cc2a	0.119041756
69	0xba0f818e	-0.0005474322
70	0x3dfcd859	0.123459525
71	0xbccf1010	-0.025276214
72	0xbe1bf5e9	-0.15230526
73	0x3d2b1362	0.04176653
74	0xbb59c495	-0.0033228744
75	0x3da7af7c	0.08187768
76	0x3e05fc62	0.13084558
77	0xbbdb5b24	-0.0066942144
78	0xbbba5934	-0.0056869034
79	0xbd76ba84	-0.06023647
80	0xbd0d7386	-0.034534
81	0x3dd50c28	0.10402709
82	0x3da95198	0.08267516
83	0xbc7c51d2	-0.015400367
84	0xbd8d1b67	-0.06889992
85	0x3dfb400d	0.12268076
86	0x3c8bee4b	0.0170814
87	0xbbe3153f	-0.006930023
88	0x3d3520ad	0.044220615
89	0xbd5a29fb	-0.053262692
90	0xbd8c0af3	-0.06838026
91	0x3cf85d3b	0.030317893
92	0x3e226fb2	0.15862921
93	0x3d9f6032	0.0778202
94	0xbd23b56c	-0.03996794
95	0xbe057460	-0.13032675
96	0x3cc26a6f	0.023732392
97	0xbe22c6e3	-0.15896182
98	0x3c4a7788	0.0123576
99	0xbe10fe1a	-0.14159432
100	0xbd6b8482	-0.057499416
101	0xbb52c153	-0.0032158687
102	0x3cd6ffc3	0.026245004
103	0xbd109b2b	-0.03530423
104	0xbc326abd	-0.010889706
105	0x3df6e37f	0.1205511
106	0xbd424744	-0.047431245
107	0x3b818b0f	0.0039533447
108	0x3e0f79de	0.14011332
109	0xbe049355	-0.12946828
110	0xbcf64eac	-0.03006681
111	0x3d86c804	0.06581119
112	0xbe15b136	-0.14618382
113	0x3d66356b	0.056203287
114	0x3def2942	0.11677791
115	0x3c16a6ac	0.009195011
116	0x3d6be84b	0.05759458
117	0xbd0d4722	-0.034491666
118	0x3d747484	0.05968143
119	0xbdcd6490	-0.100289464
120	0x3df21ef7	0.11822312
121	0xbd9e7177	-0.077364855
122	0x3d86c3a1	0.06580282
123	0x3ce29645	0.027659545
124	0x3ca98346	0.020692479
125	0x3d9e47a6	0.077285096
126	0x3dced6a7	0.100995354
127	0x3e0563da	0.13026372
128	0x3dc6f6b7	0.09715026
129	0x3d660fa5	0.056167264
130	0xbd33ddc9	-0.043912683
131	0xbdc5af95	-0.0965263
132	0xbce95877	-0.028484566
133	0x3d9d0627	0.07667189
134	0x3d372629	0.044714127
135	0xbd7da88b	-0.061928313
136	0x3e056ff1	0.13030984
137	0xbc9db83c	-0.019252889
138	0xbd827067	-0.06369095
139	0xbd654882	-0.055977352
140	0x3ce33e4c	0.027739666
141	0x3d28da56	0.041223846
142	0x3d2f42c8	0.042788297
143	0x3e05ed14	0.1307872
144	0xbd7801dc	-0.06054865
145	0x3dbe94b6	0.09305708
146	0xbd065096	-0.032791696
147	0xbc5f54f9	-0.013631099
148	0x3dea1776	0.11430256
149	0x3c0adb75	0.008475174
150	0xbd986400	-0.074409485
151	0x3e078908	0.13235867
152	0xba7c3ede	-0.0009622405
153	0xbdb41c37	-0.08794444
154	0x3d309d04	0.04311849
155	0xbcf1d1ab	-0.029518923
156	0xbe0633cd	-0.13105698
157	0xbd0d8bb7	-0.03455707
158	0xbd001188	-0.03126672
159	0xbc036e1e	-0.008021859
160	0x3cdae01c	0.026718192
161	0x3dddf48d	0.1083766
162	0xbd887168	-0.066622555
163	0xbd60d1f2	-0.05488772
164	0x3e070648	0.1318599
165	0x3d782b3b	0.060588103
166	0xbc827710	-0.015925914
167	0x3dbee238	0.093204916
168	0x3d01a3e7	0.03165045
169	0x3d8c5dca	0.06853826
170	0x3d183cd4	0.037167385
171	0xbd93e311	-0.07221044
172	0xbe042639	-0.12905206
173	0xbdaea69d	-0.08527873
174	0xbd019b4b	-0.03164224
175	0x3e0cce23	0.1375051
176	0x3acdff05	0.001571626
177	0x3dad452d	0.0846046
178	0xbcf56b8c	-0.029958509
179	0x3bccb05b	0.006246609
180	0x3ce164ef	0.02751395
181	0x3d64609e	0.055756204
182	0xbde4cbd1	-0.111716874
183	0x3b8a78d1	0.004225828
184	0xbd75b30e	-0.059985213
185	0xbd7b04fa	-0.061284043
186	0xbc88c9a5	-0.016697714
187	0xbd268ac8	-0.040659696
188	0x3d7ec079	0.062195275
189	0xbda12438	-0.07868236
190	0xbd6fac0c	-0.058513686
191	0xbd940240	-0.07226992
192	0xbda1b42a	-0.07895692
193	0xbc46c7db	-0.01213261
194	0x3dcc8a54	0.099873215
195	0xbde44e57	-0.11147755
196	0x3cad0a3a	0.02112304
197	0x3df77353	0.12082543
198	0xbd8aad4d	-0.06771336
199	0x3d7da643	0.061926138
200	0xbd04675c	-0.032325134
201	0x3ddcd74c	0.10783252
202	0x3cddfde6	0.027098607
203	0xbd1630dd	-0.036667693
204	0x3d9ba22b	0.075992905
205	0x3d66b087	0.056320693
206	0x3c993e51	0.018706473
207	0xbc213136	-0.009838393
208	0xbd5abbf0	-0.053401887
209	0x3d105705	0.03523924
210	0xbd8f0698	-0.069836795
211	0xbde9c054	-0.11413637
212	0xbde26fec	-0.11056504
213	0xbd9bb706	-0.07603268
214	0xbdeaa60f	-0.114574544
215	0x3d84b4c3	0.0647979
216	0xbd88477f	-0.06654262
217	0x3c19e176	0.009392133
218	0x3dbe76c6	0.09299998
219	0xbd7c15e9	-0.061544333
220	0x3d6ea1ed	0.058259893
221	0x3d972edf	0.07381987
222	0x3d3df818	0.04637918
223	0x3bd07ee5	0.0063627833
224	0x3e0562b7	0.13025938
225	0xbce4efc4	-0.02794636
226	0xbd8e8778	-0.06959432
227	0xbda6039e	-0.08106159
228	0x3d86cae6	0.065816686
229	0x3d9bee42	0.076138034
230	0xbd7e76fe	-0.0621252
231	0xbd9c1a13	-0.07622161
232	0x3dca7637	0.09885829
233	0x3da79079	0.08181853
234	0x3d2ef455	0.042713482
235	0xbd9a5873	-0.075364016
236	0xbd4f03bd	-0.050540674
237	0xbcfadb65	-0.030622194
238	0x3d6487e6	0.055793665
239	0xbdb1c16d	-0.08679471
240	0xbbf80a73	-0.007569605
241	0xbdaa5417	-0.0831682
242	0x3d82b472	0.063820735
243	0x3cd389ae	0.025822487
244	0x3d4e106c	0.05030863
245	0xbc4dd77a	-0.012563581
246	0xbd9c1ddf	-0.07622885
247	0xbd8166dc	-0.06318447
248	0x3c37056d	0.011170727
249	0x3d489616	0.048971258
250	0xbd3e07af	-0.046394046
251	0xbd9f0380	-0.077643394
252	0x3d9567ba	0.07295175
253	0xbdb1c9ce	-0.08681069
254	0x3d14bc99	0.036312673
255	0xbd8ed78f	-0.06974708

lstm.bias_ih_l0 f4 [256]
0	0xbda561aa	-0.080752686
1	0x3c9f8baf	0.019475786
2	0x3cc67fc6	0.024230849
3	0x3df0040c	0.11719522
4	0xbda3ce49	-0.0799833
5	0x3df0229c	0.11725351
6	0xbc964491	-0.018343242
7	0x3c8adb0a	0.01695015
8	0xbdc461db	-0.09588977
9	0x3db0952b	0.086222015
10	0x3cff9f08	0.031203762
11	0x3d723aaa	0.059137978
12	0x3dc292e3	0.09500673
13	0xbd9bfdfa	-0.076168016
14	0x3c98b5c0	0.018641353
15	0xbd8ef7ac	-0.069808334
16	0x3e1958d5	0.14975293
17	0x3df91903	0.12162974
18	0xbd12e693	-0.035864424
19	0x3dc584c9	0.096444674
20	0x3d309a8f	0.04311615
21	0x3cb887e3	0.022525733
22	0xbc1c0bc4	-0.0095242895
23	0x3e099e05	0.13439186
24	0xbd6ef55b	-0.058339458
25	0x3da52508	0.08063704
26	0x3d5a6eed	0.053328443
27	0x3dd19cce	0.10234986
28	0x3db013ad	0.08597503
29	0x3e2168ab	0.15762584
30	0x3d2dbdb4	0.042417243
31	0x3d4d48d3	0.05011828
32	0x3de01f95	0.10943524
33	0x3d0c5d3e	0.03426861
34	0x3da698c1	0.08134604
35	0x3e1e7aae	0.15476486
36	0xbd42221d	-0.047395814
37	0x3d028d02	0.031872757
38	0x3b8bdeb7	0.004268493
39	0xbcd3f0f6	-0.025871735
40	0x3ce6dc6d	0.02818128
41	0xbd9aa779	-0.07551474
42	0xbd8e2564	-0.069407254
43	0xbb4ed5ec	-0.0031560613
44	0x3d0e4e7b	0.034742814
45	0x3d622ad1	0.055216614
46	0x3da99816	0.08280961
47	0xbdc73996	-0.097277805
48	0x3a90497b	0.0011008227
49	0xbd328eb5	-0.043593127
50	0x3dd8a35e	0.10578035
51	0x3ddfc6e9	0.10926611
52	0xbd178bbc	-0.036998495
53	0x3da59af3	0.08086195
54	0x3ca28aa5	0.019841501
55	0xbd804f43	-0.06265118
56	0xbd3345f2	-0.043767877
57	0xbcd44eb7	-0.02591644
58	0x3d553529	0.05205265
59	0x3cfca389	0.030839698
60	0x3c5a2c62	0.013316246
61	0x3d40523c	0.046953425
62	0x3ddab611	0.10679258
63	0x3e047988	0.12936985
64	0xbd07da52	-0.03316719
65	0x3d766cdb	0.060162406
66	0x3dbda25f	0.092594855
67	0xbc03cc9e	-0.00804439
68	0xbc5e26bd	-0.013559041
69	0x3e0d1b52	0.13779953
70	0x3e06732e	0.13129875
71	0xbc037b01	-0.008024932
72	0x3c70fa1e	0.01470807
73	0x3d2a228a	0.041536845
74	0x3d28313c	0.04106258
75	0x3e016af8	0.12638462
76	0x3d5d51f5	0.05403324
77	0x3c8f595a	0.01749866
78	0xbe1ba3ff	-0.15199278
79	0x3d430f75	0.047622163
80	0x3cfc68fc	0.03081178
81	0x3e0f729a	0.14008561
82	0xbcc6cbd2	-0.024267111
83	0x3bd62d39	0.0065361527
84	0xbcaf7030	-0.0214158
85	0x3db65c6c	0.08904347
86	0xbd01eef7	-0.031722035
87	0xbd0f4b36	-0.034983836
88	0xbd46fb72	-0.04857964
89	0x3d9ed6ca	0.077558115
90	0x3e0fef16	0.14056048
91	0xbb3c216c	-0.0028706444
92	0xbd0ee2fb	-0.034884434
93	0x3dccd176	0.10000889
94	0xbcd37c86	-0.025816213
95	0x3cbda4f2	0.023149941
96	0xbcabc563	-0.020968145
97	0xbc83816a	-0.01605292
98	0xbc839058	-0.01606004
99	0xbd24542b	-0.04011933
100	0x3d3f6d72	0.046735235
101	0x3cdd1d10	0.026991397
102	0x3e1522c8	0.14564049
103	0xbc99227b	-0.0186932
104	0xbd1f4bc9	-0.038890634
105	0xbdb4954a	-0.08817537
106	0x3d9b7976	0.07591526
107	0xbd31045e	-0.043217055
108	0x3df6bb25	0.12047414
109	0xbd1c7f95	-0.03820761
110	0xbdcbf84c	-0.09959468
111	0xbd9451d6	-0.072421715
112	0x3d15c6ae	0.03656643
113	0x3da28d2f	0.07937085
114	0x3de37267	0.11105805
115	0xbd477feb	-0.048705976
116	0xbc293c80	-0.010329366
117	0x3da05e97	0.078305416
118	0xbdc48363	-0.095953725
119	0xbd5227eb	-0.0513076
120	0x3da4ad30	0.080408454
121	0xbc29fba4	-0.010374937
122	0xbda48284	-0.080327064
123	0xbdc06fa5	-0.093962945
124	0x3dab7850	0.08372557
125	0x3dbdd95a	0.09269972
126	0xbdfaca40	-0.122456074
127	0xbde0999d	-0.109667994
128	0xbc718de2	-0.0147433
129	0x3dfeeead	0.124478675
130	0xbdb7c563	-0.089731954
131	0xbb89f79f	-0.004210427
132	0x3d967ebf	0.07348394
133	0xbe20fcec	-0.15721482
134	0x3e045eff	0.12926863
135	0xbdd9bc54	-0.10631624
136	0x3d52c82f	0.05146044
137	0xbcfad358	-0.030618355
138	0xbd8e0a88	-0.069356024
139	0x3d8323e6	0.064033315
140	0x3e042e3b	0.1290826
141	0x3dd63600	0.104595184
142	0x3d369787	0.0445781
143	0x3d5422ee	0.051791124
144	0x3dfc95fc	0.12333295
145	0xbd037b21	-0.032099847
146	0xbc343547	-0.01099903
147	0x3d642232	0.055696674
148	0xbdba06ff	-0.09083366
149	0x3e02578d	0.1272871
150	0x3dcbd629	0.09952957
151	0xbd6be3ac	-0.05759017
152	0xbc246718	-0.010034345
153	0x3d795c0e	0.060878806
154	0x3ccf7b02	0.02532721
155	0xbdd5704d	-0.1042181
156	0x3cc145c3	0.023592835
157	0x3d24a529	0.04019657
158	0x3decc076	0.115601465
159	0x3d0c1830	0.034202754
160	0xbd1456a4	-0.03621544
161	0x3d76b120	0.060227513
162	0xbdae7ab6	-0.08519499
163	0x3daa19a6	0.08305673
164	0xbde5cb4d	-0.11220417
165	0xbde5f3b1	-0.11228121
166	0xbe0a4936	-0.1350449
167	0xbde3b9d7	-0.111194305
168	0x3dc37f3f	0.09545755
169	0x3d5907be	0.0529859
170	0xbd071be3	-0.03298558
171	0xbd769cc0	-0.060208082
172	0x3e0e6ece	0.13909456
173	0x3d242397	0.040073004
174	0x3d31f82f	0.043449577
175	0xbcd5a268	-0.026078418
176	0xbb894231	-0.004188799
177	0xbc7a28cb	-0.015268515
178	0xbe07bd1e	-0.13255736
179	0xbdab879e	-0.08375476
180	0x3dcb839d	0.099372126
181	0xbc00e3e0	-0.00786683
182	0x3dd30fbf	0.10305738
183	0x3d521f4e	0.051299386
184	0xbca8d191	-0.020607742
185	0x3d030e5d	0.03199612
186	0xbd8fe92c	-0.07026896
187	0x3e0a30ae	0.13495132
188	0xbd86a9d9	-0.065753646
189	0x3d7e9c3c	0.062160715
190	0x3db141ba	0.086551145
191	0x3dd66181	0.10467816
192	0xbbb81a22	-0.0056183496
193	0x3c540415	0.012940426
194	0xbd4c65bf	-0.04990172
195	0xbdb4f2bd	-0.08835361
196	0x3daab098	0.08334464
197	0x3dca296e	0.09871183
198	0x3c9cdfb8	0.019149646
199	0xbda2ef24	-0.07955769
200	0xbca54fef	-0.020179717
201	0x3db0e2e7	0.08637028
202	0x3da5c202	0.08093645
203	0x3dba2a5f	0.09090113
204	0x3d1dfe89	0.03857282
205	0xbda8f1bc	-0.08249232
206	0xbe0eff3f	-0.13964556
207	0x3cfe5cbb	0.031050077
208	0x3e0ff595	0.14058526
209	0x3da340ce	0.07971345
210	0xbd4e0dab	-0.050306004
211	0xbd9c87ab	-0.07643064
212	0xbd839593	-0.064250134
213	0xbdd234b2	-0.10263957
214	0x3e00f613	0.1259387
215	0x3cfacc17	0.030614896
216	0x3df0f89e	0.1176617
217	0x3e20d36e	0.15705654
218	0x3dfa88af	0.122331016
219	0x3ddba7f0	0.10725391
220	0x3dc8ebf9	0.09810633
221	0x3d55cf56	0.052199684
222	0xbdd29d12	-0.10283865
223	0x3b509078	0.0031824391
224	0x3df79b7f	0.120902054
225	0x3d144fcb	0.03620891
226	0x3e1541fe	0.14575955
227	0xbc9da1da	-0.019242216
228	0x3e0e2472	0.1388109
229	0x3d6b3fe6	0.057433985
230	0x3d4a1d13	0.049344134
231	0x3e06af42	0.13152793
232	0x3c4f9f62	0.012672277
233	0xbd94b6d0	-0.07261431
234	0x3cc4b8d8	0.024013922
235	0xbd8bb8ba	-0.06822343
236	0x3d4cc36f	0.049991067
237	0x3e0ac556	0.1355184
238	0x3df3619a	0.118838504
239	0x3dd36942	0.10322811
240	0x3dbf6768	0.09345895
241	0xbd0b3d63	-0.03399409
242	0xbd6f524b	-0.05842809
243	0x3d9109d3	0.07081952
244	0x3ce4ccc8	0.027929679
245	0xbd9cb60c	-0.0765191
246	0xbdc90a3a	-0.09816404
247	0x3dde0608	0.10840994
248	0xbd0036e6	-0.031302355
249	0x3db2bd02	0.08727457
250	0x3e0dd310	0.13850045
251	0x3de373f4	0.11106101
252	0x3df4241b	0.11920949
253	0x3d9f81dc	0.077884406
254	0xbd9d53bd	-0.076819874
255	0xbc8137ad	-0.015773619

lstm.bias_hh_l0 f4 [256]
0	0x3c70c27b	0.014694805
1	0x3c6409d1	0.013918356
2	0xbdb21ff7	-0.08697503
3	0x3d033781	0.032035355
4	0xbd4cdd7b	-0.050015908
5	0x3dfd9706	0.12382321
6	0xbd21bc9e	-0.03948652
7	0x3cc71121	0.02430016
8	0xbdb4f97e	-0.08836649
9	0x3dbd3fe9	0.092407055
10	0x3cf1d449	0.02952017
11	0x3db8704d	0.09005795
12	0xbdd80988	-0.10548693
13	0xbd326d9b	-0.04356156
14	0x3da0a8bb	0.07844683
15	0x3c328b19	0.010897421
16	0x3daea31f	0.08527207
17	0x3e0e93f4	0.13923627
18	0x3bfa2963	0.007634328
19	0xbd9345eb	-0.0719107
20	0x3e10669e	0.14101645
21	0xbd1ec4f8	-0.038762063
22	0x3d988b3c	0.07448432
23	0x3d9f3f51	0.077757485
24	0x3d737cc4	0.059445158
25	0xbcd58428	-0.026063994
26	0xbc3ff694	-0.011716504
27	0x3e070f85	0.13189514
28	0x3df944d9	0.12171335
29	0x3d9556ab	0.07291921
30	0xbdbc4511	-0.09192861
31	0xbc3064b0	-0.010766193
32	0xbc5c3b13	-0.013441819
33	0xbc32cbe4	-0.010912869
34	0xbce9e568	-0.028551772
35	0xbd06c33a	-0.032901026
36	0x3d6ef145	0.05833556
37	0x3dedd57f	0.11612987
38	0x3d92c298	0.07166022
39	0x3d832b18	0.06404704
40	0xbbc0289f	-0.0058642174
41	0x3d475be2	0.04867161
42	0x3c1a9c61	0.009436698
43	0x3e28cf14	0.16485244
44	0x3df31032	0.118683234
45	0x3dc3b714	0.09556404
46	0xbd009cf7	-0.031399693
47	0x3d9dffa7	0.077147774
48	0xbd5e8317	-0.054324236
49	0x3dd769ee	0.10518251
50	0xbd8b744a	-0.0680929
51	0xbd810ebf	-0.06301641
52	0xbd2890c1	-0.041153673
53	0xbc8bc0a6	-0.017059635
54	0x3d93a546	0.07209258
55	0xbdbcc2bc	-0.0921683
56	0x3ddb950d	0.107217886
57	0x3e001fc4	0.12512118
58	0x3e1b23a0	0.15150309
59	0x3c820313	0.015870607
60	0x3db04d5a	0.08608504
61	0x3db70720	0.08936906
62	0x3dd36afd	0.10323141
63	0x3d9f70f7	0.07785218
64	0xbdb10314	-0.08643165
65	0x3c7b858f	0.015351667
66	0xbdd6f05f	-0.10495066
67	0xbd7ca9e8	-0.061685473
68	0x3dfc5def	0.12322604
69	0xbb9b6f8a	-0.004743521
70	0x3ca14d73	0.019690251
71	0x3cd5761e	0.0260573
72	0xbd90f1d2	-0.070773736
73	0x3d81f3c4	0.06345323
74	0xbdadda90	-0.08488953
75	0xbd7192d8	-0.05897793
76	0x3d70b0e9	0.058762465
77	0xbdc1c4f7	-0.09461396
78	0xbdea4f9e	-0.11440967
79	0xbd55541f	-0.052082177
80	0x3e0a157b	0.13484757
81	0x3e1e9f9a	0.1549057
82	0xbc46710d	-0.012111914
83	0xbd9a0c9e	-0.07521938
84	0x3c345681	0.011006952
85	0xbbfd0b6b	-0.0077223084
86	0x3d1945d4	0.03742011
87	0x3d6f9aac	0.058497116
88	0x3e067ce8	0.13133585
89	0x3b40e4a8	0.0029433165
90	0xbd91a5c0	-0.071116924
91	0x3dc20465	0.094734944
92	0x3e033c4b	0.12815969
93	0xbd8a6f60	-0.06759524
94	0x3d4cf748	0.050040513
95	0x3da03535	0.078226484
96	0x3d181cc9	0.037136827
97	0xbda9a4bb	-0.08283373
98	0x3d16f3e9	0.036853705
99	0x3dd9a486	0.106270835
100	0x3e00a07b	0.12561218
101	0x3e09ce16	0.13457522
102	0xbd9aa216	-0.07550447
103	0xbd194ca0	-0.03742659
104	0xbd796316	-0.06088551
105	0x3d610fda	0.054946758
106	0x3d8a7639	0.067608304
107	0x3d9a167c	0.0752382
108	0xbda44a9e	-0.080220446
109	0x3d961c4b	0.07329615
110	0xbc98ccbe	-0.018652316
111	0x3dfa28ab	0.12214788
112	0x3c56ea5e	0.013117401
113	0xbb4ece61	-0.0031556117
114	0x3d817e60	0.06322932
115	0x3cb2616b	0.021774968
116	0x3d8c301f	0.06845116
117	0xbc9c9abf	-0.019116757
118	0xbc360d7c	-0.011111613
119	0x3cbb9f85	0.022903213
120	0x3d880bf3	0.06642904
121	0x3c8ff348	0.01757206
122	0xbd382c1c	-0.04496394
123	0xbc4dceb6	-0.012561491
124	0xbda95e46	-0.08269934
125	0x3d8f74fe	0.07004736
126	0x3d8a75c2	0.06760742
127	0xbd9a48ff	-0.07533454
128	0x3b7af556	0.0038293204
129	0xbccf3419	-0.025293397
130	0xbd6134f8	-0.054982156
131	0x3c0ed834	0.008718539
132	0x3df0312e	0.1172813
133	0xbd76a678	-0.06021735
134	0xbcc55161	-0.024086656
135	0xbd63e6fd	-0.05564021
136	0xbde39709	-0.11112792
137	0x3dd5036b	0.104010426
138	0xbe04f82a	-0.12985292
139	0x3dd8d5da	0.10587664
140	0xbca733a8	-0.020410374
141	0xbc1113e5	-0.008854841
142	0x3dbda71f	0.092603914
143	0xbd5a3ab8	-0.053278655
144	0x3cef2dba	0.029196609
145	0xbadfe667	-0.0017082215
146	0x3dfaa0a0	0.12237668
147	0x3d9e484f	0.077286355
148	0xbd860d1f	-0.065454714
149	0x3bdef5c1	0.0068041985
150	0xbde309f2	-0.11085881
151	0xbd81abd6	-0.06331603
152	0x3cc5097e	0.024052378
153	0x3cd6265e	0.026141342
154	0x3d397db8	0.04528591
155	0xbd84d907	-0.06486707
156	0xbd486520	-0.048924565
157	0xbd645d74	-0.055753186
158	0x3d5ce249	0.05392674
159	0xbde4cdf8	-0.11172098
160	0x3d9ad0e1	0.07559372
161	0xbdb9e023	-0.09075954
162	0xbdef6ae8	-0.116903126
163	0xbd8f4284	-0.06995109
164	0xbdcc9898	-0.099900424
165	0x3c997b32	0.018735502
166	0xbcfcc21d	-0.03085428
167	0x3b612ada	0.0034357817
168	0x3dcf1525	0.10111455
169	0x3dd53398	0.10410231
170	0xbd6dbd25	-0.05804171
171	0xbe23ebcb	-0.16007917
172	0x3e0e926c	0.13923043
173	0xbdcdd01a	-0.10049458
174	0xbca957a6	-0.020671677
175	0xbdefb50d	-0.117044546
176	0x3dad609d	0.08465693
177	0x3d1815c2	0.037130125
178	0xbd089c9a	-0.033352472
179	0xbda3b815	-0.07994095
180	0x3d90fc7f	0.0707941
181	0x3d0c5fe5	0.03427114
182	0x3dca0b66	0.09865455
183	0x3d9fe95a	0.0780818
184	0x3cf05200	0.029335976
185	0xbdbc3911	-0.09190572
186	0xbb6a37b2	-0.0035738763
187	0x3e04f708	0.1298486
188	0xbd292868	-0.0412983
189	0xbdb52ca0	-0.08846402
190	0xbdb1b987	-0.08677965
191	0x3dbdbffa	0.09265132
192	0xbdfc69ef	-0.12324893
193	0x3dbbd877	0.09172147
194	0x3dbed62e	0.09318195
195	0x3deb2ddf	0.114833586
196	0x3e178638	0.14797294
197	0x3c576fd4	0.0131492205
198	0x3d99f898	0.075181186
199	0x3dd6665e	0.10468744
200	0x3c4527c8	0.01203341
201	0x3d7f810d	0.06237893
202	0x3d3b0391	0.045657698
203	0x3c8bdbda	0.017072607
204	0xbda88af0	-0.08229625
205	0xbd7874df	-0.060658332
206	0xbe15029f	-0.14551781
207	0xbd94c8b9	-0.07264847
208	0x3dfdfe2c	0.12401995
209	0xbc803170	-0.015648574
210	0x3daf42dc	0.08557674
211	0x3e0599f0	0.13047004
212	0xbc09399c	-0.008375552
213	0xbd84caf6	-0.06484024
214	0xbd6fd522	-0.05855287
215	0x3d8bdf34	0.06829682
216	0xbd7e8db0	-0.062146842
217	0x3da7d184	0.08194259
218	0xbd8aba0e	-0.06773768
219	0x3e239744	0.15975672
220	0x3e192e5b	0.1495909
221	0x3db27f24	0.087156564
222	0xbd1755c5	-0.03694703
223	0x3d1c98bc	0.038231596
224	0x3dfd21b2	0.123599425
225	0x3d08f2c8	0.03343466
226	0xbdb06c85	-0.086144485
227	0x3df0fe24	0.117672235
228	0x3d5dc8a3	0.05414642
229	0xbcf97f68	-0.03045626
230	0xbd9202d2	-0.07129444
231	0xbd2f6592	-0.042821474
232	0x3e0e45b6	0.1389378
233	0x3cd1dc9e	0.025617894
234	0x3d36fe81	0.044676308
235	0xbc8891e8	-0.016671136
236	0x3cee4894	0.029087342
237	0x3d57fbc6	0.052730344
238	0x3d7fc981	0.06244803
239	0xbdbc73d2	-0.092017785
240	0x3d8e2378	0.06940359
241	0x3d9de6ad	0.077100135
242	0x3d26c514	0.040715292
243	0x3ce7975f	0.028270422
244	0x3d5a272b	0.05326001
245	0xbd6cb032	-0.05778522
246	0xbd3dafff	-0.04631042
247	0xbc8e5273	-0.0173733
248	0x3d05c25e	0.032656066
249	0xbdad69b9	-0.084674306
250	0x3e213fb3	0.15746956
251	0xbb0eea19	-0.0021807014
252	0x3d95a172	0.07306184
253	0x3cc49276	0.02399562
254	0x3d594733	0.053046416
255	0xbd0d9020	-0.034561276

fc.weight f4 [1, 64]
0	0xbd8bd963	-0.068285726
1	0xbd9bb9e8	-0.07603818
2	0xbcf08043	-0.029358035
3	0xbd49c85c	-0.049263343
4	0xbde7cc2e	-0.11318241
5	0xbdfb15b8	-0.12260002
6	0x3d7573a6	0.059924744
7	0xbcb2d021	-0.02182776
8	0x3dfba391	0.12287057
9	0x3d627bd5	0.055293877
10	0x3d8492d9	0.064733215
11	0xbdbd5ecb	-0.09246596
12	0xbdaebbfd	-0.0853195
13	0x3e2628aa	0.1622645
14	0xbda88c3f	-0.08229875
15	0x3d593c57	0.05303606
16	0x3cd52f6a	0.026023585
17	0xbd1a043b	-0.03760169
18	0x3d91a75a	0.07111998
19	0x3d6275bf	0.055288073
20	0x3d893464	0.06699446
21	0x3c768489	0.015046247
22	0xbddf7ffb	-0.10913082
23	0xbe25a123	-0.1617475
24	0x3deef1ee	0.11667238
25	0x3e0d8f93	0.138243
26	0x3dcbdecb	0.09954604
27	0xbdf7702c	-0.12081942
28	0xbdbca0f0	-0.09210384
29	0xbe03deb3	-0.12877922
30	0x3d245dc1	0.040128473
31	0x3dd69f12	0.10479559
32	0x3d953b49	0.07286698
33	0x3e0b28ed	0.1358983
34	0xbdfed136	-0.124422476
35	0x3e11144e	0.14167902
36	0xbdf18a87	-0.11794
37	0x3d212e51	0.03935081
38	0x3cef8939	0.029240238
39	0xbd537498	-0.051624864
40	0x3db0198e	0.08598624
41	0xbdcada0f	-0.099048726
42	0xbe037424	-0.12837273
43	0x3d4334e6	0.04765787
44	0x3df81dd8	0.12115067
45	0x3ddf56cb	0.10905226
46	0x3e002c94	0.12517005
47	0xbdd79520	-0.1052649
48	0x3dee0246	0.116215274
49	0x3db500d8	0.088380516
50	0xbe16e417	-0.14735447
51	0x3dcd7218	0.10031527
52	0xbdca9111	-0.098909505
53	0xbd4adfef	-0.049529966
54	0xbc111167	-0.008854247
55	0x3e11cb8d	0.14237805
56	0xbe0e1715	-0.13875993
57	0xbda6d091	-0.0814525
58	0x3e12c9b1	0.14334752
59	0xbd726cb8	-0.059185714
60	0x3dcdd926	0.100511834
61	0x3df058a7	0.11735659
62	0x3e03abc5	0.12858494
63	0xbe080b90	-0.1328566
