checkpoints/South-East/best_model.pth (torch, 820137 bytes, 9 tensors)

lstm.weight_ih_l0 f4 [512, 11]
0.033482615 -0.027787954 -0.09444608 0.08703296 0.1061402 0.056337044 0.027750157 -0.066949494
-0.022053014 -0.05519969 -0.0011497168 0.08188647 0.02632502 -0.0009346966 0.06463928 -0.03435467
0.093463145 -0.0582669 0.024825202 -0.04477847 0.061328337 0.06013208 -0.03922131 -0.04140887
0.07012615 0.103405595 -0.019053884 -0.0020505972 0.005908689 0.047526427 -4.008365e-05 0.052267015
0.042846404 -0.04297901 -0.039682593 -0.058259085 -0.031611353 -0.033092927 0.057527125 0.041061036
0.024455318 -0.059409045 -0.043391485 -0.1009785 0.06796557 0.016822124 -0.0019977253 -0.07234422
0.03812444 -0.031621214 -0.0062411516 -0.07730476 -0.041291084 0.020518785 -0.059369843 -0.031680834
0.026557079 0.013917609 -0.018212106 0.005496417 -0.0062887683 0.04872558 0.021529576 0.0026436248
0.04300934 -0.07327886 -0.05799151 0.108428076 0.058837436 0.042809792 0.04079989 -0.025064403
-0.040612314 0.0016200838 0.03169374 0.0042172656 -0.009568144 0.09640945 -0.049385354 0.10891914
-0.042566136 0.0257847 0.04380773 0.004619386 0.006869702 0.0994212 -0.09196662 0.07159635
-0.026600303 0.07017 -0.032216292 -0.053842664 0.06156488 0.07433495 -0.023002364 0.028462984
-0.0033295103 0.002501647 -0.0098151285 -0.012937304 -0.014766919 0.024851682 -0.07735506 -0.0651441
-0.09025789 -0.045029163 0.029607072 0.07899114 0.0048503545 -0.05400638 0.10039289 0.039010808
-0.018610789 -0.061523527 0.052371155 0.08155403 0.039727863 -0.019466206 -0.005399153 -0.10138748
0.02154455 -0.025692912 0.048259318 0.035256207 0.056128833 0.019429557 0.07564766 -0.024085814
-0.06090286 -0.06414753 0.056811724 0.08070995 -0.055992156 0.043273617 0.04572163 -0.06832159
-0.011455439 0.049970683 0.024672974 0.04946842 0.0074532004 0.017527368 -0.07680286 0.07564621
0.08807755 -0.08630468 -0.027461397 0.0068129427 0.09195057 -0.08172298 -0.04974473 0.035486892
-0.050914336 0.05745554 0.039370053 0.06173914 -0.0083233155 -0.042925283 0.044139862 0.04621478
0.050903436 -0.049775902 -0.07567683 0.025664179 0.054229524 0.048122298 0.00087815523 -0.07440619
-0.070494704 0.067997314 0.03914021 0.009010437 0.057601873 0.0267128 0.017975874 0.023099206
0.09065315 0.043157738 -0.06401992 0.076350324 0.057375483 -0.011778456 -0.057334255 -0.090324804
0.06493189 -0.006927401 -0.08054627 0.017389273 -0.08296828 0.078404285 0.01671942 0.05681874
-0.024089511 0.028852854 -0.11121875 0.038767558 -0.048501175 0.006144129 -0.042437945 -0.074242935
0.04617525 0.06231943 -0.043731004 0.031832803 -0.034780864 -0.013255368 -0.024804566 -0.055126503
0.08874266 0.047497272 -0.03925458 0.016910564 -0.028809812 0.07964165 -0.00011012377 0.039698627
-0.026127763 0.10185613 -0.06975802 0.016916936 0.042542335 0.07840036 0.0061677103 0.014367361
0.01585539 -0.0603033 -0.011322157 0.05992696 -0.011176342 -0.007747643 -0.083100036 0.010551083
-0.023231627 -0.08718207 -0.009664831 0.03958076 -0.030248757 0.011132306 -0.032182373 0.07994708
0.045214325 -0.08419975 0.0057897647 0.004967135 -0.06606579 0.000511624 0.08681615 0.037448358
0.032832243 -0.013768765 0.042170476 0.020271702 0.033349488 -0.00061124424 -0.02496838 -0.0014224083
00000000: 1125 093d 90a3 e3bc f26c c1bd 563e b23d
00000010: 0860 d93d acc1 663d 4c54 e33c d11c 89bd
00000020: 86a8 b4bc 1219 62bd 18b2 96ba 18b4 a73d
00000030: 91a7 d73c 6d06 75ba 9961 843d 7cb7 0cbd
00000040: 9b69 bf3d 46a9 6ebd 395e cb3c a169 37bd
00000050: 6c33 7b3d 0e4d 763d 86a6 20bd 599c 29bd
00000060: 4d9e 8f3d 50c6 d33d e416 9cbc 5063 06bb
00000070: ad9d c13b 12ab 423d 7e1f 28b8 f015 563d
00000080: b67f 2f3d c20a 30bd 378a 22bd 14a1 6ebd
00000090: e87a 01bd 738c 07bd 90a1 6b3d 9e2f 283d
000000a0: 8556 c83c e656 73bd 45bb 31bd d1cd cebd
000000b0: 8831 8b3d 8dce 893c 45ec 02bb 3529 94bd
000000c0: 5f28 1c3d 3f85 01bd 9382 ccbb f551 9ebd
000000d0: d720 29bd 0317 a83c cb2d 73bd c3c3 01bd
000000e0: 3b8e d93c af06 643c 8e31 95bc 4a1b b43b
000000f0: 0312 cebb 7994 473d cb5e b03c aa40 2d3b
00000100: 902a 303d 3a13 96bd 8188 6dbd 8a0f de3d
00000110: 86ff 703d 5259 2f3d c91d 273d dd53 cdbc
00000120: 1959 26bd fe58 d43a 4cd1 013d fd30 8a3b
00000130: b4c3 1cbc 5172 c53d 4c48 4abd 0011 df3d
00000140: d459 2ebd 6f3a d33c bc6f 333d 385e 973b
00000150: 3d1b e13b 589d cb3d ff58 bcbd 1ba1 923d
00000160: e1e8 d9bc 4ab5 8f3d 3bf5 03bd 208a 5cbd
00000170: 752b 7c3d ec3c 983d 746f bcbc 342b e93c
00000180: ea33 5abb acf2 233b a2cf 20bc fcf6 53bc
00000190: f3f0 71bc c195 cb3c 546c 9ebd 456a 85bd
000001a0: 21d9 b8bd 8070 38bd 888a f23c 1bc6 a13d
000001b0: b9ef 9e3b cb35 5dbd ca9a cd3d ccc9 1f3d
000001c0: a775 98bc 1800 7cbd 2383 563d cd05 a73d
000001d0: afb9 223d 9877 9fbc 61eb b0bb 3da4 cfbd
000001e0: 327e b03c f179 d2bc 90ab 453d d068 103d
000001f0: 59e7 653d bc2a 9f3c 29ed 9a3d 9d4f c5bc
00000200: 4775 79bd c85f 83bd 69b3 683d 424b a53d
00000210: 0858 65bd ad3f 313d 9b46 3b3d 31ec 8bbd
00000220: 98af 3bbc 0fae 4c3d fa1e ca3c 669f 4a3d
00000230: fa39 f43b 8e95 8f3c d14a 9dbd 66ec 9a3d
00000240: 0162 b43d 82c0 b0bd b9f6 e0bc 1b3f df3b
00000250: 9550 bc3d 615e a7bd 21c1 4bbd b45a 113d
00000260: 8d8b 50bd 8056 6b3d 7e42 213d 2ee2 7c3d
00000270: 845e 08bc 6cd2 2fbd 00cc 343d b64b 3d3d
00000280: 1f80 503d d1e1 4bbd 74fc 9abd af3d d23c
00000290: c71f 5e3d e31b 453d 0034 663a 4662 98bd
000002a0: 875f 90bd 2d42 8b3d 7c51 203d 83a0 133c
000002b0: f1ef 6b3d cdd4 da3c 2442 933c 8c3a bd3c
000002c0: 5ca8 b93d 2bc6 303d e01c 83bd 8f5d 9c3d
000002d0: 8e02 6b3d 6dfa 40bc 53d7 6abd 36fc b8bd
000002e0: 03fb 843d 40ff e2bb 71f5 a4bd f373 8e3c
000002f0: 46eb a9bd 6d92 a03d 2af7 883c c4ba 683d
00000300: 5e57 c5bc d25c ec3c a8c6 e3bd bbca 1e3d
00000310: 2ba9 46bd b154 c93b 69d3 2dbd ae0c 98bd
00000320: 4222 3d3d a942 7f3d 481f 33bd 1d63 023d
00000330: 6176 0ebd 0b2d 59bc f232 cbbc 54cc 61bd
00000340: b6be b53d 808c 423d 69c9 20bd 0688 8a3c
00000350: 8e02 ecbc 291b a33d 40f2 e6b8 079b 223d
00000360: e409 d6bc f299 d03d 4bdd 8ebd 6395 8a3c
00000370: df40 2e3d 5e90 a03d 811a ca3b 1465 6b3c
00000380: 2ae3 813c 9800 77bd 9280 39bc f975 753d
00000390: fa1c 37bc f1df fdbb 5a30 aabd 73de 2c3c
000003a0: 4150 bebc 838c b2bd 3d59 1ebc 6f1f 223d
000003b0: 3ecc f7bc 4764 363c aad1 03bd 4bbb a33d
000003c0: a832 393d eb70 acbd 11b8 bd3b 59c3 a23b
000003d0: 804d 87bd 811e 063a aacc b13d 7363 193d
000003e0: 1a7b 063d 6396 61bc f3ba 2c3d d710 a63c
000003f0: 7999 083d e83b 20ba 7d8a ccbc 1a70 baba

lstm.weight_hh_l0 f4 [512, 128]
0.0077654044 -0.031885285 -0.030867692 -0.04674871 -0.015732335 0.021812467 0.009964034 -0.071928896
-0.08582691 -0.08009661 -0.009707179 0.019002112 -0.037105225 0.09386249 -0.04210959 0.00040664943
-0.006976899 -0.064956866 -0.04840143 0.024494268 0.088002965 0.016483188 -0.0010327592 0.05854195
0.058070336 0.046111207 -0.016217146 0.082826264 0.060697675 0.056828856 -0.037457097 0.061250143
0.030122345 -0.044040352 0.0080092 0.048128016 -0.08307867 0.068587966 -0.018749181 0.040960535
0.0846919 -0.0552274 0.023122005 -0.069768704 0.015174026 -0.03270426 0.0070825024 0.0057055587
0.038032543 0.057281654 -0.03807165 -0.0047657923 0.02650937 -0.06899092 0.044416744 -0.027883448
0.008462523 -0.01564794 0.056105014 0.06879122 0.07442091 -0.020493757 -0.051851515 -0.030220022
0.004406532 -0.027435033 0.05981462 -0.067122914 0.0979291 -0.047904193 0.041425645 0.054276988
0.0744538 0.007916374 0.06115855 0.024400227 -0.0074101654 -0.04138952 -0.08083225 -0.07499262
0.081376895 -0.022045238 -0.01821941 -0.090664834 0.019004943 -0.031836588 0.0060630306 0.032410797
-0.03550291 0.0030788227 0.07409023 -0.0016618941 -0.0626681 0.023772081 0.010946933 -0.07142897
0.067218624 -0.0024965287 -0.045557722 0.029173452 0.085931614 -0.01601307 -0.05085546 -0.093299195
-0.0021172531 0.0039433553 -0.04636806 0.07105692 -0.030121459 -0.008973884 0.002802067 -0.08425907
-0.03999051 0.04991681 0.044334784 0.034945395 0.05236587 0.061408523 0.03057735 0.06364158
0.008211693 -0.021271568 -0.071251355 -0.08984247 0.07618637 -0.06393919 0.018132107 -0.058481697
-0.051418312 0.01567694 -0.016460812 -0.04772957 -0.0512502 -0.019540358 -0.04522288 -0.072495095
0.019860262 0.03904353 0.053115137 -0.084019855 -0.013487071 0.017563809 -0.0035444458 -0.031352133
0.04083193 -0.08275805 -0.044238437 0.060273096 0.01954809 0.048439145 -0.024656564 -0.06448792
0.06640152 0.0078056375 0.035161804 -0.009715452 0.050841104 -0.043253284 0.031969342 -0.0024870932
-0.040199693 0.076500736 -0.034845095 0.00087024906 -0.0764634 0.023161046 -0.03183246 0.017931337
-0.045909308 0.020846702 -0.049243674 0.011045947 0.016437655 0.045834698 0.014854126 0.05647662
0.05934837 0.0014038194 0.040638424 -0.023144694 0.028125731 -0.042555183 -0.047385138 -0.0027242533
-0.023608482 -0.041760758 0.044194527 -0.020308834 0.049690723 -0.032801673 0.031077798 -0.04220817
-0.07698792 0.014432822 0.03732491 0.028791565 0.020656977 -0.026661066 -0.019295737 -0.052241813
0.008231279 0.0076093995 -0.077929564 0.027066754 0.04636993 -0.017911099 0.025615903 -0.053645432
-0.01578463 -0.02321343 0.016254801 -0.045909148 0.020916836 -0.016149718 -0.06450258 -0.0457078
-0.026445346 0.029046282 -0.047159337 -0.028806092 0.019969234 -0.014921289 0.055818122 0.031939384
-0.04065458 -0.05429576 -0.06489981 0.063466586 0.030205412 0.017834486 0.024752906 -0.010582318
-0.022131573 -0.04177785 0.023646686 -0.03961895 -0.025685273 0.018622443 -0.047122344 0.047007427
-0.071849875 -0.0035362008 -0.047693092 0.03528814 -0.08175228 0.0036583345 -0.06935599 0.0067520686
0.024808424 -0.01112146 -0.06471199 -0.047411103 0.07504802 -0.02701094 0.036425933 -0.06070023
00000000: ef74 fe3b 259a 02bd 3ede fcbc 937b 3fbd
00000010: 19e1 80bc 0fb0 b23c 3040 233c 754f 93bd
00000020: 05c6 afbd b109 a4bd dc0a 1fbc 51aa 9b3c
00000030: a6fb 17bd fa3a c03d 1b7b 2cbd 9033 d539
00000040: 799e e4bb 1b08 85bd 9440 46bd 34a8 c83c
00000050: e63a b43d c007 873c a65d 87ba afc9 6f3d
00000060: 29db 6d3d 1bdf 3c3d d2d9 84bc d1a0 a93d
00000070: 209e 783d 60c5 683d 9d6c 19bd 6ee1 7a3d
00000080: 23c3 f63c a863 34bd 0539 033c e221 453d
00000090: 2625 aabd d977 8c3d e297 99bc 3cc6 273d
000000a0: f272 ad3d 2036 62bd 5c6a bd3c e5e2 8ebd
000000b0: 7a9c 783c e7f4 05bd 5614 e83b b2f5 ba3b
000000c0: 03c8 1b3d 2ba0 6a3d 05f1 1bbd 5d2a 9cbb
000000d0: 2e2a d93c 1d4b 8dbd 55ee 353d d46b e4bc
000000e0: 65a6 0a3c 1c30 80bc 5fce 653d 69e2 8c3d
000000f0: fd69 983d 86e2 a7bc 4162 54bd fb8f f7bc
00000100: ab64 903b 6fbf e0bc 2d00 753d bd77 89bd
00000110: 0d8f c83d 3037 44bd f0ad 293d 8c51 5e3d
00000120: 3c7b 983d aeb3 013c 6381 7a3d fce2 c73c
00000130: f9d0 f2bb 0f88 29bd 618b a5bd bb95 99bd
00000140: eea8 a63d 3798 b4bc df40 95bc 7cae b9bd
00000150: 41b0 9b3c 1567 02bd 63ac c63b 2fc1 043d
00000160: 806b 11bd 13c6 493b 9ebc 973d ead3 d9ba
00000170: 2258 80bd abbd c23c c45a 333c 5a49 92bd
00000180: eba9 893d cd9c 23bb bc9a 3abd 2afd ee3c
00000190: eafc af3d d72d 83bc d14d 50bd a613 bfbd
000001a0: 9dc1 0abb 4337 813b 6fec 3dbd 4a86 913d
000001b0: 47c1 f6bc 3307 13bc e2a2 373b 0590 acbd
000001c0: 17cd 23bd 9275 4c3d 6498 353d e722 0f3d
000001d0: 987d 563d 8187 7b3d 5a7d fa3c 8456 823d
000001e0: 568a 063c b641 aebc 3bec 91bd 54ff b7bd
000001f0: 9907 9c3d 8df2 82bd c989 943c 818a 6fbd
00000200: 029c 52bd ed6c 803c d3d8 86bc 1580 43bd
00000210: bbeb 51bd 1a13 a0bc a03b 39bd 4f78 94bd
00000220: fdb1 a23c 1cec 1f3d 428f 593d 9a12 acbd
00000230: e0f8 5cbc fae1 8f3c ef49 68bb 186b 00bd
00000240: 623f 273d 0d7d a9bd 5d33 35bd ece0 763d
00000250: 5123 a03c 2068 463d 90fc c9bc 3e12 84bd
00000260: 85fd 873d 6fc6 ff3b d305 103d 8f2d 1fbc
00000270: c33e 503d 5b2a 31bd 49f2 023d 80fe 22bb
00000280: 6fa8 24bd 6bac 9c3d bbb9 0ebd 6d21 643a
00000290: d898 9cbd 3cbc bd3c c162 02bd bde4 923c
000002a0: 660b 3cbd b4c6 aa3c bcb3 49bd 0ffa 343c
000002b0: 43a8 863c 2abd 3b3d b85e 733c 0754 673d
000002c0: 4717 733d 5d00 b83a 7a74 263d f199 bdbc
000002d0: ef67 e63c 584e 2ebd eb16 42bd 6389 32bb
000002e0: 9366 c1bc 540d 2bbd 5205 353d b65e a6bc
000002f0: 8088 4b3d 0c5b 06bd de96 fe3c 79e2 2cbd
00000300: d8ab 9dbd a577 6c3c 01e2 183d 4adc eb3c
00000310: d238 a93c 4f68 dabc 1812 9ebc 83fb 55bd
00000320: 7ddc 063c 4558 f93b 8999 9fbd 19bb dd3c
00000330: 65ee 3d3d 4cba 92bc 71d8 d13c 50bb 5bbd
00000340: c54e 81bc 172a bebc ca28 853c 3b0b 3cbd
00000350: c959 ab3c 6a4c 84bc ee19 84bd 1a38 3bbd
00000360: e9a3 d8bc 78f2 ed3c 262a 41bd c1fa ebbc
00000370: 8596 a33c 6c78 74bc 8ba1 643d dfd2 023d
00000380: 6b85 26bd 3b65 5ebd 31ea 84bd c5fa 813d
00000390: 5771 f73c a119 923c 9bc6 ca3c 7561 2dbc
000003a0: 464d b5bc 401f 2bbd b2b6 c13c 7b47 22bd
000003b0: ec69 d2bc 188e 983c 5c03 41bd dc8a 403d
000003c0: 0726 93bd 9bbf 67bb d559 43bd 4c8a 103d
000003d0: bd6d a7bd abc0 6f3b 830a 8ebd 7540 dd3b
000003e0: 093b cb3c c936 36bc b887 84bd 2532 42bd
000003f0: c7b2 993d 0c46 ddbc 5c33 153d cea0 78bd

lstm.bias_ih_l0 f4 [512]
0.09025261 -0.040769584 -0.028854515 -0.022589732 0.0152614005 -0.04398351 0.00688032 0.0065385727
-0.017412962 0.020721184 0.06482078 0.003311799 -0.07622993 0.0016266144 -0.09943514 -0.016064608
0.07468596 -0.039812576 -0.07108129 0.017169379 0.037120778 -0.0074323905 -0.027297147 -0.061108757
0.06651413 0.02751345 0.08299492 -0.0024901428 -0.035310514 -0.07736746 -0.08387242 -0.04325407
-0.02691889 0.03214607 -0.0628685 -0.04893346 -0.011516283 0.07545892 0.08301691 -0.040245503
0.078186154 0.05278245 -0.060604766 -0.03747489 0.044122428 0.0021974556 0.039148245 -0.06312023
0.09002709 0.016194783 0.06503617 -0.03880548 0.029281931 -0.07338757 -0.011832406 0.030148575
0.052528996 0.09933202 -0.088286646 0.030731138 -0.059207764 0.077727 -0.014294185 -0.014424926
0.072146 0.034236897 -0.0342856 0.04094893 0.06749423 0.09357975 -0.041338127 0.028065398
-0.02405973 0.0606072 -0.009356641 0.021839743 0.035725053 0.046822872 -0.01418761 -0.0086987335
0.05592827 0.040997177 0.007406995 -0.08087724 -0.02824661 -0.07352841 0.10083637 0.02594809
0.02924782 -0.050588563 0.097801015 0.013484063 -0.045990143 -0.0001559054 0.10553771 -0.0010729623
-0.016373677 0.08310396 0.08605439 0.06158648 0.03587918 -0.050462 -0.05214448 0.02607102
0.048329875 0.03736397 0.0036149889 -0.04161187 -0.006553807 0.06019954 0.017829359 0.030758329
0.0051988033 0.0501873 -0.09015588 0.07348288 0.055551168 0.022349978 0.037907362 0.002131288
-0.020284357 -0.0007421308 0.014086553 0.06191805 0.039465882 -0.044397708 -0.0058373916 0.06614922
0.020516656 -0.047373816 0.04044034 -0.056714796 0.024087893 -0.033890415 -0.03003709 -0.022210324
0.07802301 -0.08122809 -0.046025656 0.020544449 -0.024437806 -0.02240317 -0.019574782 -0.08565128
-0.001071572 -0.062998444 0.050381083 -0.014280479 -0.030514343 0.021016847 0.09000583 -0.03007003
0.091745175 0.0010847162 -0.057024516 -0.040834956 -0.067284025 -0.011079336 0.07401679 0.0005966532
-0.07373053 -0.039027415 -0.07149991 0.046492107 -0.004802398 0.06141851 -0.058508873 0.05003548
0.08421622 0.04903264 0.02852201 -0.034512296 -0.035010096 0.055436313 0.035695024 0.0025203961
0.09311083 0.02391949 0.043336447 0.09417439 -0.023488447 -0.030896487 0.033420052 0.019142782
0.022475803 -0.07460809 -0.01284407 -0.0266248 0.08969551 0.033081595 -0.03011342 0.02139259
-0.011907054 0.055505507 0.030900504 0.012462946 0.082319744 0.037306953 0.06456233 0.07397801
0.036590375 0.038048923 -0.06673082 0.07955492 -0.055928636 -0.0056151417 -0.064508416 -0.057301626
0.014919039 0.06985028 0.0033836395 0.032006674 0.03144718 0.035863042 -0.06549462 -0.014982338
0.04558384 0.015776457 0.07429645 -0.0027589973 0.0030425128 -0.05507887 0.04936438 0.09415676
-0.07242606 -0.043438528 0.054458544 0.07366367 0.036083806 -0.008016672 -0.060250845 -0.02171749
0.05542039 0.06759697 0.053335343 0.002950109 0.026234688 -0.032055337 -0.07172315 -0.052106716
0.002174091 0.05376861 0.06300018 0.08051021 -0.07514057 0.04725729 -0.0019233652 -0.027655032
-0.082743764 -0.045974888 0.035258558 0.031292174 0.06820362 0.0013766438 0.0744812 -0.039818224
00000000: 5cd6 b83d 02fe 26bd 4e60 ecbc 1a0e b9bc
00000010: f40a 7a3c 0e28 34bd 4f74 e13b 8641 d63b
00000020: a1a5 8ebc 79bf a93c c2c0 843d c40a 593b
00000030: 701e 9cbd 1f34 d53a a7a4 cbbd ed99 83bc
00000040: f4f4 983d 8312 23bd 1193 91bd cca6 8c3c
00000050: f50b 183d 698b f3bb 449e dfbc 2d4d 7abd
00000060: 8f38 883d e363 e13c 3ef9 a93d aa31 23bb
00000070: c2a1 10bd d572 9ebd 4ec5 abbd 2e2b 31bd
00000080: 0185 dcbc 99ab 033d 33c1 80bd 746e 48bd
00000090: cbae 3cbc 358a 9a3d c504 aa3d 78d8 24bd
000000a0: 1020 a03d 6932 583d b43c 78bd 457f 19bd
000000b0: b8b9 343d 3003 103b e959 203d 2e45 81bd
000000c0: 1f60 b83d ecaa 843c af31 853d 7ff2 1ebd
000000d0: a9e0 ef3c 394c 96bd b5dc 41bc 25fa f63c
000000e0: a528 573d 966e cb3d a1cf b4bd debf fb3c
000000f0: d783 72bd 552f 9f3d 2832 6abc 8656 6cbc
00000100: 48c1 933d fd3b 0c3d 0f6f 0cbd 11ba 273d
00000110: 6a3a 8a3d bda6 bf3d 2b52 29bd 68e9 e53c
00000120: e918 c5bc 413f 783d 994c 19bc 43e9 b23c
00000130: 6f54 123d 57c9 3f3d 2673 68bc 2285 0ebc
00000140: 0b15 653d a8ec 273d 61b6 f23b f7a2 a5bd
00000150: 6f65 e7bc 1096 96bd 4c83 ce3d 1791 d43c
00000160: 2099 ef3c f435 4fbd e64b c83d 42ec 5c3c
00000170: 2960 3cbd 8a7a 23b9 2824 d83d a4a2 8cba
00000180: 1722 86bc 6932 aa3d 493d b03d 1b42 7c3d
00000190: 0cf6 123d 3eb1 4ebd 7395 55bd e492 d53c
000001a0: 8cf5 453d f60a 193d 73e9 6c3b 3571 2abd
000001b0: 51c1 d6bb cb93 763d e00e 923c e4f8 fb3c
000001c0: b95a aa3b 3391 4d3d a5a3 b8bd 317e 963d
000001d0: 9f89 633d 4d17 b73c c044 1b3d 14ad 0b3b
000001e0: 612b a6bc 8e8b 42ba 49cb 663c c89d 7d3d
000001f0: faa6 213d 5fda 35bd 9747 bfbb 3e79 873d
00000200: 8c12 a83c 0c0b 42bd c5a4 253d c64d 68bd
00000210: f953 c53c add0 0abd 5810 f6bc 6df2 b5bc
00000220: 87ca 9f3d ea5a a6bd 6685 3cbd d54c a83c
00000230: cb31 c8bc da86 b7bc 4b5b a0bc f069 afbd
00000240: fd73 8cba 5405 81bd 655c 4e3d acf8 69bc
00000250: 37f9 f9bc 862b ac3c fa54 b83d 6c55 f6bc
00000260: e5e4 bb3d 092d 8e3a 8a92 69bd 8e42 27bd
00000270: 35cc 89bd 1a86 35bc 1d96 973d b868 1c3a
00000280: 0800 97bd 36db 1fbd 8b6e 92bd 826e 3e3d
00000290: 6f5d 9dbb fa91 7b3d 00a7 6fbd 01f2 4c3d
000002a0: 8e79 ac3d 73d6 483d fea6 e93c c45c 0dbd
000002b0: bf66 0fbd 3011 633d f234 123d 3b2d 253b
000002c0: e4b0 be3d cef2 c33c 8f81 313d 81de c03d
000002d0: d86a c0bc a11a fdbc 77e3 083d 53d1 9c3c
000002e0: 2d1f b83c 20cc 98bd ef6f 52bc 411c dabc
000002f0: 48b2 b73d 9180 073d 6bb0 f6bc 833f af3c
00000300: ce15 43bc be59 633d 0e23 fd3c 6231 4c3c
00000310: 4197 a83d 2dcf 183d 4139 843d c881 973d
00000320: cadf 153d 30d9 1b3d 2baa 88bd b1ed a23d
00000330: 6d15 65bd 39ff b7bb fd1c 84bd 1cb5 6abd
00000340: fc6e 743c aa0d 8f3d 0dc0 5d3b 6e19 033d
00000350: c2ce 003d 20e5 123d 0b22 86bd 7b78 75bc
00000360: 1fb6 3a3d a13d 813c bd28 983d 4bd0 34bb
00000370: e564 473b 629a 61bd 4e32 4a3d 42d5 c03d
00000380: 1d54 94bd 99ec 31bd ec0f 5f3d fadc 963d
00000390: 9dcc 133d 5c58 03bc 97c9 76bd e1e8 b1bc
000003a0: 7e00 633d 4870 8a3d 2976 5a3d 9e56 413b
000003b0: 21ea d63c 754c 03bd 96e3 92bd da6d 55bd
000003c0: 327b 0e3b 793c 5c3d 3d06 813d 89e2 a43d
000003d0: 4de3 99bd dc90 413d 6d19 fcba ce8c e2bc
000003e0: 9075 a9bd 2a50 3cbd 476b 103d 392c 003d
000003f0: 57ae 8b3d 8070 b43a 9989 983d 6f18 23bd

lstm.bias_hh_l0 f4 [512]
-0.03393843 -0.04875961 -0.02162516 -0.043717448 0.02772437 0.034810502 0.0055245184 -0.011395956
0.07319862 -0.019187886 0.024784721 -0.071448565 0.06760044 -0.07671652 0.051073886 0.06016308
0.05786531 0.03280679 0.0013298824 -0.02378098 -0.04791578 0.04780739 0.022766551 -0.06748149
0.095543325 -0.022588229 0.07136556 0.05374733 0.011457916 -0.054291546 -0.033563193 0.030399278
-0.015201668 0.047246803 0.070632316 -0.08762498 0.06012702 0.021309339 0.061038 0.0028838806
-0.02716294 -0.057367235 -0.0006207701 -0.051867332 0.060002916 0.048349354 0.05820226 -0.07420618
-0.037438985 -0.021272544 0.100303285 -0.059294432 0.07312451 -0.0794389 0.06920299 0.029450921
-0.004015534 0.1017552 0.0664397 0.0694898 -0.007929465 0.09563801 -0.07046363 -0.022935113
-0.051723726 0.014979644 0.0052090576 0.010539199 0.052839585 0.02125899 0.0075504542 -0.07771639
0.020872748 -0.017674029 0.0012250508 -0.07266357 -0.06792363 0.045725573 -0.076024495 0.06671361
0.083433576 0.061414115 0.07158447 -0.035377346 -0.037254862 0.0557253 0.057918362 0.048115328
0.034697574 0.083735585 0.035511304 -0.035939503 -0.027446419 0.056349847 -0.061067995 0.007961445
0.017521493 0.051994722 -0.05775202 -0.05959715 0.020709798 0.081189126 0.049594104 0.10369903
0.027189102 0.04211689 0.05149838 0.06530572 0.06855201 -0.07717843 0.03637792 0.07059471
0.08893931 -0.013704869 0.03547656 0.029416062 -0.03559289 0.003200355 -0.0017080839 -0.015188135
0.014462334 -0.0060044727 -0.08329688 0.010332288 -0.029372575 0.07908264 -0.09732218 0.006246778
0.06952208 0.07494799 -0.062641405 -0.04737033 -0.06605872 -0.06773939 0.011247525 0.045712523
-0.048621677 -0.014914545 -0.06074566 0.00079939776 -0.04449321 0.03306869 -0.00012849878 -0.044846967
0.03746358 0.06942366 0.05235499 0.06602355 0.08644702 -0.058803245 0.060143784 0.024899265
-0.07683779 -0.044897985 0.088320665 -0.052156806 -0.02973088 0.058371093 0.05577959 -0.063406475
-0.055043116 0.013395089 0.06509876 0.022759767 -0.0360146 -0.062311586 -0.0064422884 -0.064324304
-0.044634584 -0.023942174 0.044813927 0.05227451 0.011918472 0.08042631 -0.057442844 -0.037642032
-0.051803317 -0.09884031 -0.0005964788 0.00034186605 -0.049839087 -0.078226484 0.083757386 0.009618449
-0.042962223 0.07034486 0.0910093 0.0072077285 -0.057423607 0.021011416 0.07797292 -0.0097560575
-0.045535102 -0.058267318 0.07559573 -0.050764613 -0.07919689 -0.035362646 0.021369833 0.024662059
-0.008589623 -0.054812342 -0.04811502 0.08146694 -0.009492898 -0.082243875 -0.044957247 0.075012244
0.011077533 -0.03902902 0.030208444 0.06846409 -0.04911732 0.021056239 0.012111677 0.062271997
0.058342505 -0.07189839 0.06508229 -0.048630085 0.005641478 0.06479675 -0.025722163 -0.037024926
0.034473762 0.061006136 0.046019107 0.05755082 0.06569154 -0.06171443 -0.021780863 -0.020101063
-0.0035227267 -0.049828395 -0.057256166 0.007602482 -0.050547995 0.041111413 0.0454052 -0.04652154
-0.041389782 -0.07340011 -0.039523233 -0.05093573 0.012543646 -0.040702518 0.004141212 -0.07203575
-0.028891971 0.06119635 -0.052838147 -0.0100813955 -0.025530776 -0.0038413533 0.060671728 -0.0823366
00000000: 0603 0bbd 28b8 47bd 3f27 b1bc 1111 33bd
00000010: 381e e33c 7595 0e3d 0507 b53b 1bb6 3abc
00000020: 28e9 953d ea2f 9dbc 5409 cb3c a053 92bd
00000030: 1972 8a3d 8d1d 9dbd da32 513d 906d 763d
00000040: 2d04 6d3d 6a60 063d 734f ae3a 54d0 c2bc
00000050: 5643 44bd afd1 433d eb80 ba3c bc33 8abd
00000060: 38ac c33d f30a b9bc 1b28 923d 2926 5c3d
00000070: fcb9 3b3c d060 5ebd 8f79 09bd e807 f93c
00000080: 6b10 79bc dd85 413d ada7 903d ba74 b3bd
00000090: c047 763d ec90 ae3c fb02 7a3d 7dff 3c3b
000000a0: d084 debc e8f9 6abd 2dbb 22ba d772 54bd
000000b0: 9ec5 753d f909 463d 7e65 6e3d 69f9 97bd
000000c0: 9f59 19bd c243 aebc cf6b cd3d b8de 72bd
000000d0: 4ec2 953d ddb0 a2bd 4cba 8d3d 0f43 f13c
000000e0: be94 83bb 0865 d03d 8a11 883d ab50 8e3d
000000f0: 96ea 01bc dcdd c33d 3c4f 90bd 6be2 bbbc
00000100: 42dc 53bd 2e6d 753c beb0 aa3b 9bac 2c3c
00000110: 526e 583d 5527 ae3c cd69 f73b c529 9fbd
00000120: 53fd aa3c 20c9 90bc e291 a03a a3d0 94bd
00000130: 8b1b 8bbd bd4a 3b3d bbb2 9bbd 25a1 883d
00000140: 39df aa3d 5e8d 7b3d e19a 923d d6e7 10bd
00000150: 8e98 18bd 3640 643d ce3b 6d3d 9414 453d
00000160: 0b1f 0e3d 907d ab3d 4d74 113d 4d35 13bd
00000170: 50d7 e0bc 19cf 663d 6f22 7abd b870 023c
00000180: 3c89 8f3c 6bf8 543d 628d 6cbd 241c 74bd
00000190: 98a7 a93c 7c46 a63d 3023 4b3d 2860 d43d
000001a0: aebb de3c c382 2c3d f7ef 523d 01bf 853d
000001b0: ff64 8c3d ba0f 9ebd 0401 153d f693 903d
000001c0: d025 b63d 638a 60bc df4f 113d f4f9 f03c
000001d0: dac9 11bd 0cbd 513b c9e1 dfba a8d7 78bc
000001e0: 6df3 6c3c 2bc1 c4bb 8e97 aabd c248 293c
000001f0: c19e f0bc 14f6 a13d da50 c7bd c6b1 cc3b
00000200: 9861 8e3d 557e 993d 234a 80bd 6407 42bd
00000210: cb49 87bd f3ba 8abd 8a47 383c 0e3d 3b3d
00000220: 8627 47bd 235c 74bc 71d0 78bd ad8e 513a
00000230: 833e 36bd 0973 073d a1bd 06b9 74b1 37bd
00000240: 6973 193d fe2d 8e3d 3072 563d 5b37 873d
00000250: 230b b13d acdb 70bd 5459 763d 8bf9 cb3c
00000260: 225d 9dbd f3e6 37bd 77e1 b43d 60a2 55bd
00000270: 2d8e f3bc 8716 6f3d 2479 643d 41db 81bd
00000280: e474 61bd 1377 5b3c 8052 853d b172 ba3c
00000290: 0c84 13bd 6f3a 7fbd d519 d3bb 76bc 83bd
000002a0: c1d2 36bd 6122 c4bc cf8e 373d cc1d 563d
000002b0: b245 433c 8db6 a43d 3049 6bbd 882e 1abd
000002c0: b72f 54bd ca6c cabd 045d 1cba 7c3c b339
000002d0: 1224 4cbd 3535 a0bd fe88 ab3d b396 1d3c
000002e0: 28f9 2fbd f710 903d 1563 ba3d cf2e ec3b
000002f0: 0435 6bbd 2220 ac3c 44b0 9f3d dfd7 1fbc
00000300: 0483 3abd b6a9 6ebd efd1 9a3d 8eee 4fbd
00000310: fb31 a2bd 6cd8 10bd ca0f af3c 1608 ca3c
00000320: 7dbb 0cbc e882 60bd 4114 45bd 24d8 a63d
00000330: 1a88 1bbc 7a6f a8bd 1725 38bd 05a0 993d
00000340: 8a7e 353c e5dc 1fbd b377 f73c e736 8c3d
00000350: 3e2f 49bd 227e ac3c 0e70 463c ec10 7f3d
00000360: 8df8 6e3d 773f 93bd dd49 853d 5730 47bd
00000370: 26dc b83b 29b4 843d 49b7 d2bc 73a7 17bd
00000380: 5c34 0d3d 92e1 793d 887e 3c3d 69ba 6b3d
00000390: 4989 863d 45c8 7cbd c86d b2bc fcaa a4bc
000003a0: 8cdd 66bb dc18 4cbd 7185 6abd 3e1e f93b
000003b0: 6a0b 4fbd 7164 283d cefa 393d 5f8d 3ebd
000003c0: 5588 29bd cc52 96bd 1de3 21bd fca1 50bd
000003d0: dd83 4d3c afb7 26bd 01b3 873b 7b87 93bd
000003e0: dbae ecbc 06a9 7a3d d06c 58bd 702c 25bc
000003f0: eb25 d1bc 37bf 7bbb eb82 783d 17a0 a8bd

lstm.weight_ih_l1 f4 [512, 128]
-0.035940524 -0.05703107 -0.0423952 0.02257956 -0.028800115 0.041756906 0.05665452 0.09749597
0.03785882 0.047797076 -0.04637688 0.038248803 -0.06195531 -0.04015305 -0.05631046 0.08424347
0.053659555 -0.0700014 0.046630763 -0.062008847 -0.07407808 -0.0030861513 -0.050547566 -0.072465666
-0.05818595 -0.04804183 -0.047925122 0.03609818 0.022714809 0.026974564 -0.0001271328 -0.030149069
0.052650895 -0.050496954 0.023841871 0.01295888 -0.026656972 -0.051033765 -0.028158009 -0.09001622
0.005381524 -0.083438516 0.015592623 0.0387166 0.03651129 0.05806465 0.026822446 -0.08930488
0.058602486 0.009493555 -0.06080387 -0.05816646 0.07219318 0.054265685 -0.04433815 0.044705942
-0.08191492 -0.027985755 -0.019719945 0.04630097 0.034983117 0.02951387 0.0011987907 0.0022813526
-0.050431788 0.031065978 -0.02171458 -0.073128134 0.01572337 0.04336754 -0.08134654 -0.014513491
0.038595293 0.01043932 0.048076496 -0.055685855 -0.022315253 0.07334751 0.08902365 -0.048536472
0.0888718 -0.034119383 0.050276075 -0.03788203 0.08871227 -0.02591896 -0.06771386 0.003086575
-0.003259389 0.061490364 -0.09249967 0.046388622 0.06857711 0.007642121 -0.093968086 0.017452791
0.013621152 -0.011288958 0.07590897 -0.0033883294 -0.008812891 -0.094287135 0.031948023 -0.0044477754
0.014834721 0.00088234467 -0.0065521277 -0.07058908 0.0025288817 -0.047384135 -0.06656002 -0.038201198
0.06829602 -0.0117559135 -0.03245964 -0.004473999 0.092060894 0.024955805 -0.05044178 -0.016773155
0.0038399808 0.054861434 0.054930348 0.05681193 -0.018419914 0.008313187 -0.0023093503 -0.07123308
-0.07948943 0.04526626 0.047519714 0.04706253 -0.04893864 -0.08138756 -0.02375139 0.0015895865
-0.060738385 0.01014936 -0.04831188 -0.048042722 -0.0572607 0.079326965 -0.04444847 0.052570704
0.08791365 0.06526523 -0.033221103 -0.047817457 -0.047752663 0.008386892 0.07917582 0.00923968
0.006574094 0.00641549 -0.01544633 0.002994852 0.0782675 0.03778805 0.021901842 -0.0730381
0.05932581 -0.037834007 0.0051791165 0.0051852977 -0.027632603 0.067348525 0.030239718 -0.059458364
0.025468828 0.053543832 -0.009351424 -0.03717995 -0.05084703 -0.047171894 0.044876758 0.013835572
0.0229969 -0.001885254 0.05055856 -0.08521549 0.052795973 -0.019642243 0.003227818 0.012064347
0.054734487 -0.081326224 -0.00060989865 0.039985772 0.09345988 -0.024740383 -0.017006414 -0.04988182
-0.018612035 -0.051625445 -0.047499962 0.029913755 -0.04016989 -0.070717424 -0.04579118 0.0071490044
0.010125373 -0.01157781 0.0064354325 0.0014789561 0.01568565 0.05790622 -0.004126545 -0.0685615
0.051704034 -0.0390367 0.023700537 -0.05785362 0.020240825 0.008825422 -0.07953656 -0.015960969
-0.021532858 -0.021011904 -0.0049723694 -0.018526739 -0.0058906637 -0.07552696 -0.045883927 0.053331923
0.061958034 0.05793377 0.039802376 0.009442873 -0.009859488 -0.050737653 0.048516132 0.051972974
0.027697055 0.016681576 -0.043551758 -0.07106568 0.05830106 0.04309519 0.009163629 -0.035059635
0.028381255 -0.058920715 0.002659407 -0.008379631 -0.052814975 0.010826781 0.03964465 -0.015392914
-0.036488123 0.042805914 -0.065988205 0.024948306 0.055188637 0.008697472 0.024076609 -0.04782882
00000000: 5f36 13bd 6999 69bd 97a6 2dbd c5f8 b83c
00000010: 38ee ebbc 4a09 2b3d 920e 683d f8ab c73d
00000020: da11 1b3d dec6 433d aff5 3dbd c7aa 1c3d
00000030: dac4 7dbd 8677 24bd cca5 66bd d787 ac3d
00000040: 1fca 5b3d e55c 8fbd e6ff 3e3d fdfc 7dbd
00000050: 40b6 97bd 0741 4abb f70a 4fbd e168 94bd
00000060: 6454 6ebd 83c7 44bd 224d 44bd afdb 133d
00000070: 6814 ba3c c3f9 dc3c f34e 05b9 2efb f6bc
00000080: 77a8 573d e5d5 4ebd 0750 c33c 7b51 543c
00000090: b95f dabc c808 51bd a0ab e6bc 6d5a b8bd
000000a0: 7f57 b03b d0e1 aabd 3378 7f3c 4c95 1e3d
000000b0: dd8c 153d 33d5 6d3d bfba db3c 7ae5 b6bd
000000c0: 2909 703d db8a 1b3c 7b0d 79bd f43f 6ebd
000000d0: 05da 933d b245 5e3d ec9b 35bd 941d 373d
000000e0: 02c3 a7bd 6242 e5bc b98b a1bc 16a6 3d3d
000000f0: 754a 0f3d 12c7 f13c be20 9d3a bf82 153b
00000100: 9091 4ebd 147e fe3c c6e2 b1bc 34c4 95bd
00000110: 4cce 803c 29a2 313d 0499 a6bd fec9 6dbc
00000120: 1916 1e3d ae09 2b3c dceb 443d da16 64bd
00000130: 7ace b6bc 3837 963d 0852 b63d 2ece 46bd
00000140: 6b02 b63d c4c0 0bbd 49ee 4d3d 302a 1bbd
00000150: c7ae b53d 0054 d4bc 90ad 8abd 2348 4a3b
00000160: 799b 55bb 52dd 7b3d 7870 bdbd ff01 3e3d
00000170: 2872 8c3d c26a fa3b 5772 c0bd 28f9 8e3c
00000180: 412b 5f3c 52f5 38bc 2976 9b3d bc0e 5ebb
00000190: f263 10bc 9d19 c1bd eedb 023d a5be 91bb
000001a0: 540d 733c 264d 673a 3bb3 d6bb 0291 90bd
000001b0: 98bb 253b de15 42bd 9f50 88bd dc78 1cbd
000001c0: c9de 8b3d e09b 40bc 66f4 04bd a09a 92bb
000001d0: 6c8a bc3d 1e70 cc3c 0a9c 4ebd db67 89bc
000001e0: 30a8 7b3b 62b6 603d a5fe 603d a0b3 683d
000001f0: 5ce5 96bc 0934 083c 7858 17bb a6e2 91bd
00000200: 5bcb a2bd 1d69 393d 08a4 423d a4c4 403d
00000210: e273 48bd 85ae a6bd 4692 c2bc ac59 d03a
00000220: d0c8 78bd 8049 263c aee2 45bd 72c8 44bd
00000230: 328a 6abd 2d76 a23d 990f 36bd 6154 573d
00000240: 120c b43d c7a9 853d da12 08bd 3ddc 43bd
00000250: 4c98 43bd 2d69 093c ef26 a23d 0762 173c
00000260: 7f6b d73b 0839 d23b 9b12 7dbc 4745 443b
00000270: b64a a03d a4c7 1a3d 7e6b b33c 0095 95bd
00000280: 9fff 723d d5f7 1abd 94b5 a93b 6ee9 a93b
00000290: c55d e2bc 06ee 893d 49b9 f73c 9d8a 73bd
000002a0: 01a4 d03c c750 5b3d b736 19bc 014a 18bd
000002b0: fa44 50bd 5137 41bd b1d0 373d 98ae 623c
000002c0: ff63 bc3c a11a f7ba 7e16 4f3d 7585 aebd
000002d0: 9740 583d c5e8 a0bc cd89 533b 8aa9 453c
000002e0: 4531 603d 5d8e a6bd 9be1 1fba 1fc8 233d
000002f0: e567 bf3d 58ac cabc 0951 8bbc e150 4cbd
00000300: 4478 98bc 3475 53bd 528f 42bd b10d f53c
00000310: 2f89 24bd 4cd4 90bd 888f 3bbd 3242 ea3b
00000320: e4e4 253c dbb0 3dbc 52e0 d23b 88d9 c13a
00000330: 317f 803c 132f 6d3d f837 87bb f969 8cbd
00000340: 9cc7 533d f2e4 1fbd a127 c23c ebf7 6cbd
00000350: 16d0 a53c 8198 103c 10e4 a2bd 94c0 82bc
00000360: ad65 b0bc 2821 acbc 42ef a2bb 63c5 97bc
00000370: 7806 c1bb e1ad 9abd c9f0 3bbd 9372 5a3d
00000380: b5c7 7d3d f64b 6d3d d107 233d 48b6 1a3c
00000390: b189 21bc 49d2 4fbd dab8 463d 9de1 543d
000003a0: efe4 e23c cda7 883c 5463 32bd e28a 91bd
000003b0: 18cd 6e3d 9584 303d 0c23 163c b19a 0fbd
000003c0: ce7f e83c d956 71bd 7249 2e3b b84a 09bc
000003d0: 8454 58bd d062 313c 6e62 223d 9032 7cbc
000003e0: 9274 15bd 4155 2f3d d324 87bd 6460 cc3c
000003f0: 7b0d 623d d77f 0e3c 4f3c c53c 27e8 43bd

lstm.weight_hh_l1 f4 [512, 128]
-0.004154711 0.08200095 -0.0019399996 -0.0060239867 -0.05197617 -0.02730054 -0.024003062 -0.070075125
0.040577482 0.0512799 0.07995399 -0.06844683 -0.06640825 0.07908431 -0.035860598 -0.06687977
-0.0050081643 -0.009051096 -0.03989514 -0.03075667 0.08787139 0.0648326 -0.052010592 -0.0005597449
0.012058776 -0.025640631 0.047117893 -0.094568126 0.012352334 -0.01565962 -0.06341726 -0.030867342
-0.05988289 -0.03008302 -0.07758831 0.049617067 -0.09547515 -0.0500823 0.08123264 0.051856942
0.0708016 -0.052040316 -0.007829722 -0.07902286 0.03535766 -0.034188896 0.042797368 -0.018832453
-0.028338384 -0.038969047 0.06859583 -0.015127591 -0.0050586043 0.04011855 0.010451171 0.064991884
0.006850962 -0.047001954 -0.042828068 -0.03688799 0.015246025 0.039061587 0.018214293 -0.008497834
0.025666839 -0.06831274 0.034442175 0.022842186 0.024218176 -0.020879164 0.036825716 0.044117607
-0.09412482 0.01227254 0.047795434 0.055006642 0.004144414 -0.0004812517 -0.0069079506 0.088251874
0.028860385 0.06949275 -0.041816697 0.06303721 -0.060538277 0.02343432 0.05713261 0.060678773
0.06707898 0.069058664 0.012083449 0.0123378225 -0.07670046 0.06121702 -0.074765146 -0.002886698
-0.0129878605 -0.04289763 -0.04973639 -0.024449479 0.079665184 -0.0596409 -0.0079364525 -0.090167634
0.06700928 0.043558303 0.058092028 0.04487957 -0.030115653 -0.029529052 -0.08630806 0.036588352
0.06273364 0.046352614 0.028190762 -0.043896556 0.02068033 -0.0580977 -0.083064966 0.025535442
-0.051152196 -0.050787106 0.06241721 -0.0098478375 -0.076661274 0.035838615 -0.016478863 -0.010730784
0.042676177 -0.033194907 0.0517716 0.060237065 -0.029618701 -0.030936517 0.008085692 0.00026130638
0.034688152 -0.01765563 -0.059328694 -0.038129926 -0.012380904 0.057806227 0.077942066 0.008111559
-0.012235891 0.022677105 -0.067789115 -0.032845095 -0.026122075 -0.026095472 0.044386838 0.009222833
-0.023871828 0.0024242178 -0.076924115 -0.07347304 0.0463717 -0.026359364 -0.05406406 0.031286657
0.049759362 0.062734134 0.008486356 0.035967577 0.00977899 -0.005503994 0.06621519 0.028372042
-0.013045102 0.032813825 -0.046071082 -0.07461787 -0.040933866 0.04037407 -0.056471087 -0.04551662
-0.06874201 0.029576879 -0.030879678 0.06833364 -0.062262967 0.039219398 -0.035246555 -0.03661676
-0.052099902 0.025773475 0.026890129 -0.051467575 -0.025936956 0.054472066 0.059992593 -0.022977788
0.0007258984 0.045255166 -0.009045023 -0.057330072 -0.026925042 0.028936582 0.015266869 0.07214772
0.013128544 -0.009221672 0.042615198 0.06280517 -0.008233788 0.0055256593 -0.033287864 0.056938674
0.072630025 0.039697167 0.022311829 0.017018102 -0.0046752407 0.026974985 0.03301838 0.0018057752
0.02921398 0.0044958256 -0.059586678 0.07174173 0.029896285 0.04579403 -0.04482367 0.04388538
0.028285712 -0.00543301 -0.0136988815 -0.020128973 -0.030176196 0.07322421 -0.0028148098 -0.015741857
-0.053820856 0.0076519493 0.03947701 -0.072268486 0.029727368 -0.019415354 0.05269297 -0.0052314624
0.06568295 0.027761342 -0.030101484 -0.018501299 0.066974446 0.022556156 -0.057060055 0.011077579
-0.049185723 0.02277119 0.058667127 -0.057540804 0.009471358 -0.01466633 0.01524796 0.02385868
00000000: 3e24 88bb 1df0 a73d 9647 feba dd64 c5bb
00000010: f7e4 54bd 62a5 dfbc 12a2 c4bc 8c83 8fbd
00000020: 9334 263d df0a 523d ebbe a33d da2d 8cbd
00000030: 0c01 88bd f4f6 a13d 90e2 12bd 43f8 88bd
00000040: 871b a4bb 0c4b 14bc 1669 23bd 69f5 fbbc
00000050: eaf5 b33d f4c6 843d 0f09 55bd d8bb 12ba
00000060: 2c92 453c 4d0c d2bc b1fe 403d efac c1bd
00000070: 7261 4a3c 9a48 80bc e9e0 81bd 82dd fcbc
00000080: c347 75bd aa70 f6bc 9fe6 9ebd 443b 4b3d
00000090: 7a88 c3bd 1923 4dbd 4c5d a63d f267 543d
000000a0: 6e00 913d 3a28 55bd 3c48 00bc bdd6 a1bd
000000b0: 32d3 103d a809 0cbd 4b4c 2f3d 8446 9abc
000000c0: e625 e8bc 029e 1fbd f87b 8c3d b7d9 77bc
000000d0: a6c2 a5bb 5953 243d 633b 2b3c 771a 853d
000000e0: 097e e03b 1f85 40bd 7c6c 2fbd dc17 17bd
000000f0: 77ca 793c 0bff 1f3d 2436 953c 803a 0bbc
00000100: 4343 d23c 8de7 8bbd 3d13 0d3d 891f bb3c
00000110: 3265 c63c c80a abbc 90d6 163d aab4 343d
00000120: 83c4 c0bd c312 493c 25c5 433d a54e 613d
00000130: ddcd 873b 8350 fcb9 175c e2bb 66bd b43d
00000140: 9d6c ec3c 3752 8e3d fc47 2bbd a719 813d
00000150: fcf6 77bd 55f9 bf3c e203 6a3d 4e8a 783d
00000160: b460 893d a16e 8d3d a9f9 453c 9424 4a3c
00000170: 2115 9dbd b3be 7a3d 781e 99bd c22e 3dbb
00000180: 09cb 54bc 6db5 2fbd 63b8 4bbd 464a c8bc
00000190: 8027 a33d 044a 74bd e507 02bc cfa9 b8bd
000001a0: 293c 893d 316a 323d e8f1 6d3d a4d3 373d
000001b0: 1ab5 f6bc e9e6 f1bc 48c2 b0bd abdd 153d
000001c0: 7f7a 803d 3ddc 3d3d 50f0 e63c e0cc 33bd
000001d0: cc69 a93c dbf7 6dbd f71d aabd b42f d13c
000001e0: f784 51bd 2406 50bd 30a9 7f3d d358 21bc
000001f0: 9600 9dbd 83cb 123d aefe 86bc 2cd0 2fbc
00000200: 37cd 2e3d 62f7 07bd 750e 543d 24bb 763d
00000210: eba2 f2bc 946e fdbc da79 043c f3ff 8839
00000220: 2a15 0e3d 8aa2 90bc a502 73bd 202e 1cbd
00000230: 46d9 4abc 39c6 6c3d 17a0 9f3d 58e6 043c
00000240: 0c79 48bc 56c5 b93c 05d5 8abd 9488 06bd
00000250: f6fd d5bc 2cc6 d5bc f9ce 353d 5e1b 173c
00000260: da8e c3bc a0df 1e3b 648a 9dbd 0879 96bd
00000270: 40f0 3d3d 98ef d7bc 4772 5dbd 7026 003d
00000280: 79d0 4b3d c17a 803d 5b0a 0b3c bd52 133d
00000290: 0f38 203c d95a b4bb d49b 873d 7c6c e83c
000002a0: 20bb 55bc ca67 063d 08b5 3cbd 41d1 98bd
000002b0: 45aa 27bd 485f 253d 3a4e 67bd a36f 3abd
000002c0: 9cc8 8cbd 364b f23c 61f7 fcbc 82f2 8b3d
000002d0: 7407 7fbd 85a4 203d b15e 10bd 75fb 15bd
000002e0: b566 55bd e522 d33c b048 dc3c aacf 52bd
000002f0: bd79 d4bc 1a1e 5f3d cbba 753d ea3b bcbc
00000300: 384a 3e3a 7b5d 393d 9331 14bc f0d2 6abd
00000310: e891 dcbc 690c ed3c e421 7a3c 2fc2 933d
00000320: 1b19 573c 7f16 17bc 468d 2e3d ff9f 803d
00000330: 03e7 06bc 9710 b53b db58 08bd 8738 693d
00000340: 0dbf 943d 7f99 223d 4cc7 b63c 8c69 8b3c
00000350: c332 99bb a5fa dc3c 483e 073d c3af ec3a
00000360: 2852 ef3c b851 933b 2911 74bd 54ed 923d
00000370: 0ee9 f43c 8592 3b3d 0699 37bd 28c1 333d
00000380: 70b7 e73c 6407 b2bb 4671 60bc 84e5 a4bc
00000390: 1234 f7bc 93f6 953d ac78 38bb 11f5 80bc
000003a0: 4273 5cbd 34bd fa3b a5b2 213d 8001 94bd
000003b0: cf86 f33c f30c 9fbc 95d4 573d b06c abbb
000003c0: c884 863d c16b e33c 6397 f6bc 0990 97bc
000003d0: e629 893d b0c7 b83c ceb7 69bd bc7e 353c
000003e0: f876 49bd a68a ba3c f14c 703d e8af 6bbd
000003f0: c12d 1b3c 0c4b 70bc 94d2 793c 4773 c33c

lstm.bias_ih_l1 f4 [512]
-0.02773094 0.09029211 -0.036623042 -0.06860587 -0.039588526 0.09443086 0.040009532 0.06456096
0.068035364 0.03145909 0.07076549 0.02547385 -0.04635073 -0.048074897 0.009798669 -0.015112233
-0.006261684 0.002416193 0.08085263 -0.030764613 -0.0415255 -0.047655676 -0.02074883 0.10344611
0.07844879 -0.078105904 0.060463935 0.027883667 0.075367205 -0.059436362 -0.020520737 0.05987777
0.075746424 -0.058270495 -0.07097068 -0.012608934 0.01754713 0.03034255 -0.059831284 -0.019256005
0.025100974 -0.02779784 0.05300759 -0.013301421 0.06135284 -0.062156264 -0.029700298 -0.04439974
-0.055911086 0.033312816 0.084263384 -0.034255378 0.048930664 0.00090640335 -0.012010363 0.021839486
0.007407145 -0.011606622 0.09964796 -0.038376324 -0.08124187 0.056841355 0.06920638 -0.058765315
0.072386354 -0.06286927 0.027130434 0.05823743 0.0004317387 0.08537171 -0.07109284 0.013099692
-0.013823487 0.0039260457 0.04299527 -0.01055139 -0.0036354356 0.089016035 0.063803114 0.071581185
0.088949 -0.012117772 0.0631262 -0.05768309 -0.02270327 0.037637636 0.0067840978 -0.033698115
-0.0009974642 -0.054232575 0.09218775 0.09066548 0.02350317 -0.046059106 0.014978617 -0.057277597
0.020299662 -0.0790739 0.06576258 0.05654566 0.027534151 -0.019167384 0.036498547 0.079888284
-0.019710312 -0.042170282 0.029782228 0.08858695 0.088797465 0.040238183 0.023905039 0.09971357
0.06369572 0.001847959 -0.058542464 0.014230426 0.0048421687 -0.019292237 -0.018559173 0.017223196
0.027873924 -0.021262605 0.02172622 0.07026527 0.049691416 -0.052855674 -0.0367338 0.012905858
0.07107172 0.0046880594 0.055359032 0.021566601 0.023098275 0.04460151 -0.027706329 0.07154628
-0.06007122 0.062784076 0.017727982 -0.05720103 0.033344377 0.067717895 -0.0156209245 0.058648847
0.05061298 -0.014289491 0.06587831 -0.06482736 -0.045636896 -0.041477166 -0.0730515 -0.016711906
-0.06609826 -0.01250788 -0.0061965636 0.051525913 -0.038662393 0.009221697 0.059747424 -0.010159848
0.09984649 0.013482047 0.06717721 0.08694129 0.021337198 0.026534617 -0.057164855 0.032326613
-0.058175735 -0.020495392 0.0964708 0.033651203 -0.03830932 0.07694702 0.048885386 0.006600598
0.020947512 0.07933157 0.026491199 0.0042584776 0.035523195 0.039095778 0.00505171 0.08315793
-0.031157512 0.08520105 0.041903384 0.042488657 0.0023392192 0.025385678 0.09925971 0.0050943317
-0.07435085 0.097592026 0.082305886 -0.03390415 -0.017456494 0.009510246 0.013361342 0.04715795
0.06106902 -0.0027982597 -0.0627741 0.011365499 -0.0008326504 0.017593017 -0.07445155 0.06899454
0.08326357 0.020770023 0.007450789 0.09296022 0.047765892 0.081792824 0.0042895917 0.0404892
-0.019288551 0.015610034 -0.025634091 0.09063092 0.04132275 -0.008236662 -0.07702113 -0.058324523
0.080877915 -0.099574946 -0.0073206234 -0.07066947 0.053986244 0.004719387 -0.031021604 0.07559698
-0.016165208 0.021036914 0.010242416 0.026761139 -0.054225866 -0.053743877 -0.033024833 -0.016226517
-0.045514878 -0.01486409 0.043164894 -0.053820252 0.032405443 -0.041027498 -0.034886654 -0.008180168
0.02367626 0.036815118 0.034561154 -0.011093918 0.07898689 0.010772631 0.028400822 0.05329685
00000000: ff2b e3bc 12eb b83d 0b02 16bd 3c81 8cbd
00000010: 9427 22bd f764 c13d 09e1 233d 8938 843d
00000020: 2056 8b3d 3fdb 003d 7fed 903d 89ae d03c
00000030: 43da 3dbd 2fea 44bd 998a 203c 4d99 77bc
00000040: d02e cdbb fe58 1e3b 1096 a53d 1206 fcbc
00000050: a516 2abd 9932 43bd 73f9 a9bc 8edb d33d
00000060: c2a9 a03d fdf5 9fbd 08a9 773d 4a6c e43c
00000070: 1f5a 9a3d 8b73 73bd 1b1b a8bc 6442 753d
00000080: f120 9b3d 0bad 6ebd 1359 91bd b495 4ebc
00000090: 00bf 8f3c f090 f83c a611 75bd c5be 9dbc
000000a0: 8fa0 cd3c 4cb8 e3bc 7d1e 593d 34ee 59bc
000000b0: 1e4d 7b3d 9197 7ebd 0a4e f3bc 80dc 35bd
000000c0: 0603 65bd 0573 083d 4892 ac3d 5e4f 0cbd
000000d0: 856b 483d b39b 6d3a 1dc7 44bc b9e8 b23c
000000e0: a3b7 f23b b329 3ebc 3b14 cc3d 7e30 1dbd
000000f0: 2362 a6bd 7bd2 683d 13bc 8d3d e6b3 70bd
00000100: 4c3f 943d 9bc1 80bd a540 de3c 5f8a 6e3d
00000110: fd5a e239 5dd7 ae3d 1f99 91bd 17a0 563c
00000120: e87b 62bc 0fa6 803b cf1b 303d bddf 2cbc
00000130: 7d40 6ebb 0a4e b63d 35ab 823d 2899 923d
00000140: e52a b63d 9f89 46bc 4f48 813d 1b45 6cbd
00000150: 35fc b9bc ec29 1a3d 234d de3b 0907 0abd
00000160: 58bd 82ba fa22 5ebd eecc bc3d d3ae b93d
00000170: b889 c03c 79a8 3cbd e068 753c ea9b 6abd
00000180: 7a4b a63c 7ff1 a1bd 88ae 863d 6c9c 673d
00000190: 4d8f e13c eb04 9dbc 807f 153d 789c a33d
000001a0: 8577 a1bc bfba 2cbd dcf9 f33c 136d b53d
000001b0: 72db b53d cbd0 243d 80d4 c33c a136 cc3d
000001c0: e772 823d 3737 f23a 39ca 6fbd bc26 693c
000001d0: 0eab 9e3b c10a 9ebc 6809 98bc a917 8d3c
000001e0: db57 e43c ea2e aebc 30fb b13c 3de7 8f3d
000001f0: 3a89 4b3d 317f 58bd 2e76 16bd 1873 533c
00000200: 0d8e 913d 4b9e 993b 27c0 623d 71ac b03c
00000210: 9838 bd3c 13b0 363d 62f8 e2bc db86 923d
00000220: 3d0d 76bd f094 803d 463a 913c a14b 6abd
00000230: 1d94 083d aeaf 8a3d e8ee 7fbc c639 703d
00000240: 8e4f 4f3d 781e 6abc 35eb 863d 35c4 84bd
00000250: c1ed 3abd f6e3 29bd 069c 95bd 68e7 88bc
00000260: 865e 87bd daed 4cbc 8b0c cbbb d60c 533d
00000270: 755c 1ebd 9a16 173c b7b9 743d 7e75 26bc
00000280: 517c cc3d cee3 5c3c 3494 893d 460e b23d
00000290: 59cb ae3c 205f d93c b225 6abd e968 043d
000002a0: ae49 6ebd f4e5 a7bc 7c92 c53d d8d5 093d
000002b0: 3cea 1cbd 6696 9d3d 0b3c 483d d449 d83b
000002c0: 1e9a ab3c 9778 a23d 1204 d93c b38a 8b3b
000002d0: c580 113d e522 203d d188 a53b b44e aa3d
000002e0: 0a3e ffbc e37d ae3d e2a2 2b3d 9608 2e3d
000002f0: 964d 193b a0f5 cf3c ad48 cb3d 5aee a63b
00000300: 4245 98bd 54de c73d fd8f a83d 14df 0abd
00000310: ec00 8fbc ddd0 1b3c 88e9 5a3c b228 413d
00000320: 8223 7a3d 0263 37bb b58f 80bd 5c36 3a3c
00000330: 3946 5aba 3b1f 903c 0e7a 98bd 024d 8d3d
00000340: 1786 aa3d e525 aa3c c025 f43b ee61 be3d
00000350: 2ba6 433d ff82 a73d b48f 8c3b 01d8 253d
00000360: 0603 9ebc 3ac1 7f3c 96fe d1bc b49c b93d
00000370: 0b42 293d 10f3 06bc 41bd 9dbd b2e5 6ebd
00000380: 52a3 a53d f3ed cbbd d7e1 efbb 28bb 90bd
00000390: ae20 5d3d 16a5 9a3b 0521 febc 97d2 9a3d
000003a0: e66c 84bc 9b55 ac3c cecf 273c 2d3a db3c
000003b0: f11b 5ebd 8a22 5cbd 0c45 07bd 79ed 84bc
000003c0: cf6d 3abd 8388 73bc accd 303d a072 5cbd
000003d0: 92bb 043d 730c 28bd 4fe5 0ebd 1d06 06bc
000003e0: b7f4 c13c 73cb 163d ff8f 0d3d 44c3 35bc
000003f0: e1c3 a13d b07f 303c d7a8 e83c cc4d 5a3d
