checkpoints/South-West/best_model.pth (torch, 820137 bytes, 9 tensors)

lstm.weight_ih_l0 f4 [512, 11]
-0.036204915 0.08588293 0.09554966 0.050573427 0.03448223 0.009814989 -0.0098375445 -0.041908357
0.11499522 -0.029934047 -0.028205652 -0.0022802714 0.09543082 0.07442559 -0.062066205 -0.0043201344
-0.0074640377 -0.068237394 -0.001640215 0.020606423 0.022635093 -0.03855065 0.095625736 0.0015980572
-0.071873225 0.0769434 0.021070223 0.01161149 -0.0113616325 0.06275424 0.030701486 0.076645866
-0.046602946 -0.06567886 0.046309646 -0.06346091 -0.009597893 -0.01127392 0.0018035787 -0.027194412
-0.062889524 0.09176825 0.032867394 -0.059539184 0.07527337 0.041754115 0.043388747 0.03312613
0.06143371 4.5127283e-05 -0.085847914 0.08838687 0.07018532 -0.064555086 -0.03194861 -0.01736836
0.033640463 0.019044379 -0.04767107 0.032205433 0.004526464 0.062472604 -0.019596383 0.11128177
-0.03308938 -0.06570975 0.09320277 -0.030613525 0.010931767 0.1126091 -0.032455057 1.2616279e-06
-0.012364592 -0.026799915 0.08013977 0.06987955 0.058869176 -0.06486056 0.03603778 0.07201377
0.053194404 0.039522998 9.65483e-05 0.023983559 0.015974177 -0.028924882 -0.0019940862 0.0025628302
0.016750341 -0.053527478 0.008479508 0.056994587 0.005374393 -0.0001520092 0.022042094 0.09823347
0.08002349 -0.08083117 -0.0347079 -0.011950251 -0.0030859197 0.02895321 0.0016861121 0.025895167
-0.00013358182 -0.05440867 -0.063269466 -0.03316078 0.049507316 0.0034831422 -0.05249543 0.031861313
0.02612152 -0.035195194 0.07723205 -0.0003647745 -0.07565447 0.07213363 -0.02084552 0.0408756
0.062095206 -0.05126105 0.039912045 -0.049871914 -0.012138226 -0.08720669 -2.3508832e-05 -0.09692751
-0.030598318 -0.007627692 0.02345064 0.055054408 0.0460962 0.0034160325 0.045173205 -0.07279172
0.06088053 0.0025686906 0.00960014 -0.036176804 -0.037419718 -0.054848332 -0.032821596 0.08452462
0.050724674 0.020432333 -0.00991498 -0.056328017 -0.010054123 0.077582456 0.07351439 -0.019638915
-0.01680169 0.062130224 0.031520844 -0.01156966 -4.501374e-05 0.024871621 0.09245275 0.00042050818
-0.035193782 -0.0340741 0.095281765 0.039972033 0.06120333 0.03388621 -0.062872544 0.06381602
0.018080529 0.022467436 0.005179441 0.03514831 -0.062756166 0.017663851 -0.045882445 0.012342785
-0.03431082 -0.100432694 0.10121202 -0.025419066 -0.11511467 -0.00016348883 0.003908745 0.033712294
0.003290695 0.05917419 0.012096741 -0.027230151 0.040906884 -0.01607831 0.037382234 -0.04881681
-0.0026679758 -0.011741408 0.059923176 0.08252663 -0.06837154 0.0076978593 0.033736125 0.053122178
0.07289419 -0.05924385 0.003021601 0.00015704057 -0.061457444 0.054613236 -0.061863333 0.061960395
0.07848805 0.020486211 -0.008305039 0.0023177634 0.02287473 0.016803183 0.009999567 0.08667624
-0.065672435 -0.016423324 0.06621178 -0.033569828 0.01939012 0.015819037 -0.025138179 -0.022675557
0.03852004 0.0003881111 -0.025396906 0.012367968 -0.0032164066 -0.010255103 -0.07050317 -0.0376681
0.09555949 0.044948656 0.07047235 -0.011445782 0.00012162906 -0.088992804 -0.025240475 0.011178306
0.015764883 0.031236341 0.0146918995 0.09613637 -0.048725244 -0.018226558 0.08133648 -8.686765e-05
-0.053524867 0.002127254 0.03494173 0.032354675 -0.09228131 -0.056424536 -0.043033946 -0.012130597
00000000: 9b4b 14bd 64e3 af3d 8aaf c33d 1526 4f3d
00000010: 3d3d 0d3d 0ccf 203c a72d 21bc 19a8 2bbd
00000020: 9d82 eb3d 3f38 f5bc 8a0f e7bc 9b70 15bb
00000030: 3c71 c33d 726c 983d 2239 7ebd ea8f 8dbb
00000040: e394 f4bb 0cc0 8bbd 7cfc d6ba cdce a83c
00000050: 3b6d b93c 49e7 1dbd 6dd7 c33d e775 d13a
00000060: 4532 93bd 8094 9d3d 769b ac3c 1e3e 3e3c
00000070: 2426 3abc 4c85 803d af81 fb3c 82f8 9c3d
00000080: bbe2 3ebd a382 86bd 2faf 3d3d cbf7 81bd
00000090: 7b40 1dbc 3fb6 38bc 0f66 ec3a d1c6 debc
000000a0: 39cc 80bd fef0 bb3d f69f 063d 5cdf 73bd
000000b0: ed28 9a3d 5d06 2b3d 66b8 313d 44af 073d
000000c0: eaa1 7b3d 0d47 3d38 08d1 afbd 2d04 b53d
000000d0: 52bd 8f3d 7535 84bd 8cdc 02bd 1748 8ebc
000000e0: 95ca 093d f502 9c3c bd42 43bd d8e9 033d
000000f0: bb52 943b 46e3 7f3d 9888 a0bc b2e7 e33d
00000100: bb88 07bd d592 86bd 18e1 be3d 37c9 fabc
00000110: 271b 333c 9a9f e63d 98ef 04bd 3455 a935
00000120: dc94 4abc 7f8b dbbc 5220 a43d 021d 8f3d
00000130: ce20 713d 9dd5 84bd 5a9c 133d f57b 933d
00000140: 60e2 593d dee2 213d f979 ca38 2b79 c43c
00000150: 47dc 823c e0f3 ecbc 37af 02bb 28f5 273b
00000160: 0338 893c a13f 5bbd a2ed 0a3c 2873 693d
00000170: ad1b b03b a964 1fb9 9f91 b43c a12e c93d
00000180: 5be3 a33d d08a a5bd df29 0ebd fcca 43bc
00000190: 243d 4abb 482f ed3c 8900 dd3a 1a22 d43c
000001a0: 1912 0cb9 a0db 5ebd 6c93 81bd 99d3 07bd
000001b0: 2fc8 4a3d 6e45 643b 7305 57bd 0281 023d
000001c0: ccfc d53c d628 10bd d62b 9e3d 343f bfb9
000001d0: bbf0 9abd ccba 933d 39c4 aabc 2c6d 273d
000001e0: 8b57 7e3d 1bf7 51bd d07a 233d 7e46 4cbd
000001f0: 69df 46bc 6c99 b2bd d534 c5b7 ee81 c6bd
00000200: 53a9 fabc b8f1 f9bb 8e1b c03c bb80 613d
00000210: 5ecf 3c3d 84df 5f3b 8a07 393d d313 95bd
00000220: dd5d 793d 7a57 283b e849 1d3c 212e 14bd
00000230: 6b45 19bd a5a8 60bd f06f 06bd 3e1b ad3d
00000240: adc4 4f3d b561 a73c 7172 22bc 35b8 66bd
00000250: 0cba 24bc 8de3 9e3d b68e 963d cae1 a0bc
00000260: b3a3 89bc 437c 7e3d 001c 013d ac8e 3dbc
00000270: 23cd 3cb8 92bf cb3c de57 bd3d a777 dc39
00000280: 5b27 10bd 4991 0bbd 1623 c33d b7b9 233d
00000290: 58b0 7a3d 44cc 0a3d 52c3 80bd f9b1 823d
000002a0: 9e1d 943c a10d b83c 4db8 a93b adf7 0f3d
000002b0: 4e86 80bd c8b3 903c 3bef 3bbd 6439 4a3c
000002c0: 8189 0cbd a8af cdbd 3f48 cf3d a53b d0bc
000002d0: 3dc1 ebbd 336e 2bb9 ee14 803b e715 0a3d
000002e0: b3a8 573b a360 723d 6931 463c c411 dfbc
000002f0: fa8d 273d a9b6 83bc 1d1e 193d 23f4 47bd
00000300: 35d9 2ebb 095f 40bc 0172 753d b903 a93d
00000310: 6106 8cbd 533e fc3b e42e 0a3d a496 593d
00000320: 8d49 953d aea9 72bd 0d06 463b 42ab 2439
00000330: cdba 7bbd 21b2 5f3d 6864 7dbd 2fca 7d3d
00000340: 58be a03d b3d2 a73c dc11 08bc 9ee5 173b
00000350: c963 bb3c d4a6 893c 39d5 233c 5083 b13d
00000360: 457f 86bd 358a 86bc 0b9a 873d 8480 09bd
00000370: 07d8 9e3c ed96 813c 95ee cdbc 17c2 b9bc
00000380: 31c7 1d3d 647b cb39 2c0d d0bc 05a3 4a3c
00000390: 59ca 52bb 0505 28bc f763 90bd de49 1abd
000003a0: b2b4 c33d 151c 383d cf53 903d 1787 3bbc
000003b0: 1b13 ff38 dc41 b6bd 1dc5 cebc 3725 373c
000003c0: 5b25 813c 5be3 ff3c 4bb6 703c 25e3 c43d
000003d0: 1f94 47bd dd4f 95bc be93 a63d b72c b6b8
000003e0: e43c 5bbd 6669 0b3b 0f1f 0f3d 5686 043d
000003f0: fcfd bcbd 6a1d 67bd 5d44 30bd 69bf 46bc

lstm.weight_hh_l0 f4 [512, 128]
0.07236009 -0.043928422 -0.016996289 -0.06800041 0.10583639 0.029074442 -0.094056204 -0.07886817
0.017242244 0.029306727 -0.018554084 -0.060351446 -0.028876245 -0.062181063 0.011546942 -0.088297725
-0.0077746836 -0.087791726 0.04674118 0.043314893 -0.016974661 0.05920486 0.094978385 -0.032882188
-0.004072172 0.04404671 0.0019377113 -0.045287397 0.04113577 0.05174008 -0.001542129 -0.031992227
-0.06066838 0.049513884 0.041967466 -0.03858262 0.009713277 0.045084946 0.006487238 0.0041179294
-0.014898924 -0.021916224 0.07217102 -0.014202109 -0.028460978 0.02097019 0.030952046 -0.015359822
-0.024618 -0.032920297 -0.017375356 -0.10126879 -0.017303301 0.06952401 -0.04808081 0.014832431
-0.017547177 0.0412519 0.040640656 -0.04183568 -0.045260545 -0.052929983 0.027961688 0.014552809
-0.009616043 0.052141633 0.010464421 0.030454367 0.08300383 0.01002351 0.049022593 0.02899797
-0.022203796 0.03619155 0.05157018 0.013068281 -0.07774528 0.06426332 0.032069378 0.0379357
-0.020304833 0.014053329 -0.008345131 0.04079369 0.031072803 -0.072765745 0.068386234 -0.0070944233
-0.0086907735 -0.06178211 -0.0007654927 0.004290753 0.002523969 0.005891715 -0.0963978 0.09179349
-0.053144176 -0.02058046 -0.05050867 0.097092785 0.038554396 -0.0010036253 0.018684365 -0.0054674763
0.06818386 0.035607293 0.09010453 0.027788058 -0.06132748 0.07865343 -0.010051642 0.035828248
0.07898541 -0.06732955 -0.0018030703 0.047855303 0.0080466615 0.041253198 0.028531678 -0.011393953
0.09812702 -0.0008512847 -0.0030786388 -0.03482843 -0.033752948 0.0037662552 -0.027272915 0.04656682
0.031838667 -0.0122136595 0.005353182 -0.023898577 0.033634886 0.043150254 0.030274626 0.027373347
0.08333693 -0.024175635 -0.06807375 -0.032374125 0.027203046 -0.036413126 -0.07775861 -0.07975018
0.06255245 -0.031718858 -0.07747652 0.034486182 0.008964022 -0.039209723 -0.054167405 -0.046566315
0.0049946816 -0.028453236 0.04857949 -0.074266195 -0.059504412 0.06002172 0.07227479 0.06548049
-0.018286267 0.058511097 -0.033013385 0.05939708 0.034814645 -0.024471847 0.0065683927 -0.018010909
-0.049017124 0.0029805896 -0.007975881 -0.01670498 -0.0049354085 0.020030506 0.0070130965 0.009199005
-0.039318815 -0.056554765 -0.030321863 0.05383614 -0.021709885 0.07107444 0.012238655 -0.0040720343
-0.0045895297 0.01200608 -0.028922237 -0.06250254 0.04048471 -0.00022102184 -0.024916282 -0.0058232485
0.030786807 -0.07218322 -0.070337355 0.023795404 0.046501968 0.029727254 0.05081947 0.0400151
0.033467203 -0.027762817 -0.057946015 -0.004543008 -0.00026827055 0.04098497 -0.020265087 0.033026237
0.019549672 0.06502487 0.005897269 0.024676666 0.021299873 -0.053486872 -0.016911171 -0.0134129515
0.015433788 -0.046998207 0.055694256 0.032920096 -0.009767589 0.06403468 -0.022028303 0.035785258
-0.085944764 -0.029800346 0.06779118 0.033039976 -0.034022357 -0.0496148 0.003677777 -0.057556793
0.07911946 -0.011665054 0.062169038 -0.0040031746 0.065481625 0.05629568 0.041461267 0.010205411
0.025571879 0.011081072 0.026556259 0.039846525 -0.08889774 0.0065307473 -0.004766185 -0.029693492
-0.03801215 -0.05501268 0.021097595 0.041248094 0.038339455 0.044105437 0.036625165 -0.022582447
00000000: 8731 943d 4aee 33bd cd3b 8bbc cd43 8bbd
00000010: c0c0 d83d 862d ee3c 8aa0 c0bd a385 a1bd
00000020: 9b3f 8d3c a914 f03c bcfe 97bc 1433 77bd
00000030: e08d ecbc 92b1 7ebd 632f 3d3c 70d5 b4bd
00000040: c6c2 febb 26cc b3bd ae73 3f3d f56a 313d
00000050: 720e 8bbc cc80 723d 0784 c23d 79af 06bd
00000060: db6f 85bb 536a 343d cdfa fd3a 477f 39bd
00000070: fb7d 283d 68ed 533d 4321 caba 480a 03bd
00000080: 687f 78bd 12cf 4a3d 14e6 2b3d cf08 1ebd
00000090: 7024 1f3c feaa 383d e692 d43b b2ef 863b
000000a0: 9e1a 74bc a789 b3bc 66ce 933d f6af 68bc
000000b0: ff26 e9bc adc9 ab3c 258f fd3c c3a7 7bbc
000000c0: b0ab c9bc 6fd7 06bd c356 8ebc 0366 cfbd
000000d0: a7bf 8dbc 9b62 8e3d 62f0 44bd ba03 733c
000000e0: 19bf 8fbc c1f7 283d d176 263d e45b 2bbd
000000f0: 1f63 39bd 1ccd 58bd e90f e53c e86e 6e3c
00000100: 9c8c 1dbc 7792 553d f672 2b3c 707b f93c
00000110: e9fd a93d a639 243c eacb 483d 278d ed3c
00000120: bce4 b5bc 973d 143d 413b 533d 581c 563c
00000130: eb38 9fbd 7d9c 833d 2e5b 033d 7762 1b3d
00000140: 5256 a6bc ef3f 663c 04ba 08bc 4917 273d
00000150: 648c fe3c 3506 95bd 150e 8c3d 5678 e8bb
00000160: bf63 0ebc 3d0f 7dbd 58ab 48ba 7299 8c3b
00000170: 2c69 253b 4a0f c13b 366c c5bd 3afe bb3d
00000180: b5ad 59bd 5a98 a8bc 2ee2 4ebd 95d8 c63d
00000190: 37eb 1d3d 148c 83ba f40f 993c 8428 b3bb
000001a0: fba3 8b3d f4d8 113d b988 b83d c8a3 e33c
000001b0: 8632 7bbd 0d15 a13d a4af 24bc a4c0 123d
000001c0: 1ac3 a13d 13e4 89bd 0055 ecba ec03 443d
000001d0: 25d6 033c 1df9 283d 44bb e93c b4ad 3abc
000001e0: d2f6 c83d c028 5fba fdc2 49bb 41a8 0ebd
000001f0: 8840 0abd 47d3 763b 736b dfbc dabc 3e3d
00000200: 4369 023d cd1b 48bc bf69 af3b f3c6 c3bc
00000210: bcc4 093d 52be 303d 7e02 f83c 123e e03c
00000220: 8dac aa3d fb0b c6bc 406a 8bbd bb9a 04bd
00000230: ecd8 de3c ee25 15bd e83f 9fbd 1054 a3bd
00000240: 801b 803d a2eb 01bd 02ac 9ebd 6241 0d3d
00000250: d5dd 123c 609a 20bd a4de 5dbd 52bc 3ebd
00000260: 6daa a33b c316 e9bc 4afb 463d e018 98bd
00000270: e6ba 73bd 56d9 753d ce04 943d a31a 863d
00000280: 15cd 95bc 55a9 6f3d 0b39 07bd 5a4a 733d
00000290: cd99 0e3d 2f79 c8bc ac3b d73b 9d8b 93bc
000002a0: 2ec6 48bd ff55 433b 45ad 02bc e2d8 88bc
000002b0: 35b9 a1bb 0417 a43c 1ece e53b 6cb7 163c
000002c0: c40c 21bd f8a5 67bd 8e65 f8bc 4983 5c3d
000002d0: eed8 b1bc 7a8f 913d a484 483c b36e 85bb
000002e0: c463 96bb 26b5 443c 54ee ecbc 5501 80bd
000002f0: 4cd3 253d 19c2 67b9 3b1d ccbc f3d0 bebb
00000300: 9d34 fc3c ccd4 93bd 080d 90bd 94ee c23c
00000310: d978 3e3d 9286 f33c 1428 503d e0e6 233d
00000320: e814 093d d96e e3bc cd58 6dbd 83dd 94bb
00000330: aaa6 8cb9 dbdf 273d f802 a6bc 8546 073d
00000340: a226 a03c c22b 853d e13d c13b b826 ca3c
00000350: 127d ae3c 0d15 5bbd 4c89 8abc ffc1 5bbc
00000360: 00de 7c3c 3181 40bd a91f 643d 39d7 063d
00000370: 3d08 20bc 9d24 833d b374 b4bc 9093 123d
00000380: cf03 b0bd db1f f4bc 1ad6 8a3d ed54 073d
00000390: 075b 0bbd e338 4bbd dc06 713b acc0 6bbd
000003a0: 6209 a23d c81e 3fbc f6a4 7e3d 102d 83bb
000003b0: 3b1b 863d 4d96 663d 4ad3 293d 9934 273c
000003c0: 1e7c d13c 628d 353c 838c d93c 1c36 233d
000003d0: 0510 b6bd e1ff d53b a82d 9cbb c43f f3bc
000003e0: a1b2 1bbd fa54 61bd ddd4 ac3c c3f3 283d
000003f0: d509 1d3d e7a7 343d 4504 163d d3fe b8bc

lstm.bias_ih_l0 f4 [512]
0.08016167 -0.069538824 0.08979237 -0.010645862 -0.061881687 0.0363628 -0.001590533 -0.015649935
-0.016487718 0.042204604 0.059881162 0.06052814 -0.072773136 -0.022703242 -0.018926498 -0.065514416
0.060054347 0.09290821 -0.07251597 -0.056907445 0.02755481 0.02192166 0.10229413 -0.038718633
0.04992215 0.036964297 0.072052844 -0.035075136 0.0125559345 -0.014597824 0.030246967 -0.07332217
0.09251449 -0.04550108 0.024074148 -0.059353724 -0.0450381 -0.059014224 0.0107278535 -0.06134651
0.10532743 0.02114379 0.06339406 0.021204118 -0.012466906 -0.0047125597 -0.0028548902 0.037182175
-0.03573079 0.00028990608 -0.04460582 0.035099678 -0.009930604 0.044993516 0.04745789 0.044556167
-0.057305586 0.029861795 -0.021352665 0.10358179 -0.082025535 0.05034533 -0.033991393 0.011408751
-0.036773816 0.055321086 -0.048468396 -0.022978242 -0.030940723 -0.054594 -0.067862146 0.009234684
0.024529736 -0.033206798 0.0010949889 -0.026023522 -0.0110184755 -0.028449966 -0.0761567 0.07310773
0.0582651 -0.05090074 0.005509862 -0.019547695 0.09790444 0.08136956 0.08448949 -0.023674713
-0.030569853 -0.0077487687 0.03503778 -0.0056406045 -0.048914604 0.031408247 -0.021276899 -0.07389478
-0.025763143 0.033605926 0.002279423 0.052191805 -0.029384855 0.053368773 0.012950462 -0.050699282
0.0068273684 -0.029398141 0.060040765 -0.06771154 0.00089395524 -0.06545334 0.015243692 0.06953683
0.06942994 0.0007915414 0.06038548 -0.060382262 0.04190871 0.00680943 -0.0402001 -0.043223374
-0.04615277 0.03802367 -0.07103243 0.08983773 -0.04952304 -0.009719831 -0.037862074 0.082814895
0.023616644 0.018730318 0.0070438087 -0.0501447 -0.06905165 0.040970754 -0.0739492 0.05172517
-0.045928136 -0.023425018 -0.06176637 0.05642854 -0.051628932 0.03402396 0.09628429 -0.0010428543
-0.05102788 0.04496694 0.08038193 0.06434231 -0.089859866 -0.021610722 0.04268298 -0.04318283
0.057163723 -0.03769729 -0.0021720845 -0.05366094 0.036287732 -0.05874012 0.06687172 0.04449587
0.019901695 0.018611697 0.09309684 -0.0915783 -0.053354762 0.07788018 -0.025187701 0.037899293
-0.017924417 0.07874522 -0.05068696 0.032053202 0.10836357 0.0666624 -0.013989684 0.05850169
0.021133117 -0.059459575 0.021348815 0.0037915437 0.0024330511 0.0898415 0.076184124 0.035693966
-0.07210011 0.046847686 0.0076631564 0.03192291 -0.03484386 -0.054256678 -0.07239582 0.026011277
-0.04445478 0.04790007 -0.06551066 0.041097883 0.03567262 -0.007638171 0.01594853 -0.014740489
0.037592158 0.0359316 -0.008704188 -0.07600642 -0.052284516 -0.047418475 0.08175427 0.08286549
0.012082347 -0.009847314 -0.053746946 -0.048126098 -0.04424821 -0.040980637 0.020950407 -0.04878349
0.08438539 0.086497165 -0.075228 0.0962626 -0.015446901 -0.06677219 -0.013955141 -0.055542506
-0.07885922 0.075428426 0.05455473 0.06710952 -0.058600966 -0.06419992 0.018921077 -0.052099787
0.058058307 0.085570924 0.071325086 -0.07317715 0.036347914 -0.043542687 0.056658126 0.039171908
-0.021248689 0.06407652 0.0600902 0.06920649 -0.0020855016 0.027091483 0.028953878 0.08354474
0.06725716 0.052856337 0.08852393 0.082460225 -0.04172833 0.05975257 0.09493722 0.07711451
00000000: cd2b a43d 5f6a 8ebd 10e5 b73d fb6b 2ebc
00000010: a777 7dbd 29f1 143d 6e79 d0ba 4b34 80bc
00000020: 4011 87bc bcde 2c3d f345 753d 5bec 773d
00000030: 150a 95bd 26fc b9bc be0b 9bbc 6c2c 86bd
00000040: 8cfb 753d a946 be3d 4183 94bd c817 69bd
00000050: a0ba e13c 0e95 b33c 967f d13d 6e97 1ebd
00000060: 2b7b 4c3d e067 173d 7190 933d f2aa 0fbd
00000070: 68b7 4d3c b62b 6fbc 7dc8 f73c ef29 96bd
00000080: 3d78 bd3d 575f 3abd 2637 c53c e41c 73bd
00000090: df79 38bd e6b8 71bd e1c3 2f3c 7a46 7bbd
000000a0: e8b5 d73d be35 ad3c bfd4 813d 42b4 ad3c
000000b0: fe41 4cbc d16b 9abb 1c19 3bbb 564c 183d
000000c0: 735a 12bd 89fe 9739 98b4 36bd aec4 0f3d
000000d0: f9b3 22bc 1f4b 383d 3463 423d 8780 363d
000000e0: 43b9 6abd b9a0 f43c c9eb aebc b122 d43d
000000f0: 01fd a7bd e836 4e3d 8f3a 0bbd c5eb 3a3c
00000100: 24a0 16bd 5d98 623d cc86 46bd de3c bcbc
00000110: 6677 fdbc f59d 5fbd 4ffb 8abd 124d 173c
00000120: 96f2 c83c da03 08bd bb85 8f3a 482f d5bc
00000130: d686 34bc e70f e9bc 0bf8 9bbd 81b9 953d
00000140: 63a7 6e3d 4b7d 50bd 138c b43b 7d22 a0bc
00000150: 1f82 c83d 15a5 a63d d308 ad3d 79f1 c1bc
00000160: a16d fabc 62e9 fdbb c683 0f3d d2d4 b8bb
00000170: ae5a 48bd efa5 003d e44c aebc 2556 97bd
00000180: 3a0d d3bc 5ea6 093d 5f62 153b 13c7 553d
00000190: 82b8 f0bc 3799 5a3d 2d2e 543c 0daa 4fbd
000001a0: 1eb8 df3b 5fd4 f0bc 4eed 753d 59ac 8abd
000001b0: 5258 6a3a 670c 86bd aec0 793c 5369 8e3d
000001c0: 4931 8e3d 727f 4f3a c456 773d 6453 77bd
000001d0: 78a8 2b3d a421 df3b dca8 24bd fe0a 31bd
000001e0: b00a 3dbd b5be 1b3d 7379 91bd d8fc b73d
000001f0: acd8 4abd ed3f 1fbc 4315 1bbd db9a a93d
00000200: b177 c13c 5370 993c c0cf e63b 8764 4dbd
00000210: f46a 8dbd f3d0 273d ae72 97bd c6dd 533d
00000220: 241f 3cbd d3e5 bfbc bcfe 7cbd 9d21 673d
00000230: dc78 53bd b55c 0b3d b330 c53d 62b0 88ba
00000240: 9c02 51bd 412f 383d 489f a43d e7c5 833d
00000250: 7308 b8bd f808 b1bc 59d4 2e3d 7be0 30bd
00000260: 8224 6a3d 7968 1abd 8859 0ebb 93cb 5bbd
00000270: 72a2 143d 7b99 70bd 0af4 883d 4d41 363d
00000280: e108 a33c 8f77 983c 8ea9 be3d 678d bbbd
00000290: 868a 5abd a57f 9f3d 7056 cebc 4a3c 1b3d
000002a0: 3ad6 92bc 2d45 a13d 219d 4fbd 384a 033d
000002b0: b8ed dd3d 4c86 883d fd34 65bc 789f 6f3d
000002c0: 5c1f ad3c e28b 73bd b6e3 ae3c 8c7b 783b
000002d0: d373 1f3b d2fe b73d 6c06 9c3d d633 123d
000002e0: 39a9 93bd 5ce3 3f3d 371b fb3b 99c1 023d
000002f0: 6fb8 0ebd 403c 5ebd 4244 94bd 9a15 d53c
00000300: 3716 36bd dd32 443d 742a 86bd 4156 283d
00000310: 741d 123d 9f49 fabb 7ea6 823c 1882 71bc
00000320: 3cfa 193d 032d 133d 039c 0ebc 41a9 9bbd
00000330: 4a28 56bd e039 42bd c86e a73d 62b5 a93d
00000340: 09f5 453c a156 21bc c225 5cbd df1f 45bd
00000350: 9c3d 35bd 50db 27bd 30a0 ab3c 32d1 47bd
00000360: 3fd2 ac3d 6d25 b13d 2311 9abd 5325 c53d
00000370: 0015 7dbc dcbf 88bd 1ba4 64bc 8a80 63bd
00000380: f180 a1bd 387a 9a3d c874 5f3d b770 893d
00000390: 9107 70bd 3f7b 83bd 6000 9b3c 9666 55bd
000003a0: 8cce 6d3d cf3f af3d e312 923d e7dd 95bd
000003b0: 8de1 143d d159 32bd 5a12 683d b972 203d
000003c0: bb11 aebc 8d3a 833d 2421 763d 22bc 8d3d
000003d0: e9ac 08bb f5ee dd3c af30 ed3c 8119 ab3d
000003e0: 1fbe 893d e37f 583d 094c b53d e8e0 a83d
000003f0: 53eb 2abd 1cbf 743d 726e c23d 36ee 9d3d

lstm.bias_hh_l0 f4 [512]
0.047105618 0.05352598 -0.017461495 0.026113542 0.07672764 -0.009446134 0.052786328 0.06597936
-0.0058294865 0.07734486 0.016537514 0.048304036 -0.081106715 -0.04102828 0.037153784 -0.054244976
-0.04606575 0.035076607 -0.056590434 -0.040060487 -0.083913475 0.08640104 0.00025352437 0.0019511618
0.068174876 0.012617173 0.010743941 0.051577713 -0.018674802 -0.024799105 0.10761758 -0.016587792
0.04333138 -0.09132338 -0.0008968358 0.053381883 0.041774143 0.058193807 0.007272532 0.089974694
-0.049550977 -0.05426869 0.032317635 0.03239978 0.10037265 -0.018988932 -0.011313975 0.03888578
-0.03719456 0.022735273 -0.070220046 0.08951181 -0.037399556 -0.034067027 -0.04444556 -0.03693199
0.10253462 0.08331063 -0.04462533 0.04139596 0.07272443 -0.03142613 -0.022889404 -0.06626644
0.065477654 0.029717255 -0.018040244 0.012374639 0.057988595 0.09178363 -0.008643425 -0.028319908
-0.035779066 -0.0559723 0.05305548 -0.06373193 0.0778984 0.037687507 0.08680596 -0.054678414
-0.05326204 0.009538148 0.07147054 0.016583202 0.09770985 -0.015209462 0.03577672 0.069078565
0.07515816 -0.04800852 0.027194005 -0.029346356 0.044161223 -0.00095629395 0.048975807 -0.03122928
-0.0026245483 0.072217695 -0.019975018 -0.0038632192 0.014546566 0.08705791 0.086285874 0.06803188
0.019417146 -0.011726017 -0.018435353 0.06091062 -0.018104464 0.0021935343 -0.07553965 0.069186784
0.10051855 -0.015460785 -0.029520445 -0.019764181 0.026916265 -0.017501906 -0.058185477 0.05296071
-0.07174048 0.083168946 -0.062628634 -0.04553944 0.056715917 0.0022341341 0.0957411 0.103446364
-0.053324904 0.060394842 0.031789776 -0.0072932956 -0.05027308 -0.030005086 0.07486407 0.07622598
-0.025060508 0.07722032 -0.0061354167 -0.082340345 -0.04072576 0.04299481 0.06830233 0.023472961
0.055649597 0.043093476 0.014679384 0.03459695 -0.088050604 -0.030271357 0.07489424 0.034268845
0.08732877 0.009415859 0.06087543 0.10152951 0.09250661 0.025425052 -0.025192624 -0.0673797
0.013791893 0.041076075 -0.013247703 0.03574067 -0.041699033 0.05919915 0.007795505 -0.049547717
0.004534509 0.02068958 0.066778526 -0.053615402 0.045502592 0.04162936 0.042637378 0.026805598
0.045997355 0.05752823 -0.045735914 -0.050925367 -0.08269723 -0.03819541 -0.052537084 -0.041080203
0.008529905 0.045087684 -0.015954489 -0.018764969 -0.03819285 0.02939688 0.0072821863 0.0056970534
-0.054483037 0.033133257 0.018526899 -0.06378615 0.030790595 0.08330516 0.038795065 0.08907756
0.03655612 0.08457117 0.05378812 -0.04222122 -0.059898067 -0.07271378 -0.04388984 0.059479855
-0.016859632 0.050230294 0.0693891 0.0069535887 0.04865837 0.061911076 -0.06461929 -0.07472094
0.03537214 0.02251755 -0.0043698023 -0.054274246 0.03628559 0.027714 -0.0632443 0.041547008
-0.055627536 0.031463467 0.054765057 0.05701446 -0.083916865 0.009679861 -0.07217551 -0.035674818
-0.0037354613 0.05348613 -0.03262759 0.0003372007 0.027039275 0.059551075 -0.0537205 0.07128601
-0.0011971231 0.038990866 0.06562784 -0.08713305 0.0708097 -0.04508102 0.08282083 -0.025452932
0.0036514818 -0.03957553 0.0062377574 0.06646321 0.02642093 -0.057657555 -0.0035024749 0.007008037
00000000: d2f1 403d 0f3e 5b3d 690b 8fbc 11ec d53c
00000010: 6223 9d3d f5c3 1abc 7a36 583d 3020 873d
00000020: 4705 bfbb fb66 9e3d ae79 873c 74da 453d
00000030: 471b a6bd 450d 28bd 912e 183d fb2f 5ebd
00000040: 71af 3cbd 7dac 0f3d 5fcb 67bd 7716 24bd
00000050: d4da abbd 07f3 b03d 77eb 8439 20be ff3a
00000060: 459f 8b3d 42b8 4e3c 5b07 303c 2743 533d
00000070: e6fb 98bc 7e27 cbbc 9b66 dc3d 1fe3 87bc
00000080: 3f7c 313d c107 bbbd a219 6bba f6a6 5a3d
00000090: 5d1b 2b3d a15c 6e3d 6c4e ee3b a744 b83d
000000a0: f7f5 4abd d948 5ebd 7f5f 043d a2b5 043d
000000b0: 2d90 cd3d ad8e 9bbc 405e 39bc b246 1f3d
000000c0: 5359 18bd 533f ba3c 87cf 8fbd f851 b73d
000000d0: 4730 19bd de89 0bbd 8c0c 36bd 0046 17bd
000000e0: acfd d13d c39e aa3d 0dc9 36bd cf8e 293d
000000f0: 8cf0 943d b0b8 00bd 8f82 bbbc b3b6 87bd
00000100: 2619 863d 9a71 f33c 22c9 93bc ffbe 4a3c
00000110: 7385 6d3d 0ef9 bb3d 279d 0dbc 27ff e7bc
00000120: 128d 12bd 3643 65bd b450 593d e385 82bd
00000130: 3289 9f3d 375e 1a3d 53c7 b13d 79f6 5fbd
00000140: 4c29 5abd e445 1c3c 255f 923d 7fd9 873c
00000150: 1a1c c83d 1b31 79bc 9c8a 123d 1079 8d3d
00000160: 85ec 993d 95a4 44bd f6c5 de3c c567 f0bc
00000170: 66e2 343d cdaf 7aba db9a 483d 8cd4 ffbc
00000180: 9d00 2cbb dfe6 933d a6a2 a3bc 102e 7dbb
00000190: b854 6e3c 6b4b b23d a6b6 b03d 4c54 8b3d
000001a0: b510 9f3c 7b1e 40bc bd05 97bc 6a7d 793d
000001b0: d04f 94bc 66c1 0f3b 88b4 9abd cdb1 8d3d
000001c0: abdc cd3d 3b4f 7dbc dcd4 f1bc 7ee8 a1bc
000001d0: 807f dc3c 2860 8fbc e553 6ebd 54ed 583d
000001e0: acec 92bd 7b54 aa3d 7143 80bd 9087 3abd
000001f0: f34e 683d 8d6a 123b e913 c43d b0db d33d
00000200: 376b 5abd 9560 773d ff35 023d 99fc eebb
00000210: 25eb 4dbd 3acd f5bc 5552 993d 5e1c 9c3d
00000220: b24b cdbc b025 9e3d 9b0b c9bb 0ea2 a8bd
00000230: 0ed0 26bd 531b 303d 18e2 8b3d 5e4a c03c
00000240: d5f0 633d c982 303d cd81 703c 88b5 0d3d
00000250: e053 b4bd a3fb f7bc 2762 993d 7d5d 0c3d
00000260: 6dd9 b23d fa44 1a3c 8458 793d b4ee cf3d
00000270: 1b74 bd3d 3348 d03c c360 cebc 5efe 89bd
00000280: 64f7 613c 633f 283d e50c 59bc cf64 123d
00000290: 9bcc 2abd cf7a 723d 7071 ff3b 8cf2 4abd
000002a0: 3896 943b 327d a93c 2ec3 883d d39b 5bbd
000002b0: ed60 3a3d 8c83 2a3d 88a4 2e3d 6a97 db3c
000002c0: b967 3c3d b9a2 6b3d 9555 3bbd 1e97 50bd
000002d0: 2a5d a9bd ca72 1cbd 2031 57bd b743 28bd
000002e0: 04c1 0b3c ddad 383d fdb2 82bc feb8 99bc
000002f0: 1b70 1cbd bad1 f03c 689f ee3b 59ae ba3b
00000300: 9b29 5fbd bdb6 073d b9c5 973c 50a2 82bd
00000310: 8f3c fc3c e59b aa3d 93e7 1e3d 4c6e b63d
00000320: dfbb 153d a633 ad3d ef50 5c3d 28f0 2cbd
00000330: ad57 75bd f6ea 94bd d5c5 33bd 26a1 733d
00000340: 361d 8abc 48be 4d3d df1b 8e3d eeda e33b
00000350: 004e 473d 7896 7d3d 1e57 84bd 4b07 99bd
00000360: 61e2 103d ba76 b83c 8f30 8fbb ac4e 5ebd
00000370: 33a0 143d 7808 e33c 3a86 81bd 322d 2a3d
00000380: b3d9 63bd d6df 003d 5351 603d ff87 693d
00000390: 9bdc abbd 4898 1e3c c1d0 93bd c21f 12bd
000003a0: a4ce 74bb 4614 5b3d 82a4 05bd 50ca b039
000003b0: 7881 dd3c d4eb 733d 070a 5cbd 66fe 913d
000003c0: c9e8 9cba e3b4 1f3d e467 863d d072 b2bd
000003d0: ad04 913d e0a6 38bd f89d a93d ab82 d0bc
000003e0: b34d 6f3b f319 22bd 1a66 cc3b dd1d 883d
000003f0: b570 d83c 542a 6cbd c789 65bb ada3 e53b

lstm.weight_ih_l1 f4 [512, 128]
-0.05226089 0.01880014 0.034265045 0.0413542 0.018149221 -0.07755722 0.018122777 -0.05264279
-0.026794631 -0.04043798 0.026540264 0.037911158 -0.02429222 0.042629518 0.024805225 -0.02128217
0.053987324 -0.0073848497 0.028208341 -0.022085639 0.020450713 -0.011433978 -0.06551798 -0.04019817
-0.042152017 -0.04974417 -0.00064879016 -0.009361687 0.06045527 -0.033582695 -0.02301546 -0.040312573
0.010623638 0.03645765 0.04169418 -0.019725671 -0.016857537 -0.0037387388 0.034202084 -0.018364469
0.031073702 0.03431476 0.020938084 -0.03970281 -0.012582844 0.016869897 0.030951623 0.07413722
0.006122864 0.0069401786 -0.011384726 -0.03193244 0.046264544 -0.042801328 0.03862456 0.036140256
0.022537151 0.017496355 0.01111826 0.04437316 0.030867912 0.036733076 0.0019437287 -0.04231474
0.048817612 0.0076252497 -0.0023180083 -0.06506141 -0.043317955 0.05623424 -0.03772318 -0.064291865
-0.0032955876 -0.025280446 -0.07343042 0.01973835 -0.011193699 -0.0026724106 0.02777804 -0.051649403
0.07910085 0.041464314 -0.0039392975 -0.035973813 0.053758837 0.026596623 -0.036314577 0.016269142
0.020846143 -0.018830454 -0.055183817 -0.013805221 -0.0044431393 0.012750545 0.012739029 -0.04734768
0.016110588 -0.046861358 0.03626289 -0.050799374 0.044439152 -0.03439816 -0.028596675 -0.05144925
0.057378434 0.027652271 -0.005462857 0.04189425 0.025246857 -0.043821465 -0.020774202 0.004110296
-0.024908856 -0.04628678 0.019833757 -0.0021185628 0.0223708 -0.023063974 -0.0010848664 0.0052668615
0.027778566 -0.00369876 -0.021215478 -0.040662486 -0.022775467 0.026981328 -0.010511601 -0.02601909
-0.003447862 0.035305195 0.004505077 -0.010012487 -0.013266876 0.057125103 0.045227844 0.041159954
-0.013496304 0.032547735 -0.05746872 0.07573132 0.03686496 -0.032679625 0.06092599 0.029880024
-0.04316079 -0.040677633 -0.03779248 0.007520664 -0.013312611 -0.0406123 -0.045722187 -0.056995638
-0.04173563 0.0030166593 0.016823683 0.043682687 -0.07784825 -0.026411569 -0.035392534 -0.047094546
0.0067380075 0.00148876 0.002635485 -0.0118524805 -0.040063493 -0.0030808796 0.030947816 -0.017036103
0.0654746 -0.0046420153 0.036807805 0.047226746 -0.07886151 -0.022740686 -0.013031705 -0.058681436
0.0122553315 -0.04932899 -0.005282575 0.061479207 0.064054176 0.045704678 -0.0042326124 0.028707832
-0.02574994 0.0349024 -0.047717657 -0.028641155 -0.0063726963 -0.057507467 -0.03652002 0.060450304
0.030989699 -0.034767713 -0.004947694 -0.059684057 -0.020284597 -0.018747639 -0.015865222 -0.02608959
0.07564921 0.019951174 -0.007917999 -0.06081323 0.011873397 -0.032551784 0.033766333 -0.036541864
0.04490249 -0.006310686 -0.02002829 0.047207415 -0.076994024 0.023443144 0.029210687 -0.04799852
0.025585035 -0.03450243 -0.022879472 -0.002843553 0.047477696 0.021344978 0.017639551 -0.015759131
-0.028662251 0.020516368 -0.06317778 -0.0069057615 0.04540762 -0.00079214975 0.049745698 0.06764684
-0.031907156 0.057128806 -0.061684478 0.056198075 0.041445047 -0.0065522 -0.039081804 0.033603076
0.063606195 0.03935642 0.0170924 0.0549583 -0.036513288 -0.02878647 -0.04138316 -0.058835022
0.010389794 -0.025173226 0.018932018 0.05143081 -0.062120523 -0.042976458 0.03242143 0.01684124
00000000: 840f 56bd c002 9a3c 8159 0c3d 0663 293d
00000010: adad 943c 52d6 9ebd 3876 943c f79f 57bd
00000020: 6a80 dbbc 4ca2 25bd f86a d93c bb48 1b3d
00000030: 7a00 c7bc 4a9c 2e3d 5434 cb3c f257 aebc
00000040: d021 5d3d 9cfc f1bb 2e15 e73c f1ec b4bc
00000050: 4188 a73c 9455 3bbc 4a2e 86bd d6a6 24bd
00000060: 98a7 2cbd 8bc0 4bbd 9213 2aba c361 19bc
00000070: f29f 773d 028e 09bd eb8a bcbc cc1e 25bd
00000080: c40e 2e3c 9e54 153d 84c7 2a3d bb97 a1bc
00000090: d118 8abc a105 75bb 7c17 0c3d 1571 96bc
000000a0: 478e fe3c a28d 0c3d 5886 ab3c 6a9f 22bd
000000b0: 4628 4ebc bd32 8a3c 428e fd3c 41d5 973d
000000c0: 4ea2 c83b 706a e33b 0087 3abc 97cb 02bd
000000d0: e47f 3d3d 7250 2fbd c934 1e3d ce07 143d
000000e0: d59f b83c 8454 8f3c 5d29 363c a1c0 353d
000000f0: b4de fc3c 6c75 163d b6c4 fe3a 3952 2dbd
00000100: faf4 473d 3bdd f93b bae9 17bb eb3e 85bd
00000110: 2b6e 31bd e055 663d 9f83 1abd 74ab 83bd
00000120: c9fa 57bb f018 cfbc b062 96bd 52b2 a13c
00000130: c765 37bc 9c23 2fbb c68e e33c 538e 53bd
00000140: a0ff a13d 7cd6 293d 3915 81bb 4759 13bd
00000150: 3a32 5c3d 29e1 d93c 98be 14bd dd46 853c
00000160: 88c5 aa3c 5342 9abc 6d08 62bd 4b2f 62bc
00000170: c197 91bb a9e7 503c 5cb7 503c a4ef 41bd
00000180: 5afa 833c b2f1 3fbd 6588 143d 0113 50bd
00000190: d405 363d 16e5 0cbd 9343 eabc 73bc 52bd
000001a0: a605 6b3d 0487 e23c c401 b3bb 4e99 2b3d
000001b0: 7fd2 ce3c 237e 33bd a92e aabc a9af 863b
000001c0: a80d ccbc 3597 3dbd 677a a23c 96d7 0abb
000001d0: f842 b73c a9f0 bcbc 1332 8eba a395 ac3b
000001e0: e08f e33c e566 72bb 15cc adbc b58d 26bd
000001f0: 9e93 babc f207 dd3c da38 2cbc fd25 d5bc
00000200: 87f5 61bb 2e9c 103d 539f 933b 6a0b 24bc
00000210: 505d 59bc 03fc 693d d540 393d 5797 283d
00000220: 9a1f 5dbc c650 053d 5264 6bbd 0619 9b3d
00000230: b6ff 163d 12db 05bd 888d 793d f4c6 f43c
00000240: 5ec9 30bd 979d 26bd 4acc 1abd e76f f63b
00000250: 231d 5abc 1559 26bd 3047 3bbd 4274 69bd
00000260: fbf2 2abd 25b3 453b d2d1 893c 9eec 323d
00000270: e76e 9fbd 135d d8bc c3f7 10bd 36e6 40bd
00000280: 81ca dc3b 7f22 c33a 1ab8 2c3b e830 42bc
00000290: 9e19 24bd 95e8 49bb 4686 fd3c 4c8f 8bbc
000002a0: 8c17 863d 0c1c 98bb c8c3 163d d570 413d
000002b0: 2582 a1bd ad4a babc ef82 55bc f25b 70bd
000002c0: 96ca 483c 320d 4abd 7319 adbb 9fd1 7b3d
000002d0: d62e 833d d434 3b3d bab1 8abb b02c eb3c
000002e0: 8af1 d2bc d2f5 0e3d 9773 43bd dba0 eabc
000002f0: 0dd2 d0bb f38c 6bbd 0496 15bd bd9a 773d
00000300: 1cde fd3c 9768 0ebd 4420 a2bb 4577 74bd
00000310: e22b a6bc a694 99bc c8f7 81bc d6b9 d5bc
00000320: f9ed 9a3d a570 a33c 7fba 01bc 4b17 79bd
00000330: a388 423c 0555 05bd 914e 0a3d ecac 15bd
00000340: aceb 373d dfc9 cebb 5e12 a4bc 905c 413d
00000350: 0baf 9dbd d60b c03c 404b ef3c 199a 44bd
00000360: b597 d13c 6c52 0dbd bb6d bbbc e75a 3abb
00000370: f977 423d aadb ae3c d280 903c 4b19 81bc
00000380: 19cd eabc f111 a83c 5a63 81bd ba49 e2bb
00000390: 57fd 393d 45a8 4fba 25c2 4b3d 6d8a 8a3d
000003a0: 14b1 02bd e5ff 693d dda8 7cbd f42f 663d
000003b0: 48c2 293d d6b3 d6bb 3e14 20bd 61a3 093d
000003c0: f743 823d 3334 213d 5c05 8c3c f41b 613d
000003d0: f58e 15bd 9ad1 ebbc 6381 29bd fefc 70bd
000003e0: f439 2a3c 1538 cebc 5217 9b3c 1da9 523d
000003f0: 1772 7ebd 1508 30bd 55cc 043d a4f6 893c

lstm.weight_hh_l1 f4 [512, 128]
0.020627214 0.04313904 -0.0115501275 -0.04574672 0.00037198432 0.00041659892 0.017648103 0.018289914
-0.021568047 -0.059283108 0.0010406555 -0.013825012 -0.050160892 -0.06197243 0.035479154 -0.035544995
-0.0030612394 0.011916879 0.007191709 0.031351447 -0.06182467 0.04713408 0.041198496 -0.045741133
0.013688262 -0.024624145 -0.0391848 -0.02429138 -0.025305305 0.011952236 -0.030911969 0.031051422
-0.0037897837 -0.060771916 -0.021261737 -0.0026673917 0.0149929635 0.027398296 -0.055682763 0.0030665766
-0.037222605 -0.049354043 -0.039053172 -0.022987606 -0.011721085 0.0052803177 0.053676635 0.04277283
0.014001541 -0.043003295 -0.03593557 0.056859523 -0.03811672 -0.049517654 -0.04678032 -0.05863943
-0.007638004 0.0061892853 0.06223086 -0.04764773 -0.031984188 -0.0683905 -0.012215403 0.048658896
-0.020818433 -0.053893168 0.031401757 0.042995736 -0.020008149 0.012886063 0.01100349 -0.04832507
0.06356864 -0.00069681974 -0.056745764 0.040601403 -0.02574208 -0.018660575 -0.0064022425 0.0045799552
0.053805105 0.011700711 0.008836404 0.031870157 0.048031013 -0.03657844 -0.009809756 -0.035129488
-0.03655715 0.05455821 0.033880956 0.00047643535 0.028723227 -0.050998483 -0.005003415 -0.0022587734
-0.021483393 0.02456193 0.009002061 0.008456147 0.036285408 -0.017442644 -0.0006827156 0.0055994606
-0.03166422 -0.031757314 -0.04184528 0.042260077 -0.054695543 -0.008873817 -0.0004773824 -0.02880616
0.0053334003 0.018595094 0.049161516 -0.00347205 0.017478973 -0.07144618 0.060773287 0.018434692
0.06355084 -0.055936184 -0.03366439 -0.050480418 -0.024110999 0.045623936 0.048040904 0.061615672
0.017913109 -0.011556596 0.028446414 0.035897758 -0.010165541 0.058565706 0.026332939 -0.022508629
0.051516026 -0.044004455 -0.006333206 0.026133299 -0.046485797 -0.047032498 0.06235839 0.04858471
0.02281396 -0.006933332 -0.03365974 -0.009008616 0.021015795 0.041967794 -0.019735558 -0.04059053
0.0030169464 -0.034693174 -0.03532251 0.0034067368 -0.06133987 0.0028558942 -0.008837543 0.041684687
-0.019204943 -0.03553459 0.00028168393 -0.02407803 -0.0040750774 -0.0036097441 0.0236988 -0.05330984
-0.06555862 -0.05509076 -0.052082483 -0.019885937 -0.02128994 0.019842638 -0.015321606 0.0543928
-0.0028675555 0.028805807 -0.019575128 0.01636882 -0.038882706 -0.04401311 -0.056073945 0.0010467131
0.0024723783 0.0087319445 0.015508161 -0.0033674566 -0.036084864 -0.049770698 0.03992896 -0.015070029
0.022335015 -0.024918992 -0.03312571 0.03924683 -0.03485562 -0.042761903 -0.0095012 0.05847949
-0.019838538 -0.010611456 0.040654864 0.04264501 0.05163497 -0.022666369 -0.019251741 -0.014698069
0.023247957 -0.0065422393 0.015862852 -0.015921868 0.0050352677 -0.02920497 0.012319916 -0.034563124
0.06332349 0.0679306 0.01841063 0.039565545 0.0065277102 -0.04936557 0.057042774 0.026410457
0.050273772 -0.001999464 -0.032888625 0.01164913 0.018092027 -0.051592756 0.014645828 0.011303194
-0.022574535 -0.010383426 -0.024557823 -0.0013514349 0.005337313 -0.04199614 -0.0069754403 0.020275354
-8.1281614e-05 0.013958192 -0.057277735 0.020663207 -0.02353277 -0.01667854 0.018983219 0.014519229
-0.0024442952 0.0046454687 0.038707864 -0.03829792 -0.0069871056 -0.018540295 -0.0072046965 0.030394629
00000000: 67fa a83c 90b2 303d bf3c 3dbc ea60 3bbd
00000010: e406 c339 f66a da39 c192 903c bbd4 953c
00000020: 79af b0bc d8d2 72bd 9b66 883a 4e82 62bc
00000030: 8275 4dbd ced6 7dbd 9752 113d a197 11bd
00000040: 139f 48bb 033f 433c 6da8 eb3b 606a 003d
00000050: dd3b 7dbd aa0f 413d c1bf 283d 0e5b 3bbd
00000060: bb44 603c 93b8 c9bc 3e80 20bd b7fe c6bc
00000070: 124d cfbc 50d3 433c 193b fdbc 8d5f fe3c
00000080: 055e 78bb f9eb 78bd 182d aebc 68cf 2ebb
00000090: 0ca5 753c 6472 e03c 9c13 64bd 9ef8 483b
000000a0: bb76 18bd 7727 4abd 38f6 1fbd 8150 bcbc
000000b0: cb09 40bc 8406 ad3b 08dc 5b3d 9032 2f3d
000000c0: b866 653c 3924 30bd 2d31 13bd 88e5 683d
000000d0: 4720 1cbd 06d3 4abd b99c 3fbd e62f 70bd
000000e0: 3948 fabb 7dcf ca3b c9e5 7e3d 442a 43bd
000000f0: da01 03bd 5210 8cbd 1d23 48bc 8d4e 473d
00000100: 6b8b aabc 15bf 5cbd 219f 003d 4c1c 303d
00000110: 21e8 a3bc 1120 533c fb47 343c 82f0 45bd
00000120: 4630 823d c8aa 36ba 3f6e 68bd a84d 263d
00000130: 0ee1 d2bc 10de 98bc e7c9 d1bb 7313 963b
00000140: be62 5c3d 57b4 3f3c 91c6 103c 488a 023d
00000150: 2bbc 443d 46d3 15bd 19b9 20bc f0e3 0fbd
00000160: f3bc 15bd 6e78 5f3d c2c6 0a3d 12ca f939
00000170: f94c eb3c c9e3 50bd b0f3 a3bb ee07 14bb
00000180: f1fd afbc 1a36 c93c 617d 133c a78b 0a3c
00000190: 02a0 143d e0e3 8ebc 45f8 32ba ae7b b73b
000001a0: 57b2 01bd f513 02bd f565 2bbd e718 2d3d
000001b0: 6f08 60bd 7c63 11bc 2e49 fab9 e5fa ebbc
000001c0: cec3 ae3b bd54 983c 965d 493d 558b 63bb
000001d0: 1030 8f3c 6052 92bd 69ed 783d 5a04 973c
000001e0: f126 823d 571d 65bd ace3 09bd 8ec4 4ebd
000001f0: 6e84 c5bc 2ae0 3a3d 8ac6 443d b760 7c3d
00000200: 83be 923c e057 3dbc 7408 e93c 8709 133d
00000210: 5f8d 26bc 98e2 6f3d 2db8 d73c 0464 b8bc
00000220: 7802 533d 043e 34bd c886 cfbb 8015 d63c
00000230: e467 3ebd 26a5 40bd 836b 7f3d c300 473d
00000240: 58e4 ba3c 0131 e3bb ccde 09bd e098 13bc
00000250: 5129 ac3c 6ce6 2b3d 77ac a1bc 4142 26bd
00000260: f6b7 453b 6e1a 0ebd 56ae 10bd 8f43 5f3b
00000270: 843f 7bbd f429 3b3b 58cb 10bc 90bd 2a3d
00000280: af53 9dbc b88c 11bd faae 9339 4a3f c5bc
00000290: 3a88 85bb 7591 6cbb fc23 c23c 6b5b 5abd
000002a0: 9943 86bd d9a6 61bd 7154 55bd d5e7 a2bc
000002b0: 3e68 aebc 078d a23c 7907 7bbc fcca 5e3d
000002c0: 99ed 3bbb 28fa eb3c 055c a0bc e717 863c
000002d0: 7943 1fbd 1747 34bd cbad 65bd dd31 893a
000002e0: a007 223b 6e10 0f3c f115 7e3c 8cb0 5cbb
000002f0: b9cd 13bd 5cdc 4bbd 8d8c 233d 48e8 76bc
00000300: ecf7 b63c ea22 ccbc d3ae 07bd 49c1 203d
00000310: c4c4 0ebd 1b27 2fbd ecaa 1bbc 3188 6f3d
00000320: 6e84 a2bc acdb 2dbc b785 263d 89ac 2e3d
00000330: 317f 533d d2ae b9bc d4b5 9dbc 2bd0 70bc
00000340: 8072 be3c 4860 d6bb d0f2 813c 946e 82bc
00000350: e3fe a43b 433f efbc 79d9 493c 1092 0dbd
00000360: bfaf 813d 331f 8b3d e4d1 963c 7b0f 223d
00000370: 67e6 d53b 8d33 4abd afa5 693d be5a d83c
00000380: dfeb 4d3d 7009 03bb 39b6 06bd fedb 3e3c
00000390: bb35 943c ed52 53bd 0ef5 6f3c 0831 393c
000003a0: 3bee b8bc 3f1f 2abc 7d2d c9bc a122 b1ba
000003b0: a0e4 ae3b 2504 2cbd 3c92 e4bb 8018 a63c
000003c0: bc75 aab8 e7b0 643c 0f9c 6abd e345 a93c
000003d0: ccc7 c0bc 6fa1 88bc b282 9b3c 0fe2 6d3c
000003e0: 7830 20bb 0439 983b 238c 1e3d 48de 1cbd
000003f0: 17f4 e4bb d1e1 97bc 6015 ecbb 28fe f83c

lstm.bias_ih_l1 f4 [512]
-0.081418976 -0.017766295 0.06313913 0.01648714 0.049094617 0.07054612 0.050122827 -0.06330177
0.008349838 -0.031569675 0.06442425 -0.045179687 0.07550874 -0.047478605 0.03859014 -0.061348293
0.06612083 -0.040172927 -0.0021931191 -0.025821969 -0.031365868 0.07168209 0.027090952 0.06750219
0.0660455 0.033784166 -0.0006362533 -0.020207023 -0.037381597 0.020507501 0.038685374 -0.07246807
0.10253836 0.08858642 0.074616134 0.0035008378 -0.010897015 0.094866216 0.082909316 -0.027259316
0.075888865 0.020399442 -0.044189025 -0.012853199 0.06300961 -0.016501289 0.015477664 0.07309999
-0.037454944 0.0673365 -0.011139465 0.052211132 0.039919827 0.047845952 0.06018974 0.0073138447
-0.047797043 0.10881865 -0.05395661 0.0059580086 -0.047199886 0.07641744 0.0030586368 -0.028507559
-0.027484167 -0.054556042 0.0064744507 0.068808466 -0.035765216 -0.04240897 0.08349173 0.011428928
0.08268042 0.06021436 0.04715184 0.07989006 0.035425 -0.042147055 -0.061323464 0.026440235
-0.057914853 0.041498724 -0.055527158 -0.048089758 -0.02123916 -0.05856464 0.079690665 -0.0554668
0.0029436108 0.08882379 0.023131553 0.045916114 0.093964994 0.044219926 -0.0595779 -0.008893241
0.025806302 -0.019247003 -0.030119203 -0.04527117 -0.010661826 0.014097448 0.016115228 0.07642658
-0.039909706 -0.022623625 -0.07128491 0.027610406 -0.06645001 0.044076964 -0.066885725 -0.033490602
-0.017297128 0.085422896 0.06397818 -0.06946012 -0.054590393 -0.047981035 -0.010941716 0.014518974
-0.0072422195 -0.014374913 0.08873201 -0.0119585 0.0020598073 0.01934618 0.030819071 -0.034707345
0.08681786 0.06640969 -0.08043792 0.005031233 0.028477294 0.051350877 0.039937317 0.0684725
-0.06383642 -0.09183089 0.08301971 -0.01549309 -0.079358414 -0.031759284 -0.015389139 -0.04747875
0.027046094 0.05033438 -0.07546391 -0.017524187 0.01427126 -0.015050279 0.056249827 -0.017212424
0.053910505 -0.027025681 0.047033835 -0.026683023 0.085006274 0.07596219 0.017595263 -0.058003712
0.027743315 0.029496642 -0.03384813 0.016651237 0.08220184 -0.028258178 0.03824244 -0.004305857
0.047287628 0.01331134 0.073896356 -0.03413917 0.035745032 -0.03599446 0.032777853 0.089523755
0.09493819 -0.019161006 -0.050676197 -0.056654554 -0.06853624 -0.061074007 -0.06730529 0.06589619
0.041883577 0.006267467 0.0653645 -0.0471958 -0.034946702 0.05906533 -0.07232987 -0.005535588
0.023901979 -0.04868863 -0.019687375 0.025635656 0.05529945 -0.049446322 0.017828282 0.07657446
-0.031882197 0.08543449 0.012946129 -0.08661527 -0.02884671 0.077241495 -0.07987832 0.009856433
-0.021392392 -0.05398967 -0.020484198 -0.047087494 -0.027678367 0.019512411 -0.0602925 -0.053600408
0.011405985 0.033348024 0.0049351132 0.080627695 -0.050462898 0.06200804 0.076678865 0.016091665
0.065721154 0.074828975 -0.037262753 0.005878286 -0.019728588 0.011741537 -0.008505163 0.049531505
-0.05866467 0.06436405 -0.04175019 -0.06412598 0.006223762 -0.069924645 -0.0346987 -0.007657473
-0.06386455 0.09060568 0.020193724 -0.06622483 -0.040041734 0.024765842 -0.06557397 -0.03980273
-0.06956707 0.039312247 -0.05096856 0.03159104 -0.009433479 0.03533676 0.10513464 -0.0025854972
00000000: febe a6bd 9f8a 91bc 174f 813d 0a10 873c
00000010: 7017 493d 7c7a 903d 984d 4d3d 5ca4 81bd
00000020: c2cd 083c 344f 01bd dcf0 833d 560e 39bd
00000030: 54a4 9a3d ed78 42bd b210 1e3d 5948 7bbd
00000040: 5c6a 873d 5e8c 24bd 6fba 0fbb 9888 d3bc
00000050: 7f79 00bd 0fce 923d d8ed dd3c 973e 8a3d
00000060: dd42 873d 4461 0a3d 3cca 26ba 3389 a5bc
00000070: 721d 19bd 59ff a73c 8e74 1e3d 246a 94bd
00000080: a2ff d13d cc6c b53d 58d0 983d 506e 653b
00000090: 6589 32bc 3849 c23d 5ccc a93d ee4e dfbc
000000a0: 9f6b 9b3d bb1c a73c 8dff 34bd 3996 52bc
000000b0: 2f0b 813d b62d 87bc 0796 7d3c 73b5 953d
000000c0: 5b6a 19bd b8e7 893d 4d82 36bc 57db 553d
000000d0: f982 233d 1efa 433d 8489 763d faa8 ef3b
000000e0: d5c6 43bd 50dc de3d 9b01 5dbd 663b c33b
000000f0: ab54 41bd bf80 9c3d 6973 483b af88 e9bc
00000100: 7a26 e1bc 2876 5fbd a127 d43b 74eb 8c3d
00000110: 8c7e 12bd 07b5 2dbd b6fd aa3d 6640 3b3c
00000120: 5a54 a93d 55a3 763d 4a22 413d 669d a33d
00000130: ce19 113d 64a2 2cbd 502e 7bbd 3199 d83c
00000140: 2038 6dbd 91fa 293d 7270 63bd c4f9 44bd
00000150: bffd adbc 7ae1 6fbd dc34 a33d 2831 63bd
00000160: 98e9 403b 3fe9 b53d 627e bd3c 8912 3c3d
00000170: b870 c03d f41f 353d f507 74bd f5b4 11bc
00000180: bd67 d33c e4ab 9dbc 8cbc f6bc 436e 39bd
00000190: f0ae 2ebc fcf8 663c 1504 843c 8a85 9c3d
000001a0: 5c78 23bd 2e55 b9bc d3fd 91bd 382f e23c
000001b0: f116 88bd 0c8a 343d 62fb 88bd 712d 09bd
000001c0: b5b2 8dbc 33f2 ae3d fe06 833d 1b41 8ebd
000001d0: 2d9a 5fbd c387 44bd e244 33bc fee0 6d3c
000001e0: 2450 edbb c184 6bbc 21b9 b53d 96ed 43bc
000001f0: d5fd 063b e17b 9e3c 4778 fc3c 4a29 0ebd
00000200: 90cd b13d ce01 883d a3bc a4bd 0bdd a43b
00000210: 3749 e93c 4c55 523d 5095 233d 4f3b 8c3d
00000220: abbc 82bd d511 bcbd 3d06 aa3d bbd6 7dbc
00000230: aa86 a2bd 0616 02bd ba22 7cbc 1479 42bd
00000240: c58f dd3c 6c2b 4e3d d38c 9abd e28e 8fbc
00000250: 01d2 693c 7295 76bc 3866 663d 1201 8dbc
00000260: 43d1 5c3d f664 ddbc 8da6 403d 5b96 dabc
00000270: c517 ae3d 1192 9b3d f123 903c 4d95 6dbd
00000280: f345 e33c f1a2 f13c 56a4 0abd 2d68 883c
00000290: 7059 a83d b27d e7bc 1ba4 1c3d 2518 8dbb
000002a0: acb0 413d ce17 5a3c f956 973d 84d5 0bbd
000002b0: 6269 123d ed6e 13bd 1242 063d 3b58 b73d
000002c0: f46e c23d 8bf7 9cbc d891 4fbd 9b0e 68bd
000002d0: ba5c 8cbd bd28 7abd 5bd7 89bd 95f4 863d
000002e0: 1d8e 2b3d 535f cd3b d3dd 853d 6250 41bd
000002f0: 4624 0fbd 7dee 713d af21 94bd e163 b5bb
00000300: 15ce c33c bb6d 47bd 6b47 a1bc de01 d23c
00000310: ad81 623d 3a88 4abd 9e0c 923c 12d3 9c3d
00000320: e896 02bd 47f8 ae3d 001c 543c 5963 b1bd
00000330: f04f ecbc ca30 9e3d 3f97 a3bd e07c 213c
00000340: 193f afbc 4624 5dbd 7ace a7bc d1de 40bd
00000350: bebd e2bc 7ed8 9f3c 45f5 76bd 1a8c 5bbd
00000360: 2be0 3a3c f097 083d bbb6 a13b 2220 a53d
00000370: 2fb2 4ebd 24fc 7d3d cf09 9d3d abd2 833c
00000380: d098 863d ef3f 993d d4a0 18bd a39e c03b
00000390: d99d a1bc 935f 403c 3d59 0bbc 8ce1 4a3d
000003a0: 5d4a 70bd 4dd1 833d 3f02 2bbd 7b54 83bd
000003b0: b3f0 cb3b a734 8fbd 3920 0ebd 8aeb fabb
000003c0: 6bcb 82bd 798f b93d 4f6d a53c e2a0 87bd
000003d0: cd02 24bd bce1 ca3c a54b 86bd 3008 23bd
000003e0: 2e79 8ebd e105 213d 69c4 50bd 9b65 013d
000003f0: e18e 1abc 47bd 103d d550 d73d 7271 29bb
