checkpoints/South-West/best_model.pth (torch, 81193 bytes, 5 tensors)

lstm.weight_ih_l0 f4 [256, 11]
0	0x3da9c460	0.08289409
1	0x3d4805ae	0.04883354
2	0x3dda5d53	0.106623314
3	0xbd0b1731	-0.033957664
4	0x3e17a70e	0.1480982
5	0x258b2c4d	2.4142676e-16
6	0xbc89c174	-0.016815878
7	0x3dd371fa	0.10324474
8	0x3ddb864e	0.10718976
9	0x3e22f317	0.15913044
10	0xbe130e65	-0.1436096
11	0x3da915bd	0.082560994
12	0x3aa09d33	0.001225388
13	0xbb66288d	-0.0035119385
14	0x3d96c76d	0.07362256
15	0xbaca94d0	-0.0015455727
16	0x2472155b	5.2493474e-17
17	0xbd34663d	-0.044042815
18	0xbdd35290	-0.10318482
19	0x3d1a43e0	0.037662387
20	0xbd81f8f2	-0.06346311
21	0x3d9c9dd1	0.076472886
22	0xbd4d7f38	-0.050170153
23	0x3d4cafab	0.049972218
24	0xbd7e5ced	-0.06210034
25	0x3d353533	0.044240188
26	0x3cdf9739	0.027293788
27	0x2650d05f	7.244689e-16
28	0x3d937ea2	0.07201888
29	0xbd910ac7	-0.07082134
30	0xbdd05d06	-0.10173993
31	0xbdf04304	-0.11731532
32	0xbde30102	-0.110841766
33	0x3cf71f52	0.030166302
34	0xbd4363c4	-0.047702566
35	0xbc0d27ec	-0.008615475
36	0x3dcfc0f9	0.101442285
37	0xbc2b9ca4	-0.010474358
38	0x2129b505	5.7499005e-19
39	0x3db68f4b	0.0891405
40	0xbd25cf38	-0.040480822
41	0x3df243d4	0.118293434
42	0xbdad5744	-0.0846391
43	0xbd95508a	-0.07290752
44	0x3dec7f16	0.11547677
45	0xbc338b34	-0.010958482
46	0xbca352bc	-0.019936912
47	0xbd2d49ca	-0.0423067
48	0xbd16aeb6	-0.03678771
49	0x200d7dab	1.1984745e-19
50	0x3d18ca92	0.03730256
51	0x3cffd3bc	0.031228893
52	0x3cb2fccf	0.021849064
53	0xbd30b2b6	-0.043139182
54	0x3d578357	0.05261549
55	0xbcbb746c	-0.022882663
56	0xbdb1984d	-0.08671627
57	0xbdba67c2	-0.091018215
58	0x3d2cfedc	0.04223524
59	0x3c12ce8b	0.0089603765
60	0xa206840e	-1.8230296e-18
61	0x3d96820d	0.07349024
62	0x3dd403a7	0.10352259
63	0xbcfbfd80	-0.030760527
64	0xbc92f5ab	-0.01793941
65	0x3c819ac9	0.015820878
66	0x3d8645c4	0.065562755
67	0xbd40812f	-0.0469982
68	0xbd8afebd	-0.06786869
69	0x3e1beb60	0.15226507
70	0x3def4e55	0.116848625
71	0x28c070ae	2.1365149e-14
72	0x3d1755ca	0.03694705
73	0xbd58f7a4	-0.052970544
74	0x3cda39ab	0.026638826
75	0x3d2d34fa	0.04228685
76	0x3d8fcc50	0.070213914
77	0x3db1326c	0.08652195
78	0x3d2f7bfc	0.04284285
79	0x3e00a44e	0.12562677
80	0xbd0254ed	-0.031819273
81	0xbda54586	-0.08069901
82	0xa30d3905	-7.6557e-18
83	0xbdac4fc8	-0.084136546
84	0xbd823148	-0.06357056
85	0x3d47b2cf	0.04875451
86	0xbcca0f7f	-0.024665592
87	0x3b2588a7	0.0025258453
88	0x3d8f0937	0.069841795
89	0xbcb25409	-0.021768587
90	0x3d448064	0.047974005
91	0x3d0ef1a4	0.034898415
92	0x3c097615	0.008389969
93	0x28647626	1.2682162e-14
94	0xbd27a51d	-0.04092895
95	0x3dec7416	0.11545579
96	0x3d772e2a	0.06034676
97	0x3d99d716	0.075117275
98	0xbcbe2f88	-0.023216024
99	0x3d2cbb33	0.042170715
100	0x3d1c1cd0	0.038113415
101	0xbbdd013c	-0.006744532
102	0xbd82903e	-0.06375168
103	0x3e066263	0.13123469
104	0x21a32a83	1.1056562e-18
105	0xbd3fb192	-0.046800204
106	0xbd0853ab	-0.033282917
107	0x3dcbabe7	0.09944897
108	0x3d805f6a	0.06268199
109	0xbdce6d87	-0.100794844
110	0x3ab0a8c5	0.0013478032
111	0x3e2960c5	0.16540821
112	0x3da1c619	0.07899112
113	0xbd24cba6	-0.040233277
114	0xbbaff2f3	-0.005369538
115	0x23c60c8a	2.1472514e-17
116	0xbd4e36e6	-0.050345324
117	0x3ce705b8	0.02820097
118	0x3dbced49	0.09224946
119	0xbda9c4d7	-0.08289497
120	0xbd385081	-0.04499865
121	0x3dd72d09	0.10506637
122	0x3cdc7ced	0.026915038
123	0x3d48fd42	0.04906965
124	0xbd72179d	-0.05910455
125	0x3c706bea	0.014674166
126	0xab5e5a61	-7.899567e-13
127	0xbdca515a	-0.09878798
128	0xbca73620	-0.020411551
129	0x3cbac8ce	0.02280083
130	0xbcc71c3c	-0.024305455
131	0xbd95a05f	-0.07305979
132	0x3d15d920	0.03658402
133	0x3c6cafb0	0.014446184
134	0x3e0abd5e	0.135488
135	0x3da5db8b	0.08098515
136	0x3d77e0d4	0.060517147
137	0x25422cf6	1.6842051e-16
138	0x3d4cbd25	0.04998507
139	0x3da1061a	0.07862492
140	0xbe0f5e81	-0.14000894
141	0xbdb91e75	-0.09039012
142	0x3dbdda07	0.09270101
143	0xbd3a26a0	-0.045446992
144	0x3d96d972	0.07365693
145	0x3beaca5d	0.007165237
146	0x3d3b9350	0.045794785
147	0xbdaff907	-0.0859242
148	0xa9495da6	-4.4712193e-14
149	0xbad55fbd	-0.0016279143
150	0x3d8c4002	0.06848146
151	0x3cd436e7	0.025905086
152	0xbd5d551d	-0.05403625
153	0x3dea56f0	0.11442363
154	0x3d5bae57	0.05363306
155	0xbd5feb40	-0.05466771
156	0x3e1f6da1	0.15569164
157	0x3df11122	0.11770846
158	0x3bea9a33	0.0071594953
159	0x1e1293b7	7.759722e-21
160	0x3d7ab0c6	0.06120374
161	0xbd2c58f6	-0.042077027
162	0xbba9dbfc	-0.005183695
163	0xbb432310	-0.0029775538
164	0xbd60b3e8	-0.054859072
165	0xbdf9421c	-0.121708125
166	0xbcdc9820	-0.026928008
167	0xbdea78cb	-0.11448821
168	0xbd1ab534	-0.037770465
169	0x3db392cc	0.08768234
170	0x2bcd54d9	1.4589676e-12
171	0x3d44163c	0.047872767
172	0xbcda73fe	-0.026666638
173	0xbd78cfd1	-0.060745064
174	0xbddc0f46	-0.10745101
175	0x3cc95227	0.024575306
176	0x3de92350	0.113836884
177	0x3d6298ba	0.055321433
178	0x3e18ddda	0.1492838
179	0x3d7d95e1	0.061910514
180	0x3d114717	0.035468187
181	0xac58a481	-3.0786764e-12
182	0x3d8dddf5	0.069271006
183	0x3a22b9e9	0.00062075123
184	0x3da1d025	0.079010285
185	0xbbb5d2ca	-0.0055488097
186	0x3e0c4522	0.13698247
187	0x3d02adde	0.031904094
188	0x3cbee3d1	0.02330199
189	0xbc9bd4fc	-0.019022457
190	0x3d60bb47	0.0548661
191	0x3aada74d	0.0013248712
192	0xa37c54af	-1.367888e-17
193	0xbdb65678	-0.08903211
194	0xbca14045	-0.019683966
195	0xbad2c6df	-0.0016080997
196	0xbb3f1699	-0.0029157756
197	0xbd403733	-0.046927642
198	0xbd49d573	-0.049275827
199	0xbd824471	-0.063607104
200	0xbd93be99	-0.07214088
201	0x3c7d7dea	0.015471915
202	0xbcf632e4	-0.030053563
203	0x1eec7192	2.5034444e-20
204	0x3c972b56	0.018453281
205	0xbc86a54f	-0.016436247
206	0xbd5c0ee2	-0.05372513
207	0xbd1fe519	-0.039036844
208	0xbd16276a	-0.036658682
209	0x3cc88099	0.024475383
210	0xbd98cc96	-0.07460897
211	0xbd9911dd	-0.0747411
212	0x3d8c13e5	0.06839732
213	0x3d533b23	0.05157007
214	0xad042cff	-7.513322e-12
215	0x3dd86f74	0.10568133
216	0xbcf361b9	-0.029709684
217	0x3d6b5384	0.057452694
218	0x3dd41375	0.10355274
219	0x3db42bfa	0.0879745
220	0x3e24086a	0.16018835
221	0xbcfa19dc	-0.030529909
222	0x3e204b51	0.15653731
223	0x3d67193d	0.056420553
224	0xbe11c040	-0.14233494
225	0xa3c10503	-2.0927224e-17
226	0x3e015336	0.12629399
227	0x3c2be527	0.010491646
228	0x3ca74e64	0.020423122
229	0xbd39cc71	-0.045360986
230	0x3cdf6e20	0.027274191
231	0x3d46b4ce	0.048512273
232	0xbd0b798f	-0.034051474
233	0xbd36bc1b	-0.044612985
234	0x3d0b37fe	0.033988945
235	0x3e1f0fc4	0.15533358
236	0xa57661f8	-2.1370292e-16
237	0x3cdc5ae5	0.02689881
238	0x3cc6cf1b	0.024268677
239	0x3dbdfbe8	0.09276563
240	0xbd93dc40	-0.07219744
241	0xbd52b506	-0.05144217
242	0x3d272827	0.040809777
243	0xbcf0506c	-0.029335223
244	0x3c89ff73	0.01684544
245	0xbde3bb97	-0.11119764
246	0xbd93ec38	-0.072227895
247	0xa53122d2	-1.53641e-16
248	0xbe026ddb	-0.12737219
249	0xbd1eff7f	-0.03881788
250	0x3ce268ab	0.0276378
251	0xbe3341e1	-0.175056
252	0xbd060588	-0.03272012
253	0xbda936dc	-0.08262417
254	0x3cc7dacd	0.024396325
255	0xbc1a07eb	-0.009401302

lstm.weight_hh_l0 f4 [256, 64]
0	0xbde2f4e0	-0.110818624
1	0x3ddd47ac	0.10804686
2	0xbc158eaa	-0.009128252
3	0xbcfc2815	-0.030780831
4	0xbd0a9c78	-0.033840626
5	0x3cf6f704	0.030147083
6	0x3c78bf5a	0.0151823405
7	0xbd042920	-0.032265782
8	0x3b3c1ddc	0.002870432
9	0xbd361473	-0.044453096
10	0x3ba054aa	0.0048929052
11	0xbd240434	-0.04004307
12	0x3c66c9b0	0.014086172
13	0x3d1955ff	0.037435528
14	0xbd09fab8	-0.03368637
15	0xbd3e4a91	-0.04645783
16	0x3d43fdf9	0.04784963
17	0x3d10ee2d	0.035383392
18	0xbd953ba8	-0.07286769
19	0x3c14a3fc	0.0090723
20	0x3d7eb8e4	0.062188044
21	0x3d7b4a34	0.061350062
22	0xbc1dfc13	-0.009642619
23	0xbccd38cb	-0.025051495
24	0xbce54103	-0.027985102
25	0x3cda447f	0.02664399
26	0xbc9711ae	-0.018441048
27	0x3d4e4125	0.050355095
28	0x3ceff0ce	0.02928963
29	0x3b94440f	0.004524715
30	0xbdc76ae2	-0.09737183
31	0x3d946c6b	0.072472416
32	0xbc4c3dec	-0.012465935
33	0x3d250780	0.040290356
34	0xbd63067c	-0.055426106
35	0xbcc7cdb3	-0.024390077
36	0x3bd16751	0.00639049
37	0x3c6465e1	0.013940305
38	0xbcda8909	-0.026676672
39	0xbdd0cfe9	-0.10195906
40	0x3db40d79	0.08791632
41	0x3d98323e	0.07431458
42	0x3de2873a	0.11060949
43	0xbd4cce35	-0.05000134
44	0xbd35d2dc	-0.044390544
45	0xbc09b9b9	-0.008406096
46	0x3db6d8cf	0.08928072
47	0x3df028a8	0.117265046
48	0xbd84085b	-0.06446906
49	0xbd195a00	-0.037439346
50	0xbc54ed22	-0.01299599
51	0x3dcd7a97	0.10033148
52	0x3c6b0e84	0.0143467225
53	0xbca97714	-0.020686664
54	0x3d2e7251	0.04258949
55	0xbd194a5a	-0.037424423
56	0xbc18e401	-0.009331704
57	0x3d8bf556	0.068339035
58	0x3d74df98	0.059783548
59	0xbc90ea2e	-0.01768979
60	0xbcd643aa	-0.026155312
61	0xbc24cee8	-0.010059096
62	0xbd122adb	-0.0356854
63	0xbd901352	-0.07034935
64	0xbc35b7b2	-0.01109116
65	0x3d567f45	0.052367467
66	0x3d889d27	0.066705994
67	0xbd9a3bfe	-0.07530974
68	0xbcd78a10	-0.02631095
69	0x3cf8eb6c	0.030385695
70	0x3d9cfaeb	0.07665046
71	0xbe1c73d5	-0.15278561
72	0x3c76e693	0.015069622
73	0xbb653e26	-0.003497967
74	0xbdeb8c21	-0.11501337
75	0xbde73ef5	-0.11291305
76	0xbd8031e6	-0.06259517
77	0xbdb5d066	-0.088776395
78	0xbc534fa8	-0.0128974095
79	0x3d128fa1	0.035781506
80	0xbe0f96c4	-0.14022356
81	0xbd79564e	-0.060873322
82	0xbd1ebe6e	-0.038755827
83	0xbdab5e73	-0.08367624
84	0xbd51ffb0	-0.051269233
85	0x3dd015af	0.10160386
86	0xbd4ce1bd	-0.05001997
87	0x3d072c86	0.033001445
88	0x3d1244f9	0.03571031
89	0x3d00cde1	0.03144634
90	0x3daad3f4	0.08341208
91	0x3da20dce	0.07912789
92	0xbd1f5edf	-0.038908836
93	0x3cf1dfbd	0.029525632
94	0xbdbe9dd1	-0.09307445
95	0xbd811a9a	-0.06303902
96	0x3da2b664	0.079449445
97	0xbd5117b5	-0.051048
98	0xba57987a	-0.000822432
99	0x3d3824b1	0.044956867
100	0xbc48b214	-0.012249488
101	0x3c3d911d	0.011570242
102	0xbd4ff461	-0.050770167
103	0xbc9bfdf5	-0.019041995
104	0x3d807bcd	0.06273613
105	0xbd65c613	-0.0560971
106	0x3c72fa0d	0.014830125
107	0xbd984c76	-0.07436459
108	0xbdcd6a0b	-0.10029992
109	0xbdbd763f	-0.09251069
110	0xbc12a9bc	-0.008951601
111	0x3d9a467f	0.07532977
112	0x3e08dc4d	0.13365288
113	0xbd723a2c	-0.05913751
114	0xbd3dc687	-0.04633191
115	0xbd046744	-0.032325044
116	0x3cdc07c3	0.02685917
117	0xbcb9fab2	-0.022702549
118	0xbdfa9a5e	-0.122364745
119	0xbd9251b1	-0.07144488
120	0xbd4a1b7e	-0.049342625
121	0xbcabb488	-0.020960107
122	0x3dbdb720	0.09263444
123	0xbdb6f45d	-0.08933327
124	0x3d0bfdb2	0.03417749
125	0xbbeb2f15	-0.0071772435
126	0xbc23620d	-0.009972108
127	0x3de1b8c1	0.11021567
128	0x3a38e7e8	0.00070535997
129	0xbd1f5a7b	-0.03890465
130	0xbd26cb55	-0.040721256
131	0x3d32fdcf	0.043699082
132	0xbd59530e	-0.053057723
133	0x3c2f885e	0.010713665
134	0xbd25210e	-0.040314727
135	0x3b86e995	0.0041172006
136	0xbdaa2845	-0.08308462
137	0xbd94c340	-0.072638035
138	0x3d8bfb54	0.068350464
139	0xbdd9b12b	-0.10629495
140	0x369c3993	4.655865e-06
141	0x3ce78d88	0.02826573
142	0x3bb5a6b1	0.005543553
143	0x3d9288b1	0.07154978
144	0xbc802b68	-0.015645698
145	0x3d7e770a	0.062125243
146	0xbd953a0e	-0.07286464
147	0xbda82c31	-0.08211554
148	0x3c06478e	0.008195771
149	0x3d486cd6	0.04893192
150	0x3dc037b4	0.093856245
151	0xbc15db90	-0.009146586
152	0xbd4915c3	-0.04909302
153	0xbd947907	-0.07249647
154	0x3b00fe00	0.0019682646
155	0x3d6cb385	0.05778839
156	0x3cc2ee58	0.023795292
157	0x3ccc9f2a	0.02497824
158	0x3ba4430c	0.0050128754
159	0x3ccb15e8	0.02479072
160	0x3da2d447	0.07950645
161	0x3c332785	0.010934715
162	0x3d268f16	0.0406638
163	0x3d013cca	0.031552114
164	0x3d1ad680	0.03780222
165	0xba7f71a1	-0.000974441
166	0x3c28fc6f	0.010314091
167	0xbd82296d	-0.063555576
168	0xbd408d15	-0.047009546
169	0x3c72b86b	0.0148144765
170	0x3d8ec694	0.069714695
171	0x3b03123e	0.0019999887
172	0xbd9c2af1	-0.07625378
173	0xbd64ce0f	-0.055860575
174	0x3d11e764	0.035621062
175	0xbd033896	-0.032036386
176	0x3d352256	0.0442222
177	0xbd83c337	-0.06433719
178	0x3cee1864	0.029064365
179	0x3dae8122	0.08520724
180	0x3d8dc7a7	0.06922846
181	0x3d9e0b36	0.07716982
182	0x3dd5557d	0.10416696
183	0xbd63f736	-0.05565568
184	0x3d5ef078	0.054428548
185	0x3daeb207	0.0853005
186	0xbd0f6ed2	-0.035017796
187	0xbd1b60df	-0.03793418
188	0xbc818a35	-0.015812973
189	0xbd269db6	-0.04067775
190	0x3ccd5472	0.02506468
191	0x3db08239	0.08618588
192	0xbc6fb32d	-0.014630121
193	0xbcf09fcd	-0.029373074
194	0xbda5303b	-0.0806584
195	0x3d863d8b	0.06554707
196	0xbdcf4ae8	-0.10121709
197	0x3ca21fa0	0.01979047
198	0xbdbe7736	-0.093000814
199	0xbd918e8f	-0.07107269
200	0xbd167115	-0.036728937
201	0xbde84481	-0.11341191
202	0x3e02a1fa	0.12757102
203	0xbdcbfc0f	-0.09960186
204	0xbd732702	-0.059363373
205	0x3d28d03f	0.041214224
206	0x3c5c6dbd	0.013453898
207	0x3da59290	0.08084595
208	0xbd03d74f	-0.032187756
209	0x3d9f4760	0.077772856
210	0x3d6866ac	0.05673854
211	0xbdf97f9a	-0.12182541
212	0x3ccfed2c	0.025381647
213	0x3d7956a2	0.060873635
214	0xbd37605a	-0.044769622
215	0xbc556b52	-0.013026075
216	0xbca6adef	-0.02034661
217	0xbd18f735	-0.03734513
218	0xbd9b6403	-0.07587435
219	0xbdfe4b4e	-0.12416707
220	0xbd802dd1	-0.06258739
221	0x3d101d67	0.03518429
222	0xbde54d41	-0.11196376
223	0x3db86bc1	0.090049274
224	0x3d584b20	0.05280602
225	0xbc49f6b7	-0.012326888
226	0xbc37f573	-0.011227953
227	0xbdc3a2c3	-0.09552529
228	0xbd800e46	-0.062527224
229	0xbc9df7bb	-0.019283166
230	0x3dce274e	0.100660905
231	0xbdc6df34	-0.09710541
232	0xbda932ee	-0.08261667
233	0xbdb7b5ab	-0.08970197
234	0x3d81e238	0.06341976
235	0xbe07a76f	-0.13247465
236	0x3c3b8add	0.011446682
237	0x3dabe081	0.0839243
238	0x3d0f6fa2	0.03501857
239	0x3c9a7244	0.018853314
240	0xbd3b85c9	-0.045781884
241	0xbc0352d7	-0.008015356
242	0x3d1a4893	0.03766687
243	0x3e13f449	0.14448656
244	0xbdf0e5c9	-0.11762578
245	0x3da5b98a	0.080920294
246	0x3d31f645	0.04344775
247	0xbd557127	-0.052109864
248	0x3cdccedd	0.026954109
249	0xbd4f1558	-0.050557464
250	0x3dc76f34	0.09738007
251	0xbe099f75	-0.13439734
252	0x3c4e2a49	0.012583324
253	0xbc1c4a87	-0.009539253
254	0xbdddfe22	-0.108394876
255	0x3d3e98b9	0.046532366

lstm.bias_ih_l0 f4 [256]
0	0x3e23b60a	0.15987411
1	0xbda5c3c6	-0.080939814
2	0xbdc6fff5	-0.09716789
3	0x3e281cde	0.16417262
4	0x3dfa1d64	0.12212637
5	0x3d84f180	0.06491375
6	0xbafb2573	-0.0019160941
7	0x3da8d0ea	0.08242972
8	0x3de0f754	0.10984674
9	0x3d573541	0.05254102
10	0x3d8dd3be	0.06925152
11	0x3cdf35b7	0.027247293
12	0x3d8ec4ea	0.06971152
13	0x3c5cdac8	0.013479896
14	0xbd8f8498	-0.07007712
15	0x3d28e882	0.04123736
16	0x3ddaa1e5	0.1067541
17	0x3db829f9	0.08992381
18	0xbd42dc9b	-0.047573667
19	0xbddd10b1	-0.10794199
20	0x3db7dbe6	0.08977489
21	0x3e20789e	0.15671012
22	0xbdb04ba4	-0.08608177
23	0xbdc4b0e4	-0.09604052
24	0xbabb16d4	-0.0014273771
25	0xbd9138f8	-0.07090944
26	0x3ddd1ad8	0.10796136
27	0xbb409403	-0.0029385097
28	0x3d5f6403	0.054538738
29	0xbdccfe79	-0.10009474
30	0x3e0dca77	0.13846765
31	0x3e027ccd	0.1274292
32	0xbd1ae28f	-0.03781372
33	0xbdde30f1	-0.108491786
34	0xbd41170c	-0.04714112
35	0xbda8bf02	-0.08239557
36	0x3dd7682e	0.105179176
37	0xbba4c99f	-0.005028918
38	0xbd5f9b6f	-0.054591592
39	0x3e0a5e72	0.1351259
40	0xbced9c48	-0.029005185
41	0x3e07dce1	0.13267852
42	0xbbaf9ad6	-0.005359034
43	0x3dcb16e1	0.09916473
44	0xbd8b48c8	-0.06800991
45	0x3d282ded	0.041059423
46	0xbdcbb8cf	-0.09947359
47	0x3e13f063	0.14447169
48	0x3d453ee5	0.048155684
49	0x3dc0761a	0.09397526
50	0x3d9d6fdb	0.0768735
51	0xba9ba975	-0.0011876064
52	0xbdb7cfcf	-0.08975183
53	0x3d202518	0.039097875
54	0x3d0517f2	0.03249354
55	0x3d98d143	0.074617885
56	0xbb185e44	-0.0023249546
57	0xbcf5063f	-0.029910205
58	0x3dba0bb4	0.090842634
59	0xbd8fdc2f	-0.070244186
60	0x3d923dab	0.071406685
61	0x3d5b65a4	0.05356373
62	0xbbc0d767	-0.005885053
63	0x3d06a968	0.032876402
64	0x3e08142c	0.13288945
65	0x3dbaa9b8	0.091144025
66	0x3dfd4743	0.12367108
67	0xbb4a28ff	-0.003084719
68	0x3e221a8c	0.1583044
69	0x3d6a2bba	0.057170607
70	0x3d156fd6	0.03648361
71	0xbc52ec8e	-0.012873782
72	0xbdb3a975	-0.08772556
73	0xbb9d25db	-0.0047957725
74	0x3e089324	0.1333738
75	0xbd8ce4cf	-0.06879579
76	0x3ccde40b	0.025133153
77	0x3d4b22ef	0.049593862
78	0x3e07e9d2	0.13272789
79	0xbdb212cb	-0.08694991
80	0xbc806cfb	-0.015676966
81	0x3d8ca50b	0.06867417
82	0xbd94b34c	-0.07260761
83	0x3e1a4cb4	0.15068322
84	0x3e0ce826	0.13760433
85	0xbbd0b3a5	-0.0063690715
86	0x3da1f1bd	0.07907436
87	0xbd863479	-0.06552977
88	0xbd0b089e	-0.033943765
89	0xbd4bb499	-0.04973278
90	0x3cb7e737	0.022449119
91	0x3df01b50	0.117239594
92	0xbddd05c8	-0.10792118
93	0xbdab27df	-0.08357214
94	0xbd9a7624	-0.07542065
95	0x3e0c204d	0.13684197
96	0xbd373b41	-0.044734243
97	0xbc481346	-0.012211626
98	0x3e13c597	0.14430843
99	0xbc02a6ce	-0.00797434
100	0x3db02950	0.0860163
101	0x3d89b028	0.06723052
102	0xbd48fac2	-0.049067266
103	0x3d057cab	0.032589596
104	0xbbe37467	-0.0069413665
105	0xbd78823d	-0.06067108
106	0x3d9af1ad	0.07565627
107	0x3d7d16c9	0.061789308
108	0xbce087eb	-0.02740856
109	0x3d15f0d9	0.036606643
110	0x3de19a08	0.11015707
111	0x3dddb63f	0.10825776
112	0x3d1c4dcb	0.038160127
113	0xbd321aae	-0.043482475
114	0xbd9ac458	-0.07556981
115	0x3cfdcc9d	0.030981356
116	0xbd4da17d	-0.050202835
117	0xbbc892dc	-0.0061210226
118	0x3cb37400	0.021905899
119	0xbd965353	-0.073401116
120	0xbd5d9044	-0.05409266
121	0x3d6bd7c3	0.057578813
122	0x3e075a9b	0.13218157
123	0x3c2230b7	0.00989931
124	0x3cda6abd	0.026662225
125	0xbd6c3678	-0.057669133
126	0x3d8a038c	0.06738958
127	0x3db18b6a	0.08669169
128	0x3ce1de14	0.027571715
129	0x3d6091ca	0.054826535
130	0xbccd0797	-0.025028033
131	0xbd69f978	-0.057122678
132	0xbdbb79a2	-0.09154059
133	0xbd6ad80d	-0.05733495
134	0x3d9180e7	0.07104664
135	0xbdcd8204	-0.10034564
136	0x3d3998b9	0.045311663
137	0xbd7ed27f	-0.062212463
138	0x3e0341bd	0.12818046
139	0xbdd80ac0	-0.105489254
140	0xbdbb8b67	-0.09157448
141	0xbcf91105	-0.030403623
142	0x3c8737e5	0.016506145
143	0x3e06d4cb	0.13167112
144	0xbdfa9c3d	-0.12236831
145	0x3cddb5f1	0.027064295
146	0xbcdbe5dd	-0.026843006
147	0xbc295cc0	-0.010337055
148	0x3d318583	0.043340217
149	0xbd82c00d	-0.06384287
150	0xbb02683c	-0.0019898554
151	0xbe022d4b	-0.1271259
152	0xbe02b57d	-0.12764545
153	0xbe08c897	-0.13357769
154	0x3d6a7dc3	0.057248842
155	0xbcd95e55	-0.026534239
156	0xbc889581	-0.016672852
157	0xbd508090	-0.050903857
158	0x3bd9082e	0.0066232895
159	0xbcf17bf3	-0.029478049
160	0xbdabd524	-0.08390263
161	0xbd164549	-0.03668717
162	0xbe1b5e56	-0.15172705
163	0x3d79938f	0.06093174
164	0xbde96143	-0.11395504
165	0xbdfd99e4	-0.12382868
166	0x3ddc7ea0	0.10766339
167	0xbde8083f	-0.11329698
168	0xbd064596	-0.032781206
169	0x3dbe73a6	0.09299402
170	0xbbd39a5d	-0.0064576105
171	0xbdc33f03	-0.09533503
172	0x3dd22a68	0.102619946
173	0x3d90e534	0.07074967
174	0x3dc9a7f7	0.0984649
175	0x3ddfeb3b	0.109335385
176	0x3daf7f06	0.0856915
177	0xbd9afe30	-0.07568014
178	0x3da21ca5	0.0791562
179	0x3dc1a1b4	0.094546705
180	0xbcd32273	-0.025773263
181	0x3c5d8896	0.013521334
182	0x3d78e96d	0.060769487
183	0xbd541c2a	-0.05178467
184	0x3c37b5b2	0.011212753
185	0xbd0fe511	-0.035130564
186	0x3e079fa3	0.1324449
187	0xbdb75d74	-0.08953372
188	0xbd44fe14	-0.04809387
189	0x3dc7e832	0.097610846
190	0x3d833357	0.06406277
191	0xbd15b201	-0.03654671
192	0x3d4f89c7	0.050668504
193	0xbd5070bb	-0.05088876
194	0x3d1dc865	0.03852119
195	0x3e05d82e	0.13070747
196	0xbd8ed847	-0.069748454
197	0x3c0058b8	0.007833652
198	0x3af06d0f	0.0018343049
199	0x3d3496e6	0.04408922
200	0x3d403c6a	0.046932615
201	0xbd998160	-0.074953794
202	0xbc50a8bb	-0.012735541
203	0x3d22585b	0.039635044
204	0xbdb0884f	-0.08619749
205	0xbc8c960c	-0.017161392
206	0x3d8fac50	0.07015288
207	0x3d18d010	0.0373078
208	0x3d7882ba	0.060671546
209	0x3cb09c46	0.021558892
210	0xbceae487	-0.028673423
211	0x3d5a0083	0.053223144
212	0x3e2440fb	0.16040413
213	0x3df78613	0.120861195
214	0x3debc1fe	0.115116104
215	0xbbc15b3f	-0.00590077
216	0x3b46dccf	0.0030344015
217	0xbdc57a1e	-0.09642433
218	0x3c61a7b6	0.013772896
219	0xbdbcca51	-0.09218276
220	0xbd9cc6e3	-0.07655122
221	0x3d899895	0.06718556
222	0x3c8ec5fe	0.017428394
223	0xbbc307cc	-0.005951857
224	0x3e0cf0c5	0.13763721
225	0xbdd2dd3e	-0.10296105
226	0xbcc6f443	-0.024286395
227	0xbd9e344e	-0.0772482
228	0xbd1fb208	-0.038988143
229	0x3da2d45d	0.07950661
230	0x3d7c2c15	0.061565477
231	0x3dfd489a	0.12367363
232	0xbd4a70b4	-0.04942389
233	0x3d740e14	0.05958374
234	0x3dd6366b	0.10459598
235	0x3dc20983	0.094744705
236	0x3dbaec85	0.09127144
237	0x3cd15f9d	0.025558287
238	0x3ddd7e48	0.10815102
239	0xbc3c4c00	-0.011492729
240	0x3d61abc5	0.055095453
241	0x3e10bb91	0.14134051
242	0x3d45c721	0.048285607
243	0x3daeae26	0.0852931
244	0x3d89806c	0.06713948
245	0x3e124c97	0.14287029
246	0x3da7429f	0.08167004
247	0xbd287769	-0.041129503
248	0xbc3414da	-0.0109912995
249	0xbd97733b	-0.07395025
250	0xbd3c0728	-0.045905262
251	0xbd0a4073	-0.03375287
252	0xbd383f13	-0.044982027
253	0xbd0aad06	-0.033856414
254	0x3e02ea18	0.12784612
255	0x3ddfbff1	0.10925282

lstm.bias_hh_l0 f4 [256]
0	0xbb5eafeb	-0.0033979367
1	0x3dd29824	0.10282925
2	0xbd84846a	-0.064705685
3	0x3d8667b9	0.06562752
4	0x3d9ec48f	0.07752334
5	0xbc884e6e	-0.01663896
6	0xbd04cad2	-0.032419987
7	0xbc840112	-0.016113792
8	0x3cc1ff18	0.023681208
9	0xbd0c21b8	-0.034211844
10	0xbc123d53	-0.008925754
11	0x3db4715a	0.088106826
12	0x3d821d6f	0.0635327
13	0x3e1bae6b	0.15203254
14	0xbd303f8a	-0.043029346
15	0xbd8ef932	-0.06981124
16	0x3e0f9543	0.14021783
17	0x3d97089c	0.07374689
18	0xbd1207e1	-0.035652045
19	0xbdce5c8e	-0.10076247
20	0xbbb79d38	-0.0056034587
21	0xbcb79628	-0.022410467
22	0x3ddd45d2	0.10804333
23	0xbe080130	-0.13281703
24	0x3c24f487	0.0100680655
25	0x3d82d058	0.06387395
26	0x3de2c301	0.1107235
27	0x3db192c2	0.0867057
28	0x3dfe4db3	0.12417164
29	0xbd63ac5c	-0.055584297
30	0xbcd157dd	-0.025554592
31	0xbd518e76	-0.051161252
32	0x3d8a6b50	0.067587495
33	0xbe029d03	-0.12755208
34	0x3e06f5b8	0.13179672
35	0x3c554e48	0.013019152
36	0x3cf29338	0.029611215
37	0xbd7f1838	-0.062278956
38	0x3df4b50c	0.119485945
39	0xbdb3dcbb	-0.08782335
40	0xbce16e0a	-0.027518291
41	0x3c2d8f25	0.01059321
42	0x3da9f915	0.08299462
43	0xbd778303	-0.060427677
44	0xbcf6d6b4	-0.030131675
45	0x3d8f7208	0.070041716
46	0x3db7e032	0.08978309
47	0x3db85b21	0.090017565
48	0x3b888b38	0.004166987
49	0xbd84eb49	-0.064901896
50	0xbb81907a	-0.0039539905
51	0x3daf0829	0.08546478
52	0x3bbe740b	0.0058121732
53	0x3d49a69e	0.049231164
54	0xbcf2896c	-0.029606543
55	0x3d50ea88	0.051004916
56	0x3dfb49e3	0.12269952
57	0x3cb9889f	0.022648154
58	0xbcd101b7	-0.025513513
59	0x3d8c2e7d	0.068448044
60	0x3dcb2fc8	0.09921223
61	0x3dce979a	0.100875095
62	0x3e223937	0.15842138
63	0x3df25eff	0.11834525
64	0x3e07f932	0.13278654
65	0x3d4462df	0.047945853
66	0x3d50d8e9	0.05098811
67	0xbd27397b	-0.040826302
68	0x3ca6fe3c	0.0203849
69	0xbda6b1fb	-0.08139416
70	0xbcbe7517	-0.023249192
71	0xbb078fbc	-0.0020685038
72	0x3d96ac15	0.07357041
73	0x3db6c4be	0.08924244
74	0x3d8357b9	0.06413216
75	0x3d2663cc	0.040622517
76	0xbd100085	-0.035156745
77	0xbd1f1916	-0.038842283
78	0xbd3eb54f	-0.046559628
79	0xbd6033d8	-0.054736942
80	0xbcc6b5f3	-0.024256682
81	0x3df20b72	0.11818589
82	0x3d04acdf	0.032391425
83	0xbd6d1e67	-0.057890322
84	0x3d671ab0	0.056421936
85	0x3be55bc1	0.0069994633
86	0xbcb2bbea	-0.02181812
87	0x3da6aa91	0.08138002
88	0x3dd7141a	0.10501881
89	0x3d242ef7	0.04008385
90	0x3e0d3706	0.13790521
91	0x3e08ad9c	0.13347477
92	0x3d452f0c	0.04814057
93	0xbd3baa73	-0.04581685
94	0x3e13780a	0.1440126
95	0x3ca5ea7f	0.020253418
96	0x3d0bc64b	0.034124654
97	0xbc9b405f	-0.018951593
98	0x3d18dab6	0.037317954
99	0xbc11cca9	-0.008898892
100	0xbd0a3e6b	-0.033750933
101	0x3d540294	0.05176027
102	0x3e1f6deb	0.15569274
103	0xbd12fa93	-0.035883497
104	0x3e0f8f2a	0.14019457
105	0x3d53ca89	0.051706824
106	0x3dee5418	0.11637133
107	0x3bc6e3f0	0.0060696527
108	0x3db49cf2	0.088189974
109	0xbd3318bf	-0.04372477
110	0xbc197f81	-0.009368778
111	0x3c9108db	0.017704418
112	0x3e007e58	0.12548196
113	0x3dc3e53c	0.09565207
114	0x3d00de25	0.031461854
115	0x3e0dc289	0.1384374
116	0x3ce88983	0.028385883
117	0x3db4c0a1	0.088258035
118	0x3c76571d	0.015035418
119	0xbd363874	-0.04448743
120	0xbd502c5d	-0.050823558
121	0xbca468a7	-0.020069433
122	0xbdc30d50	-0.095240235
123	0x3d194039	0.037414763
124	0x3c190d50	0.009341553
125	0xbc041e3c	-0.008063849
126	0x3e03963d	0.1285028
127	0x3deb0fde	0.11477636
128	0xbdfd36ee	-0.12363993
129	0x3dea9c6a	0.11455615
130	0x3d89e0b1	0.067323096
131	0xbcac1b55	-0.021009127
132	0x3d433725	0.04766001
133	0xbdcc23df	-0.09967779
134	0x3c96013c	0.018311135
135	0xbc12587e	-0.008932231
136	0xbd89f722	-0.0673659
137	0xbe0128eb	-0.12613265
138	0xbdb592e3	-0.08865907
139	0xbd883306	-0.06650357
140	0x3de958d4	0.11393896
141	0x3c65f4c9	0.014035412
142	0xbc29a08e	-0.010353221
143	0xbb175ccc	-0.0023096083
144	0x3da2650b	0.07929429
145	0x3dd62aff	0.104574196
146	0xbe078f20	-0.13238192
147	0xbd45b91a	-0.04827223
148	0xbde85139	-0.11343617
149	0x3d9d75ce	0.07688485
150	0x3d463176	0.048387013
151	0xbd1c3e7b	-0.038145524
152	0xbcf8a998	-0.030354306
153	0xbc944d8d	-0.018103385
154	0x3cd4445f	0.025911508
155	0xbe0f6861	-0.14004661
156	0xbdca805b	-0.09887763
157	0x3dc070b7	0.09396499
158	0xbdd38078	-0.10327238
159	0x3dc9994f	0.098436944
160	0x3db9d3c8	0.09073597
161	0xbc1a6603	-0.009423736
162	0xbd5f0f45	-0.05445792
163	0x3d3e410b	0.04644875
164	0x3cce630f	0.02519372
165	0xbe013f7a	-0.1262187
166	0x3c9611c5	0.01831902
167	0xbd3886fe	-0.045050614
168	0x3d0f1e79	0.03494117
169	0xbcccd065	-0.025001714
170	0x3d5a3b6d	0.05327933
171	0xbc21644b	-0.009850572
172	0xbca75a97	-0.020428939
173	0xbd68e7e4	-0.056861773
174	0x3dac0a8d	0.0840045
175	0x3ddb27b1	0.1070093
176	0x3d18694d	0.037209798
177	0xbcfbc9b0	-0.03073582
178	0xbc859337	-0.01630555
179	0x3d459f68	0.048247725
180	0xbdd6c995	-0.104876675
181	0x3c2696e0	0.010167807
182	0x3d850a42	0.06496097
183	0xbdaa0d47	-0.08303314
184	0x3d69b24f	0.057054814
185	0x3da56af0	0.08077037
186	0xbce523bd	-0.027971143
187	0xbd760582	-0.060063846
188	0xbdf16548	-0.11786896
189	0xbd61cb5a	-0.05512557
190	0xbdc16a51	-0.09444106
191	0x3d59b37b	0.05314968
192	0x39988797	0.00029092722
193	0xbd9358ef	-0.07194697
194	0x3db56431	0.088570006
195	0xbd116091	-0.035492484
196	0x3d4acc47	0.04951122
197	0x3da74696	0.0816776
198	0x3d1a00a4	0.037598267
199	0xbd25efc9	-0.04051188
200	0x3e0fe1c5	0.14050968
201	0x3ccba079	0.024856793
202	0xbd5fd0d6	-0.05464252
203	0xbb0351cf	-0.0020037775
204	0x3d9b28b8	0.07576126
205	0xbb99155c	-0.0046717357
206	0xbc14fb56	-0.009093126
207	0x3da96861	0.08271862
208	0xbd958937	-0.07301562
209	0x3e118e74	0.14214498
210	0xbced9618	-0.029002234
211	0xbd95e5fb	-0.07319256
212	0xbcfd35fa	-0.030909527
213	0xbd856ebe	-0.06515263
214	0xbd996e1c	-0.07491705
215	0xbd0231fe	-0.031785958
216	0x3bbdd2ad	0.005792937
217	0xb97bb4e4	-0.00024004612
218	0xbda947bc	-0.08265635
219	0x3d984fd5	0.07437102
220	0x3ce7a063	0.02827472
221	0xbc1cd4ff	-0.009572267
222	0x3b97eefa	0.0046366425
223	0x3ddd3ae6	0.108022496
224	0x3e192646	0.14956006
225	0x3d639891	0.05556542
226	0x3d4bf20f	0.049791392
227	0xbc712a0e	-0.014719499
228	0x3db51616	0.08842103
229	0xbd26f8c4	-0.040764585
230	0x3c794f7f	0.015216707
231	0x3d887db8	0.06664604
232	0x3dc8050b	0.09766587
233	0xbdb0a7c6	-0.0862575
234	0x3e284a69	0.16434635
235	0x3bd6ecbb	0.006558982
236	0x3c8cb723	0.01717717
237	0xbc41274a	-0.011789152
238	0xbdadede9	-0.084926434
239	0x3d7bceb0	0.06147641
240	0xbd89392f	-0.0670036
241	0x3d6e4b32	0.05817718
242	0xbd9a7c68	-0.0754326
243	0x3c8b8fd6	0.01703636
244	0x3cb17e7d	0.02166676
245	0xbceb04c0	-0.028688788
246	0x3c6ab6e7	0.014325834
247	0xbce7b34c	-0.028283738
248	0x3e078599	0.13234557
249	0xbd07bc4f	-0.03313857
250	0xbce730d3	-0.028221523
251	0x3d227cae	0.039669685
252	0x3d1c6d83	0.038190376
253	0xbc497fd7	-0.012298546
254	0x3e074cd7	0.13212906
255	0x3d8f1ca6	0.06987886

fc.weight f4 [1, 64]
0	0x3d5dea9f	0.05417883
1	0x3d896d8b	0.06710347
2	0x3d608162	0.05481089
3	0xbdfe4d2e	-0.124170646
4	0xbda993e3	-0.0828016
5	0x3da66634	0.081249624
6	0x3dd904b2	0.10596599
7	0xbda5587d	-0.080735184
8	0xbd6ba867	-0.057533648
9	0x3dcb050c	0.09913072
10	0xbd96fcfe	-0.07372473
11	0x3b809437	0.0039239186
12	0x3d9c8388	0.07642275
13	0xbdc45a80	-0.09587574
14	0x3b8b5dd4	0.0042531285
15	0xbd966b14	-0.07344642
16	0xbe201bcf	-0.15635608
17	0xbca5d8b0	-0.020244926
18	0x3d316986	0.043313526
19	0xbc54c10a	-0.012985477
20	0xbe1a409d	-0.1506371
21	0xbdaaeb7a	-0.08345695
22	0xbdaa32dd	-0.08310483
23	0x3d9d8b47	0.07692581
24	0xbcb0778f	-0.021541385
25	0xbd0ce6ac	-0.034399673
26	0x3de1310f	0.10995685
27	0x3d3445e2	0.044011958
28	0x3e0a5a13	0.13510923
29	0xbcbf6237	-0.023362262
30	0x3d9fb3a5	0.07797936
31	0x3e15512e	0.14581749
32	0x3e26e790	0.16299272
33	0x3d0296a5	0.031881947
34	0x3e00dbab	0.12583797
35	0x3d92be5a	0.07165213
36	0x3da38e90	0.07986176
37	0xbc18ed0a	-0.009333858
38	0xbd4b9faf	-0.049712833
39	0x3de4cf50	0.11172354
40	0xbdfb502d	-0.12271152
41	0xbd2f2920	-0.04276383
42	0xbe0631c0	-0.13104916
43	0x3dfe3695	0.124127544
44	0xbdd1eba8	-0.10250026
45	0xbcdf8321	-0.027284207
46	0x3da86489	0.082223006
47	0xbe0e660a	-0.13906112
48	0x3db99953	0.090624474
49	0xbda03b30	-0.07823789
50	0xbd638bd4	-0.055553272
51	0xbdae402e	-0.08508335
52	0x3d984669	0.07435305
53	0xbe0f5fa8	-0.14001334
54	0xbe202a9b	-0.15641253
55	0x3e1f8eff	0.15581892
56	0xbe0866ec	-0.13320512
57	0xbdcc65dd	-0.099803664
58	0xbca478b2	-0.020077083
59	0x3d24afa5	0.04020657
60	0x3defd57c	0.11710641
61	0xbce83f7e	-0.028350588
62	0x3d8d0c6c	0.06887135
63	0x3e06c442	0.13160804
