checkpoints/South-West/best_model.pth (torch, 81193 bytes, 5 tensors)

lstm.weight_ih_l0 f4 [256, 11]
00000000: 8539 773c 1d9d d63d 4580 86bd b8a0 b53c
00000010: 60be 7e3d a954 0700 4df8 d03d d418 9fbd
00000020: e1a4 113d ab0c 45bc eb8a db3d 5f92 883c
00000030: fd50 da3d 814d 193d 285c 053e dcc3 763d
00000040: 9867 5e9d 3164 79bd cfe8 893d 9303 bb3d
00000050: 5c03 923d 84d6 8f3d 7d38 7cbc 6047 81bc
00000060: f67a 9c3c 0720 aabc ad3a 093d 6f80 1720
00000070: 348f 8dbd 1d91 c8bb 0607 ef3c 884b da3c
00000080: a3ec 853d 2d28 9c3d bac8 5dbd 44db c8bd
00000090: 0ac1 aa3b 7293 cdbc 5529 b1a1 0c27 dbbd
000000a0: d93b 7a3d ec85 01be 56a1 4bbd eb7f 05be
000000b0: 2f20 c43b 379f 833d 6e2d 343e c95e b2bd
000000c0: 247e 9d3d 5889 0000 d686 c4bd d1f0 fa3d
000000d0: a9a7 943d 058a b2bd 707a 263d e09e 503d
000000e0: bd3d 083e 848f 90bd 55bf 0d3c 7d92 0f3e
000000f0: d488 0080 3e24 d6bc c855 913c 7147 943c
00000100: fe24 99bd fb0b fcbd 2830 f93c 362e 963d
00000110: c0c3 663d 0a24 013e e53a 1a3c deb4 a4a7
00000120: ded7 30bd 00d4 4b3d 244f 10bd a717 dcbc
00000130: 1978 4ebc 1c90 433d 3a99 e03d 04ac c3bd
00000140: 7b03 ad3d ef6f 093d d7b9 cf9d 9cda 8cbd
00000150: 04f2 a3bd e3d4 cf3d 9aef db3c c64b 06bd
00000160: 41af 873d 586e f4bc de13 98bd c786 013d
00000170: 9823 0c3d cf88 0000 d5b8 24be 0130 983c
00000180: 2da4 bdbd 7170 a33c ca5f aebd c2c7 293e
00000190: 2795 a3bd 6487 cc3d c375 e63d afbb f73d
000001a0: b519 ec9b cac1 013e 0206 adbd 960a 3a3d
000001b0: c620 48bd d79c 03bc c320 28bd df4a 54bd
000001c0: 772c a13b 1c89 d9bc f805 f53d 7fce d090
000001d0: bdea c13d 6908 d73d f4e1 6e3d 705a 2b3e
000001e0: cc4d 8bbd 325b 3f3d d2f9 253b 2546 b2bd
000001f0: 617b 09bc 98ed 833a cd0b 989a 44b4 513c
00000200: 8688 9a3d aba6 a2bd 9a76 c2bd a100 0bbe
00000210: 878b 97bc 4f3c 1dbd 4ecf eeba d67f 3bbb
00000220: 1ef0 553b 77a7 391a 5bb6 dbbc bdbf f8bc
00000230: e421 c6bd 96f8 46bd eb38 50bd 00d7 c3bc
00000240: bba8 3a3d 21f9 a7bd 9b88 bcbd 476e d93c
00000250: 275e 0b20 ad3f a53d 64be a4bd 88d9 8dbd
00000260: d4e8 b9bc f3f6 d33d a054 3e3e 2eee 893c
00000270: a87e cd3c 58f1 f53d 7a4d 7abc 3389 0080
00000280: b65e f6bd 39de 8f3d c1fd af3d 0175 bb3d
00000290: bf94 e7bc 4ae4 cfbd 3095 6d3c 39c6 a3bd
000002a0: 9f47 063b 994a 913c 3e89 0080 ab16 c9bc
000002b0: 380b d83d eb69 673d e5a1 09be f9b0 c3bb
000002c0: b854 1f3d 05ac 31bd b6d3 b23d ac65 883c
000002d0: 6dc1 073e e288 0080 eaee e0bb 0fc2 003c
000002e0: 14c3 69bc e50e 35bd d0dc 95bd 843e 223e
000002f0: a863 50bd b3e1 97bc 8005 b93d a31e f53c
00000300: bed5 a41e 8466 933d cf4c 513b 6c86 2dbc
00000310: c423 2b3e 8404 2a3d 7298 9cbd 4340 e4bc
00000320: 0321 1b3d e686 4d3c 4825 d9bc b8e0 ab18
00000330: 7467 7b3d c76e e93b 4ef9 243c 541e 9abb
00000340: c84b 80bd 4515 b73d ac69 563d a018 bdbd
00000350: 2f45 8e3d adaf a2bc faee 9f9c b38a 003d
00000360: 0d55 3cbd efb9 0aba b7dd 8ebd 4b13 98bd
00000370: c542 a1bd 8e59 c6bc 67fe 8c3d a132 a0bd
00000380: 61b0 ebbc 5989 0080 a2be 9ebd dea3 9bbd
00000390: 7c8d 37bd f3ae dabd 120f 5b3d b9e8 dcbc
000003a0: cab3 6c3c a0ac aabc 5f64 6fbd 3c07 d5bb
000003b0: 896c 0780 4b7e 45bd cef3 a63d 5445 18be
000003c0: 0038 1bbc bed1 a23d f096 ab3d 8ac3 093d
000003d0: 24e5 db3c f616 ff3d 962d 433b df7a f108
000003e0: c08e 093d ace1 27b9 46f3 adb8 ed59 84bd
000003f0: 3b1b af3d c268 27ba 9d42 003e c9c1 c93d
0.015089397 0.10479186 -0.06567434 0.022171363 0.062193274 6.73219e-40 0.102036096 -0.077684075
0.03555763 -0.012026946 0.10719856 0.016671358 0.106599785 0.03742743 0.13023436 0.06024538
-2.9435012e-21 -0.060886566 0.06733858 0.09131541 0.07129547 0.070233375 -0.015394327 -0.015781105
0.019101601 -0.020767225 0.033503223 1.2832693e-19 -0.069120795 -0.0061208145 0.029178154 0.026647344
0.065392755 0.076248504 -0.054146506 -0.098074466 0.0052110003 -0.025094721 -1.2004927e-18 -0.10700807
0.06109223 -0.12648743 -0.04971441 -0.13037078 0.005985282 0.06426852 0.17595455 -0.08709485
0.07690075 4.927e-41 -0.095960304 0.12252963 0.07258541 -0.087177314 0.04064411 0.050932765
0.13304801 -0.070586234 0.008651574 0.14020725 -4.9085e-41 -0.026140328 0.017741099 0.018100472
-0.07477759 -0.123069726 0.03041847 0.07333033 0.056339025 0.12611404 0.009413456 -4.571524e-15
-0.043174617 0.049762726 -0.035231724 -0.026866747 -0.012601876 0.047744855 0.10966726 -0.09554294
0.084479295 0.033554014 -5.4984598e-21 -0.06877634 -0.08005145 0.10148027 0.02684765 -0.032787107
0.06625224 -0.029837772 -0.07425664 0.031622674 0.034213632 4.9078e-41 -0.16086133 0.018577578
-0.0925983 0.019951077 -0.08514364 0.16580108 -0.07987433 0.09986761 0.1125293 0.12096345
-3.9059538e-22 0.12671581 -0.084484115 0.04542025 -0.04885938 -0.008032999 -0.04104687 -0.051829215
0.0049186307 -0.026554637 0.11964029 -8.235969e-29 0.09468601 0.10499651 0.058320954 0.16733718
-0.06801948 0.04671783 0.0025325906 -0.08704785 -0.008391232 0.0010065315 -6.288479e-23 0.012799326
0.07545571 -0.07941946 -0.09495278 -0.13574459 -0.018499149 -0.038387593 -0.0018219741 -0.0028610132
0.0032644342 3.839238e-23 -0.026820352 -0.030364865 -0.09674433 -0.048576914 -0.05083553 -0.02390623
0.04557107 -0.082018144 -0.09205743 0.026541842 1.180491e-19 0.08068786 -0.08044127 -0.069262564
-0.022694029 0.10349836 0.1858697 0.016837206 0.025084808 0.12008923 -0.015277261 -4.9218e-41
-0.120297834 0.070248075 0.085933216 0.09153176 -0.02826917 -0.101509646 0.014500901 -0.07996792
0.0020489467 0.017735766 -4.9233e-41 -0.024546942 0.10549015 0.056497496 -0.13440664 -0.0059720245
0.038899153 -0.04337694 0.08731787 0.016650043 0.1325738 -4.9104e-41 -0.0068644183 0.007858767
-0.014267702 -0.044203658 -0.07317507 0.1584416 -0.05087629 -0.018540239 0.09034252 0.029921835
1.7452577e-20 0.07197288 0.003193665 -0.010591131 0.16712862 0.041508213 -0.07646264 -0.027862674
0.03787328 0.012544369 -0.026507035 4.442937e-24 0.061377957 0.0071238014 0.0100692045 -0.0047033224
-0.06264454 0.08939604 0.05234687 -0.092332125 0.069467895 -0.01985916 -1.0583511e-21 0.031382274
-0.04597955 -0.00052919885 -0.069758825 -0.07425555 -0.078740634 -0.024212625 0.06884461 -0.07822157
-0.028770627 -4.9271e-41 -0.07751204 -0.075996146 -0.044812664 -0.106779 0.05348117 -0.02696644
0.014447162 -0.020834267 -0.05844533 -0.0065011065 -6.81784e-40 -0.048216145 0.08151971 -0.14870197
-0.009473801 0.079501614 0.083783984 0.033633746 0.026842661 0.12455551 0.002978181 1.4533547e-33
0.033583403 -0.0001601043 -8.294596e-05 -0.064624645 0.08550116 -0.00063861546 0.12525411 0.09851415

lstm.weight_hh_l0 f4 [256, 64]
00000000: 2693 90bd 5a6c f83d 955b b9bd 8d90 80bd
00000010: 3529 8f3d 5838 22bd 310f 033e ec85 f3bd
00000020: b1d7 d43d 928d a23c 0719 433d eeca 7ebd
00000030: dd2c e73c f271 843d 048d 253d 51e8 42bb
00000040: 79b8 12bd 2cf1 e7bc 5295 923d 6019 24bd
00000050: f981 5ebd c82a ca3d 4818 ae3d 3648 753c
00000060: 361c 58bd b353 20bd 7c78 153d a050 423d
00000070: 6d72 4ebd 2c90 223d 866b 29bd 3838 a03c
00000080: 438d 213d 0cba 0dbe 9679 b33b 21e6 d2bc
00000090: 7068 44bd e938 813d 8d4b 0dbd 1fe8 903b
000000a0: e19d 00be c75c 85bd c644 09be 6d97 70bd
000000b0: 62ae 13bd 21fe f83d b7d6 833d 7adb 0fbd
000000c0: 163d 893d 13af 55bd e8e7 1b3d c316 913d
000000d0: cf57 6c3c d136 c0bc 2662 9c3d 18f0 cabd
000000e0: b528 72bd 3777 b03b d969 40bc edd2 0abd
000000f0: d88c febb d9c1 ecbc 41d5 f8bd eb4a 60bd
00000100: 8deb 81bd 3c82 733d 24bd dabd 327e 2d3d
00000110: 4d7e f3bd bcc9 d1bc ddaf 8e3d 336f 453d
00000120: 4522 ac3d 9e2b 0bbc 5aa7 5dbd f0ee 18bc
00000130: b35f ab3c 9f7f 543d 6637 db3d c58b cebd
00000140: b07f bfbc 457d f13d 4f11 363d 1ce7 8a3c
00000150: 1463 b7bb 73cb 55bc 9939 0dbd 32dd 023c
00000160: 8584 023e b12f f7bb d118 21bd 5385 f93d
00000170: 101c 163e 3e7f a6bd efa6 1dbd 1c42 74bc
00000180: 3e33 8e3d 6bb2 c1bd 6400 173d 7552 343d
00000190: b878 babd 45f5 a13b aec5 b23d b306 283d
000001a0: e464 4dbd 4649 dc3c 1d08 66bd 2f00 aebd
000001b0: ffdf 993c e8bf 18bb ffd5 03bd 8219 3a3d
000001c0: 605f a6bd f7ff 39bc b8ff cabc aa11 f6bc
000001d0: 2b4d eabd a4d8 a33c efdc 7e3d 2563 4ebc
000001e0: e3d1 013e b8ec a23d 62b5 37bd aeaf 993d
000001f0: de5d b8ba cf90 b9bd 167e fdbd 6741 693d
00000200: db19 c13c 149e 31bc 9d87 2bbb 692d d2bc
00000210: e3d6 813d 841a 483d 2cfb c63c 8350 33bd
00000220: b566 a5bc 4df0 b1bd 7745 533d 716a f93c
00000230: 5bdc c83c b003 a53d c5e5 923c d75b a1bb
00000240: f0bf acbc 6582 89bd 29ce eabc ca28 86bd
00000250: a900 c13d 6c54 073d 853b cabc 43b7 c13c
00000260: 3b77 dbbb 8a4a 153d 6278 4a3d 917b 6abd
00000270: 778b c2bd ebbb 8a3a 63a8 293d 89d6 033b
00000280: f2f5 d137 0554 05bd c808 d5bc 709b 013d
00000290: 1658 98bd 5137 673c 7c43 d9bc 656d d7bc
000002a0: a377 333d 4fde af3c 9330 79bc 8e17 1cbb
000002b0: be80 21bc e352 c83c 5d81 7e3d c8f4 023d
000002c0: 98f0 1cba fb08 103c 8610 95bc 337d bb3a
000002d0: 58f3 543d 02f6 b93c b5fe af3b df22 583d
000002e0: 3de7 2f3c adb2 5b3d 1b2a 953d b70b 88bd
000002f0: bc38 ea3c 326f 48bd f1c0 b23c 3da5 afbc
00000300: c899 d6bc 9e15 443d 54a5 26bd 2684 b73d
00000310: 40d3 763d c589 983d 98e2 d6bc a7a4 7c3d
00000320: 7a09 efbc 78cd 11bd 2da7 c93d fbc9 71bd
00000330: bbde a03d f3cd 063c 5184 debd d316 173c
00000340: a6db 193d 89f5 8bbd 213f a4bc 7d54 afbd
00000350: 1273 933b ac83 a03d 21be 903d 40a9 92bc
00000360: 9b17 9dbb 1e77 b0bd 4db5 2ebc fe0c 7abc
00000370: a5f0 60bd 54e0 803d 451d 9bbd 6ba6 86bd
00000380: caf4 82bd 2ba3 b5bd a3ae 66bd 4d53 c03d
00000390: 4a02 bc3c cf1c e0bd a2de 76bd 551e a1bd
000003a0: 09b6 913d ea84 d13d f412 cb3c a519 70bd
000003b0: 1b6c 843c b3e4 353a b442 47bd 0bc3 833b
000003c0: 5c25 0abd 87aa 81bd f032 0e3a a48f 2ebd
000003d0: 287b b93d 24fc c7bb dbe3 a6bd 0c15 9fbd
000003e0: 9820 44bd 0a2b aa3d f027 7fbd f46c 3dbd
000003f0: ed12 a93c 8489 77bc 30ae ae3b 115e d23c
-0.07059316 0.121300414 -0.09050671 -0.06277571 0.069902815 -0.039604515 0.12798764 -0.11890778
0.10392702 0.019842897 0.04763129 -0.062205248 0.028219635 0.06467046 0.040417686 -0.0029740522
-0.035820458 -0.028313242 0.07157387 -0.040063262 -0.05432317 0.09871441 0.08500725 0.01497083
-0.05276128 -0.03914232 0.036491856 0.04744017 -0.050402094 0.039688274 -0.041362308 0.019558057
0.03944136 -0.13840503 0.0054771407 -0.0257445 -0.04795116 0.06309683 -0.03449588 0.0044222022
-0.12560226 -0.065118365 -0.13405141 -0.05873816 -0.036054976 0.12157846 0.06437438 -0.03512142
0.06701104 -0.052168917 0.03806296 0.070844196 0.014425232 -0.023463638 0.07635908 -0.099090755
-0.059120853 0.0053853053 -0.011743986 -0.03389256 -0.0077682547 -0.028901028 -0.1215005 -0.054758947
-0.06343756 0.059450373 -0.10680607 0.042356677 -0.11889324 -0.02560889 0.06967137 0.04820175
0.08404974 -0.008494286 -0.054114677 -0.009334311 0.020919656 0.05187952 0.10703926 -0.10085253
-0.023376316 0.117914714 0.0444501 0.016955905 -0.005596528 -0.013048994 -0.034478758 0.007987307
0.12745865 -0.007543527 -0.039330307 0.12183633 0.14659142 -0.08129738 -0.03848928 -0.01490834
0.069433674 -0.09457859 0.036865607 0.04402395 -0.091050565 0.0049425685 0.08729111 0.041022014
-0.050145045 0.026890408 -0.05616008 -0.08496129 0.018783567 -0.0023307744 -0.032186504 0.045434482
-0.0812366 -0.011352531 -0.02478014 -0.03003772 -0.114405 0.020000763 0.062222417 -0.01259688
0.12677722 0.07955307 -0.044850715 0.07504211 -0.001406606 -0.09060823 -0.123775646 0.05694714
0.0235719 -0.010840911 -0.002617336 -0.025656419 0.063398145 0.048853412 0.02428969 -0.043777954
-0.020190576 -0.08688412 0.05157992 0.030446263 0.024519136 0.08057344 0.017931828 -0.0049242782
-0.021087617 -0.06714324 -0.028662758 -0.06550749 0.09423954 0.033039495 -0.024686584 0.023646956
-0.006697563 0.03644804 0.049431212 -0.05724675 -0.09499257 0.0010584568 0.04142035 0.0020116887
2.5029269e-05 -0.03255083 -0.026005164 0.031642377 -0.07438676 0.01411231 -0.026521437 -0.02629728
0.043815266 0.02146831 -0.015209335 -0.002381775 -0.009857355 0.024453586 0.06213509 0.031971723
-0.0005986779 0.008791204 -0.018196356 0.001430428 0.051989883 0.022700313 0.0053709396 0.05276763
0.010736284 0.053637195 0.072834216 -0.066428594 0.028591506 -0.04893417 0.021820517 -0.021441096
-0.026196375 0.04787218 -0.040685013 0.08960752 0.060260057 0.074481525 -0.026231095 0.061680462
-0.029179323 -0.03559634 0.098463394 -0.059030514 0.078549825 0.008227813 -0.10865081 0.00922175
0.03756299 -0.068339415 -0.020049633 -0.08561037 0.0044998014 0.078376144 0.07067514 -0.01790297
-0.0047940738 -0.0861647 -0.010663343 -0.015261887 -0.054916997 0.06292787 -0.07573942 -0.065747105
-0.06394346 -0.088690124 -0.05631889 0.09390888 0.02295031 -0.10942995 -0.060270913 -0.078671135
0.071147986 0.102304295 0.024789311 -0.058618207 0.01616483 0.0006938681 -0.048647597 0.0040210537
-0.033727035 -0.06331354 0.00054244604 -0.042617455 0.09056693 -0.0061030556 -0.08148929 -0.07767686
-0.047882646 0.0830899 -0.062293947 -0.046246484 0.020638907 -0.01510847 0.0053308234 0.02567962

lstm.bias_ih_l0 f4 [256]
00000000: 6137 4cbd b252 a53d a9a4 a73d a6d9 dd3d
00000010: f665 4fbd 3b16 3f3d 12d9 083e 8596 b43d
00000020: 91f5 c43d cb5f 0fbc 9f09 323d 7181 673d
00000030: 8174 883c 4df5 003e c297 e53d ddc4 5b3d
00000040: b6a7 6d3d 3ac7 cc3d 9d4e ee3c 19af 1d3d
00000050: e027 56bc d3e8 c73d 02cd 93b9 a9fc fe3d
00000060: 1ada 82bd 6835 49bc 3f56 cb3d 2f99 99bc
00000070: b21a 833d 11e5 24bb 5ce5 493d 49c3 013d
00000080: b4da 21b8 7fe1 42bd 7f9a 273d 7071 2cbd
00000090: ce24 ce3d 32c4 f13d 6239 823d 8284 c63d
000000a0: b6c6 52bd dc33 ea3d f1a2 07bd 2387 9cbd
000000b0: 1d77 3f3d a665 63bd 13bc a43d 74f9 40bd
000000c0: d551 fcbd 972e ff3b e8b3 30bb 7c86 8fba
000000d0: 83a3 0f3e 0fad e1bb 98bb 52bd 21c2 853d
000000e0: 3481 dbbd 4cc1 0dbe 4cfb 313e 1657 56bc
000000f0: 38f7 013e 3a91 213e f710 153e 5f49 2b3c
00000100: 386c 23bc 7898 403e f6a4 953d c0fc 99bd
00000110: cfff be3d 85a3 b53d 568f 543d fb95 9c3c
00000120: b173 a5bd a33d f43d 5f72 debc 507a f83d
00000130: 5d07 133d 3fd1 093e a5a4 23bc 77e1 c1bd
00000140: cb88 053d 9332 16bc b0bc 6ebd c1de 1bbd
00000150: 2c31 aa3d 66e7 ec3d 4e75 69bd 8f31 243e
00000160: a488 91bd f2b7 d2bc 7e4d a9bd f863 ba3d
00000170: a55c 10bd 6511 cc3d 6f0a 1ebd 328d c6bd
00000180: 22e6 3d3c 42bc babd b92d 31bd 2a4c acbd
00000190: 7937 183e 7fbe bebd 2316 b5bd 81ce 7f3d
000001a0: 4281 83bd 19df 383d 3f6d 90bd 75d3 02bb
000001b0: 1d54 b0bb e321 43bb 2315 d53b ef3f adba
000001c0: 8460 16bd 0abb 1f3d 3610 0a3e 0b83 933d
000001d0: b702 5bbd 5f25 75bd bfb5 c0bc 7987 26bd
000001e0: 934d ec3b 9797 b63c e7e3 9c3d e108 9d3d
000001f0: d857 4ebd 1d18 81bd 478d 913d f58d 6dbc
00000200: 2a0a db3d 4a61 323d c016 fabc 7ead f33d
00000210: 101f ab3d e395 82bc 5866 4fbd 181a 033d
00000220: e4a0 f33d 99bb 1c3d 2ece 4fbb b27c 4abb
00000230: 770a 6cbd deab 04be ea71 8e3d 8309 f8bd
00000240: 9452 bc3b ae4f bc3c a6fd f53c ad51 4b3c
00000250: 07c3 86bd ed96 cb3d 40cc 26bd 5c76 a23c
00000260: 18a9 e33d 5f9f bf3d 4e63 b43d 3edd f73d
00000270: 958b 093e db0f 5a3d cf96 813d e60d 353d
00000280: 9ed8 6bbd d493 10be 32e2 023b 10a9 74bd
00000290: 2c2b c3bd 7ef7 34bd 7f20 b1bc a745 e6bc
000002a0: 6caa 0e3c 0ce7 c23c 1d67 a3bd 5864 023b
000002b0: 2482 a03d fe9e 643d c381 ccbd 453f b63d
000002c0: 192c ddbd 90a2 a63d 1629 d9bc ed69 22bd
000002d0: 5515 b3bd 5b1f fdbd a0ab 7e3c 662a 15bd
000002e0: d4ab e4bc daf7 143e ed73 79bd a53f d23d
000002f0: 17d2 5f3d d8cf 9f3d 424f 83bd 9428 0cbd
00000300: 3c35 7fbc 4520 a63c b1b3 a83d 640d 833d
00000310: 41b5 d73c d29e 053e 83f9 793d c59e a53d
00000320: b69a ca3d c861 223e 52e8 553b 709b 0c3c
00000330: 3337 573c 1c62 a63d a1f8 093c f88d 923d
00000340: 3b8a e33d f219 d5bc 3e1c 233c 9376 5c3c
00000350: 86bb 183c a78d a2bc cd0d 353e 226f d2bb
00000360: 62d1 9c3d d552 b13d 703d 343d 7e80 aebd
00000370: bb1b aabc 6de3 d43b 56fe 92bd 6e27 10bb
00000380: 6b1f f93c b586 f63b 8114 213e 8338 93bc
00000390: 6738 bcbc 338d 0d3e dc5d f3bd c49f a13d
000003a0: 1894 d8bb bf04 17bb 7db8 a13d ddb7 e83d
000003b0: c28e f0bc 2f85 40bc d7e2 b43c 1a46 4bbc
000003c0: 6e7c 9bbc 25e2 d83d 1604 cd3d 11bb 0c3e
000003d0: 3563 06bc 10dc 5c3d b432 003e fde4 a2bd
000003e0: 45db d73d 67da 04be 789d c63a 5475 28bd
000003f0: e802 8a3c caa9 27bd 5515 12bd 00b5 a1bd
-0.0498575 0.080724135 0.08185703 0.10832529 -0.050634347 0.04665206 0.13364056 0.08817772
0.096171506 -0.008750866 0.043466207 0.05651993 0.016657116 0.12593575 0.11210586 0.05365454
0.05802127 0.09998937 0.02909022 0.038497064 -0.01307103 0.097612046 -0.00028190768 0.12450535
-0.06389256 -0.012280799 0.099285595 -0.018749801 0.06401576 -0.0025160948 0.049291 0.03168038
-3.8589074e-05 -0.04757833 0.040918823 -0.04210037 0.10065614 0.118049994 0.06358601 0.096932426
-0.051459037 0.11435673 -0.033114377 -0.07642963 0.046744455 -0.05551686 0.08043685 -0.047112897
-0.12320296 0.0077875364 -0.0026962701 -0.0010950114 0.14027219 -0.0068870853 -0.051448435 0.06531168
-0.10718003 -0.13843268 0.17381018 -0.013082286 0.12691963 0.15778056 0.14557253 0.010454505
-0.009974532 0.18808162 0.073068544 -0.07518911 0.09326135 0.088690795 0.05189451 0.019114485
-0.08078707 0.11925819 -0.027154146 0.12132704 0.035895694 0.13458727 -0.009987985 -0.09466832
0.03260116 -0.009167331 -0.058285415 -0.03805423 0.0831016 0.11567573 -0.056996636 0.1603453
-0.0710614 -0.025722478 -0.082667336 0.09101099 -0.035244603 0.09964255 -0.03858417 -0.096948996
0.0115905125 -0.091179386 -0.043256495 -0.08412965 0.14864911 -0.09313678 -0.08842113 0.062452797
-0.06421138 0.045134638 -0.07052087 -0.0019962464 -0.005381121 -0.0029774837 0.006502764 -0.0013217906
-0.03671314 0.038996734 0.13482746 0.07202729 -0.053469386 -0.059850093 -0.023524163 -0.04065654
0.007211396 0.02228908 0.076606564 0.07667709 -0.050376743 -0.06303427 0.07107025 -0.014499177
0.10695298 0.043549813 -0.030528426 0.118983254 0.08355534 -0.015940612 -0.050634712 0.032007307
0.11895922 0.038264845 -0.0031708586 -0.0030897078 -0.057627168 -0.12956187 0.06955321 -0.12111189
0.0057471488 0.022987213 0.030028176 0.01240961 -0.06580167 0.09940896 -0.04072213 0.019831829
0.111162364 0.093565695 0.08808003 0.121027455 0.13432153 0.053237777 0.063275926 0.044202708
-0.05757963 -0.14118892 0.0019971249 -0.059731543 -0.09529719 -0.04418134 -0.02162194 -0.028109385
0.008707624 0.023791812 -0.07978652 0.0019896235 0.07837322 0.05581569 -0.099856876 0.088987865
-0.107994266 0.08136475 -0.02650885 -0.0396518 -0.08744303 -0.12359496 0.015543848 -0.036417387
-0.027913965 0.14547673 -0.06090157 0.102660455 0.054643717 0.07803315 -0.064116016 -0.034218386
-0.015576657 0.02027906 0.082373984 0.063990384 0.026331546 0.13048866 0.06102897 0.080869235
0.0989279 0.15857613 0.0032639694 0.008581981 0.013135719 0.08124182 0.008421094 0.07155985
0.1111035 -0.026013348 0.009955464 0.013456005 0.009322053 -0.019842936 0.17681046 -0.0064219395
0.07657124 0.08658377 0.044003904 -0.08520602 -0.020765176 0.006496838 -0.07177417 -0.0021996158
0.030410489 0.0075233825 0.15730478 -0.017971283 -0.022976113 0.13823394 -0.11883137 0.07891801
-0.006609451 -0.00230436 0.078965165 0.11363194 -0.029364947 -0.011750503 0.022080822 -0.01240685
-0.018980231 0.10590009 0.10010545 0.13743235 -0.008202364 0.053920805 0.12519342 -0.07953832
0.10539869 -0.12973939 0.001515313 -0.041127518 0.016847089 -0.040933408 -0.035664875 -0.07895851

lstm.bias_hh_l0 f4 [256]
00000000: 9103 c5bc 56c2 253d c850 b43c 67b6 a6bd
00000010: fa27 38bd 4d48 2dbd c260 88bd e588 0a3e
00000020: dcb0 b33d 0db7 063e cdc3 663d 2fb2 b13d
00000030: be7a bb3c 5cea c33d 6123 da3c 3892 283d
00000040: 0544 973d b9be e23d 3642 83bd 60e2 d43c
00000050: 8959 81bd dfe8 d73d bdef 0f3e 38a5 293d
00000060: 6a96 5cbd 5441 923d 91b6 fc3d d1f1 8f3d
00000070: 1da2 763b 57ad 203e 309e e4bd 16b0 16bd
00000080: a9a9 a33d 7c4c c43c 0008 9c3b 95ba 21bb
00000090: 8a16 82bd cfa3 7c3d aa9f 0fbe a3f3 38bd
000000a0: c2bc 8bbd 5952 503d 9359 0fbd ac85 81bd
000000b0: 26b9 34bd b5f8 82bc 087a 913d 9fb8 5f3c
000000c0: a069 b1bd c47b 0b3e 6290 3b3d 2dcf 63bd
000000d0: 95a4 f13d 90b4 11bd 7979 f83c 6037 a83d
000000e0: 7728 953d 4ba5 e7bd 2e2a 313e 3136 b43d
000000f0: 2bc5 fe3d f94e 073e ba30 b63c acc6 8cbd
00000100: a658 453d 821f 1b3e 3b14 7ebd 9bae 64bd
00000110: 48dc c23d 14fd a63d 855c 8a3c 7308 043e
00000120: 7b23 9e3d 8c78 0c3e 403b 9f3d fc45 95bd
00000130: 003e 1f3d 1808 0abc a8fa fb3d 9013 6e3d
00000140: caf6 a6bb 55ad 3a3d 9a97 f0bd 8234 f63d
00000150: 291e 90bd 169e a43c d701 213e 977d 19bd
00000160: 1ac3 d73c b03a ccbc 480a 9d3d 382c 69bd
00000170: 8d09 1a3e fe4c debc 8242 0fbd 01a0 c9bd
00000180: 4029 2b3c 1f32 8e3d 6efe c53d e987 f23c
00000190: 1a64 643d 3e66 ea3c fd29 b83d 6f99 e5bb
000001a0: 3dea a1bd 8c71 f73c 0811 b23d bcea 453d
000001b0: 889e 813c e919 e33c d555 bc3c 8b97 fabc
000001c0: 9982 513d b7fa 6c3c fa5b 6e3d 55e2 f8bc
000001d0: 9eaf 023d ae85 f73d 6c0d 4d3d b520 a53c
000001e0: ed85 4bbb 7ff5 62bd 8a79 003e e05f 9d3c
000001f0: 8bc2 a93d 8cf9 e43d 592e b1ba 48cf 8d3a
00000200: d318 e1bc 0164 bebd dfe7 d5bd b580 b9bd
00000210: 3927 4cbd 413e bcbd 6ad9 903b 93ff 253b
00000220: af33 f63d 5e11 323d 87f3 c1bd cf50 ad3b
00000230: 71cc 06bc 6f70 e7bd bb65 4b3d 2f3a 453d
00000240: 96da 343c 23b1 e83c 2cb9 cd3d 3d52 7e3d
00000250: 54be 33bc 254d b6bd d9ce 9bbd 741f 993d
00000260: 6d9d 8cbd 1400 333c 4a5e 053d c4cf 853d
00000270: b2a4 e23d 330c d53b e0b9 f7bd 003b 8ebd
00000280: c6a4 e13d c495 47bd 3352 e33d dd45 3e3d
00000290: 328f 19bd 9e26 15be c791 d43d 6feb a63c
000002a0: f547 e5bd 0088 edbd 9d7c 00be ef8e 4abd
000002b0: 4b90 d1bd b2f2 1a3c 3619 96bd 2ad5 d13c
000002c0: 8f8d 1fbd ce33 88bd 5514 7c3c 0d3d 993d
000002d0: ac9e 03bd 3032 0cbe babb 55bc 1f59 54bd
000002e0: fdd6 c53c b035 993d a745 e03d 453e c2bd
000002f0: b6b6 59bd 490e 563d d684 bb3d 223f a4bd
00000300: 9cbe b03d ce77 f83d d024 c93d d407 5abd
00000310: 76ef 0a3d 0f5e bd3d 4f94 8bbd ee36 fa3d
00000320: d4ed 20bd 5af4 913d 65fc ed3b 45c7 9339
00000330: 99b2 fcbd 7aa2 3dbd 635a f13d 95b1 093d
00000340: cfe6 0ebd 06ad 2abd d79e 8a3d 524d 2c3e
00000350: e94c 75bd c36e abbc 2604 cdba ceb2 083d
00000360: 8aef 9dbd b0f6 23bd f5e1 47bd 5150 53bd
00000370: cec3 c3bc 7061 a93d f43c e6bd 340a 78bd
00000380: 6127 abbd 34cc e1bd f342 543d db7a 53bc
00000390: 9e53 90bd 6a8a 60bd bd5f a23d 42b0 cf3c
000003a0: 3d3d d63d 017d 49bd 6c0c de3c f9a5 49bd
000003b0: dce5 1a3d 0771 1cbc 1647 e53c eb28 593d
000003c0: 3bf8 e8bd b9f7 a6bd c202 df3c 73ad b73c
000003d0: 1b82 973d dbf1 d33d df7a 52bd e294 2a3d
000003e0: e45b e03a 75cb 13be baab 28bd 7ac1 c43d
000003f0: ca39 363b 066e de3d 0311 bd3d e397 02bd
-0.024049552 0.040468536 0.022011176 -0.08140259 -0.04496 -0.04230528 -0.0665908 0.13528784
0.087739676 0.13155766 0.056339074 0.08676564 0.022885676 0.09566185 0.026628198 0.04115507
0.073860206 0.11071534 -0.06409113 0.02598685 -0.063159056 0.105424635 0.14056297 0.04141733
-0.053854384 0.071413666 0.12339509 0.07028545 0.0037633248 0.15691124 -0.11162984 -0.036789022
0.079913445 0.023962252 0.004761696 -0.0024677862 -0.06351955 0.061679658 -0.14025751 -0.045154225
-0.06823112 0.050859783 -0.034997534 -0.06324324 -0.044121884 -0.015987733 0.07103354 0.013654857
-0.086627245 0.13621432 0.04579199 -0.0556175 0.1179897 -0.03557259 0.03033136 0.08213687
0.07283109 -0.11310824 0.17301247 0.08799399 0.124399506 0.1321372 0.022240032 -0.06873831
0.048180245 0.15148738 -0.062031012 -0.05583058 0.095146716 0.081537396 0.01688982 0.12893848
0.07721611 0.1371786 0.07774973 -0.07288739 0.038877487 -0.008424781 0.12303668 0.058124125
-0.0050953375 0.04557546 -0.11747666 0.12021734 -0.070370026 0.020094912 0.15723358 -0.037473287
0.026338149 -0.024930328 0.076679766 -0.056926936 0.15042706 -0.027136322 -0.034975536 -0.098449714
0.0104468465 0.069431536 0.09667669 0.029605823 0.055759527 0.028613206 0.08992384 -0.007006816
-0.079060055 0.03020551 0.08694655 0.048319563 0.015822664 0.027722316 0.022990147 -0.03058984
0.05114994 0.014464072 0.058193184 -0.030381361 0.031905763 0.12086044 0.05006163 0.020157197
-0.0031055168 -0.055409905 0.12546363 0.019210756 0.08289059 0.1118041 -0.0013517841 0.0010819221
-0.027477657 -0.09296418 -0.104446165 -0.09057752 -0.049842093 -0.091915615 0.004420449 0.0025329336
0.120215766 0.043473594 -0.09470277 0.005289174 -0.008227454 -0.11300742 0.049657565 0.04815119
0.011038443 0.028404778 0.10045084 0.062090147 -0.010970671 -0.08901433 -0.076078124 0.07476702
-0.06865964 0.010925312 0.032560624 0.06533769 0.110665694 0.0065016984 -0.12096 -0.06944847
0.11017756 -0.048726812 0.11099663 0.046453346 -0.037490077 -0.14565513 0.10379367 0.020375935
-0.11195365 -0.115982056 -0.12547536 -0.04945272 -0.102326 0.009457277 -0.07329027 0.02561434
-0.03895336 -0.06650506 0.015385707 0.07482348 -0.032133743 -0.1369102 -0.013045246 -0.051842805
0.024150366 0.07480943 0.10950785 -0.09484533 -0.053152762 0.052259717 0.09156196 -0.08019854
0.08630106 0.12132226 0.098214746 -0.05323012 0.033919774 0.09246456 -0.06815397 0.12217508
-0.03928931 0.071266845 0.007262754 0.00028186492 -0.12338752 -0.046297528 0.11784818 0.03361662
-0.034888085 -0.041668914 0.067685775 0.1682637 -0.0598878 -0.020926839 -0.0015641495 0.033373646
-0.07711704 -0.04003018 -0.048799474 -0.051590268 -0.023897078 0.08270538 -0.11242095 -0.060556605
-0.0835712 -0.11025277 0.05182166 -0.012907709 -0.07047199 -0.054819502 0.07928417 0.025352601
0.10460899 -0.04919148 0.027105533 -0.04923055 0.037816867 -0.009548432 0.027987998 0.053017538
-0.11375471 -0.08152718 0.027222995 0.022421574 0.073978625 0.10348865 -0.05138671 0.041645892
0.0017117229 -0.14433081 -0.041179396 0.09607215 0.002780544 0.10860829 0.0923176 -0.03188313

fc.weight f4 [1, 64]
00000000: 2af2 103e 37a5 133c ced8 39bd a2e5 e9bd
00000010: 94bb 8e3d 7d6b bf3d 8223 023d cdb1 1a3e
00000020: d9d1 09be c19b d53d c425 203d b6d8 a8bd
00000030: c94f aabc d827 37bb 9a34 0cbe a59c 69bb
00000040: 31b0 113e dfb7 e6bd 8cf5 1dbd d336 e1bd
00000050: 53d0 31bb 2bfc d5bd 90c0 173e 3ca9 23be
00000060: 1ded 9ebd d1d7 10be 9da1 273e 1153 f5bd
00000070: 5e9e 943d 5b3d 073d 96a5 8c3b 006c 183c
00000080: 9177 73bd f16a c7ba 68dc cbbd 3513 9f3d
00000090: d704 2cbe eb84 ea3d 5719 ea3d a84a d5bd
000000a0: f1d1 13be f8d4 973d a7d8 a33d 3373 063d
000000b0: 130b 9dbd ad71 47bd d7c6 fa3a 023c 96bd
000000c0: cbd7 14bd 5527 0fbe 6677 debd 7b1c 59bc
000000d0: c2a7 b83d dc22 5b3d 62a6 fcbc 3dda bbbd
000000e0: d4be 2b3d 020a 4c3d 4c1e 273e c45d 1bbe
000000f0: 6bc7 d5bd e6b0 003e 02ec 9e3d 9622 7e3d
0.14154878 0.009011558 -0.045372777 -0.11420752 0.069693714 0.09346674 0.031772144 0.15106888
-0.13458957 0.10430098 0.039098516 -0.08244459 -0.020789998 -0.0027947333 -0.13691941 -0.0035646346
0.14227368 -0.112655394 -0.03856425 -0.10996785 -0.0027132228 -0.10448488 0.1481955 -0.15982527
-0.077600695 -0.14144827 0.16370244 -0.11978734 0.07256769 0.033017498 0.0042922003 0.009303093
-0.0594402 -0.0015214366 -0.099541485 0.07767335 -0.16798721 0.11451133 0.114306144 -0.1041463
-0.14435555 0.074136674 0.080003075 0.032824706 -0.07668128 -0.048692394 0.0019132745 -0.07335664
-0.03633861 -0.13979848 -0.10862617 -0.013251419 0.09016372 0.05350004 -0.030841056 -0.09172485
0.041930035 0.04981423 0.16320151 -0.15172487 -0.104384266 0.12567481 0.07759859 0.062044702
