checkpoints/best_model.pth (torch, 89385 bytes, 5 tensors)

lstm.weight_ih_l0 f4 [256, 19]
0.03474533 -0.13552085 0.17832492 0.024847671 0.058482535 -0.064768 0.03997206 0.00037037345
0.16292325 0.06524595 0.06888893 0.15584654 0.05742273 0.10699184 0.110058695 -0.058872174
-0.021107743 0.0076741097 -0.17675799 -0.0034017838 -0.024421345 0.0274297 0.0067131934 -0.00830831
-0.025397927 0.0074796826 0.02627101 0.0114170015 -0.015260139 0.032733582 0.03150977 0.00481678
-0.006756751 0.0032174005 0.02794744 0.070635684 0.028819203 0.07131627 0.00088495633 0.030254656
-0.0024772682 0.01982263 -0.011549483 0.013782905 -0.0013131622 0.018167559 0.0030057554 0.03644877
0.015365417 0.005711076 0.019007068 0.017010555 0.016455926 -0.0188483 0.079884134 -0.14270437
-0.032073032 0.028791219 0.008756539 -0.069096446 0.060792226 -0.009843287 -0.026869135 0.0008236029
0.01774762 0.09629691 0.015265105 -0.04031812 0.033277582 -0.012615467 0.019392952 0.06780645
0.009420975 0.053003315 -0.054737832 -0.17865978 0.06719198 0.14015667 0.014601818 -0.060217727
0.0047488124 0.036639955 -0.16329503 0.104846865 0.044577323 -0.00046732606 -0.02389946 -0.05359378
-0.028168136 -0.053764466 0.025244478 -0.05906925 0.06313288 0.021264672 -0.12503631 0.27862978
0.017024407 0.12913083 0.18641028 0.2893458 0.27949396 0.21065618 -0.0025320973 0.10838547
0.27560037 -0.16517986 0.1256174 0.28161877 0.41351035 0.43731803 -0.33103162 0.115700975
-0.045650873 -0.17563957 -0.006689362 0.12955414 -0.14025985 0.16140671 0.0359721 -0.08442433
-0.051299244 0.1428646 0.089585625 0.15059227 0.044313345 0.019999368 0.1092757 0.07705619
0.14879876 -0.013942461 0.13442291 -0.03253418 0.038950544 -0.002637419 -0.0069264807 0.00760541
-0.004130998 -0.003909275 0.0013443101 0.009501915 0.00019520738 -0.01894946 -0.017790655 0.008442938
-0.021186486 -0.0027118945 -0.0138395345 -0.017507136 0.0053704316 0.00019040784 0.035724144 0.010809734
-0.0063544572 -0.13099006 -0.13837181 0.02365122 0.13632 -0.07823161 -0.035248637 0.009880398
0.09381077 -0.09357413 0.00093996845 -0.033735663 0.04424208 -0.08383016 -0.00052909926 0.0014610272
0.060169235 0.011960178 -0.12160568 0.08789013 -0.10844508 0.042867243 0.117428474 0.090186976
-0.073708974 0.09966687 0.036785576 0.08184048 0.025705123 0.121180624 0.05987818 0.05957196
0.107460834 0.11433252 -0.069082454 0.15577202 0.06606376 0.20165369 -0.022539208 -0.060334753
-0.15511115 0.21914567 -0.020909457 -0.06720408 -0.08265611 0.10722602 0.12620021 -0.03510521
0.023573998 0.086790524 0.006920546 -0.0016935552 -0.023447542 0.050996505 -0.058616344 0.05355051
0.06891873 0.16419119 0.07039877 0.096315086 -0.034678258 0.11782848 0.18745646 0.04803218
0.048928864 -0.018990757 0.093615614 -0.061115555 -0.0370819 0.10502351 0.15971398 0.15268797
-0.11626962 -0.08304626 0.06638074 0.034089155 0.21076444 -0.21029358 0.03934372 0.32770628
0.08666766 0.24136165 0.30722657 0.019531425 -0.20624964 0.03260163 -0.018487787 -0.033520892
0.12093548 0.12504072 0.19712758 -0.1335421 0.021077799 0.04774478 0.064502485 0.017300714
0.030034939 -0.063294575 0.0007882275 0.06391499 -0.071975894 0.03187889 0.057283726 0.0016439211
00000000: 1f51 0e3d fac5 0abe cf9a 363e 588d cb3c
00000010: 628b 6f3d 16a5 84bd beb9 233d af2e c239
00000020: 5ad5 263e ab9f 853d a415 8d3d 3c96 1f3e
00000030: 1934 6b3d 8a1e db3d 7466 e13d f323 71bd
00000040: 25ea acbc 1977 fb3b 0c00 35be 76f0 5ebb
00000050: 460f c8bc 40b4 e03c 59fa db3b 941f 08bc
00000060: 500f d0bc 2018 f53b 4d36 d73c 600e 3b3c
00000070: a905 7abc a613 063d 6310 013d 14d6 9d3b
00000080: bc67 ddbb 06db 523b 08f2 e43c 71a9 903d
00000090: 4016 ec3c 440e 923d 6afc 673a 9dd8 f73c
000000a0: aa59 22bb 1163 a23c 0b3a 3dbc b2d1 613c
000000b0: 691e acba 22d4 943c 35fc 443b 4e4b 153d
000000c0: 3bbf 7b3c fa23 bb3b b6b4 9b3c b859 8b3c
000000d0: 94ce 863c c067 9abc 4b9a a33d 1821 12be
000000e0: 035f 03bd 90db eb3c 9677 0f3c 7082 8dbd
000000f0: 4501 793d bd45 21bc a91c dcbc 0ee7 573a
00000100: 7563 913c 5037 c53d 7e1a 7a3c 9d24 25bd
00000110: 134e 083d 1bb1 4ebc f8dd 9e3c 1cde 8a3d
00000120: 6f5a 1a3c 011a 593d c734 60bd 97f2 36be
00000130: f39b 893d 3b85 0f3e 773c 6f3c dda6 76bd
00000140: ed9b 9b3b c713 163d d036 27be f4b9 d63d
00000150: b696 363d 7103 f5b9 cdc8 c3bc 2785 5bbd
00000160: ddc0 e6bc 2138 5cbd 82cd ce3c 99f2 71bd
00000170: d04b 813d 4033 ae3c 8509 00be 90a8 8e3e
00000180: c576 8b3c df3a 043e 56e2 3e3e 2225 943e
00000190: d519 8f3e 41b6 573e 8bf1 25bb 34f9 dd3d
000001a0: 7e1b 8d3e e924 29be d9a1 003e 5630 903e
000001b0: a1b7 d33e 26e8 df3e fa7c a9be a2f4 ec3d
000001c0: 69fc 3abd dcda 33be 7032 dbbb d7a9 043e
000001d0: 47a0 0fbe cd47 253e 7b57 133d aae6 acbd
000001e0: 281f 52bd 194b 123e ab78 b73d dc34 1a3e
000001f0: e981 353d b7d5 a33c f0cb df3d a3cf 9d3d
00000200: b45e 183e ec6e 64bc 29a6 093e 8f42 05bd
00000210: 9b8a 1f3d 8cd8 2cbb 88f7 e2bb ce36 f93b
00000220: 535d 87bb 6019 80bb 9033 b03a ecad 1b3c
00000230: 95b0 4c39 e63b 9bbc b5bd 91bc 4054 0a3c
00000240: 488f adbc 0aba 31bb 37bf 62bc 206b 8fbc
00000250: 72fa af3b 37a8 4739 7b53 123d 501b 313c
00000260: 0d39 d0bb 4222 06be 57b1 0dbe 34c0 c13c
00000270: 7897 0b3e e537 a0bd e060 10bd 65e1 213c
00000280: dc1f c03d cba3 bfbd 3768 763a 682e 0abd
00000290: 2f37 353d 26af abbd 40b3 0aba f07f bf3a
000002a0: 0474 763d 9ff4 433c 660c f9bd beff b33d
000002b0: 7418 debd 9095 2f3d 577e f03d f3b3 b83d
000002c0: bbf4 96bd 251e cc3d 79ac 163d fb9b a73d
000002d0: 8d93 d23c 8c2d f83d d342 753d ba01 743d
000002e0: 6d14 dc3d 2b27 ea3d 1a7b 8dbd b382 1f3e
000002f0: 704c 873d 4e7e 4e3e 25a4 b8bc 9321 77bd
00000300: 75d5 1ebe b967 603e 4f4a abbc 4ba2 89bd
00000310: 9b47 a9bd 5199 db3d a13a 013e 7bca 0fbd
00000320: 421e c13c 3bbf b13d bfc5 e23b 48fa ddba
00000330: 0f15 c0bc b6e1 503d b117 70bd c857 5b3d
00000340: 4325 8d3d bc21 283e 3b2d 903d d840 c53d
00000350: ca0a 0ebd 0f50 f13d 96f4 3f3e 64bd 443d
00000360: a269 483d 8192 9bbc 8bb9 bf3d 4e54 7abd
00000370: 31e3 17bd 9116 d73d 108c 233e 3c5a 1c3e
00000380: c41e eebd 2814 aabd a0f2 873d 12a1 0b3d
00000390: a2d2 573e 3357 57be e126 213d 1ec9 a73e
000003a0: d07e b13d 8227 773e cd4c 9d3e 5e00 a03c
000003b0: 1b33 53be 4989 053d b373 97bc 344d 09bd
000003c0: 05ad f73d ad0a 003e d0db 493e 43bf 08be
000003d0: 59ab ac3c 0890 433d e119 843d 3aba 8d3c
000003e0: d50b f63c 96a0 81bd 0da1 4e3a dde5 823d
000003f0: 1968 93bd 7093 023d 57a2 6a3d d778 d73a

lstm.weight_hh_l0 f4 [256, 64]
-0.057062898 -0.010377324 -0.021020105 0.06738832 -0.051068187 0.10471499 -0.15833001 -0.0013803616
0.03574486 -0.010678278 0.031025803 0.031180985 -0.022806391 -0.033018723 0.029095238 -0.026773144
-0.018827155 0.082068324 -0.07719171 0.016919585 -0.01947554 -0.087022536 0.03692513 -0.08842149
-0.03544613 -0.08281666 -0.083331615 0.04977818 -0.024987299 -0.024361182 -0.054673877 0.042252608
0.06497783 -0.013962065 -0.04706377 0.030065449 -0.05329077 -0.02583096 0.12209886 0.024803124
-0.016896574 -0.02134988 0.06333523 0.03671126 -0.0056470823 0.004626423 -0.07100315 -0.02386008
-0.09455167 0.097353056 0.06277138 -0.09189176 0.018871428 -0.02577418 0.055126056 0.08405949
-0.03574363 0.07324134 0.06688115 0.042179596 0.053972445 0.13232152 -0.0635442 0.033770423
0.021892047 0.0005070881 0.004898737 -0.00095943094 0.00021414805 0.028730804 -0.009132858 0.0009880012
0.0010423162 -0.0048125824 0.0074432683 -0.0104268845 0.0004466435 0.00035258685 0.008301043 -0.0028088181
-0.008351991 -0.004329838 0.0030727934 0.0019992027 -0.0064105783 -0.017640712 0.001632108 -0.008380219
-0.00063760224 -0.00034596602 -0.008706289 -0.0014578976 -0.003432312 -0.0013455956 -0.008625765 0.00039815766
-0.0021132848 -0.0013650906 -0.0010159473 0.007341829 0.001240251 -0.016520992 0.013236618 0.006083529
-0.010324132 -0.0007219672 -0.0036735598 0.008743946 -0.005683317 -0.008578971 -0.0026570074 -0.013532793
-0.004560205 0.00698543 0.0067451852 -0.0073405365 0.0130848745 -0.00329655 0.009613277 0.0043533323
-0.0015505938 0.00480355 -0.00050146464 0.011806993 -0.0012426119 0.012948599 -0.011496897 0.0070342002
-0.004582147 0.0067096874 -0.014384345 0.0019422673 -0.020310633 0.0017594747 -0.011769288 -0.0048421724
0.017659884 0.037432566 -0.0034416895 0.013324923 0.008307644 -0.0069864984 0.003610549 0.0014434647
-0.000846078 0.014729323 -0.015339757 0.01014791 0.0004647525 0.0043407916 0.009119994 -0.0054030237
-0.0038255078 -0.0307844 -0.006867112 0.015106919 -0.0046186196 -0.0050936225 0.0011904966 0.004323598
0.01846102 -0.008672945 -0.019093117 0.006930964 -0.013844863 0.0017322091 -0.008337615 -9.317306e-06
0.0018679037 -0.0053939642 0.014658865 0.005455263 -0.0051879333 -0.0019369063 -0.001214135 -0.00059572054
-0.017652147 0.006151692 0.014765591 -0.0023464235 0.018683676 -0.019625966 0.0017103963 0.009591149
-0.007924136 0.003387719 0.017086621 -0.013303387 0.014560042 0.017125297 0.010077662 0.010338353
-0.011318414 0.0036112538 -0.003629515 0.020126129 -0.032468487 -0.0788542 -0.0018791419 0.0021932065
-0.0127748735 -0.02591414 0.004351652 -0.010970161 0.005846049 0.0012600613 -0.013391057 -0.0010774754
0.002594865 0.062207878 -0.00048756629 0.0065442272 -0.0023857066 0.00036079704 0.032326333 -0.026406365
0.004228705 -0.02640462 -0.024132276 0.033784296 0.005887621 -0.007117717 -0.009145826 0.04385235
0.025137236 -0.012450905 -0.03232357 -0.004078952 0.030524973 0.00047808082 -0.0013215288 -0.00040547922
0.004750261 0.0002593809 0.012621873 -0.009086286 -0.0080720605 -0.0043774988 -0.010335139 -0.004654685
-0.016674142 0.02529672 0.007782061 -0.03634737 -0.01074266 0.004138466 0.010696061 0.02038441
-0.008246613 0.025363829 0.013749342 0.008447967 0.010439328 0.01227035 -0.009975082 0.0053012986
00000000: c9ba 69bd a705 2abc 5b32 acbc e302 8a3d
00000010: e02c 51bd d074 d63d 4321 22be 40ed b4ba
00000020: 3469 123d f2f3 2ebc d329 fe3c 446f ff3c
00000030: 78d4 babc a43e 07bd 2359 ee3c 5a53 dbbc
00000040: 683b 9abc 7013 a83d b016 9ebd f19a 8a3c
00000050: 2b8b 9fbc df38 b2bd ce3e 173d 5316 b5bd
00000060: f62f 11bd c89b a9bd c4a9 aabd 34e4 4b3d
00000070: 2ab2 ccbc 1a91 c7bc b7f1 5fbd 1211 2d3d
00000080: 1913 853d 25c1 64bc f1c5 40bd d14b f63c
00000090: 6c47 5abd 739b d3bc f80e fa3d ec2f cb3c
000000a0: af6a 8abc f2e5 aebc e7b5 813d 8c5e 163d
000000b0: 290b b9bb 4099 973b 196a 91bd 3776 c3bc
000000c0: 4ea4 c1bd 0a61 c73d 488e 803d bf31 bcbd
000000d0: 4198 9a3c 6024 d3bc dccb 613d 6227 ac3d
000000e0: ea67 12bd 8eff 953d fcf8 883d 83c4 2c3d
000000f0: 3612 5d3d 4b7f 073e 7623 82bd db52 0a3d
00000100: f356 b33c 1bee 043a 9685 a03b 5282 7bba
00000110: ee8c 6039 dd5c eb3c fca1 15bc d27f 813a
00000120: 549e 883a deb2 9dbb a9e6 f33b 86d5 2abc
00000130: 7a2b ea39 68db b839 1901 083c 2614 38bb
00000140: cad6 08bc 50e1 8dbb eb60 493b 0e05 033b
00000150: d40f d2bb 4183 90bc 75ec d53a 304d 09bc
00000160: c324 27ba c662 b5b9 d3a4 0ebc ed16 bfba
00000170: a4f0 60bb b25e b0ba 1553 0dbc d1bf d039
00000180: 097f 0abb d7ec b2ba 8929 85ba ba93 f03b
00000190: eb8f a23a 0857 87bc 66de 583c 5758 c73b
000001a0: 8c26 29bc 6642 3dba 1bc0 70bb c542 0f3c
000001b0: 1e3b babb d08e 0cbc 3021 2ebb a6b8 5dbc
000001c0: c66d 95bb 09e6 e43b b706 dd3b e288 f0bb
000001d0: f161 563c ee0a 58bb 0281 1d3c 66a6 8e3b
000001e0: 4b3d cbba 1967 9d3b b974 03ba 1e72 413c
000001f0: 23df a2ba 5c26 543c 7b5d 3cbc 267f e63b
00000200: d625 96bb f0dc db3b 51ac 6bbc ad93 fe3a
00000210: 7c62 a6bc 2d9e e63a f9d3 40bc 16ab 9ebb
00000220: 76ab 903c e452 193d f88d 61bb c750 5a3c
00000230: c91c 083c ffee e4bb f69e 6c3b a332 bd3a
00000240: 55cb 5dba 4253 713c 9b53 7bbc 6b43 263c
00000250: 06aa f339 333d 8e3b 076c 153c d90b b1bb
00000260: 5fb5 7abb 912f fcbc 8305 e1bb 0383 773c
00000270: ca57 97bb 67e8 a6bb 700a 9c3a f8ac 8d3b
00000280: 913b 973c f818 0ebc 2b69 9cbc 241d e33b
00000290: 90d5 62bc 4b0b e33a 7e9a 08bc 8651 1cb7
000002a0: 73d4 f43a dabf b0bb bc2b 703c 10c2 b23b
000002b0: 8aff a9bb cadf fdba 9c23 9fba 212a 1cba
000002c0: 3c9b 90bc 2294 c93b 61eb 713c 74c6 19bb
000002d0: 820e 993c a2c6 a0bc 602f e03a 3224 1d3c
000002e0: 3cd4 01bc 7e04 5e3b 3ef9 8b3c 73f6 59bc
000002f0: 3e8d 6e3c 5a4a 8c3c c71c 253c 3262 293c
00000300: de70 39bc c9aa 6c3b 28dd 6dbb 8ddf a43c
00000310: adfd 04bd 507e a1bd 8a4d f6ba e6bb 0f3b
00000320: b44d 51bc e449 d4bc 4e98 8e3b 31bc 33bc
00000330: 3790 bf3b a428 a53a 2a66 5bbc 133a 8dba
00000340: 9c0e 2a3b b0cd 7e3d 0aa0 ffb9 f570 d63b
00000350: 8459 1cbb 5c29 bd39 9e68 043d 2952 d8bc
00000360: f390 8a3b 804e d8bc 0db1 c5bc 6761 0a3d
00000370: f2ec c03b bd3b e9bb 60d8 15bc 869e 333d
00000380: 9bec cd3c e1fe 4bbc b865 04bd bba8 85bb
00000390: 820f fa3c eca6 fa39 2637 adba 8096 d4b9
000003a0: 14a8 9b3b 84fd 8739 f9cb 4e3c a5de 14bc
000003b0: ad40 04bc 1f71 8fbb b754 29bc 5486 98bb
000003c0: 3698 88bc 113b cf3c a900 ff3b fbe0 14bd
000003d0: fb01 30bc f89b 873b 883e 2f3c 35fd a63c
000003e0: cd1c 07bc cec7 cf3c ec44 613c 5769 0a3c
000003f0: b709 2b3c 9409 493c 876e 23bc 84b6 ad3b

lstm.bias_ih_l0 f4 [256]
0.08330839 0.036170144 0.040807474 0.072111525 0.103807256 0.43998897 0.02149395 -0.020186707
-0.055916063 0.09803776 -0.05749278 0.15117508 0.10904361 0.011259808 -0.06687753 0.24731198
-0.086117 0.11848226 0.03865018 0.08127769 0.040156595 0.03834067 0.055276398 0.085503235
0.012092948 0.10362288 0.10032533 -0.04196592 0.034253888 -0.06546671 0.0559686 -0.07605193
-0.06023792 -0.004661746 0.05707045 0.017602634 0.035587672 0.028789438 0.000565756 0.08264433
-0.023747198 -0.004207883 0.08964914 -0.020556096 0.01953777 -0.00011196665 -0.07934017 -0.05321351
0.08094035 0.06715987 0.067036584 0.13394728 0.28891164 0.044270426 0.20242202 -0.0719652
0.07769715 0.068382435 0.058343556 0.13688987 -0.05447548 0.12447453 -0.019893186 -0.0012899813
-0.05327145 -0.06765548 -0.012251336 -0.010662763 0.09638825 -0.23004638 0.12667073 -0.011100612
-0.007053926 0.023011988 0.085160345 -0.09309189 -0.08067807 -0.02955519 0.026380925 -0.08188208
0.07977681 0.1851301 0.084654875 -0.10780964 0.03960091 0.12371249 -0.09020244 0.006944407
0.012052616 -0.074483834 0.028118748 0.060773026 -0.009060439 -0.061972417 0.04027432 -0.010153026
0.10349653 0.02788486 0.010453411 -0.00028527624 0.1066749 -0.0015693333 0.08407954 -0.064608485
0.0015727695 0.06414045 -0.051421035 -0.036718108 -0.08535309 -0.051166773 -0.046770446 0.0800934
0.083833635 0.06543932 -0.0812919 0.093352385 0.0014452661 0.016026841 -0.107257135 0.010806936
-0.011289975 -0.03987929 -0.04303205 -0.00037413495 0.073591985 0.075594254 0.063824266 -0.06948527
0.04067845 -0.07814633 0.01618708 0.034088828 -0.08719114 0.09173779 0.10156039 -0.010075592
0.0921879 -0.03641223 0.02419698 -0.00635033 0.12868531 -0.032366518 -0.013441485 -0.057807602
-0.009835405 -0.018295761 -0.062170833 0.06807524 -0.06748859 0.099730246 0.06727099 -0.041700125
-0.03232793 -0.039811324 -0.036381934 -0.07533734 -0.056306716 0.083564565 0.04721334 -0.058550067
-0.09925724 0.0068837353 0.02703864 -0.016712932 -0.02182653 -0.10129954 -0.05544615 -0.025261063
-0.017169124 0.05029811 0.008624513 0.0252387 -0.049105685 -0.01791866 0.09870922 0.025161263
-0.071102336 0.053924937 0.12086635 -0.008929264 0.03407223 0.002729334 -0.05940039 -0.09552823
-0.009193503 0.04092776 0.004174269 0.05703913 0.112347394 -0.011671641 0.0032349504 -0.06174581
-0.009030834 0.041164108 0.0035644586 -0.058078278 0.040373556 0.4115266 0.063874334 -0.0229969
0.0321354 0.049411535 -0.07610019 0.15188284 0.1797728 -0.038092937 -0.03650993 0.26916596
0.06725061 -0.020141475 0.07546753 0.07174466 -0.026970476 0.11481589 -0.069779605 -0.050248295
-0.017743004 0.1519812 -0.08714108 0.007832339 -0.06516272 -0.00014238968 -0.08969735 -0.07083641
-0.0602475 0.00032316754 0.085782655 0.03169675 0.17676532 -0.07655743 -0.018839093 0.11083911
-0.008227961 0.03233132 0.04476686 -0.08086987 -0.07369821 0.090056896 0.016949987 0.008911561
0.010081233 0.13360345 0.050231844 0.08083175 0.2523848 0.076830655 0.1751161 -0.030679421
-0.03590167 -0.05980073 0.023481589 0.01640344 0.06172558 0.08480718 0.08821693 0.023811335
00000000: 979d aa3d 2527 143d bd25 273d 35af 933d
00000010: e698 d43d 3c46 e13e 1514 b03c 985e a5bc
00000020: 3e08 65bd 05c8 c83d 8d7d 6bbd a4cd 1a3e
00000030: 4252 df3d 0f7b 383c 16f7 88bd 5a3f 7d3e
00000040: 1c5e b0bd d4a6 f23d a74f 1e3d eb74 a63d
00000050: 3e7b 243d 1b0b 1d3d 8169 623d 521c af3d
00000060: 8021 463c 3c38 d43d 5e77 cd3d 75e4 2bbd
00000070: ce4d 0c3d 6913 86bd 553f 653d 1dc1 9bbd
00000080: 0abc 76bd 8fc1 98bb b4c2 693d 6633 903c
00000090: 61c4 113d d4d7 eb3c 3e4f 143a 6e41 a93d
000000a0: 7c89 c2bc 48e2 89bb f899 b73d 4265 a8bc
000000b0: ac0d a03c a3cf eab8 197d a2bd 69f6 59bd
000000c0: 0ec4 a53d 1d8b 893d 7a4a 893d 7a29 093e
000000d0: 3aec 933e e854 353d b847 4f3e 7e62 93bd
000000e0: af1f 9f3d 170c 8c3d a7f9 6e3d dc2c 0c3e
000000f0: ae21 5fbd 81ec fe3d 09f7 a2bc 9714 a9ba
00000100: 2a33 5abd f58e 8abd d4b9 48bc dfb2 2ebc
00000110: 3467 c53d 4791 6bbe f9b5 013e 57df 35bc
00000120: 9f24 e7bb a383 bc3c 8c68 ae3d f6a6 bebd
00000130: 8b3a a5bd ba1d f2bc cf1c d83c cbb1 a7bd
00000140: 0662 a33d bf92 3d3e 895f ad3d 4dcb dcbd
00000150: 9034 223d f95c fd3d 0fbc b8bd e88d e33b
00000160: 5678 453c fb8a 98bd 4a59 e63c 23ed 783d
00000170: 3c72 14bc cad6 7dbd aff6 243d e158 26bc
00000180: fdf5 d33d ca6e e43c c944 2b3c 2191 95b9
00000190: 5f78 da3d 16b2 cdba e531 ac3d 7451 84bd
000001a0: 6325 ce3a 115c 833d dd9e 52bd ba65 16bd
000001b0: 9acd aebd 4094 51bd 5e92 3fbd 0208 a43d
000001c0: f8b0 ab3d 0d05 863d 5e7c a6bd 892f bf3d
000001d0: 156f bd3a b94a 833c a1a9 dbbd 930f 313c
000001e0: 96f9 38bc 7758 23bd 6042 30bd 8b27 c4b9
000001f0: 65b7 963d 29d1 9a3d 4cb6 823d 4b4e 8ebd
00000200: 729e 263d 2f0b a0bd c49a 843c baa0 0b3d
00000210: 4591 b2bd 06e1 bb3d e5fe cf3d 1914 25bc
00000220: 02cd bc3d fe24 15bd bf38 c63c 6e16 d0bb
00000230: 15c6 033e c192 04bd ad39 5cbc aac7 6cbd
00000240: ae24 21bc fee0 95bc d8a6 7ebd 086b 8b3d
00000250: 7537 8abd 5f3f cc3d 5fc5 893d c0cd 2abd
00000260: 4b6a 04bd 3311 23bd 3905 15bd 774a 9abd
00000270: dfa1 66bd e623 ab3d c662 413d 32d2 6fbd
00000280: 6147 cbbd f590 e13b 2380 dd3c 8fe9 88bc
00000290: 8dcd b2bc 2276 cfbd 811b 63bd 4af0 cebc
000002a0: 43a6 8cbc 6405 4e3d d44d 0d3c 64c1 ce3c
000002b0: 0b23 49bd 27ca 92bc 0f28 ca3d fe1e ce3c
000002c0: 1a9e 91bd 65e0 5c3d c788 f73d 0c4c 12bc
000002d0: 538f 0b3d a0de 323b d34d 73bd 4ea4 c3bd
000002e0: 59a0 16bc dea3 273d 4ec8 883b dda1 693d
000002f0: 6416 e63d 693a 3fbc 7601 543b 2de9 7cbd
00000300: 10f6 13bc b29b 283d b199 693b 7de3 6dbd
00000310: be5e 253d 9db3 d23e 8cd0 823d ff63 bcbc
00000320: 69a0 033d c063 4a3d 6bda 9bbd 2d87 1b3e
00000330: 5c16 383e 5707 1cbd 708b 15bd 1fd0 893e
00000340: b0ba 893d bcff a4bc b88e 9a3d ddee 923d
00000350: 30f1 dcbc 9824 eb3d 9ce8 8ebd 28d1 4dbd
00000360: c759 91bc f6a0 1b3e 0677 b2bd 3653 003c
00000370: 0874 85bd 704e 15b9 3fb3 b7bd ae12 91bd
00000380: 15c6 76bd d06e a939 d1ae af3d 74d4 013d
00000390: f801 353e 24ca 9cbd 7154 9abc 9eff e23d
000003a0: 92ce 06bc d96d 043d 745d 373d 1a9f a5bd
000003b0: 16ef 96bd c06f b83d b3da 8a3c cc01 123c
000003c0: c22b 253c 58cf 083e e8bf 4d3d 1e8b a53d
000003d0: 9538 813e 6459 9d3d a351 333e 6953 fbbc
000003e0: a10d 13bd 9cf1 74bd 765c c03c 8260 863c
000003f0: f6d3 7c3d 63af ad3d 14ab b43d fd0f c33c

lstm.bias_hh_l0 f4 [256]
0.10612113 -0.053214096 0.024658652 -0.037664227 -0.05921952 0.43458256 -0.010326712 -0.015764384
0.05321335 0.11611914 -0.08459114 0.17182563 0.15914418 0.0013156887 -0.03131433 0.25595158
-0.093171954 0.10156831 -0.00305265 0.11101263 0.114365555 0.039388906 -0.03833827 0.08880308
-0.0370018 0.085321404 -0.019389642 -0.09748198 -0.0043845177 -0.07104185 0.020228483 -0.007817177
0.046941016 -0.043770675 0.035881493 -0.008109512 0.054350648 0.0788638 -0.049402207 0.12208695
0.050532114 0.095327124 0.032336224 -0.01202389 -0.056081597 -0.0010506397 -0.00895114 -0.038892467
-0.010751348 0.010384429 -0.06093478 0.040087078 0.20110156 0.015858691 0.1979733 -0.045734216
0.08064049 0.061219223 -0.048504017 0.04102322 -0.0027503916 0.101127364 -0.0041061076 -0.0021231389
-0.0271729 0.011312305 0.003812896 -0.053080093 0.12207122 -0.23777981 0.07558813 -0.013649806
0.028770346 0.025894957 0.028227704 -0.101295665 -0.059617344 0.024855947 0.1049483 -0.072294876
0.019471973 0.15274118 0.14915657 -0.03207003 -0.092915796 -0.028636316 0.036242332 0.020061543
-0.0019617805 -0.0041605555 0.022831677 -0.034192763 -0.025967732 0.03495474 -0.016340071 0.05122101
0.0347634 0.009156095 0.07554119 -0.0154511705 0.10637733 0.009490749 0.15461995 -0.088951066
-0.067925856 0.030575892 -0.05793071 0.06403631 -0.058067054 -0.028597798 0.06522405 -0.052876953
-0.0077346074 0.15718967 0.0018032714 0.10245284 -0.017263506 0.034339666 -0.108960874 -0.04360153
-0.07452958 -0.014199984 0.024632657 -0.07115311 0.061983764 0.13053206 0.1347554 -0.017409412
0.14924912 -0.079930566 -0.09531241 -0.05137672 0.08926812 -0.030568257 0.033139747 -0.00782802
0.071260795 -0.021736499 0.024844885 0.012088148 -0.07371775 0.055016503 -0.024338309 0.10179608
-0.051008683 0.071114995 -0.021874849 -0.08125745 0.0011939564 -0.010405619 -0.03474612 -0.084170654
-0.05708826 -0.056457896 -0.020481927 0.10063884 -0.043969907 0.047904197 0.08893842 -0.0916365
0.049923614 -0.0825114 -0.0907625 0.07805425 -0.01941657 0.07124223 -0.067125924 -0.001754088
0.04730997 0.10182811 -0.088810734 0.012322433 -0.0010215212 -0.010583863 0.10041066 -0.07795856
-0.055753045 -0.09698781 0.047044374 0.06802724 0.061420925 -0.11479721 0.058144208 0.092709556
0.074147314 0.05933257 0.045926254 0.08198426 -0.08687731 0.08726381 -0.0681374 0.06404524
0.023319421 -0.032759193 0.043059897 -0.040715214 -0.03795002 0.37824062 0.049486894 -0.014709931
-0.00626139 0.03001189 0.06873204 0.13496788 0.19102737 -0.02667396 0.08421075 0.17691426
-0.05044157 -0.021091053 -0.07500814 0.10165638 0.07508295 0.031171894 -0.045602776 -0.025571402
-0.057504468 0.088667385 0.12593146 0.01336256 -0.059203915 -0.08449389 -0.045192268 0.005652292
0.11629228 -0.023256322 -0.099873096 -0.0093232095 0.16095977 -0.040193964 0.034344368 0.09070723
-0.029842753 0.03721237 0.049437597 -0.03270274 -0.06466056 -0.0035126938 -0.04354473 -0.04410625
0.059177652 -0.08497987 -0.084671825 0.036805764 0.2926545 0.03238383 0.2064402 0.052892238
-0.015442361 -0.013128575 -0.049663283 0.09143744 0.008218128 0.07541313 0.07712477 0.07179347
00000000: 0956 d93d 06f7 59bd f100 ca3c ce45 1abd
00000010: 2b90 72bd 9b81 de3e 5f31 29bc 4f24 81bc
00000020: 3ef6 593d dfcf ed3d 1f3e adbd 0ff3 2f3e
00000030: b1f6 223e 3073 ac3a 7443 00bd 160c 833e
00000040: f0d0 bebd 0c03 d03d f80e 48bb 975a e33d
00000050: 7d38 ea3d 4356 213d 9708 1dbd 64de b53d
00000060: 338f 17bd fdbc ae3d 07d7 9ebc a2a4 c7bd
00000070: 00ac 8fbb 647e 91bd 34b6 a53c 9e13 00bc
00000080: 3945 403d e148 33bd 79f8 123d c2dd 04bc
00000090: c99e 5e3d 5883 a13d f859 4abd b908 fa3d
000000a0: c3fa 4e3d de3a c33d fd72 043d daff 44bc
000000b0: d1b5 65bd 9eb5 89ba cda7 12bc b54d 1fbd
000000c0: 6c26 30bc 7423 2a3c bf96 79bd 5932 243d
000000d0: 91ed 4d3e 16ea 813c 83b9 4a3e cd53 3bbd
000000e0: d726 a53d 02c1 7a3d 26ac 46bd f707 283d
000000f0: ea3f 34bb dd1b cf3d 878c 86bb 5c24 0bbb
00000100: b499 debc 3f57 393c c8e1 793b 836a 59bd
00000110: 7a00 fa3d 8d7c 73be f3cd 9a3d 70a3 5fbc
00000120: caaf eb3c a921 d43c c93d e73c 1a74 cfbd
00000130: 5131 74bd b39e cb3c 22ef d63d 560f 94bd
00000140: b083 9f3c 2f68 1c3e 80bc 183e dd5b 03bd
00000150: a34a bebd b596 eabc d772 143d 1b58 a43c
00000160: 3791 00bb 4555 88bb 7f09 bb3c b60d 0cbd
00000170: 48ba d4bc b42c 0f3d 9ddb 85bc 1fcd 513d
00000180: 1164 0e3d 7203 163c 57b5 9a3d e826 7dbc
00000190: 5cdc d93d 167f 1b3c b154 1e3e fa2b b6bd
000001a0: b61c 8bbd 4b7a fa3c c148 6dbd 7825 833d
000001b0: b8d7 6dbd ee45 eabc 3094 853d 8195 58bd
000001c0: 9772 fdbb 54f6 203e bf5b ec3a cbd2 d13d
000001d0: 326c 8dbc c0a7 0c3d e126 dfbd 8597 32bd
000001e0: f7a2 98bd 0da7 68bc 6dca c93c b9b8 91bd
000001f0: b0e2 7d3d 32aa 053e 52fd 093e 2f9e 8ebc
00000200: c3d4 183e a3b2 a3bd 2733 c3bd 6570 52bd
00000210: 34d2 b63d 486a fabc 8bbd 073d 1841 00bc
00000220: 2ef1 913d be10 b2bc 8087 cb3c 5e0d 463c
00000230: 55f9 96bd fc58 613d 2261 c7bc 777a d03d
00000240: 7bee 50bd bda4 913d e232 b3bc 4e6a a6bd
00000250: 877e 9c3a 547c 2abc f351 0ebd aa61 acbd
00000260: 61d5 69bd 6540 67bd b7c9 a7bc bc1b ce3d
00000270: ca19 34bd 3137 443d 5925 b63d ebab bbbd
00000280: b47c 4c3d bdfb a8bd b1e1 b9bd e8da 9f3d
00000290: 800f 9fbc 72e7 913d 5179 89bd 6de9 e5ba
000002a0: 19c8 413d 428b d03d 67e2 b5bd 08e4 493c
000002b0: 90e4 85ba f067 2dbc 1ba4 cd3d bda8 9fbd
000002c0: 4e5d 64bd 8ca1 c6bd 9ab1 403d de51 8b3d
000002d0: 8294 7b3d cd1a ebbd 9f28 6e3d 82de bd3d
000002e0: 8cda 973d b506 733d 2b1d 3c3d 5de7 a73d
000002f0: bbec b1bd 5eb7 b23d 9f8b 8bbd 272a 833d
00000300: 5f08 bf3c 812e 06bd 935f 303d ffc4 26bd
00000310: 7b71 1bbd c1a8 c13e c5b2 4a3d ec01 71bc
00000320: 592c cdbb 7fdb f53c 62c3 8c3d 0535 0a3e
00000330: ae9c 433e 5983 dabc b076 ac3d 0329 353e
00000340: d29b 4ebd 25c7 acbc de9d 99bd 3831 d03d
00000350: 17c5 993d 335c ff3c fac9 3abd 1e7b d1bc
00000360: ce89 6bbd 3f97 b53d 2df4 003e a4ee 5a3c
00000370: ce7f 72bd 220b adbd 871b 39bd dd36 b93b
00000380: a62a ee3d 0b84 bebc 448a ccbd 60c0 18bc
00000390: a3d2 243e 6da2 24bd aeac 0c3d b6c4 b93d
000003a0: ca78 f4bc 006c 183d 147f 4a3d 4ff3 05bd
000003b0: c16c 84bd 3935 66bb f55b 32bd c1a8 34bd
000003c0: 4464 723d ed09 aebd 6c68 adbd a4c1 163d
000003d0: d0d6 953e e8a4 043d 0f65 533e 88a5 583d
000003e0: f501 7dbc 3c19 57bc ba6b 4bbd 8d43 bb3d
000003f0: 54a5 063c 3372 9a3d 97f3 9d3d 7408 933d

fc.weight f4 [1, 64]
-0.1357616 -0.018423311 0.02142875 -0.10058789 0.13233632 0.23942073 0.14755334 0.021755127
-0.098192126 -0.14432482 -0.07683165 -0.010676603 -0.22366957 0.053378783 -0.085315146 -0.2514335
0.051375445 -0.13958105 0.1189218 -0.13099268 0.06443959 0.010404738 -0.043342814 0.13793859
-0.0054408037 0.2001552 0.08401476 -0.05685574 0.06634421 0.06453337 0.08959491 -0.1666666
-0.17054152 0.031527247 0.09889415 -0.08206957 0.18995784 0.116085075 -0.10187815 0.09440849
0.16605198 0.005068121 -0.16720752 -0.17803416 0.034070894 -0.13705656 0.015097731 0.10859861
0.15178336 -0.1616179 -0.1478275 0.047721524 -0.2036842 0.16882917 0.028295834 -0.12913431
0.12783037 -0.10151253 -0.07733733 -0.20542552 -0.12872234 -0.11614686 -0.041338433 -0.13905275
00000000: 1705 0bbe 7cec 96bc 598b af3c 0601 cebd
00000010: 2c83 073e b52a 753e 3918 173e cf37 b23c
00000020: f418 c9bd e3c9 13be ea59 9dbd ebec 2ebc
00000030: a309 65be b6a3 5a3d b5b9 aebd e4bb 80be
00000040: 0f6f 523d 56ee 0ebe 468d f33d f222 06be
00000050: e7f8 833d a278 2a3c 3c88 31bd c63f 0d3e
00000060: c548 b2bb 7cf5 4c3e ee0f ac3d 90e1 68bd
00000070: 79df 873d 122a 843d 897d b73d a6aa 2abe
00000080: 70a2 2ebe b722 013d 0489 ca3d 1714 a8bd
00000090: 4f84 423e 03be ed3d 7ea5 d0bd 3d59 c13d
000000a0: 8809 2a3e 7b12 a63b 7338 2bbe 964e 36be
000000b0: ec8d 0b3d 8e58 0cbe 795c 773c f368 de3d
000000c0: 196d 1b3e 2a7f 25be 1860 17be a577 433d
000000d0: 9792 50be 8ee1 2c3e aacc e73c c93b 04be
000000e0: f7e5 023e cde5 cfbd 0963 9ebd 115b 52be
000000f0: cacf 03be 68de edbd 7d52 29bd d863 0ebe
