checkpoints/best_model.pth (torch, 836521 bytes, 9 tensors)

lstm.weight_ih_l0 f4 [512, 19]
0	0x38f34c1e	0.00011601321
1	0xbcd99b8f	-0.026563434
2	0xbd22547e	-0.03963136
3	0xbc7faf96	-0.015605828
4	0xbdd5d5ff	-0.10441207
5	0xbca5433e	-0.020173665
6	0x3cc9cd63	0.024634069
7	0x3d975d6d	0.073908664
8	0xbd61d99c	-0.05513917
9	0x3d8de2d7	0.06928032
10	0xbd10a17b	-0.03531025
11	0x3b799131	0.0038080926
12	0xbd0233b0	-0.031787574
13	0x3d919c50	0.07109892
14	0x3d948fa8	0.07253963
15	0xbda17690	-0.07883942
16	0xbda42151	-0.08014167
17	0xbd94c122	-0.072634
18	0xbbe47c22	-0.0069728056
19	0xbbe635d7	-0.007025461
20	0x3a82031d	0.0009919141
21	0x3ce8574e	0.028361943
22	0xbce9b9ca	-0.028530974
23	0x3d664093	0.056213927
24	0x3bacb12b	0.0052701435
25	0x3d176b21	0.0369674
26	0x3c1c8758	0.009553753
27	0x3c871ddb	0.016493728
28	0xbcd7bdb2	-0.026335571
29	0x3da86477	0.08222287
30	0x3d363ab1	0.044489566
31	0x3c5d5c45	0.013510768
32	0xbd73ca63	-0.059519183
33	0xbb9916a6	-0.0046718894
34	0x3d3de950	0.046365082
35	0xbcbc5963	-0.022991842
36	0xbc1df634	-0.009641219
37	0x3d257544	0.040395036
38	0x3cad4ee6	0.021155786
39	0xbd1356f3	-0.035971593
40	0xbceddd7c	-0.029036276
41	0xbd572d4a	-0.052533425
42	0x3dbfaf3c	0.09359595
43	0x3ceb271a	0.028705169
44	0x3c7ff752	0.015622931
45	0xbb48f520	-0.0030663684
46	0xbd2a47b6	-0.041572295
47	0x3c93801b	0.018005421
48	0xbcd7242b	-0.026262363
49	0x3cf4e574	0.029894568
50	0x3d884c8b	0.066552244
51	0xbcc810be	-0.024422046
52	0x3d7688d3	0.06018908
53	0xbc22e345	-0.009941881
54	0x3c6ee0da	0.014579976
55	0xbd99c9bc	-0.07509181
56	0xbd1b2f23	-0.03788675
57	0xbd451817	-0.048118677
58	0x3c653ea2	0.013991984
59	0xbc979f7d	-0.018508667
60	0xbcd176df	-0.025569377
61	0xbb7f5dcf	-0.0038965826
62	0xbd29cf30	-0.041457355
63	0xbdc867f8	-0.097854555
64	0x3d320010	0.04345709
65	0xbd8851f0	-0.06656253
66	0x3d18b532	0.037282176
67	0xbd7036f6	-0.058646165
68	0x3cdabae4	0.026700445
69	0x3c359a01	0.011084081
70	0x3dbbc53f	0.09168481
71	0x3d32bad7	0.043635216
72	0x3ce1f585	0.027582893
73	0xbcb6d361	-0.02231759
74	0x3d7daa07	0.06192973
75	0x3d5b8249	0.053591046
76	0xbb8b9f05	-0.0042609
77	0x3c0b3f5b	0.008498992
78	0x3c8d616e	0.017258372
79	0x3ae0450e	0.0017110424
80	0xbdaee7c0	-0.085402966
81	0xbdc31ee7	-0.095273785
82	0xbd7a433c	-0.061099276
83	0xbc8c692f	-0.01714
84	0xbcde81ef	-0.027161567
85	0x3d3ef654	0.046621636
86	0xbd01f7d5	-0.03173049
87	0x3c7eb331	0.015545652
88	0xbcf82253	-0.030289805
89	0xbd58f154	-0.052964523
90	0xbd84d145	-0.064852275
91	0xbd39c41e	-0.045353048
92	0x3c1fc566	0.009751653
93	0xbc686431	-0.014184044
94	0xbc908d89	-0.017645614
95	0xbd3a815b	-0.04553352
96	0xbd2ba3b0	-0.04190415
97	0xbc3aa41c	-0.011391666
98	0xbd9157a4	-0.07096794
99	0x3d1b003a	0.037842013
100	0xbd26e653	-0.040746998
101	0x3d087b5f	0.03332078
102	0x3c3469c5	0.011011546
103	0x3d2b63e8	0.041843325
104	0xbda5839d	-0.08081744
105	0xbd040ca2	-0.03223861
106	0x3cbcf811	0.023067506
107	0xbd9c3667	-0.07627564
108	0xbdae2883	-0.08503821
109	0x3d52a420	0.051426053
110	0xbd2e26a8	-0.042517334
111	0xbd852a5d	-0.06502221
112	0x3b245e4b	0.0025080617
113	0x3cdd703d	0.027031058
114	0xbb9e424b	-0.00482968
115	0xbd6489f7	-0.055795636
116	0x3c9d82f6	0.019227486
117	0xbc954cda	-0.018225122
118	0x3cb33018	0.021873519
119	0xbdb62153	-0.08893075
120	0xbd362dbe	-0.044477217
121	0xbcee373d	-0.029079074
122	0xbd7de89e	-0.06198942
123	0xbdb2b199	-0.0872528
124	0x3d09698c	0.033547923
125	0x3db971d0	0.09054911
126	0xbdab90ef	-0.08377253
127	0x3d9e96d1	0.0774361
128	0xbdb1b9eb	-0.08678039
129	0xbd77f848	-0.060539514
130	0xbd472721	-0.0486213
131	0x3c653e36	0.013991883
132	0xbd8692c0	-0.06570959
133	0x3d727033	0.059189033
134	0x3dc78961	0.09743
135	0x3d6bbc42	0.057552584
136	0x3d320be3	0.043468367
137	0x3d6587f5	0.05603786
138	0xbcbd588b	-0.02311351
139	0x3d513500	0.051075935
140	0x3db81533	0.089884184
141	0x3cc8981e	0.024486598
142	0x3ca672bf	0.020318387
143	0x3d21fdab	0.039548557
144	0x3cb4b44c	0.022058628
145	0xbd03f1e2	-0.0322131
146	0xbd3aceb4	-0.045607284
147	0x3d9b8d7f	0.075953476
148	0x3d0e06c1	0.03467441
149	0xbd90cec0	-0.070706844
150	0x3d4ab86f	0.049492296
151	0xbd9cb7bd	-0.07652233
152	0xbb5d02e2	-0.0033723642
153	0x3d816dcd	0.06319771
154	0x3c929441	0.017892959
155	0xbda3c02c	-0.07995638
156	0x3ceb7c19	0.028745698
157	0x3c1b268e	0.009469641
158	0xbd222147	-0.039582517
159	0xbbc3228a	-0.005955045
160	0x3c9eb641	0.019374015
161	0xbdad4d60	-0.08462024
162	0xbdabf159	-0.08395643
163	0xbd444f67	-0.047927286
164	0xbd1d8aed	-0.038462568
165	0x3d93e060	0.072205305
166	0xbc1f51a8	-0.009724058
167	0xbc5b08df	-0.013368814
168	0x3d9af30f	0.07565891
169	0xbd9fd942	-0.078051105
170	0xbcd5a358	-0.026078865
171	0xbc49007a	-0.01226818
172	0x3d7369ec	0.059427187
173	0x3c32583a	0.010885293
174	0xbb3d339c	-0.0028869873
175	0x3c6c9814	0.014440555
176	0x3d44fcdc	0.048092708
177	0x3b8306b9	0.003998604
178	0x3c2e2ee5	0.010631298
179	0xbb32c80c	-0.0027279882
180	0xbcf981e7	-0.03045745
181	0xbdb0a4ed	-0.08625207
182	0x3bab16d7	0.0052212286
183	0xbd36c20c	-0.04461865
184	0xbcf97931	-0.030453296
185	0xbd85852d	-0.06519542
186	0xbdb84f12	-0.089994565
187	0x3c117c0a	0.008879671
188	0xbc60329e	-0.013683943
189	0x3d04e2bf	0.032442804
190	0xbda5a4c1	-0.08088065
191	0x3d8f9848	0.07011467
192	0xbd19abd5	-0.037517387
193	0xbc0faec6	-0.008769697
194	0xbda73384	-0.08164123
195	0xbcd6c179	-0.026215302
196	0xbc2cdea1	-0.010551126
197	0x3d524848	0.051338464
198	0x3ca0bff5	0.019622782
199	0xbc3e717a	-0.011623735
200	0xbbb33a92	-0.0054696286
201	0xbc903f9a	-0.017608453
202	0xbd5eda32	-0.054407306
203	0xbd89db53	-0.06731286
204	0x3d2a125a	0.041521408
205	0x3c820c78	0.015875086
206	0xbd8333dc	-0.06406376
207	0xbcb4ad05	-0.022055158
208	0xbd3d3e0b	-0.046201747
209	0x3d7089a4	0.058725014
210	0x3cc801fb	0.024415007
211	0x3d9b0ee2	0.07571198
212	0x3d41f922	0.047356732
213	0x3d39e754	0.045386627
214	0x3ca56285	0.02018858
215	0xbd454428	-0.048160702
216	0x3d25c15f	0.040467616
217	0xbd5f74cd	-0.05455475
218	0x3d378ff5	0.044815022
219	0xbbb48a04	-0.005509617
220	0x3c532b07	0.0128886765
221	0xbc54b79b	-0.012983228
222	0x3dbc1524	0.0918372
223	0xbd91e4ed	-0.07123742
224	0x3cc94965	0.02457113
225	0x3d4a5f70	0.049407423
226	0x3cedccbb	0.029028287
227	0xbd802cb0	-0.062585235
228	0xbc0f1fb9	-0.008735591
229	0x3d675091	0.05647332
230	0xbc71a054	-0.014747698
231	0xbd3f5ed9	-0.046721313
232	0xbcf8a910	-0.030354053
233	0x3c3013ee	0.010746939
234	0x3d0ecb65	0.03486194
235	0x3ce9aa9f	0.028523741
236	0xbd568b41	-0.052378897
237	0xbd414f66	-0.04719486
238	0xbd4041b2	-0.046937652
239	0x3d9739d7	0.07384079
240	0x3d66ab24	0.056315556
241	0x3cfa7c86	0.030576956
242	0xbda8758d	-0.08225546
243	0xbb32a6b5	-0.002726001
244	0x3c989eb8	0.01863037
245	0xbd51b0fd	-0.05119418
246	0xbcd00237	-0.025391681
247	0x3d09da59	0.0336555
248	0x3d2d4520	0.04230225
249	0xbd957981	-0.07298566
250	0xbd3e3255	-0.04643472
251	0x3d7c148c	0.061543033
252	0xbc15636e	-0.009117944
253	0xbd220dfc	-0.039564118
254	0x3d41f78e	0.047355227
255	0x3cb43254	0.021996655

lstm.weight_hh_l0 f4 [512, 128]
0	0x3d8489e8	0.06471616
1	0xbcb63c25	-0.022245476
2	0xbd19be49	-0.037534986
3	0x3abcd238	0.0014405912
4	0xbd25bd52	-0.040463753
5	0xbbcc4964	-0.006234335
6	0xbd71b399	-0.05900917
7	0xbd884b23	-0.06654956
8	0x3c96b390	0.018396169
9	0xbc8aafe5	-0.016929576
10	0xbd1a7ec4	-0.03771855
11	0xbd32cf06	-0.043654464
12	0x3d62f8b1	0.05541295
13	0xbd09bca0	-0.033627152
14	0xbc996f8b	-0.018729946
15	0xbb46b46d	-0.0030319944
16	0x3b645325	0.0034839597
17	0xbd81022f	-0.062992446
18	0xbd8bf716	-0.06834237
19	0xbd212f7a	-0.039351918
20	0xbcfec880	-0.031101465
21	0xbd82c54b	-0.06385287
22	0xbcb53352	-0.022119198
23	0xbd1be9b9	-0.038064692
24	0x3d31592b	0.043297928
25	0xbca7bf60	-0.020476997
26	0xbd729a62	-0.059229262
27	0x3c2ba48b	0.010476242
28	0x3d4a81b7	0.049440112
29	0xbd23f2f5	-0.040026624
30	0xbbecb93a	-0.007224229
31	0xbd7bfd6e	-0.061520986
32	0xbcca0350	-0.024659783
33	0x3d505101	0.0508585
34	0xbcdd85a7	-0.02704127
35	0x3be68757	0.0070351767
36	0x3d3431a4	0.043992653
37	0xbb6e0528	-0.0036318991
38	0xbcb15f94	-0.02165202
39	0x3bf22e07	0.007390741
40	0xbc56fe57	-0.013122163
41	0xbd775948	-0.06038788
42	0xbcca2f1d	-0.024680668
43	0x3d3eca23	0.04657949
44	0x3d816d60	0.0631969
45	0xbc88032e	-0.016603079
46	0x3b208edb	0.002449921
47	0xbaa05650	-0.0012232754
48	0x3d849d7b	0.064753495
49	0x3d177a2e	0.036981754
50	0xbcfb5bf4	-0.030683495
51	0xbd7d012d	-0.0617687
52	0xbd40d371	-0.047076646
53	0xbce1aa85	-0.02754713
54	0xbc77832e	-0.015106959
55	0x3d2b1fab	0.041778248
56	0xbca50798	-0.020145223
57	0x3d4358fd	0.047692288
58	0x3d033d40	0.032040834
59	0x3d930bf5	0.07180015
60	0xbd476282	-0.04867793
61	0x3d858160	0.06518817
62	0x3d8c0ff7	0.068389826
63	0x3d04a04e	0.03237944
64	0x3d6b12f4	0.057391122
65	0xbbba38c9	-0.005683039
66	0xbd1df967	-0.038567927
67	0x3d149346	0.036273263
68	0xbd7d811b	-0.061890703
69	0xbc560060	-0.013061613
70	0xbd78d421	-0.060749177
71	0x3d331f98	0.043731302
72	0xbc3c5672	-0.01149522
73	0xbd07a31e	-0.033114545
74	0xbd56338f	-0.052295264
75	0x3d34670a	0.04404358
76	0xbd8c18c1	-0.06840659
77	0xbd63a847	-0.055580404
78	0xbd187d69	-0.037228975
79	0xbd1bb452	-0.038013764
80	0xbd11c211	-0.035585467
81	0xbb0223d7	-0.0019857788
82	0x3c54c2fb	0.01298594
83	0xbcef1815	-0.029186288
84	0x3d04c836	0.0324175
85	0xbaeb4ad6	-0.001795138
86	0xbba49539	-0.0050226715
87	0xbc8dec22	-0.017324511
88	0x3d15611c	0.036469564
89	0x3c481cbe	0.012213884
90	0x3a060cd6	0.0005113607
91	0xbcef4533	-0.029207801
92	0xbc18f5a3	-0.009335908
93	0x3d6b33c1	0.057422403
94	0x3bdec3c3	0.006798239
95	0xbcf0849f	-0.029360114
96	0x3c8dc4a7	0.017305685
97	0xbc878a5e	-0.01654547
98	0x3d325771	0.043540422
99	0x3bc2d545	0.005945834
100	0xbcc54759	-0.024081873
101	0xbd662a55	-0.056192715
102	0xbd7c345e	-0.06157338
103	0x3cd06a26	0.02544124
104	0xbd4c20d8	-0.04983601
105	0xbd1dab46	-0.038493417
106	0xbcac9f57	-0.021072073
107	0x3d298dc4	0.041394964
108	0xbd1bdcd9	-0.038052414
109	0x3d56fb56	0.052485786
110	0xbc3cad38	-0.011515908
111	0xbd3bf395	-0.045886595
112	0x3c5a9fb0	0.0133437365
113	0xbcc068f2	-0.023487542
114	0x3d672318	0.056429952
115	0x3d37f7c9	0.04491404
116	0x3d4518fb	0.048119526
117	0x3cc113d8	0.023569033
118	0x3bdb5e53	0.006694594
119	0xbd687e7f	-0.05676126
120	0xbd8250d0	-0.0636307
121	0x3cecbdb1	0.028899046
122	0x3d8481eb	0.064700924
123	0x3b2dda60	0.0026527867
124	0xbc9d9295	-0.019234935
125	0xbb89e333	-0.0042079925
126	0xbadf663f	-0.0017044022
127	0x3d582935	0.052773673
128	0x3b4e23f9	0.0031454547
129	0xbb84cc43	-0.00405267
130	0xbd147486	-0.036243938
131	0xbc6d6692	-0.014489787
132	0xbc91babb	-0.017789235
133	0xba799ce9	-0.00095219776
134	0xbcd64cd9	-0.02615969
135	0xbbd1e794	-0.00640578
136	0xbc034758	-0.008012615
137	0xbc12c33d	-0.008957681
138	0xb8c4e5f6	-9.388842e-05
139	0x3cb1927a	0.02167629
140	0xbcf1bc28	-0.029508665
141	0x3b9f33b6	0.0048584593
142	0x3b0a1515	0.0021069695
143	0xbc3acd96	-0.011401555
144	0x3c982214	0.018570937
145	0x3c7c27ff	0.015390395
146	0xbc890013	-0.016723668
147	0xbc3fe5c8	-0.011712499
148	0xbc0b1b97	-0.008490465
149	0x3a5f0cf0	0.0008508703
150	0x3c8f83b1	0.01751885
151	0xba48d6dc	-0.0007661411
152	0xbc2d711f	-0.010586052
153	0xbc5110ff	-0.0127604
154	0x3cf7b527	0.030237747
155	0x3b221e3b	0.0024737257
156	0xbc0031e8	-0.007824399
157	0xbc85df3e	-0.016341802
158	0xbcbb91b4	-0.022896625
159	0xb8647092	-5.4464275e-05
160	0xbc9c9a51	-0.019116553
161	0x3bbdb68d	0.005789584
162	0x3c08c291	0.0083471695
163	0xbbdd7fdd	-0.0067596273
164	0xbc5b8e51	-0.01340063
165	0xbaab0099	-0.0013046443
166	0x3c313157	0.010814986
167	0x3c35b271	0.011089907
168	0x3c90f46a	0.01769467
169	0xbce4fc2f	-0.027952282
170	0xbc9959ea	-0.018719632
171	0x3bdfbd73	0.006828004
172	0x3d26276f	0.04056495
173	0xbcbfb52c	-0.02340182
174	0x3c26c1cc	0.010178041
175	0xbc072e29	-0.0082507515
176	0x3b9639ef	0.004584543
177	0xbc06c77b	-0.008226271
178	0x3c89cd8d	0.016821647
179	0xbc396e77	-0.011317841
180	0x3bbe9d08	0.0058170594
181	0x3b8cc0ea	0.004295458
182	0xba0e629b	-0.00054315635
183	0xbb2e4c73	-0.002659586
184	0x3d0b85f5	0.0340633
185	0xbc982628	-0.018572882
186	0x3cacbe14	0.02108673
187	0xbaa3f052	-0.0012507534
188	0x3c152530	0.0091031045
189	0x3b42bdb6	0.0029715127
190	0x3b742d87	0.0037258582
191	0x3c0ec0c7	0.008712954
192	0xbcd10900	-0.025516987
193	0xbc24adda	-0.010051215
194	0x3c8a4325	0.01687772
195	0x3c02737d	0.007962105
196	0xbc6f20fa	-0.014595265
197	0xbc0f16f8	-0.0087335035
198	0xbb5703d1	-0.0032808671
199	0x3c66e450	0.01409252
200	0xbbf7bfce	-0.0075607067
201	0x3c90cb01	0.017674925
202	0xbc07576f	-0.008260592
203	0x3cefae5b	0.029257944
204	0x3c4b9c55	0.012427409
205	0x3c04c1d8	0.008102857
206	0x3d23c17a	0.039979436
207	0x3ca323b6	0.01991449
208	0x3c22d4d0	0.009938434
209	0x3af7c945	0.0018904587
210	0x3c09bb15	0.00840642
211	0x3c2a7186	0.010403043
212	0x3c6186ed	0.013765079
213	0x3c2daf0e	0.010600818
214	0xbce820ac	-0.028335892
215	0x3b569b78	0.0032746475
216	0x3c6d82a5	0.01449648
217	0xb9be3e83	-0.000362862
218	0xbb309a3e	-0.0026947404
219	0xba999348	-0.0011716867
220	0x3b75ee87	0.0037526207
221	0xbca5893f	-0.020207046
222	0xbbc03a41	-0.0058663194
223	0x3c891fb7	0.016738756
224	0x38ee9b92	0.000113777016
225	0x3cb011f5	0.021492938
226	0x3ba3563a	0.0049846442
227	0xbb353820	-0.0027651861
228	0x3be3571d	0.006937875
229	0xbc5afc24	-0.013365779
230	0x3d297775	0.04137369
231	0xbcc19201	-0.02362919
232	0xbbb46bcd	-0.005506015
233	0xbc8a9594	-0.016917028
234	0xba72e417	-0.00092655554
235	0xbc39682b	-0.0113163395
236	0xbca2c985	-0.019871483
237	0x3ab624db	0.0013896482
238	0x3d0967e8	0.03354636
239	0x3d212f2b	0.039351624
240	0x3ce5410b	0.027985116
241	0x3b9a0628	0.004700441
242	0xbbfd9d62	-0.0077397088
243	0xbcee370f	-0.029078988
244	0x3c18a393	0.009316343
245	0x3b182d67	0.0023220421
246	0x3c09fcb7	0.008422068
247	0x3cb4a744	0.022052415
248	0x3c3790e1	0.011203975
249	0x3b814ec7	0.0039461586
250	0x3d40ec97	0.04710063
251	0x3bf401e4	0.0074465144
252	0xbc643406	-0.013928419
253	0x3bb88609	0.0056312126
254	0xbcd33374	-0.02578137
255	0x3b92a31f	0.004475012

lstm.bias_ih_l0 f4 [512]
0	0x3d2446a4	0.04010643
1	0x3d40acf4	0.04703994
2	0x3d6759a9	0.05648199
3	0xbd5da4a1	-0.05411208
4	0xbc6833f1	-0.01417254
5	0xbdb11f57	-0.08648556
6	0x3956f632	0.00020500345
7	0x3d911b8d	0.07085333
8	0x3d19ff71	0.037597124
9	0xbd34342f	-0.04399508
10	0x3d984954	0.07435861
11	0xbd936b09	-0.0719815
12	0x3b4657b1	0.003026467
13	0x3d089053	0.033340763
14	0xbd7ee964	-0.062234297
15	0xbc0a4296	-0.008438727
16	0x3d56cf5b	0.052443843
17	0xbcaff84e	-0.021480706
18	0x3becb8f9	0.007224199
19	0x3d1f4ddc	0.03889261
20	0xbc9cb89b	-0.019130995
21	0xbc8e939b	-0.017404368
22	0x3d963a5a	0.073353484
23	0xbd9c78d2	-0.07640232
24	0x3d7cb5b3	0.06169672
25	0x3ca4987b	0.02009224
26	0x3d8fe948	0.07026917
27	0xbd967802	-0.073471084
28	0x3d979dfd	0.07403181
29	0x3d4e0124	0.050294057
30	0xbd5c30fc	-0.053757653
31	0x3d944d39	0.072412916
32	0xbb75c436	-0.0037500984
33	0x3c9abcef	0.018888919
34	0x3dbc0c09	0.09181983
35	0xbd1b40e6	-0.03790369
36	0xbdb0f93b	-0.08641287
37	0x3d22f6b9	0.039786074
38	0xbcabe800	-0.02098465
39	0x3d418f5c	0.04725586
40	0x3da978c8	0.0827499
41	0x3d15a66f	0.036535677
42	0x3dacbc19	0.08434314
43	0xbda8bafb	-0.08238789
44	0x3d27ec2a	0.040996708
45	0x3c16be49	0.009200641
46	0xbc79e688	-0.015252717
47	0xbd772550	-0.06033832
48	0xbcec3bd5	-0.028837124
49	0x3cb041dd	0.021515781
50	0x3d9cf958	0.07664746
51	0xbd58d5a8	-0.052938133
52	0x3c8187e7	0.015811874
53	0xbda1d597	-0.07902067
54	0xbcad4daf	-0.021155206
55	0xbce19b0e	-0.027539756
56	0x3d203dbb	0.03912137
57	0xbd2b3ae7	-0.04180422
58	0x3d8b2025	0.067932405
59	0xbd8b6d55	-0.06807963
60	0xbc4d34cc	-0.012524795
61	0xbdae1e0f	-0.08501827
62	0x3d645d12	0.05575282
63	0xbd0abd00	-0.03387165
64	0xbcd6d973	-0.026226735
65	0xbd07f1bf	-0.03318953
66	0xbd638d89	-0.0555549
67	0x3d44ee52	0.048078842
68	0x3c7d5c5e	0.015463917
69	0xbdb4146f	-0.0879296
70	0xbdba8d25	-0.091089524
71	0xbd1e058c	-0.03857951
72	0x3daacee5	0.08340243
73	0xbd86fa14	-0.06590667
74	0x3c2d89eb	0.010591964
75	0xbcfe8df0	-0.03107354
76	0xbd8a4aa2	-0.06752516
77	0xbd62e911	-0.05539805
78	0x3d3c3622	0.045950063
79	0xbbdf9853	-0.0068235784
80	0x3dbab844	0.09117177
81	0xbd77179d	-0.060325254
82	0x3cf557ad	0.029949034
83	0xbcaf2587	-0.0213802
84	0x3d8a3ff8	0.06750482
85	0xbb677ba0	-0.003532149
86	0xbc0d9c65	-0.008643244
87	0x3d442816	0.04788979
88	0xbc92ba20	-0.017911017
89	0xbd44eec6	-0.048079275
90	0xbcd58284	-0.026063211
91	0x3d02dbe2	0.031947978
92	0xbdaafe32	-0.08349265
93	0x3c29e1af	0.010368749
94	0xbc8c1bf0	-0.017103165
95	0x3e093c78	0.13401973
96	0x3bc2e2c8	0.0059474446
97	0xbd859e73	-0.065243624
98	0xbd7f7f76	-0.062377416
99	0x3d3610d0	0.044449627
100	0x3d995b4f	0.07488119
101	0x3c912dd6	0.017722052
102	0x3dabc6cf	0.08387529
103	0x3dafe57e	0.08588694
104	0xbd115a48	-0.03548649
105	0x3c3bde0e	0.011466516
106	0xbd1ed158	-0.038773865
107	0xbd809b8d	-0.06279669
108	0x3d01711b	0.031602006
109	0xbd4e3901	-0.050347332
110	0xbd0224e5	-0.031773467
111	0x3d084d4c	0.03327684
112	0xbd08756e	-0.033315115
113	0xbd9c3a0a	-0.076282576
114	0x3d9e8bab	0.07741483
115	0x3ca8694a	0.020558018
116	0x3cea4c48	0.028600827
117	0x3d83445d	0.06409524
118	0xbc8622fa	-0.0163741
119	0x3d044321	0.03229058
120	0x3d5a4b69	0.053294573
121	0xbccceae9	-0.025014358
122	0x3cb32662	0.021868888
123	0x3d9f2b75	0.07771961
124	0xbd585dd1	-0.052823845
125	0xbb9f0348	-0.004852686
126	0xbd8ab240	-0.0677228
127	0xbd6a580d	-0.057212878
128	0xbd2fda9a	-0.042933084
129	0xbd4d3ec1	-0.050108675
130	0x3db947a9	0.09046871
131	0x3d4aa33d	0.049472082
132	0xbd39c457	-0.04535326
133	0xba896aeb	-0.0010484135
134	0x3ce4d3a7	0.027932955
135	0x3d709944	0.058739915
136	0x3b516ed9	0.003195694
137	0xbc92e8c4	-0.017933257
138	0x3d36f7f0	0.044670045
139	0x3d746456	0.059666
140	0x3ca461bb	0.020066133
141	0x3cc4f26a	0.024041373
142	0xbc2d97a8	-0.01059524
143	0xbd666b65	-0.056254763
144	0x3c972d83	0.018454319
145	0x3cd031ea	0.025414426
146	0x3d717a98	0.058954805
147	0x3d933873	0.07188501
148	0xbd090837	-0.0334551
149	0x3cc66505	0.024218092
150	0x3d124ab1	0.035715763
151	0xbd1e65d0	-0.038671315
152	0x3c452178	0.012031905
153	0xbd148691	-0.036261145
154	0x3d660298	0.056154817
155	0x3d71fcfe	0.059079163
156	0xbd36e418	-0.04465112
157	0x3bc70021	0.0060730134
158	0x3cec9a1e	0.028882083
159	0xbd2d1769	-0.042258654
160	0xbd95f5ec	-0.073222965
161	0xbd70d5cb	-0.05879764
162	0x3cf6a419	0.030107545
163	0x3b9ee63e	0.0048492244
164	0xbb37e0f1	-0.002805766
165	0x3d96c134	0.07361069
166	0xbd2b7417	-0.04185876
167	0xbd3cc57f	-0.046086784
168	0x3d6b1f88	0.057403117
169	0xbd94f959	-0.07274122
170	0xbcb9f204	-0.02269841
171	0xbb814fab	-0.0039462647
172	0xbd408404	-0.0470009
173	0xbd244f30	-0.04011458
174	0xbc432bd4	-0.011912305
175	0x3c229422	0.009923013
176	0x3bf09982	0.0073425183
177	0xbcd777b5	-0.026302198
178	0xbc278573	-0.010224688
179	0x3ba266f6	0.0049561216
180	0x3d397f18	0.04528722
181	0x3d33f2e5	0.043932814
182	0xbd764e50	-0.06013328
183	0x3cb61c40	0.022230268
184	0x3ccffcbc	0.025389068
185	0xbce5547d	-0.027994389
186	0xbce33848	-0.027736798
187	0xbcc58ecb	-0.02411594
188	0xbbf59c98	-0.007495474
189	0x3da82e50	0.082119584
190	0x3d4fcbbd	0.05073141
191	0xbd28a10e	-0.04116922
192	0xbd60e96f	-0.05491012
193	0xbb932d89	-0.004491512
194	0xbd833673	-0.0640687
195	0x3cb7f200	0.022454262
196	0xbd415d9c	-0.047208413
197	0xbd9d2bda	-0.0767438
198	0x3d9864c8	0.074410975
199	0x3b95c982	0.0045711407
200	0x3d6e7295	0.058214743
201	0x3d2fe4b6	0.042942725
202	0x3ca50d3b	0.02014791
203	0x3d434bb3	0.047679614
204	0x3c3f7997	0.011686704
205	0x3d47a934	0.04874535
206	0x3c154784	0.009111289
207	0x3d5e7733	0.054312896
208	0x3a8134c4	0.0009857644
209	0xbcf75ab7	-0.030194623
210	0x3c381056	0.011234364
211	0xbb77f1c5	-0.0037833315
212	0xbd7e2394	-0.06204565
213	0x3d3a8e63	0.045545947
214	0x3d780a8f	0.060556944
215	0xbd408fcd	-0.04701214
216	0x3dcedaee	0.10100351
217	0xbd7f5c00	-0.062343597
218	0xbda3222c	-0.07965502
219	0xbc9e99ad	-0.019360388
220	0xbcfbae2c	-0.0307227
221	0xbd4b3010	-0.049606383
222	0xbb89e6ab	-0.004208406
223	0xbc66f8da	-0.014097417
224	0x3ced1603	0.02894116
225	0x3d9a242e	0.07526432
226	0x3d96e266	0.07367401
227	0xbbb6e93a	-0.005582002
228	0x3d9609b1	0.07326067
229	0x3d810be6	0.063010976
230	0x3c5e95ac	0.013585489
231	0xbbf739cc	-0.0075447317
232	0x3d0093a0	0.031390786
233	0x3d0114ab	0.03151385
234	0x3d08e4c9	0.03342131
235	0xbd71f011	-0.059066836
236	0x3cdf6d3d	0.027273769
237	0xba84b46e	-0.0010124573
238	0xbd125eba	-0.03573487
239	0xbd41fa7a	-0.047358014
240	0xbc3520a4	-0.011055145
241	0xbc2ba51b	-0.010476376
242	0xbda048ce	-0.078263864
243	0x3cc451f4	0.02396486
244	0xbc005afb	-0.007834191
245	0xbd8a2a85	-0.06746391
246	0x3d84fac8	0.06493145
247	0xbd8f1785	-0.06986908
248	0x3d0a9bbd	0.03383993
249	0x3ca820a4	0.020523377
250	0xbd6243cf	-0.05524045
251	0x3c8c2cb4	0.01711116
252	0x3c1ce33d	0.009575662
253	0xbdbf1b59	-0.09331388
254	0xbc3bd43b	-0.011464174
255	0x3d1f37ab	0.03887145

lstm.bias_hh_l0 f4 [512]
0	0xbd28d2e5	-0.04121675
1	0xbd635658	-0.055502266
2	0x3daf5e6c	0.085629314
3	0xbc4afbe3	-0.012389156
4	0x3d3b4801	0.045722965
5	0xbcaf9649	-0.021433966
6	0x3c9624b8	0.018328056
7	0xbd2a7471	-0.041614953
8	0x3cceb46b	0.025232514
9	0x3d94e4ad	0.07270179
10	0x3c37fb96	0.011229416
11	0x3c1a138f	0.009404077
12	0x3c30ead3	0.010798174
13	0x3cd24623	0.02566821
14	0xbd616344	-0.055026308
15	0xbda320c0	-0.07965231
16	0x3d8b45df	0.06800436
17	0x3d0b2afb	0.033976536
18	0xbd30f980	-0.04320669
19	0xbc30dfe5	-0.010795568
20	0x3d8ef94d	0.06981144
21	0x3d994471	0.07483757
22	0xbc8ed2af	-0.017434446
23	0x3d423675	0.047415216
24	0xbd6ace3d	-0.05732559
25	0xbd354e14	-0.044263914
26	0xbc83ea6b	-0.01610299
27	0x3bef3238	0.0072996877
28	0xbd6cedfa	-0.05784414
29	0xbda43930	-0.0801872
30	0xbd90d135	-0.07071153
31	0xbd915287	-0.07095819
32	0xbceaea8d	-0.028676296
33	0xbda19079	-0.07888884
34	0x3db6d886	0.08928017
35	0xbd22a922	-0.03971208
36	0xbd862b72	-0.06551255
37	0xbd6fa129	-0.058503304
38	0x3d78c1af	0.060731586
39	0x3bb9e1b5	0.0056726583
40	0xbd8dbf2a	-0.06921227
41	0xbd2589d2	-0.04041464
42	0x3d28c796	0.041205965
43	0xbd773ac3	-0.060358774
44	0x3ced2ebf	0.028952954
45	0x3d9b1f41	0.075743206
46	0x3ccec7ff	0.02524185
47	0xbd525bb3	-0.051356982
48	0x3cc3dee2	0.02390999
49	0x3c5928be	0.013254343
50	0xbd9d9f96	-0.07696454
51	0xbd2ae8bc	-0.04172586
52	0xbc210b90	-0.009829417
53	0xbc7d1def	-0.015449031
54	0xbd97f086	-0.07418923
55	0x3d608e6e	0.05482333
56	0x3d448781	0.04798079
57	0xbcbe1731	-0.023204418
58	0x3d5264f5	0.05136581
59	0x3dc02eb8	0.09383911
60	0xbd9b1a43	-0.075733684
61	0xbda32dda	-0.0796773
62	0x3d87832b	0.06616815
63	0x3da4577c	0.08024499
64	0x3c7124a2	0.014718207
65	0xbd70dd68	-0.0588049
66	0x3d5f64c8	0.054539472
67	0x3b6d3ed7	0.0036200786
68	0xbdaba5fa	-0.08381267
69	0xbd8b7384	-0.06809142
70	0x3d38f56a	0.04515592
71	0x3ce1fe3c	0.027587049
72	0x3dd4df53	0.10394158
73	0xbda44e08	-0.08022696
74	0x3cec0fd8	0.028816149
75	0xbc4b3e7e	-0.012405036
76	0x3d4ea17f	0.050446983
77	0x3d0fe191	0.035127226
78	0x39c8c64b	0.00038294712
79	0x3caa2299	0.02076845
80	0x3d04b5f7	0.032400098
81	0x3d5c5087	0.053787734
82	0xbcbaaa21	-0.022786202
83	0xbc663166	-0.014049863
84	0xbcd43edc	-0.02590888
85	0xbdae2038	-0.08502239
86	0xbb2c52ca	-0.0026294463
87	0xbd5f3029	-0.05448929
88	0x3cd06696	0.025439542
89	0xbd36aeb2	-0.044600196
90	0xbd81b753	-0.063337944
91	0x3d7da9b9	0.06192944
92	0x3cb6f1e6	0.022332143
93	0x3d2a0274	0.041506246
94	0xbd1c34a8	-0.038136154
95	0x3e2979b3	0.16550331
96	0xbd8d6c63	-0.06905439
97	0xbd93ae79	-0.072110124
98	0xbcca16f5	-0.02466915
99	0x3ccd229c	0.025040917
100	0xbdbdd2b2	-0.092687026
101	0xbd9704df	-0.07373976
102	0xbd3e200d	-0.046417285
103	0x3d38580a	0.045005836
104	0xbcf83025	-0.030296395
105	0xbd3fb547	-0.04680374
106	0xbdae581d	-0.085129
107	0xbcb331c8	-0.021874323
108	0xbd0d4d6e	-0.03449767
109	0x3d4664e1	0.04843605
110	0x3aff8068	0.0019493224
111	0x3d04e9c1	0.032449488
112	0xbd089d79	-0.033353303
113	0xbc2e64d7	-0.010644159
114	0x3b9249e1	0.0044643735
115	0xbda7ac83	-0.08187201
116	0x3d31e443	0.043430578
117	0xbc7c490d	-0.015398276
118	0xbca25eaa	-0.01982053
119	0x3d1e39ab	0.038629215
120	0x3a93b524	0.0011269194
121	0x3d98aca8	0.074548066
122	0x3d3ded96	0.046369158
123	0x3d2bb60e	0.041921668
124	0x3d1fdab1	0.03902692
125	0x3cbb0a9b	0.022832206
126	0xbd37fdb2	-0.044919677
127	0xbd8840fa	-0.06653018
128	0x3d84175d	0.06449769
129	0x3c81a05a	0.015823532
130	0x3cd841ef	0.026398627
131	0x3d8ed496	0.06974141
132	0x3db286a9	0.08717091
133	0xbd738b0a	-0.05945877
134	0xbd657e1f	-0.05602848
135	0x3d85ee38	0.06539577
136	0xbcf4fcc3	-0.029905682
137	0x3ce00142	0.02734435
138	0x3c88aa57	0.016682787
139	0xbd875100	-0.066072464
140	0xbd716377	-0.058932748
141	0xbd8684df	-0.06568312
142	0xbd7da23b	-0.061922293
143	0xbd625d70	-0.05526489
144	0x3c467c95	0.012114664
145	0xbced3420	-0.02895552
146	0x3c4e6a90	0.012598649
147	0x3d731048	0.0593417
148	0xbd46c06d	-0.048523355
149	0x3d9fd645	0.078045405
150	0x3bf99ef0	0.007617824
151	0xbcc0dd6e	-0.023543086
152	0x3d8fba4f	0.070179574
153	0x3cb7973d	0.022410983
154	0xbd772ace	-0.060343556
155	0xbda93561	-0.08262134
156	0x3d2432ff	0.040087696
157	0xbd1770af	-0.036972698
158	0xbbff6735	-0.0077942857
159	0xbc57d665	-0.013173674
160	0xbd87a7df	-0.06623816
161	0xbcec8793	-0.02887324
162	0x3d58e019	0.05294809
163	0xbd4c0762	-0.04981173
164	0xbd750cfe	-0.059826843
165	0xbdb0fd87	-0.086421065
166	0xbcb4ddf8	-0.0220785
167	0xbd0cabae	-0.034343414
168	0x3d6d9aea	0.058009066
169	0xbd83982e	-0.0642551
170	0x3c8f148d	0.017465854
171	0x3c82980a	0.015941638
172	0x3da757fa	0.08171077
173	0x3dcc5cc7	0.099786334
174	0xbd4a36e8	-0.04936877
175	0x3c98756b	0.018610677
176	0x3c3be46e	0.011468036
177	0x3d049625	0.03236975
178	0xbcded06f	-0.027198998
179	0xbcf834a0	-0.030298531
180	0x3c406bda	0.011744464
181	0x3d1c9fa4	0.038238183
182	0x3cf32ea1	0.02968532
183	0xbdc10e4d	-0.09426556
184	0xbcab0854	-0.020877995
185	0xbd35dfc0	-0.044402838
186	0xbd5e2c64	-0.054241553
187	0xbc76723d	-0.015041885
188	0x3b0d9b90	0.0021607615
189	0x3cb06b1b	0.021535447
190	0xbcd03c99	-0.02541952
191	0x3cb7736e	0.022393908
192	0xbda1dad4	-0.07903066
193	0x3d84eedf	0.064908735
194	0x3bd0ca31	0.0063717593
195	0xbcf60889	-0.030033367
196	0xbc96e012	-0.018417392
197	0x3d96dd78	0.073664606
198	0xbd3d32df	-0.046191093
199	0x3d44becc	0.04803352
200	0xbcc9cc5f	-0.024633585
201	0xbd78c91c	-0.060738668
202	0x3d27c1c1	0.040956262
203	0xbc7b908b	-0.015354286
204	0x3caf5fc1	0.021407964
205	0x3dba7662	0.09104611
206	0x3c402c65	0.0117293345
207	0x3d390755	0.045173008
208	0x3ca60bdb	0.020269325
209	0x3cd397ce	0.025829222
210	0xbdcbcbac	-0.09950957
211	0x3ca00c36	0.019537073
212	0x3bd3eb7c	0.006467281
213	0xbc83e8e5	-0.016102264
214	0xbd29f532	-0.041493602
215	0x3d4f88f0	0.050667703
216	0x3c8f5e90	0.017501146
217	0xbd8f654b	-0.07001742
218	0x3cbdeab2	0.0231832
219	0x3d63eec5	0.05564763
220	0xbd25222e	-0.0403158
221	0xbd465dfd	-0.048429478
222	0x3c730362	0.0148323495
223	0x3d63557c	0.055501446
224	0x3d241115	0.040055353
225	0xbd9bfa0d	-0.07616053
226	0xbd80178e	-0.06254493
227	0xbda94c69	-0.08266527
228	0x3da58764	0.08082464
229	0xbd30e74a	-0.043189324
230	0x3d8a192c	0.067430824
231	0x3d6e2d25	0.058148522
232	0x3cdca17f	0.026932476
233	0x3d9f7706	0.07786374
234	0xbdbba569	-0.09162409
235	0xbd05ffd8	-0.032714695
236	0xbd0a67db	-0.03379045
237	0x3d29f5e9	0.041494284
238	0x3db16c43	0.086632274
239	0xbd8a28cb	-0.06746062
240	0x3c9d3ae8	0.019193128
241	0x3d79ea09	0.06101421
242	0xbd8b266a	-0.06794436
243	0xbd58f983	-0.052972328
244	0x3d524bff	0.051342007
245	0x3cd90f53	0.026496565
246	0x3d8678f5	0.065660395
247	0x3d933ca4	0.07189301
248	0xbcf5889e	-0.02997237
249	0x3d1efe2e	0.038816623
250	0x3d217de6	0.039426707
251	0x3d50d79f	0.050986882
252	0xbd8cdbca	-0.06877859
253	0x3c6924e5	0.014229988
254	0xbd1ab382	-0.03776885
255	0xbd132d93	-0.035932135

lstm.weight_ih_l1 f4 [512, 128]
0	0xbd238efc	-0.039931282
1	0xbc12231a	-0.008919502
2	0x3af2794b	0.0018499283
3	0x3d6f03e0	0.058353305
4	0x3d4def59	0.050277088
5	0x3bf91db2	0.007602417
6	0x3cb348e8	0.02188535
7	0xbccb2e0f	-0.024802236
8	0x3cd6de06	0.026228916
9	0xbc8e652b	-0.017382225
10	0xbc9de8f4	-0.01927612
11	0x3d2dec57	0.04246172
12	0xbd4fce70	-0.050733984
13	0x3d4e8187	0.050416496
14	0x3d3f6564	0.046727553
15	0x3d514263	0.051088702
16	0x3c0ba0ed	0.008522254
17	0xbc7c71d1	-0.015407995
18	0xbc384b77	-0.011248461
19	0xbd76d966	-0.06026592
20	0x3cbd39a5	0.023098776
21	0xbce0b254	-0.027428783
22	0x3ca7f5dc	0.020502977
23	0x3d00dcd7	0.03146061
24	0xbcc5a3b2	-0.024125908
25	0xbd752317	-0.059847917
26	0xbd81f09f	-0.06344723
27	0x3cf6ea1b	0.030140927
28	0x3c0eebd4	0.008723218
29	0xbd85809b	-0.0651867
30	0xbd374e64	-0.044752494
31	0x3ce79783	0.028270489
32	0x3cdb7fc5	0.026794324
33	0xbcce4a7a	-0.025181998
34	0xbd85d5f4	-0.06534949
35	0xbbb1234d	-0.0054058195
36	0xbd019986	-0.031640552
37	0x3c17ad02	0.009257557
38	0x3bb7af99	0.0056056497
39	0xbd276321	-0.04086602
40	0xbd1b714e	-0.037949853
41	0xbd2d36f9	-0.042288754
42	0xbd415092	-0.04719598
43	0xbd64e59d	-0.05588304
44	0x3d1470d8	0.03624043
45	0xbbb9fffe	-0.0056762686
46	0x3d209aa7	0.039209988
47	0xbd4fc376	-0.050723515
48	0xbd61ddcb	-0.05514316
49	0xbc102506	-0.00879789
50	0xbd2ae973	-0.04172654
51	0xbd38ffab	-0.0451657
52	0xbc9cf843	-0.01916135
53	0xbd19adeb	-0.037519377
54	0xbcf8bea0	-0.030364335
55	0x3d42e6e5	0.04758348
56	0x3d40c32f	0.04706114
57	0xbc84c1a5	-0.016205618
58	0x3bd0576b	0.0063580773
59	0xbc8dbb7d	-0.017301315
60	0x3d6e2629	0.05814186
61	0xbd585b36	-0.05282136
62	0xbb14d455	-0.0022709568
63	0xbcd227ab	-0.02565368
64	0xbc2a3cb1	-0.0103904465
65	0x3befede2	0.007322059
66	0xbb8b2fdc	-0.0042476486
67	0xbd35190d	-0.044213343
68	0xbc915cdb	-0.017744472
69	0xbbb7e084	-0.005611481
70	0x3d219897	0.03945216
71	0x3d75f73a	0.060050227
72	0x3c02e9ca	0.00799031
73	0xbd0113eb	-0.031513136
74	0xbd42a659	-0.047521923
75	0x3c12a994	0.008951563
76	0x3d160f26	0.03663554
77	0x3d208170	0.03918594
78	0x3d278ca7	0.04090562
79	0x3ce23de4	0.027617402
80	0x3d2488eb	0.040169638
81	0xbd1248b0	-0.03571385
82	0xbd4e1617	-0.050314035
83	0xbba2a975	-0.0049640485
84	0xbd688cf9	-0.056775067
85	0x3b0d1b46	0.0021531149
86	0xbd06b8ea	-0.03289119
87	0x3c0e46c9	0.008683869
88	0x3c3b856e	0.011445386
89	0xbccceba4	-0.025014706
90	0xbba34658	-0.004982751
91	0xbc85a886	-0.01631571
92	0x3ceeec66	0.029165458
93	0xbcb42991	-0.021992477
94	0xbd0a52e2	-0.03377045
95	0xbd078761	-0.03308809
96	0x3ba921f0	0.0051615164
97	0x3ba58d4a	0.0050522434
98	0x3d0067bc	0.03134893
99	0x3d2f4317	0.04278859
100	0xbc8d73f2	-0.017267201
101	0x3d7989f9	0.060922597
102	0x3d84debb	0.06487795
103	0x3d93d3a7	0.07218104
104	0x3c3e777a	0.011625165
105	0x3d4449e2	0.047922023
106	0xbd5d6ec7	-0.054060724
107	0x3d8d8f97	0.06912153
108	0xbcfedf6b	-0.031112393
109	0xbd17ac0f	-0.037029322
110	0x3c8567d2	0.016284857
111	0xbd49e6c3	-0.049292337
112	0x3d511a96	0.051050745
113	0xbc68f94e	-0.014219595
114	0x3cf08fe4	0.029365487
115	0x3d92c0d7	0.071656875
116	0xbcb479f4	-0.022030808
117	0x3d9dd1cb	0.077060305
118	0x3d3835ab	0.044973057
119	0xbd4663eb	-0.048435133
120	0x3d3bd0df	0.045853492
121	0x3ca6ef58	0.0203778
122	0x3d7ac146	0.061219476
123	0xbd737cdf	-0.05944526
124	0x3cf651f9	0.030068384
125	0x3c8c39e6	0.017117452
126	0xbd88991f	-0.066698305
127	0xbd3364de	-0.043797366
128	0xba83fd66	-0.0010070025
129	0x3af79a59	0.0018890604
130	0x3b31e261	0.002714299
131	0xba846f44	-0.001010396
132	0xbafbb588	-0.0019203881
133	0x3a870dfc	0.001030385
134	0xbc1db6fd	-0.009626147
135	0xbb793ab7	-0.0038029382
136	0xbc1e8dfa	-0.009677405
137	0x3c515508	0.012776621
138	0x3b0c59af	0.002141576
139	0x3c089d48	0.00833828
140	0xbab4f03b	-0.0013804504
141	0xbadcf6f8	-0.001685827
142	0x3ba4cbf7	0.0050291973
143	0x3a5fd633	0.0008538693
144	0x3ad953d8	0.0016580774
145	0x3c01f6be	0.007932363
146	0xbb15fe97	-0.0022887343
147	0x3ad503cb	0.0016251741
148	0x39f4e9cf	0.00046713508
149	0xb9eded3a	-0.0004538091
150	0x39ed42d6	0.0004525396
151	0xb98e12b5	-0.00027098288
152	0xba3780f5	-0.0007000112
153	0x399039ab	0.00027508786
154	0x3c0673f4	0.008206356
155	0xba0ffd45	-0.0005492757
156	0x3b93cd7d	0.00451058
157	0x3a8b648a	0.0010634821
158	0xbb1854a2	-0.0023243804
159	0x3a56305f	0.000817066
160	0x3a9f378d	0.0012147293
161	0xba82073a	-0.0009920367
162	0xbb6552a8	-0.0034991894
163	0x3a9d7c48	0.0012015188
164	0xba38f266	-0.0007055163
165	0x3a789920	0.00094832666
166	0xbc798de4	-0.015231583
167	0xbbf26579	-0.0073973504
168	0x3ad72f55	0.0016417304
169	0x3ad9d2d5	0.0016618619
170	0xbb8098c1	-0.0039244597
171	0x3b20b458	0.0024521556
172	0x3ca4fe6d	0.02014085
173	0x3c944e40	0.018103719
174	0x3b4d51cc	0.0031329272
175	0xb9a2b69d	-0.00031035105
176	0xb89f38ef	-7.5923155e-05
177	0x39e5a7ec	0.00043803395
178	0xbafa7dd7	-0.001911099
179	0xbaad1e75	-0.001320793
180	0xbbd45bbe	-0.006480663
181	0xb9b45a58	-0.00034399587
182	0xb7d5139a	-2.5400706e-05
183	0x3a0f0f6e	0.00054573163
184	0xbc7f2ec8	-0.015575118
185	0x3a3ea50e	0.000727252
186	0x3bcb5fa3	0.006206469
187	0xba36ffe1	-0.0006980878
188	0xb9af86fd	-0.00033479175
189	0x3b22510b	0.0024767544
190	0xb8815fcd	-6.1690436e-05
191	0x3a226985	0.0006195533
192	0x3b7a37c1	0.0038180205
193	0xbb2d9b0b	-0.0026490118
194	0x3b32d853	0.0027289584
195	0xbad822d6	-0.0016489874
196	0x3b48c406	0.0030634417
197	0x3944aaa7	0.0001875559
198	0x3a8900a9	0.0010452467
199	0x3858ebb2	5.171792e-05
200	0xbb04a884	-0.0020242045
201	0xba784e3d	-0.00094721076
202	0xbac015ca	-0.0014654931
203	0xbba6528f	-0.0050757597
204	0xbbf0cd72	-0.0073487097
205	0xbb18b22c	-0.0023299558
206	0xba871df8	-0.0010308614
207	0xba02348e	-0.00049669377
208	0xb9f09ce2	-0.00045893254
209	0xb8d36f68	-0.00010082015
210	0xba51be9e	-0.00080011215
211	0xbb08d6a0	-0.002087988
212	0xba480b20	-0.0007631052
213	0xbad34f29	-0.0016121614
214	0xbb05488c	-0.002033743
215	0xb944b0ef	-0.0001875793
216	0x3a870e18	0.0010303883
217	0x3aa69cb9	0.0012711502
218	0x3a248ec5	0.0006277378
219	0xbae78e8e	-0.0017666386
220	0xba37ada7	-0.0007006772
221	0xbba706c6	-0.005097243
222	0x3b77cb1a	0.0037810267
223	0xb9b4653e	-0.00034407707
224	0xb953a886	-0.00020185308
225	0x3bfa7b46	0.00764409
226	0xb9270e6e	-0.00015931737
227	0x390b6ad0	0.00013295864
228	0x3aca8d84	0.0015453552
229	0xbbabe1f5	-0.005245442
230	0xbc6152be	-0.013752637
231	0xbbe224b1	-0.0069013466
232	0xbabf5dd7	-0.001460011
233	0x3a4c85b7	0.00078019075
234	0x39efee88	0.00045763352
235	0x3c0351a9	0.008015075
236	0x3ada6f14	0.0016665184
237	0x3a16a284	0.00057462626
238	0x3bc22c68	0.005925704
239	0xba534a3e	-0.0008060074
240	0x398cb88c	0.0002684038
241	0x3a1541cf	0.0005693705
242	0x3b6028c6	0.003420399
243	0xba62093f	-0.00086225936
244	0xba62a0a5	-0.0008645154
245	0xbaee353b	-0.0018173823
246	0x3a5b25f9	0.00083598454
247	0xbad83f8d	-0.0016498432
248	0x3b341f6c	0.002748455
249	0xbbc2404b	-0.0059280745
250	0xbb0ddfac	-0.0021648211
251	0xb9c52f12	-0.00037609838
252	0xbb0ebf84	-0.0021781633
253	0x3995cb69	0.00028571047
254	0xba0d24eb	-0.00053842244
255	0x39fb0189	0.00047875594

lstm.weight_hh_l1 f4 [512, 128]
0	0x3d1fd487	0.03902104
1	0x3d355b18	0.044276327
2	0x3d3874ef	0.04503339
3	0xbd67b3de	-0.05656802
4	0x3d711057	0.058853474
5	0x3cb51996	0.022106927
6	0xbd247c14	-0.040157393
7	0x3b397f53	0.002830465
8	0x3c25b7f4	0.010114659
9	0x3d233769	0.039847765
10	0x3dad8884	0.08473304
11	0xbd1c9bec	-0.038234636
12	0x39a2d074	0.00031054358
13	0xbd15c6b4	-0.03656645
14	0xb9d323a5	-0.00040271613
15	0xbd0053de	-0.031329982
16	0x3d7c7632	0.061636157
17	0x3c9f736f	0.019464223
18	0x3d6be9a6	0.05759587
19	0x3d23a787	0.03995469
20	0x3d71ff83	0.059081566
21	0x3d115411	0.035480563
22	0xbd0bafcd	-0.034103204
23	0xbd499378	-0.049212903
24	0xbc5567bd	-0.013025221
25	0xbd0bccf9	-0.034131024
26	0x3d2df0f5	0.042466123
27	0xbc9bc008	-0.019012466
28	0xbd168e01	-0.03675652
29	0xbccc3b1a	-0.024930526
30	0x3b11e433	0.0022261261
31	0xbd302231	-0.043001357
32	0x3c6afb2a	0.014342109
33	0xbc373214	-0.011181373
34	0x3c43a291	0.011940614
35	0xbce71214	-0.028206863
36	0x3cbd5d41	0.023115756
37	0xbd3f45a8	-0.04669729
38	0xbd3e3f68	-0.046447188
39	0x3d89d32c	0.06729731
40	0xbd47fe9d	-0.048826803
41	0xbd48adaa	-0.048993744
42	0xbc128623	-0.0089431135
43	0xbd273d34	-0.040829852
44	0x3d89c614	0.067272335
45	0x3c6c05eb	0.014405708
46	0xbcd6e5c9	-0.026232617
47	0xbb3529e7	-0.0027643384
48	0x3d6ff567	0.058583643
49	0x3c969652	0.018382225
50	0x3d8fb48e	0.0701686
51	0xbd5c69a2	-0.053811677
52	0xbd7e335e	-0.062060706
53	0x3cac2d58	0.021017715
54	0x3c0e6af6	0.008692494
55	0x3cfbcbb9	0.030736791
56	0x3d921f54	0.071348816
57	0x3d963e27	0.07336073
58	0x3d8af90d	0.06785784
59	0x3ce1037f	0.027467487
60	0xbd257a8a	-0.040400065
61	0x3d2f2161	0.042756442
62	0xbc8e6021	-0.017379822
63	0x3d8a5641	0.06754733
64	0xbd4b3bf5	-0.049617726
65	0x3b99df56	0.004695813
66	0x3d801c9c	0.06255457
67	0xbcedfdbe	-0.029051658
68	0x3d63bbcf	0.05559903
69	0xbd062056	-0.03274568
70	0x3d0e1a74	0.034693196
71	0xbcfc9248	-0.030831471
72	0xbd12c24e	-0.035829835
73	0xbbf10b13	-0.0073560565
74	0xbc465ef7	-0.012107602
75	0x3d00a4f5	0.031407315
76	0x3cc2d88b	0.023784896
77	0xbcdc6850	-0.026905209
78	0xbcfc5dcc	-0.030806445
79	0x3ce36778	0.027759299
80	0xbc6bf4a5	-0.0144015895
81	0x3c4d848d	0.01254381
82	0x3d6942db	0.056948524
83	0x3d377608	0.044790298
84	0xbd5f141c	-0.054462537
85	0x3d297b7d	0.041377533
86	0xbc95a5ff	-0.01826763
87	0xbd876216	-0.06610505
88	0xbcd99c84	-0.02656389
89	0x3d09f498	0.03368053
90	0xbc6bce0d	-0.014392388
91	0xbd8edc04	-0.069755584
92	0xbd50e8fe	-0.05100345
93	0xbc444dce	-0.011981441
94	0x3bf3ff9c	0.0074462425
95	0x3d38bc71	0.045101587
96	0xbd87687a	-0.06611724
97	0xbd1cded6	-0.03829845
98	0x3d4ac860	0.0495075
99	0xbc1def54	-0.00963958
100	0x3d7f7f54	0.06237729
101	0x3d424c32	0.047435947
102	0x3cb4c7a6	0.022067856
103	0x3d3749f5	0.044748265
104	0x3d4ccb25	0.04999842
105	0xbd1429ef	-0.036172803
106	0xbd472ec4	-0.048628584
107	0x3d84d1bd	0.06485317
108	0x3cb2017f	0.021729229
109	0xbd4fccfe	-0.050732605
110	0xbd6130ff	-0.054978367
111	0x3cde2d07	0.02712108
112	0xbbe35974	-0.006938154
113	0x3ce42dff	0.027853964
114	0xbb9cff78	-0.0047911964
115	0x3d3f069a	0.046637155
116	0xbd38dce4	-0.045132533
117	0xbc84caae	-0.016209926
118	0x3c62d38f	0.013844385
119	0x3d1f49e8	0.038888842
120	0x3d81bda4	0.06334999
121	0x3d5e53ec	0.054279253
122	0x3d35447c	0.044254765
123	0xbd8ef731	-0.06980742
124	0xbce70468	-0.028200343
125	0x3d976450	0.0739218
126	0x3cb718b5	0.022350648
127	0xbd1af7d7	-0.037834015
128	0xbb0d8a3c	-0.0021597287
129	0x3b8e4092	0.0043411935
130	0xbc45f4e8	-0.012082316
131	0x3c0b3e62	0.00849876
132	0x3954b78c	0.00020286272
133	0xbab266d9	-0.0013610973
134	0x3a601d49	0.00085492857
135	0x3b14f5b3	0.0022729456
136	0xbb104867	-0.0022015811
137	0x391e8525	0.00015117654
138	0x3afda8ac	0.0019352636
139	0xb90d664d	-0.00013484918
140	0x39c4b255	0.000375169
141	0xbbf18ae2	-0.0073712924
142	0xb919b67d	-0.00014659199
143	0xbaa24215	-0.0012379313
144	0x3c7cb976	0.015425077
145	0x3a827280	0.0009952337
146	0x3c2e696b	0.010645251
147	0xb8ee4f3b	-0.00011363482
148	0xbb57145d	-0.0032818534
149	0x3c5718a7	0.013128436
150	0xbb67183b	-0.0035262245
151	0xbba970f8	-0.0051709376
152	0xb9825f6e	-0.00024866633
153	0x3b42f7e0	0.0029749796
154	0x3bdeb10c	0.006796008
155	0xb970584d	-0.00022921078
156	0xbb87aba7	-0.0041403356
157	0x3c0b9548	0.008519478
158	0xb984b029	-0.00025308251
159	0x3c066a8c	0.008204114
160	0x3b892c6d	0.004186204
161	0x3bbd0857	0.0057688165
162	0x3b05d9fd	0.002042412
163	0xbad85df4	-0.0016507492
164	0x3aaa3ad0	0.0012987498
165	0x3b9e22a1	0.0048259054
166	0x39a844ee	0.00032094814
167	0xba900b1c	-0.0010989639
168	0xba2166b8	-0.0006156969
169	0xba8fe624	-0.0010978621
170	0x3b6759b9	0.0035301282
171	0xbb05b208	-0.0020400304
172	0xbbca0195	-0.0061647394
173	0xbc2aafe1	-0.010417909
174	0x3bd6d058	0.006555598
175	0xbbffbc18	-0.007804405
176	0x3a8c4ced	0.0010704078
177	0x39d96ecb	0.00041472013
178	0xbb0dd18a	-0.0021639788
179	0xb9f7d5ba	-0.0004727075
180	0xba58e343	-0.0008273611
181	0x3abfd02b	0.0014634182
182	0x3b7f01d7	0.0038911009
183	0x3bdc283c	0.0067186635
184	0xbbade301	-0.005306602
185	0xbca1224b	-0.019669672
186	0x3cb0eb12	0.021596465
187	0xbc638002	-0.0138855
188	0x3b60a879	0.0034280105
189	0x39b70a48	0.0003491214
190	0xbaa6ae91	-0.001271682
191	0xbbd0b785	-0.0063695335
192	0xb9f2089d	-0.00046164254
193	0xba34eeb5	-0.0006902025
194	0x3b3a0a49	0.0028387478
195	0xbb1d7eda	-0.0024031908
196	0x3aeba17f	0.0017977207
197	0x39b8eac0	0.00035270117
198	0x3c9705c8	0.018435374
199	0x3c44d4ab	0.012013595
200	0x3c64a95d	0.013956395
201	0xbc2b85e7	-0.0104689365
202	0xbb23e0d9	-0.0025005846
203	0x3b8f18fd	0.0043669925
204	0xba277f2f	-0.0006389496
205	0xbaab6bfe	-0.0013078449
206	0xb4afcc31	-3.274486e-07
207	0xba603e1f	-0.00085541786
208	0x3a8bad0f	0.0010656434
209	0x3c406c94	0.011744637
210	0xbbb7f432	-0.005613827
211	0xbc4fd119	-0.01268413
212	0x3c4d52aa	0.012531916
213	0x3b651198	0.0034953114
214	0xbae3e166	-0.00173859
215	0x3bd77f57	0.0065764594
216	0xbaa78020	-0.0012779273
217	0x39557540	0.00020356942
218	0x3c35a69a	0.011087084
219	0xbc846ee9	-0.016166167
220	0xbc1838c6	-0.00929088
221	0xba34cf43	-0.00068973395
222	0x3a019f79	0.0004944723
223	0xbae74108	-0.0017643282
224	0xbab59cb0	-0.0013855901
225	0x3b2acb88	0.0026061255
226	0xba8e4bf7	-0.001085638
227	0xbc452e16	-0.0120349135
228	0x3aa43ea5	0.0012530877
229	0x39c43d2a	0.00037429604
230	0xb9dd3e4e	-0.00042198825
231	0xba0ebfed	-0.0005445469
232	0x3b48bf15	0.0030631472
233	0xbb98e1b9	-0.00466558
234	0x3cae41ab	0.021271547
235	0xba4c168c	-0.0007785342
236	0xbaa83d8d	-0.0012835726
237	0xba443602	-0.00074848544
238	0xba4e2694	-0.0007864025
239	0xba4dea50	-0.00078550447
240	0xbb07ecbd	-0.0020740472
241	0x390c9a3d	0.00013408899
242	0x3b58d6cf	0.003308702
243	0xbb56f9f8	-0.0032802802
244	0x39b899eb	0.00035209893
245	0x3b35fd59	0.0027769415
246	0xbc118c54	-0.0088835545
247	0x3bff26b2	0.0077865953
248	0x3b10bbfe	0.0022084708
249	0x3ba8f5c8	0.0051562525
250	0xbaba4249	-0.0014210428
251	0xbb337ce7	-0.002738768
252	0xbb916139	-0.0044366387
253	0xbbc24b3d	-0.0059293793
254	0x39a88c27	0.0003214788
255	0x3b8ec8d3	0.004357436

lstm.bias_ih_l1 f4 [512]
0	0xbd6461bc	-0.05575727
1	0x39c9a8f6	0.00038463593
2	0x3cd411e3	0.025887435
3	0x3b8354be	0.004007905
4	0x3cf7cebf	0.030249951
5	0xbd837a20	-0.06419778
6	0x3d78f5f0	0.06078142
7	0x3dabe84b	0.08393916
8	0xbd730819	-0.059333894
9	0xbd33a092	-0.043854304
10	0x3b861eab	0.0040930114
11	0xbc09efd2	-0.008418994
12	0x3cd882a7	0.026429487
13	0xbd0cc075	-0.03436323
14	0xbca9d749	-0.020732539
15	0x3d80686a	0.062699154
16	0x3ca07eb3	0.019591665
17	0x3d4278ed	0.047478605
18	0x3b172477	0.0023062506
19	0x3cc12367	0.023576451
20	0xbcb5cfc0	-0.02219379
21	0x3d9b536e	0.07584272
22	0x3d1e21b7	0.03860637
23	0xbcab01b4	-0.020874836
24	0xbda4ff29	-0.080564804
25	0xbbbd9fe3	-0.0057868822
26	0xbd943067	-0.072357945
27	0xbceaec2c	-0.028677069
28	0x3d7280b4	0.059204772
29	0x3d3f7edf	0.046751853
30	0x3cc3b5f2	0.02389047
31	0xbcbf0898	-0.023319528
32	0xbd99d0a5	-0.07510499
33	0xbd2e4c2d	-0.042553116
34	0x3c7c82c5	0.015412037
35	0x3ca2f546	0.019892346
36	0x3d317f9c	0.04333459
37	0xbd050463	-0.032474887
38	0xbb589021	-0.0033044892
39	0x3da89c71	0.08232964
40	0xbca29f5f	-0.019851385
41	0xbbdc23c4	-0.006718131
42	0xbd7edeb3	-0.0622241
43	0x3d66591f	0.056237336
44	0xbcc2b0cb	-0.023765942
45	0x3d06f6f8	0.03295037
46	0x3d0e6cd9	0.034771774
47	0x3d4d7db6	0.050168715
48	0x39fc10a2	0.00048077578
49	0xbd8fc4c4	-0.07019952
50	0x3d78370f	0.060599383
51	0xbd285119	-0.041092966
52	0xbc35ae71	-0.011088953
53	0xbd42cc53	-0.04755814
54	0xbd0876c2	-0.03331638
55	0x3c96185f	0.018322168
56	0x3d6475f1	0.05577654
57	0xbc331d14	-0.010932226
58	0x3da724fe	0.081613526
59	0x3c3cbaaf	0.011519118
60	0x3d2bc34e	0.041934304
61	0xbba0f670	-0.00491219
62	0x3d59fbb0	0.053218544
63	0xbc95a300	-0.018266201
64	0xbd26abf0	-0.040691316
65	0x3d50ceec	0.050978586
66	0x3d4ff159	0.050767276
67	0x3aadc8c7	0.0013258689
68	0x3bdc78d8	0.006728273
69	0xbd60b2c8	-0.054858
70	0xbc1ce577	-0.009576193
71	0xbd8752b3	-0.066075705
72	0xbd189c20	-0.037258267
73	0x3c9f2b2d	0.019429768
74	0x3c875abd	0.01652276
75	0xbc241e2a	-0.010016957
76	0xbbbb1069	-0.0057087434
77	0x3d9453a2	0.07242514
78	0x3d959dfd	0.073055245
79	0x3d0f9d38	0.035062045
80	0xbc45ae81	-0.012065531
81	0x3dcf5e0b	0.10125359
82	0xbcf8587f	-0.030315636
83	0x3dbc67d9	0.09199495
84	0xbcc9f8cb	-0.024654767
85	0x3d55dbbc	0.05221151
86	0x3ca061a1	0.019577803
87	0xbc85c2ab	-0.016328176
88	0x3d98917a	0.074496225
89	0xbd9fc0ed	-0.078004695
90	0xbd19f0ef	-0.037583288
91	0x3b46490d	0.0030255944
92	0xb9e9c90c	-0.00044591015
93	0x3d348c3a	0.044079043
94	0x3d6969e9	0.05698577
95	0x3d988580	0.07447338
96	0xbd8ef3b6	-0.06980078
97	0xbd05d4ef	-0.032673772
98	0x3caf82af	0.02142462
99	0x3d852612	0.06501402
100	0xbc758acd	-0.014986706
101	0xbd1f345a	-0.038868286
102	0xbd2ecfff	-0.04267883
103	0xbd82b54a	-0.063822344
104	0x3d25f072	0.04051251
105	0xbc6b7757	-0.014371715
106	0x3dc05109	0.09390456
107	0xbc5619ac	-0.013067644
108	0x3d4a1f79	0.04934642
109	0xbcc460c0	-0.023971915
110	0x3d9aea6b	0.07564243
111	0xbd37912f	-0.044816192
112	0xbcfc346e	-0.03078672
113	0xbd7e4c7f	-0.06208467
114	0xbc600462	-0.01367292
115	0xbd18edf4	-0.037336305
116	0x3d9c7ca6	0.07640962
117	0xbd7f7e6b	-0.06237642
118	0x3d775a94	0.060389116
119	0xbcdf0b13	-0.02722696
120	0xbd0d204e	-0.034454636
121	0xbd0c4992	-0.03424985
122	0x3c7aa1ef	0.015297397
123	0x3db164b2	0.08661784
124	0x3d4bc0e6	0.04974451
125	0x3d906fa0	0.07052541
126	0xbcc03c80	-0.023466349
127	0x3d00246e	0.031284742
128	0x3cf838e4	0.030300565
129	0xbd4fb377	-0.05070826
130	0x3dacc49b	0.08435937
131	0xbc40afea	-0.011760691
132	0xbd21234b	-0.0393403
133	0xbc511460	-0.012761205
134	0xbc1c0b5a	-0.009524191
135	0xbc6c7e30	-0.014434382
136	0xbd066d35	-0.03281899
137	0xbd3d8bf9	-0.046276066
138	0xbd67647e	-0.05649232
139	0x3c9e13b7	0.01929651
140	0x3d432bec	0.04764931
141	0x3d622403	0.055210125
142	0x3c910fd1	0.017707737
143	0x3bc1acfe	0.005910515
144	0x3c984e08	0.018591896
145	0xbd8454be	-0.06461476
146	0x39dcf995	0.00042147623
147	0xbd265332	-0.040606685
148	0xbd132c9c	-0.035931215
149	0x3d8b0a6e	0.06789099
150	0xbd84d48c	-0.064858526
151	0xbd534aac	-0.051584885
152	0x3bba9fc7	0.0056953165
153	0x3cea9109	0.028633611
154	0x3bccddd5	0.0062520304
155	0xbcda2566	-0.026629161
156	0xbdb2607e	-0.08709811
157	0xbd6705d2	-0.056402035
158	0xbc17a98e	-0.009256734
159	0xbda5f25d	-0.08102868
160	0x3d5f3f3c	0.054503664
161	0xbd8b1729	-0.06791527
162	0xbd374234	-0.04474087
163	0xbd9ba9b3	-0.07600727
164	0xbd6dcee5	-0.058058638
165	0xbd931efe	-0.07183646
166	0x3d853c73	0.065056704
167	0x39bece12	0.00036393158
168	0xbc8ae3f9	-0.016954409
169	0xbd81cb47	-0.063376
170	0x3d4a2517	0.049351778
171	0xbda802b1	-0.08203638
172	0xbd9e5f3f	-0.077330105
173	0x3d8c90ac	0.068635315
174	0x3ca50488	0.020143762
175	0xbd8ac44b	-0.06775721
176	0x3d26bee5	0.040709395
177	0x3c0b0b8d	0.008486641
178	0x3d12a57e	0.035802357
179	0xbd751453	-0.059833836
180	0x3cb6a49f	0.022295294
181	0x3d694b08	0.05695632
182	0xbdb024c5	-0.08600763
183	0xbd8ca2df	-0.06867003
184	0xbc7a46b1	-0.015275643
185	0xbd627c53	-0.055294346
186	0x3d4e6a92	0.050394602
187	0x3ae8ddfe	0.0017766354
188	0xbd6ec239	-0.058290694
189	0xbccb42ca	-0.024812121
190	0x3d633679	0.05547187
191	0x3dafe54b	0.08588656
192	0x3bb98324	0.005661385
193	0x3d5d40d6	0.05401691
194	0x3d1b7040	0.037948847
195	0x3d3f3ff6	0.046691857
196	0xbd9ce88f	-0.076615445
197	0xbd9b407f	-0.07580661
198	0x3bb54568	0.0055319555
199	0x3d9c3443	0.07627156
200	0x3dc8697c	0.097857445
201	0x3d973b37	0.07384341
202	0xbc577ebb	-0.0131527735
203	0x3d8744ed	0.066049434
204	0xbd36adf1	-0.044599477
205	0x3d8823b0	0.06647432
206	0xbd4879d2	-0.048944302
207	0xbd6f92ff	-0.058489796
208	0x3cbdd0b0	0.023170799
209	0x3d468d66	0.04847469
210	0x3db75e96	0.08953588
211	0x3cea136a	0.02857371
212	0x3d183435	0.037159164
213	0x3d494d14	0.049145773
214	0xbd599862	-0.05312384
215	0x3dc4dba4	0.096122056
216	0xbd43ecf7	-0.04783341
217	0xbd827472	-0.063698664
218	0x3d100acc	0.035166547
219	0xbd7a2927	-0.061074402
220	0x3ca6091e	0.02026802
221	0xbd194620	-0.037420392
222	0x3bbc8483	0.0057531013
223	0xbd8da241	-0.06915713
224	0x3c890f0e	0.016730811
225	0xbda59565	-0.08085135
226	0xbba7bcb0	-0.005118929
227	0x3dbc7c39	0.09203381
228	0x3d2e38cd	0.04253464
229	0xbd9fb1ba	-0.077975705
230	0xbd97c0a2	-0.07409789
231	0xbd2da26f	-0.042391237
232	0x3cc48355	0.023988405
233	0x3d9d28b5	0.0767378
234	0x3dcac1d6	0.099002525
235	0x3d822433	0.06354561
236	0x3bdb13c0	0.006685704
237	0xbd6815d8	-0.056661457
238	0xbcca4b1f	-0.024694024
239	0xbd3bcf00	-0.045851707
240	0x3d03c4d8	0.032170147
241	0xbc17c351	-0.009262876
242	0x3c1988c6	0.009370988
243	0xbd81f5cd	-0.06345711
244	0x3c220de2	0.009891005
245	0x3ca559d8	0.020184442
246	0x3d263a22	0.040582784
247	0xbcd5d694	-0.026103295
248	0x3d918c77	0.0710687
249	0x3d874108	0.066042006
250	0x3d304254	0.043032005
251	0x3d75029b	0.059816938
252	0xbd3a21c4	-0.045442358
253	0x3dc94ffc	0.09829709
254	0x3d44d6ac	0.04805629
255	0x3c7b7926	0.015348708
