checkpoints/best_model.pth (torch, 89385 bytes, 5 tensors)

lstm.weight_ih_l0 f4 [256, 19]
0.10259757 -0.12192212 0.00083786994 0.06902268 0.2173667 0.1371886 0.12856653 -0.053276926
-0.092662185 -0.07751678 0.21436511 0.01300656 0.0394359 0.16280209 0.10689809 -0.05539079
0.10754627 -0.22219022 -0.0108351 0.11755204 -0.119241424 -0.062398337 0.09207941 0.007474374
-0.044377606 0.15638754 -0.021766853 0.040141366 -0.08136562 0.119894154 0.0035323321 -0.0066616177
-0.0031516734 -0.089628816 0.056690075 0.068615735 -0.3436107 0.03884104 0.004105772 0.021122793
-0.17711802 0.24011612 0.035657696 -0.10403638 -0.056054562 0.10331954 0.1130918 0.039326735
-0.032687526 0.06881716 0.057645652 0.013801753 0.022966953 0.026142808 -0.027446479 0.092857406
0.015344916 0.045526225 0.04291004 0.080238506 -0.04068084 -0.027408037 0.031964637 0.062309366
0.0051002833 -0.048416268 0.07759917 0.034364294 0.018307129 0.01510798 0.027230259 0.019570937
-0.041704547 0.07115342 -0.075736895 -0.030271228 -0.0024280197 -0.06560435 -0.004056946 0.046621785
0.07424036 -0.0680687 -0.024662212 0.05748553 0.07960315 -0.007188037 0.0059104688 0.04066994
0.023939658 0.037487242 0.052423373 -0.023056664 0.19082633 0.16695629 0.011336174 0.00036765522
-0.0055089486 0.0031764265 -0.00027629765 0.008185778 -0.005389129 -0.0083066765 0.016790988 0.005282095
-0.024691993 -0.016046595 0.0017860892 -0.001979563 0.02555918 -0.035436366 0.012148212 -0.050127666
0.016130757 -0.06411532 0.08606654 0.06770678 -0.13406451 0.0054189065 -0.09330358 -0.08884221
-0.18041576 0.062257677 0.019513179 0.046006635 -0.016809758 0.09671473 -0.02460418 0.06732805
0.018619496 -0.034503527 -0.0722235 -0.18187715 -0.061996274 0.14787082 -0.10617334 -0.008345511
0.032878973 0.13033845 0.12876254 0.110746525 0.063458204 -0.17675327 -0.07119974 -0.023337027
-0.082961604 0.06161128 0.09683435 0.07091659 -0.047347516 -0.025051698 0.37710342 0.1566163
0.08659307 0.065458156 -0.16133934 0.16115236 -0.1110991 0.009464109 -0.103415206 0.073840834
0.008612179 0.11976897 -0.031988982 -0.10739079 -0.05746945 -0.08688289 -0.072079405 -0.00442412
0.044879045 0.092629135 0.04393244 0.01890412 0.0052533513 0.017937003 -0.005416919 -5.2365176e-06
0.0007055775 0.025026293 -0.0023287323 -0.009713329 -0.004318807 0.010738015 0.019414669 0.0071988925
-0.00684974 -0.007906057 -0.005676089 -0.057840466 -0.046922203 -0.0107962545 -0.011211319 0.012903139
-0.020146336 0.050822537 -0.02947289 -0.007160317 -0.020121153 -0.034719985 0.021813065 0.009254804
-0.029929403 -0.038821377 0.0049476177 0.011424282 -0.0625579 -0.050034538 0.07391819 0.12657931
0.046768475 0.022932576 0.054267075 -0.088586554 0.06628253 0.057239957 -0.016358308 -0.06758231
0.07079786 0.0982726 0.031992193 -0.047485393 0.021839293 0.023277283 0.09372089 0.08551327
-0.05615452 0.072279796 -0.104648665 -0.06185484 0.055391043 -0.113694206 -0.028544787 0.05757101
0.14595376 0.06719312 0.11259751 -0.07586771 -0.059038885 -0.08233839 -0.023955757 -0.04366297
0.040856533 0.06731727 0.0026595667 0.011650463 -0.037006665 0.0008540621 -0.060373753 -0.020266997
0.0753585 -0.06702288 -0.018080948 -0.0035581707 0.006501491 0.026101172 0.004200731 0.005030657
00000000: ad1e d23d 4eb2 f9bd 80a4 5b3a c35b 8d3d
00000010: 6095 5e3e 2b7b 0c3e f2a6 033e e838 5abd
00000020: acc5 bdbd 1ec1 9ebd 8782 5b3e 7719 553c
00000030: 8a87 213d 97b5 263e 63ed da3d 74e1 62bd
00000040: 3841 dc3d d585 63be b485 31bc 20bf f03d
00000050: d934 f4bd 6695 7fbd 2194 bc3d 98eb f43b
00000060: 4bc5 35bd 0e24 203e 6650 b2bc 466b 243d
00000070: 05a3 a6bd 118b f53d b37e 673b b349 dabb
00000080: 4e8c 4ebb 508f b7bd da33 683d 6886 8c3d
00000090: beed afbe c817 1f3d b689 863b b509 ad3c
000000a0: 6d5e 35be 00e1 753e ce0d 123d 0711 d5bd
000000b0: 7899 65bd 3299 d33d ac9c e73d 1215 213d
000000c0: 5be3 05bd 03f0 8c3d d91d 6c3d bf20 623c
000000d0: 3125 bc3c 7129 d63c 70d7 e0bc 062c be3d
000000e0: 3e69 7b3c b579 3a3d 70c2 2f3d 1654 a43d
000000f0: f4a0 26bd d286 e0bc 5aed 023d 1b38 7f3d
00000100: 4720 a73b 2350 46bd 50ec 9e3d 93c1 0c3d
00000110: d5f8 953c 7687 773c fe11 df3c 3b53 a03c
00000120: 63d2 2abd e2b8 913d f21b 9bbd 5efb f7bc
00000130: 691f 1fbb 935b 86bd 21f0 84bb 7cf6 3e3d
00000140: 540b 983d 9a67 8bbd 6808 cabc f275 6b3d
00000150: fa06 a33d a089 ebbb 9bac c13b 8695 263d
00000160: 1a1d c43c 398c 193d e4b9 563d 54e1 bcbc
00000170: fa67 433e 97f6 2a3e 5cbb 393c d9c1 c039
00000180: 6984 b4bb 982b 503b 0bdc 90b9 a41d 063c
00000190: 4a97 b0bb ba18 08bc 418d 893c 6d15 ad3b
000001a0: dd46 cabc 2674 83bc 351b ea3a 8ebb 01bb
000001b0: 7c61 d13c b925 11bd 4b09 473c ab52 4dbd
000001c0: a624 843c e54e 83bd a743 b03d daa9 8a3d
000001d0: 3548 09be 1591 b13b f315 bfbd e8f2 b5bd
000001e0: e9be 38be e801 7f3d 1ada 9f3c 7471 3c3d
000001f0: 9eb4 89bc 5f12 c63d b58e c9bc 4ae3 893d
00000200: ea87 983c 9253 0dbd eae9 93bd 013e 3abe
00000210: ceef 7dbd 736b 173e 6871 d9bd 9cbb 08bc
00000220: 1aac 063d 7177 053e 54da 033e 13cf e23d
00000230: 60f6 813d cffe 34be 2bd1 91bd 4b2d bfbc
00000240: c6e7 a9bd 1c5c 7c3d 1651 c63d b83c 913d
00000250: 78ef 41bd 3839 cdbc b313 c13e 0660 203e
00000260: b557 b13d ed0e 863d 2436 25be 2005 253e
00000270: ed87 e3bd 5a0f 1b3c 5acb d3bd dd39 973d
00000280: 191a 0d3c 6f49 f53d e106 03bd b4ef dbbd
00000290: 1665 6bbd a8ef b1bd 5e9e 93bd 35f8 90bb
000002a0: 17d3 373d 58b4 bd3d 81f2 333d d0dc 9a3c
000002b0: 4e24 ac3b 9ff0 923c 6980 b1bb 58b5 afb6
000002c0: 81f6 383a f103 cd3c a59d 18bb a824 1fbc
000002d0: c784 8dbb 80ee 2f3c 830b 9f3c b0e4 eb3b
000002e0: c973 e0bb 6888 01bc 7cfe b9bb 20ea 6cbd
000002f0: 7f31 40bd c6e2 30bc aeaf 37bc b067 533c
00000300: ee09 a5bc 4b2b 503d 2171 f1bc 18a1 eabb
00000310: 1ed5 a4bc 8b36 0ebd 50b1 b23c 76a1 173c
00000320: 822e f5bc 2a03 1fbd a01f a23b e92c 3b3c
00000330: 5b1e 80bd 04f1 4cbd 6c62 973d 029e 013e
00000340: 4d90 3f3d 19dd bb3c 2747 5e3d de6c b5bd
00000350: 23bf 873d 7274 6a3d dc01 86bc 9868 8abd
00000360: 78fe 903d 2543 c93d 3f0a 033d 0b80 42bd
00000370: 51e8 b23c 00b0 be3c bdf0 bf3d 9521 af3d
00000380: 4802 66bd 6e07 943d 0a52 d6bd 805b 7dbd
00000390: b8e1 623d 82d8 e8bd c2d6 e9bc 94cf 6b3d
000003a0: e774 153e 8c9c 893d 8699 e63d 8860 9bbd
000003b0: c2d2 71bd 08a1 a8bd dd3e c4bc f1d7 32bd
000003c0: 2e59 273d a3dd 893d 204c 2e3b 95e1 3e3c
000003d0: 4d94 17bd 23e3 5f3a 784a 77bd f906 a6bc
000003e0: 8f55 9a3d 4b43 89bd 7f1e 94bc 3330 69bb
000003f0: 760a d53b 20d2 d53c 49a6 893b 36d8 a43b

lstm.weight_hh_l0 f4 [256, 64]
0.15162383 0.082497835 -0.025770854 6.3701795e-05 0.053400863 0.028994787 -0.013761592 -0.014849541
0.071174406 0.017385973 0.014124158 0.14517814 -0.019561699 0.046458054 0.034478355 -0.042846683
0.022893893 -0.0758583 0.061400767 -0.017567867 0.078305714 0.00066885364 0.101616606 -0.059481364
0.058558494 -0.039645843 0.009825785 -0.043585874 -0.06483666 -0.031652734 -0.044709925 -0.01060569
0.0425199 0.101811804 0.04429572 -0.067861676 0.117925175 -0.012615053 0.08752409 0.11956592
0.027509302 -0.033354666 -0.025604099 -0.08711666 -0.025973259 0.00056601746 -0.022392442 -0.09242094
0.0063888542 -0.00475874 0.04816571 0.02776229 0.0027419047 -0.11344149 -0.02502798 0.038858045
-0.0519004 -0.081713274 -0.07236866 -0.02764758 -0.050250582 0.02418404 -0.02574864 0.0028755479
0.07053652 0.069970705 -0.057781603 -0.012784108 -0.025715787 -0.008285428 -0.038192775 0.022896891
0.009391046 0.01932045 -0.022122383 0.017072396 -0.006358313 -0.03102654 -0.05249703 -0.03050263
-0.031403095 -0.003096692 -0.039533973 0.008782936 0.08224627 -0.012095503 0.028647294 -0.06836262
0.0622327 -0.016253885 0.030609917 -0.024892611 0.0072712395 -0.024938136 -0.033650525 -0.028232012
-0.0133745475 0.0062406827 0.02126158 -0.059043325 0.010101945 0.052294217 -0.009992976 0.03789628
0.067820355 0.02177418 -0.03561872 -0.035550103 -0.020609612 0.031615008 -0.07787529 0.002457695
0.08284732 -0.03193894 -0.005205543 0.038006645 0.025864473 -0.018010642 0.0020039342 0.010363318
0.055361267 -0.045210287 0.039175007 0.02251837 -0.08697058 0.020581637 -0.027993137 0.01027147
0.032400385 0.038910653 -0.047247656 -0.0035773602 -0.012442383 0.0058435085 0.017275108 0.08130956
-0.056067843 0.0015347417 -0.0030681854 -0.01928578 -0.005318044 -0.07014028 -0.02745575 0.030611625
-0.009279835 0.02367497 -0.043210316 0.0029072298 -0.008642045 0.020954086 0.0049117776 -0.06778944
0.02939081 -0.0039248504 -0.017822156 -0.0062953467 0.006769938 0.024039127 -0.011335122 -0.0047729923
-0.032236893 -0.032723982 -0.014265015 -0.05681817 -0.023875302 -0.03615737 0.009997816 0.015250041
0.028206512 -0.066034816 -0.012800751 0.0010278717 -0.017295169 0.005726611 -0.0472581 -0.0127858585
0.03365989 0.01569296 0.00093744043 0.030747304 -0.0057260175 -0.021807062 -0.0054885875 0.044418532
-0.020004706 -0.021733617 0.019524476 0.025091771 -0.01687049 -0.017787524 -0.02921549 0.00991189
-0.017106103 0.0030418946 -0.012851469 0.007830651 0.02219416 0.012019398 0.013939038 -0.007872218
0.008495956 -0.00046164828 -0.0014389126 0.035650585 0.004080035 0.00518955 0.019648828 0.010930164
-0.0055674426 -0.021267211 0.025317837 0.0019153263 0.021284001 -0.0007770344 -0.009424974 -0.016718037
0.022732021 -0.009514367 0.010693869 -0.008926636 0.0054970277 -0.014605998 -0.007893175 -0.0032553403
0.013745082 0.022969441 0.0023352487 -0.018569516 -0.00715754 0.010695449 0.024910163 0.032159183
0.020233504 -0.02964023 -0.01883648 -0.007205495 -0.013497662 0.011573796 -0.01841779 -0.024670938
0.010084323 -0.00093579455 0.011276124 -0.0012214475 0.020336157 -0.007984288 -0.011853081 0.018168299
0.003135074 0.0076203533 -0.023907263 -0.00148035 -0.0030323078 0.013676745 -0.008708608 0.012316839
00000000: 4743 1b3e a0f4 a83d 661d d3bc a497 8538
00000010: ddba 5a3d 7a86 ed3c 4d78 61bc 7d4b 73bc
00000020: e3c3 913d 076d 8e3c 0369 673c 94a9 143e
00000030: db3f a0bc cd4a 3e3d 2d39 0d3d 0180 2fbd
00000040: f98b bb3c 995b 9bbd 5f7f 7b3d 7dea 8fbc
00000050: bf5e a03d 0256 2f3a 5e1c d03d bba2 73bd
00000060: 08db 6f3d ae63 22bd 54fc 203c 1a87 32bd
00000070: 15c9 84bd 4ca6 01bd c121 37bd 7dc3 2dbc
00000080: 5929 2e3d b582 d03d 6e6f 353d 10fb 8abd
00000090: c182 f13d 5eaf 4ebc d53f b33d fade f43d
000000a0: 305b e13c e79e 08bd b0bf d1bc 386a b2bd
000000b0: dfc5 d4bc ca60 143a 5b70 b7bc 3147 bdbd
000000c0: 9859 d13b 34ef 9bbb 6849 453d be6d e33c
000000d0: 87b1 333b 0354 e8bd 7a07 cdbc 9d29 1f3d
000000e0: 8495 54bd 4a59 a7bd 0536 94bd 2d7d e2bc
000000f0: 8ed3 4dbd 9c1d c63c d0ee d2bc b073 3c3b
00000100: 7375 903d cd4c 8f3d 67ac 6cbd 6f74 51bc
00000110: eaa9 d2bc 9bbf 07bc 0770 1cbd 4392 bb3c
00000120: e7dc 193c ec45 9e3c 003a b5bc 69db 8b3c
00000130: 6559 d0bb 5f2b febc 2007 57bd a7e0 f9bc
00000140: 88a0 00bd dff1 4abb 60ee 21bd 4ee6 0f3c
00000150: bb70 a83d 372c 46bc bbad ea3c b401 8cbd
00000160: b7e7 7e3d de26 85bc a6c1 fa3c 97eb cbbc
00000170: 9443 ee3b 104b ccbc 22d5 09bd d246 e7bc
00000180: eb20 5bbc a47e cc3b c42c ae3c 6ad7 71bd
00000190: a182 253c 7632 563d 94b9 23bc 2139 1b3d
000001a0: 66e5 8a3d c45f b23c efe4 11bd fc9c 11bd
000001b0: 7dd5 a8bc bd7e 013d 147d 9fbd 4811 213b
000001c0: dbab a93d 68d2 02bd 4293 aabb dbac 1b3d
000001d0: bbe1 d33c 0e8b 93bc 7054 033b e8ca 293c
000001e0: 7fc2 623d 6c2e 39bd f975 203d 7278 b83c
000001f0: a21d b2bd d29a a83c dd51 e5bc ab49 283c
00000200: 44b6 043d c760 1f3d c286 41bd 2572 6abb
00000210: 23db 4bbc e77a bf3b 8784 8d3c a085 a63d
00000220: 65a7 65bd 6329 c93a 9c13 49bb 36fd 9dbc
00000230: fd42 aebb b5a5 8fbd e2ea e0bc 3bc5 fa3c
00000240: 730a 18bc 03f2 c13c 4dfd 30bd 3987 3e3b
00000250: 5d97 0dbc e7a7 ab3c faf2 a03b 31d5 8abd
00000260: ffc4 f03c 089c 80bb c5ff 91bc 3249 cebb
00000270: 5bd6 dd3b b4ed c43c f3b6 39bc c366 9cbb
00000280: d50a 04bd 9509 06bd cfb7 69bc 2bba 68bd
00000290: 2396 c3bc c019 14bd e1cd 233c 4fdb 793c
000002a0: 5811 e73c 433d 87bd 3eba 51bc a7b9 863a
000002b0: 99ae 8dbc 4ba6 bb3b b691 41bd c77b 51bc
000002c0: f4de 093d 868e 803c 90be 753a c5e1 fb3c
000002d0: 51a1 bbbb b9a4 b2bc 9cd9 b3bb 35f0 353d
000002e0: e9e0 a3bc b30a b2bc cbf1 9f3c 428d cd3c
000002f0: fb33 8abc 24b7 91bc 5355 efbc 7b65 223c
00000300: 1922 8cbc 865a 473b f88e 52bc 214c 003c
00000310: 87d0 b53c 02ed 443c 9060 643c 7afa 00bc
00000320: 9f32 0b3c 6209 f2b9 e599 bcba 5906 123d
00000330: d0b1 853b 1a0d aa3b 94f6 a03c 6e14 333c
00000340: 186f b6bb 9338 aebc 5a67 cf3c b00b fb3a
00000350: c95b ae3c e5b1 4bba 356b 1abc 44f4 88bc
00000360: 8138 ba3c 26e2 1bbc 5635 2f3c 0641 12bc
00000370: 6920 b43b ff4d 6fbc 6052 01bc 8c57 55bb
00000380: 0d33 613c 692a bc3c f90a 193b 191f 98bc
00000390: cc89 eabb f73b 2f3c 6610 cc3c 59b9 033d
000003a0: bcc0 a53c 11d0 f2bc f64e 9abc 131c ecbb
000003b0: 4c25 5dbc 05a0 3d3c e8e0 96bc b51a cabc
000003c0: b738 253c 1c50 75ba 7ebf 383c fa18 a0ba
000003d0: 0398 a63c 88d0 02bc 6d33 42bc afd5 943c
000003e0: d075 4d3b 28b4 f93b 2ad9 c3bc 4e08 c2ba
000003f0: afb9 46bb 6d14 603c 8dae 0ebc 91cc 493c

lstm.bias_ih_l0 f4 [256]
0.1620383 -0.072234295 -0.055040445 0.050233103 0.051976755 0.0101775285 0.08247928 0.014279069
-0.03909183 -0.008758674 0.025841532 0.07161465 0.050973617 0.012920644 0.089337066 -0.016616961
0.047086187 -0.032089196 0.047663845 -0.07210412 0.07538106 0.33894745 0.10434587 -0.025093403
-0.068437524 -0.0988005 0.044360988 -0.005600136 0.018831778 -0.07023737 -0.055236265 -0.0181835
0.10151654 0.12297276 0.017114362 0.0902629 -0.008633753 0.023348913 -0.057173852 0.005749281
-0.07584181 0.055488564 0.015556542 0.010923923 -0.02965097 -0.0047305087 0.016370554 0.22889495
0.010798154 -0.011681294 -0.104663834 -0.07645529 0.042580664 0.18066725 0.015952984 0.0219652
-0.10982699 0.45244664 0.17390354 -0.0209316 -0.01799597 -0.085683696 -0.034997534 -0.03631148
-0.057875745 0.02198611 -0.008991935 0.05153075 0.028315783 0.00985228 0.08526811 -0.08296574
-0.064729445 0.002081308 -0.058173947 -0.0044635395 -0.024068683 0.04099529 0.14949456 0.005059785
0.12294239 0.016693754 0.14879543 -0.031772193 0.04641075 -0.17107855 -0.06274976 -0.010449407
0.17486054 0.038817752 -0.03641218 0.0104137845 0.003838127 0.020562656 0.057451013 -0.04109711
-0.0656482 0.08914858 0.028786995 0.067643955 -0.046528794 0.0621784 0.1378968 -0.022073109
-0.06141256 0.08215369 0.00752576 0.06049417 0.024463605 0.061652884 -0.040073607 -0.03415461
-0.057102453 0.01836953 0.01519078 -0.043938916 -0.013982596 0.0075392034 0.12005327 -0.05718758
0.037665837 -0.24436198 0.10306067 0.17703505 -0.039627016 0.037507508 0.041251056 0.05437228
-0.034595687 -0.06294895 -0.052079562 0.0017262031 0.07984349 0.010253993 0.054869123 0.031783428
-0.060111582 0.08181655 -0.07307512 -0.026399901 0.05729365 -0.06907435 0.02696011 0.03689022
-0.088813566 0.07549314 0.033553537 -0.09167725 0.052096426 -0.10956537 -0.0109888045 -0.07868095
0.101304114 0.10582689 0.04138827 0.04858607 -0.078131475 -0.08247293 -0.018761484 0.046095748
-0.050574016 0.07863995 -0.024162296 -0.012168472 -0.03948797 0.027644975 0.085455984 0.023374056
0.07610924 -0.008213201 -0.00076230924 -0.091303885 0.011169015 -0.070582554 -0.087769106 0.05795396
-0.1103888 0.0027405408 0.11871896 0.011781232 0.07187059 -0.00914891 -0.08681066 -0.02335659
0.061710928 -0.006074131 -0.058557708 -0.08588689 -0.034442022 0.07507536 -0.06770533 0.036654092
0.08626526 0.07951805 -0.011726966 -0.044740207 0.018704 -0.022352379 0.080674216 -0.007998862
-0.0023215634 -0.00090742414 0.02988177 0.079649635 0.08202369 0.07368686 -0.06876347 -0.010415334
0.007574352 -0.04164191 -0.07748848 -0.040820673 0.065019794 0.42637342 0.05036356 -0.07221816
0.013422846 0.029452542 -0.0010874212 -0.08064113 -0.015285302 0.026346372 -0.06855281 -0.062246617
-0.04348617 0.086209156 0.008339676 0.11177765 -0.035357 0.089288406 0.060571793 -0.033933807
-0.044076204 0.035027176 0.006603818 -0.059620388 0.027620904 0.067303516 0.09329777 0.24897699
-0.0016937036 0.07601946 -0.09002238 0.0059823156 0.02383049 0.16333075 0.11601412 -0.03951652
0.013755673 0.37907177 0.0618189 0.07624161 -0.07000346 -0.063523 -0.010586945 -0.03895361
00000000: 5eed 253e 93ef 93bd 1772 61bd 3ac1 4d3d
00000010: 94e5 543d a6bf 263c e6ea a83d c2f2 693c
00000020: c11e 20bd 8b80 0fbc 9fb1 d33c b4aa 923d
00000030: b6c9 503d 1cb1 533c 5af6 b63d 4b20 88bc
00000040: 72dd 403d f66f 03bd 2a3b 433d 53ab 93bd
00000050: 6361 9a3d 858a ad3e 4ab3 d53d ae90 cdbc
00000060: f928 8cbd eb57 cabd deb3 353d 5881 b7bb
00000070: 1a45 9a3c 9cd8 8fbd 6c3f 62bd 90f5 94bc
00000080: e7e7 cf3d 24d9 fb3d 6b33 8c3c c1db b83d
00000090: 9674 0dbc 3846 bf3c 212f 6abd 7764 bc3b
000000a0: f352 9bbd fa47 633d dee0 7e3c 41fa 323c
000000b0: 97e6 f2bc 6202 9bbb 8a1b 863c 7063 6a3e
000000c0: beea 303c e662 3fbc fe59 d6bd 9794 9cbd
000000d0: 1069 2e3d d600 393e d5af 823c 5df0 b33c
000000e0: f9ec e0bd 16a7 e73e c513 323e bf78 abbc
000000f0: 496c 93bc ef7a afbd 9359 0fbd 59bb 14bd
00000100: 1e0f 6dbd 371c b43c e952 13bc e811 533d
00000110: 80f6 e73c 756b 213c 0ca1 ae3d f1e9 a9bd
00000120: df90 84bd 8e66 083b ce47 6ebd e242 92bb
00000130: b02b c5bc adea 273d 1a15 193e 8ecc a53b
00000140: 38c9 fb3d 57c1 883c d45d 183e 8f23 02bd
00000150: 3319 3e3d 372f 2fbe f282 80bd fd33 2bbc
00000160: a40e 333e 5dff 1e3d f024 15bd 949e 2a3c
00000170: 1689 7b3b 0473 a83c c151 6b3d 7155 28bd
00000180: 9072 86bd 8893 b63d b4d2 eb3c ea88 8a3d
00000190: fa94 3ebd c7ae 7e3d d234 0d3e aad2 b4bc
000001a0: bd8b 7bbd 3240 a83d a79a f63b bcc8 773d
000001b0: e667 c83c bc87 7c3d 3924 24bd b4e5 0bbd
000001c0: 43e4 69bd b27b 963c c0e2 783c 4bf9 33bd
000001d0: 4217 65bc 6c0b f73b 7dde f53d 863d 6abd
000001e0: 7e47 1a3d 073a 7abe 7911 d33d ad48 353e
000001f0: f04f 22bd 79a1 193d def6 283d 78b5 5e3d
00000200: 35b4 0dbd 61eb 80bd 6151 55bd c441 e23a
00000210: fc84 a33d 5d00 283c 72be 603d 572f 023d
00000220: 9037 76bd 6f8f a73d 69a8 95bd 9b44 d8bc
00000230: bfac 6a3d da76 8dbd 73db dc3c 331a 173d
00000240: e3e3 b5bd 269c 9a3d 6f6f 093d 48c1 bbbd
00000250: 1063 553d cf63 e0bd 630a 34bc 7a23 a1bd
00000260: 8878 cf3d c5bb d83d bf86 293d 3002 473d
00000270: 6503 a0bd 91e7 a8bd afb1 99bc e5ce 3c3d
00000280: b326 4fbd fb0d a13d 02f0 c5bc 455e 47bc
00000290: 23be 21bd b777 e23c 8c03 af3d f37a bf3c
000002a0: 29df 9b3d a990 06bc b5d5 47ba 88fd babd
000002b0: 3ffe 363c 968d 90bd 4ac0 b3bd 2261 6d3d
000002c0: 8613 e2bd a59a 333b ed22 f33d 1206 413c
000002d0: e330 933d 4fe5 15bc cac9 b1bd 5256 bfbc
000002e0: 99c4 7c3d 8109 c7bb 35da 6fbd 77e5 afbd
000002f0: 1413 0dbd 1cc1 993d 18a9 8abd 9a22 163d
00000300: d7ab b03d 5cda a23d 7622 40bc 8241 37bd
00000310: 2239 993c 561c b7bc 8638 a53d a90d 03bc
00000320: 5f25 18bb 34e0 6dba 9dca f43c 591f a33d
00000330: 09fc a73d 23e9 963d ddd3 8cbd 14a5 2abc
00000340: 4532 f83b b590 2abd 48b2 9ebd 9433 27bd
00000350: 1929 853d 9e4d da3e 054a 4e3d 1de7 93bd
00000360: 7feb 5b3c 7546 f13c cd87 8eba 2d27 a5bd
00000370: 346f 7abc 59d4 d73c 6a65 8cbd 4ff6 7ebd
00000380: 8e1e 32bd 6d8e b03d 23a3 083c aeeb e43d
00000390: 80d2 10bd d7dc b63d 211a 783d 2dfe 0abd
000003a0: 4089 34bd a878 0f3d d764 d83b 8234 74bd
000003b0: 3c45 e23c 6dd6 893d e712 bf3d d3f3 7e3e
000003c0: 43ff ddba 17b0 9b3d a75d b8bd 4d07 c43b
000003d0: 2938 c33c 2d40 273e d098 ed3d 13dc 21bd
000003e0: 795f 613c b215 c23e d135 7d3d 9024 9c3d
000003f0: f95d 8fbd 5918 82bd de74 2dbc d28d 1fbd

lstm.bias_hh_l0 f4 [256]
0.16752204 -0.014312645 -0.004347015 0.04806173 0.060951915 -0.01766724 -0.0123170335 0.078194916
-0.015082536 -0.008362469 -0.028264342 0.052474193 0.048161246 0.023412786 -0.041538488 0.033240523
0.044029996 -0.014724018 0.06883672 0.031962983 0.055880617 0.33330044 0.070639215 0.04082205
0.0506078 -0.01484643 0.022647945 -0.07532733 0.041159052 -0.074006535 0.027554078 0.020558106
-0.032094073 0.027221456 -0.035424396 0.020232528 -0.006038712 -0.0572671 0.14474395 0.0009597117
0.039273325 0.0077427262 0.029401911 -0.04221449 0.003209717 0.0033733416 0.015050017 0.2114768
0.003996134 -0.055379324 -0.09662069 -0.08100355 0.048448935 0.16349022 -0.029158603 0.066231154
-0.063287154 0.46100518 0.12449445 -0.05739144 -0.08513129 -0.021288611 -0.098677166 -0.04516263
0.01999392 -0.010977749 0.13863315 0.036637995 0.009145031 0.025487473 -0.019590488 0.05092602
0.13965605 0.0006744739 -0.012603432 -0.014395898 0.019676538 -0.060862828 0.12208085 0.024148798
0.02203713 -0.0064104134 0.13612905 -0.01607527 -0.020139324 -0.07141824 -0.09040509 -0.0013839108
0.16975342 -0.03144218 -0.058419827 -0.058040895 0.02945252 0.1370133 0.042038344 -0.079896756
-0.0389805 -0.006312663 -0.014016367 -0.06399675 0.0015758735 0.03156625 -0.017628353 0.025977636
0.13313612 0.07758724 -0.046394147 -0.042593375 -0.017257888 0.00068587944 0.1068398 -0.008778105
0.05227917 0.009012864 0.021132335 0.13714841 -0.013792972 0.050848823 0.18025865 0.08483006
0.09594788 -0.282493 0.07514107 -0.0003860965 -0.034037188 -0.01518031 0.11025107 0.01169812
0.044997834 0.06457358 -0.04153012 0.070659354 0.077129975 0.09003825 0.12744671 -0.114037745
-0.046120383 0.0789833 -0.0065505886 -0.09197771 0.04812754 0.09617373 0.092127524 -0.107658274
-0.05230726 -0.09731482 0.0946376 -0.114731744 -0.026343372 0.07618715 -0.077946514 0.010601748
0.013759238 -0.09676035 -0.032283656 -0.114700444 0.013318288 -0.02399715 -0.017135546 -0.023210965
-0.034784567 0.006928276 -0.006753311 -0.038183633 -0.061547082 0.094849065 0.1069704 0.028847765
-0.0034593362 -0.10483735 -0.06667075 0.011532874 0.02449359 0.05894985 -0.06502143 -0.08107645
0.0051339483 0.09125291 -0.039460033 -0.10285114 0.058212735 -0.043756545 -0.0561236 -0.0403952
-0.017430611 0.013737505 0.0088614 -0.07030775 0.04859044 0.031574354 -0.027568907 -0.0640629
0.15362582 -0.05481805 -0.005207159 -0.030369928 -0.0015357849 -0.02305748 -0.006026613 0.11630597
0.0704353 -0.01319276 -0.029214395 0.10091809 -0.008791453 -0.024384307 0.09823441 0.06539221
-0.08156671 0.051886704 0.047020417 -0.008019534 0.08231008 0.4118084 0.06530751 0.085520424
0.053611748 0.02462481 0.043820687 -0.052590918 0.02260422 -0.01732088 -0.030795647 -0.039722405
0.050011244 0.048212975 0.035210878 0.10813741 -0.025756894 0.07009038 -0.027941963 0.009004586
0.048617627 -0.0138746295 -0.09141305 0.07620045 -0.02000463 0.050421786 -0.017154468 0.2272768
0.08365131 -0.021118391 0.02039053 -0.02165549 0.020370822 0.17610137 -0.06843345 0.07773536
0.053767763 0.4091118 0.08870087 -0.02830843 -0.063870676 0.08840925 0.05772194 -0.007543741
00000000: e68a 2b3e 967f 6abc 6871 8ebb 60dc 443d
00000010: b7a8 793d e3ba 90bc 62cd 49bc a824 a03d
00000020: be1c 77bc bd02 09bc 9f8a e7bc 2eef 563d
00000030: ba44 453d 2ccc bf3c 4324 2abd 3727 083d
00000040: cc58 343d 023d 71bc 44fa 8c3d 9eeb 023d
00000050: 13e3 643d 5ba6 aa3e 4bab 903d 0635 273d
00000060: 204a 4f3d 713e 73bc 2f88 b93c 3745 9abd
00000070: 6596 283d bd90 97bd 17b9 e13c 7969 a83c
00000080: 1375 03bd 88ff de3c 2c19 11bd b0be a53c
00000090: 63e0 c5bb e890 6abd c237 143e 2995 7b3a
000000a0: 11dd 203d b2b6 fd3b 47dc f03c 1ae9 2cbd
000000b0: 1e5a 523b 4813 5d3b 5994 763c 608d 583e
000000c0: 00f2 823b 6ed5 62bd 11e1 c5bd 30e5 a5bd
000000d0: 6472 463d fb69 273e 06de eebc 33a4 873d
000000e0: b29c 81bd df08 ec3e f2f6 fe3d 4913 6bbd
000000f0: 5059 aebd 7465 aebc 4117 cabd 73fc 38bd
00000100: 4aca a33c 04dc 33bc d9f5 0d3e b911 163d
00000110: 0ad5 153c 1bcb d03c 3b7c a0bc cd97 503d
00000120: ff01 0f3e 2dcf 303a a07e 4ebc c6dc 6bbc
00000130: b130 a13c 4d4b 79bd 8605 fa3d b3d3 c53c
00000140: 3687 b43c 720e d2bb 6a65 0b3e 49b0 83bc
00000150: 39fb a4bc ba43 92bd 4e26 b9bd 5764 b5ba
00000160: d7d3 2d3e 84c9 00bd a149 6fbd 4abc 6dbd
00000170: 6946 f13c 374d 0c3e 6630 2c3d e9a0 a3bd
00000180: 04aa 1fbd 75da cebb e7a4 65bc ba10 83bd
00000190: 8a8d ce3a 9d4b 013d 5669 90bc 0dcf d43c
000001a0: d654 083e 0fe6 9e3d ca07 3ebd 6476 2ebd
000001b0: 6a60 8dbc 97cc 333a d3ce da3d 0ad2 0fbc
000001c0: af22 563d b1aa 133c b81d ad3c a270 0c3e
000001d0: ebfb 61bc db46 503d b995 383e 62bb ad3d
000001e0: 5280 c43d eca2 90be 90e3 993d ff6c cab9
000001f0: 946a 0bbd d6b6 78bc 50cb e13d 79a9 3f3c
00000200: a64f 383d 273f 843d 7d1b 2abd dab5 903d
00000210: 52f6 9d3d f965 b83d 6481 023e 9f8c e9bd
00000220: bae8 3cbd ffc1 a13d 52a6 d6bb cf5e bcbd
00000230: 6221 453d bcf6 c43d 5bad bc3d f17b dcbd
00000240: 2340 56bd fe4c c7bd 5cd1 c13d 7af8 eabd
00000250: 0ece d7bc 0208 9c3d 6ca2 9fbd f4b2 2d3c
00000260: 6d6e 613c 4a2a c6bd de3b 04bd 11e8 eabd
00000270: f334 5a3c ac95 c4bc d85f 8cbc ec24 bebc
00000280: 437a 0ebd 9706 e33b e14a ddbb 7166 1cbd
00000290: cb18 7cbd 3a40 c23d 4c13 db3d 2652 ec3c
000002a0: 08b6 62bb f7b4 d6bd ad8a 88bd 61f4 3c3c
000002b0: c8a6 c83c 6675 713d f529 85bd 690b a6bd
000002c0: ae3a a83b cee2 ba3d d8a0 21bd 9ea3 d2bd
000002d0: 7a70 6e3d 103a 33bd dce1 65bd 7075 25bd
000002e0: a4ca 8ebc 4613 613c 682f 113c 82fd 8fbd
000002f0: c506 473d 1c54 013d 30d8 e1bc 6933 83bd
00000300: 1650 1d3e e488 60bd d1a0 aabb 5bca f8bc
00000310: 644c c9ba 0ae3 bcbc e57a c5bb d331 ee3d
00000320: 6240 903d 7226 58bc 0753 efbc 25ae ce3d
00000330: 070a 10bc 99c1 c7bc 1f2f c93d 5aec 853d
00000340: 720c a7bd 2787 543d 7b98 403d 5d64 03bc
00000350: 3092 a83d 8dd8 d23e f2bf 853d 5525 af3d
00000360: fe97 5b3d f8b9 c93c 527d 333d 9369 57bd
00000370: 7c2c b93c 85e4 8dbc 2747 fcbc f6b3 22bd
00000380: 97d8 4c3d f87a 453d 4839 103d 2577 dd3d
00000390: 1f00 d3bc 8c8b 8f3d 8be6 e4bc f987 133c
000003a0: 4723 473d 6a52 63bc c436 bbbd fb0e 9c3d
000003b0: c0e0 a3bc 1387 4e3d 8787 8cbc 40bb 683e
000003c0: 6151 ab3d 7a00 adbc 0a0a a73c db66 b1bc
000003d0: b6e0 a63c eb53 343e d626 8cbd b733 9f3d
000003e0: 963b 5c3d 1a77 d13e cda8 b53d 15e7 e7bc
000003f0: a1ce 82bd e90f b53d d76d 6c3d 7c31 f7bb

fc.weight f4 [1, 64]
-0.13165514 -0.17356145 0.15417337 -0.0870726 -0.09918807 -0.05210327 0.15418401 0.1315313
-0.10609326 0.042182907 -0.038197298 -0.08415737 0.067765854 0.089637585 -0.16763328 0.050107695
-0.10447203 0.14908557 -0.15490574 0.043259725 -0.11000155 0.22230461 -0.021512287 0.17340189
-0.16556785 0.025354054 -0.127387 0.08211471 0.07236951 0.16106562 0.011571618 0.082392655
-0.17480469 -0.17952499 -0.066450186 0.15527156 -0.12969664 -0.04668093 -0.18474866 -0.1015985
-0.17668498 0.13064624 0.13270211 0.08297274 -0.012013702 -0.16251811 0.15532318 0.3985017
-0.06817324 0.0815052 -0.09812755 -0.109573014 -0.05009425 0.10492765 0.13318376 -0.109470785
-0.006101222 0.28355527 0.15335268 -0.032178696 0.09610921 -0.079351984 0.098625764 -0.10178065
00000000: 9bd0 06be 18ba 31be a0df 1d3e 1f53 b2bd
00000010: 1d23 cbbd 3d6a 55bd 6ae2 1d3e 24b0 063e
00000020: 6c47 d9bd fcc7 2c3d c574 1cbd b35a acbd
00000030: d3c8 8a3d e993 b73d 0fa8 2bbe ba3d 4d3d
00000040: 6ff5 d5bd e3a9 183e 9c9f 1ebe 1c31 313d
00000050: 7e48 e1bd d2a3 633e 893a b0bc 4490 313e
00000060: 9e8a 29be 4eb3 cf3c bd71 02be c22b a83d
00000070: 7736 943d 63ee 243e e296 3d3c 7bbd a83d
00000080: 0000 33be 66d5 37be 0917 88bd 82ff 1e3e
00000090: 32cf 04be 8134 3fbd c12e 3dbe e012 d0bd
000000a0: e8ec 34be 21c8 053e 10e3 073e 9ded a93d
000000b0: 1ed5 44bc 266b 26be 0a0d 1f3e 6a08 cc3e
000000c0: 699e 8bbd 33ec a63d 19f7 c8bd d167 e0bd
000000d0: a12f 4dbd 4fe4 d63d 5361 083e 3832 e0bd
000000e0: c2ec c7bb 282e 913e 7c08 1d3e cfcd 03bd
000000f0: e8d4 c43d 4b83 a2bd 4efc c93d 6072 d0bd
