checkpoints/best_model.pth (torch, 314089 bytes, 9 tensors)

lstm.weight_ih_l0 f4 [296, 37]
0	0xbcf6dfc0	-0.03013599
1	0x3d9a758d	0.07541952
2	0xbcda5b1b	-0.02665477
3	0x3e73e8b3	0.23819236
4	0xbd31ec2f	-0.043438133
5	0x3d4f904a	0.050674714
6	0xbe74317e	-0.23847005
7	0xbe7d016e	-0.24707577
8	0x3e1203ef	0.14259313
9	0xbec26f6e	-0.3797564
10	0xbe3ef41c	-0.18647808
11	0x3da0175a	0.07816954
12	0xbe15e24a	-0.14637104
13	0xbe7d6e57	-0.24749123
14	0x3e15c6c2	0.14626601
15	0x3dd15148	0.10220581
16	0x3db501ae	0.08838211
17	0xbcb0b0d0	-0.021568686
18	0x3c8681c2	0.016419295
19	0xbe5e511c	-0.21710628
20	0xbda89ad8	-0.08232659
21	0x3cb09210	0.021554023
22	0x3e6cc971	0.23123719
23	0x3e3884c8	0.18019402
24	0x3e6ecc52	0.2332013
25	0xbdca37b6	-0.09873907
26	0xbd8da15e	-0.06915544
27	0x3e4a1979	0.1973628
28	0xbd8f4dc0	-0.069972515
29	0x3d8a2e13	0.06747069
30	0x3e7ad980	0.24497032
31	0x3e84c8d6	0.25934476
32	0x3caad859	0.020855116
33	0x3f8196ed	1.0124184
34	0x3f8f87d6	1.1213329
35	0x3d0c757c	0.03429173
36	0x3e293205	0.16522987
37	0xbdc6ecde	-0.097131476
38	0xbe16ef00	-0.14739609
39	0xbb8d2b75	-0.004308159
40	0x3b4b1d92	0.0030992967
41	0xbd8035be	-0.062602505
42	0x3c804351	0.015657099
43	0xbe07fd84	-0.13280302
44	0xbe76dff0	-0.24108863
45	0x3d58a71c	0.052893743
46	0xbe92a630	-0.28642416
47	0xbdb0570b	-0.08610352
48	0x3d82196f	0.06352507
49	0xbcf33495	-0.029688159
50	0xbe964819	-0.2935188
51	0x3d8ec711	0.06971563
52	0x3da9e5b9	0.08295769
53	0x3dd354d8	0.10318917
54	0xbd62195b	-0.055199962
55	0xbdb7830b	-0.08960541
56	0xbe0176d4	-0.12642986
57	0xbdb639ca	-0.08897741
58	0xbd9384ca	-0.07203062
59	0xbd0021cb	-0.031282227
60	0x3d2c7b5e	0.04210984
61	0x3d3281d4	0.043580845
62	0xbca828bb	-0.020527234
63	0x3ca81c5a	0.020521332
64	0xbd41e3fb	-0.04733656
65	0x3d208a74	0.03919454
66	0x3c0f7300	0.0087554455
67	0xbe1d68ed	-0.15372057
68	0x3d53cf0f	0.05171114
69	0xbd184476	-0.037174664
70	0x3fb886a4	1.4416089
71	0x3fac14d0	1.3443851
72	0xbd69d7f4	-0.057090715
73	0xbb9fd538	-0.0048777126
74	0xbd85d64c	-0.065350145
75	0x3c2a410f	0.010391488
76	0xbceef520	-0.02916962
77	0x3e5be75e	0.21474978
78	0xbe09753b	-0.13423626
79	0x3da76b02	0.08174707
80	0xbec042e4	-0.37551033
81	0xbecdf262	-0.40223986
82	0x3e08e2f3	0.13367824
83	0xbec0e453	-0.37674198
84	0xbd946268	-0.07245332
85	0x3e439087	0.19098102
86	0xbd2e2fd4	-0.04252608
87	0xbec497df	-0.38397118
88	0x3e0d4b6f	0.13798307
89	0x3de9dac2	0.11418678
90	0xbcbeb562	-0.02327985
91	0x3d90f3a3	0.0707772
92	0x3cc5a87a	0.024128187
93	0xbea3889f	-0.3194017
94	0xbd99e96f	-0.07515227
95	0xbd870dce	-0.0659443
96	0x3e035a3a	0.12827387
97	0x3cea6f44	0.028617509
98	0x3cc2791c	0.02373939
99	0x3da1ad13	0.078943394
100	0xbe285177	-0.16437326
101	0x3dc89ead	0.0979589
102	0x3cd08aa8	0.025456741
103	0xb8a0fbd3	-7.6763004e-05
104	0x3dbeb69b	0.09312173
105	0x3d9d308e	0.07675277
106	0x3e3a83b0	0.18214297
107	0x3fb55e55	1.4169413
108	0x3fbbcdfa	1.4672234
109	0x3abd0c1a	0.0014423162
110	0xbd21e881	-0.039528374
111	0xbd9b90a8	-0.0759595
112	0xbe5734d4	-0.21016246
113	0xbba28eaa	-0.0049608545
114	0xbcda8007	-0.026672376
115	0xbd894cd0	-0.06704104
116	0xbda334cd	-0.07969055
117	0x3e0d9356	0.13825735
118	0xbdcdcb53	-0.10048547
119	0xbda7e47a	-0.08197875
120	0xbd08197c	-0.03322743
121	0x3d8f330e	0.0699216
122	0x3d0504ab	0.032475155
123	0x3d97666d	0.07392583
124	0x3ce417b0	0.027843326
125	0xbd9c6f58	-0.07638425
126	0x3d50068f	0.050787505
127	0xba8a880e	-0.0010569112
128	0xbca982c7	-0.020692242
129	0xbe826325	-0.25466266
130	0xbd630420	-0.055423856
131	0xbdfd7ddc	-0.123775214
132	0x3e288a29	0.16458954
133	0xbdaf803d	-0.085693814
134	0xbe187839	-0.14889611
135	0xbe240bf7	-0.16020189
136	0xbd18f50c	-0.03734307
137	0x3cd0efc9	0.025504963
138	0xbe1b84f9	-0.15187444
139	0xbdc38180	-0.095461845
140	0x3d01bbfc	0.031673416
141	0xbdb43dd6	-0.08800857
142	0xbd36eb38	-0.044657916
143	0xbe40eb1b	-0.18839686
144	0x3dffdb93	0.12493052
145	0x3e62701d	0.2211308
146	0xbced7057	-0.028984232
147	0xbd620e1f	-0.05518925
148	0x3db3e420	0.08783746
149	0x3d2cbc36	0.04217168
150	0xbde0f752	-0.109846726
151	0x3d8f3813	0.06993117
152	0x3d613abb	0.05498765
153	0x3d2f3e08	0.042783767
154	0xbd532ab1	-0.051554386
155	0xbc6ac919	-0.014330172
156	0xbaa3df3c	-0.0012502442
157	0xbd97f198	-0.07419127
158	0xbd09fa3e	-0.033685915
159	0x3d476396	0.048678957
160	0xbda8c424	-0.08240536
161	0x3c84a996	0.016194146
162	0xbdac2b1c	-0.0840666
163	0xbdedd942	-0.11613704
164	0xbc9f42f2	-0.019441102
165	0x3d6f281a	0.058387853
166	0x3bb232bd	0.0054381774
167	0xbddaeb33	-0.10689392
168	0x3dc3589e	0.09538387
169	0xbd95735b	-0.07297393
170	0xbb89c35e	-0.004204198
171	0xbd53c6fa	-0.05170343
172	0xbc83c7da	-0.016086508
173	0xbd9de471	-0.07709587
174	0xbc92e659	-0.017932104
175	0xbdb8efe3	-0.0903013
176	0x3cbbb530	0.022913545
177	0x3d01c885	0.03168537
178	0x3d81a2ec	0.06329903
179	0xbcaa0dfe	-0.020758625
180	0x3dd0f8ed	0.10203729
181	0x3dabe124	0.083925515
182	0x3d944698	0.07240027
183	0x3dc97e1a	0.09838505
184	0xbdd91724	-0.10600117
185	0xbe53c1b9	-0.20679368
186	0xbc375c68	-0.011191465
187	0x3a2723d8	0.00063758856
188	0xbe380030	-0.17968822
189	0x3e6e892d	0.23294516
190	0xbe97371a	-0.29534227
191	0x3ec41f7d	0.38305274
192	0x3f0978ed	0.53700143
193	0xbe6c36a9	-0.23067726
194	0x3f12a3a4	0.57280946
195	0x3d421077	0.047378983
196	0xbe8941f3	-0.26808128
197	0x3e8f25d2	0.27958542
198	0x3f1980f4	0.5996239
199	0xbec6d149	-0.38831547
200	0xbe9c6222	-0.3054362
201	0xbe78ef15	-0.24309953
202	0xbea56f3e	-0.32311434
203	0xbe188c6f	-0.14897321
204	0x3e41f265	0.18940122
205	0x3e8510d0	0.2598939
206	0x3e6e02fc	0.23243326
207	0xbe6dae46	-0.23211011
208	0xbeb89a8b	-0.36055407
209	0xbe6a5511	-0.22884013
210	0x3ea4e8ce	0.32208866
211	0x3e072075	0.13195975
212	0xbe493403	-0.19648747
213	0x3df729c2	0.120685115
214	0x3dce8a3f	0.10084962
215	0xbe89d243	-0.2691823
216	0xbe24e5fe	-0.1610336
217	0xbe85e434	-0.26150668
218	0x3fd62bcf	1.6732119
219	0xbe7893db	-0.24275152
220	0xbb61cbeb	-0.003445382
221	0xbe2ea0fc	-0.17053598
222	0x3ccea3be	0.025224563
223	0x3c40e958	0.0117743835
224	0xbd31aef2	-0.04337973
225	0x3e1e1bdf	0.1544032
226	0xbe399f51	-0.1812718
227	0x3d916bf1	0.07100666
228	0xbe580e73	-0.21099262
229	0xbe842d65	-0.25815883
230	0x3e20b8b2	0.15695456
231	0xbed9dd41	-0.42551616
232	0xbe4e0910	-0.20120645
233	0x3db29704	0.0872021
234	0x3d067dd8	0.032834858
235	0xbe8813f7	-0.26577732
236	0x3da640b7	0.08117812
237	0x3e255152	0.16144302
238	0x3de744a0	0.11292386
239	0x3de851e6	0.11343746
240	0x3d2c0929	0.042000923
241	0xbec79272	-0.38978916
242	0xbe24f79d	-0.16110082
243	0xbe329051	-0.17437865
244	0x3e5a5e61	0.21325065
245	0x3e27e57e	0.16396138
246	0x3e305190	0.17218614
247	0xbdc42d57	-0.095789604
248	0xbe33bd90	-0.17552781
249	0x3cbff1b0	0.023430675
250	0x3d72848b	0.059208434
251	0x3d423207	0.04741099
252	0x3d0e6d1d	0.034772027
253	0x3e2745c0	0.16335201
254	0x3e2363b5	0.15956004
255	0x3f9fde91	1.2489797

lstm.weight_hh_l0 f4 [296, 74]
0	0x3da76a93	0.08174624
1	0x3df20afe	0.11818503
2	0x3dce3c25	0.100700654
3	0xbd1770e7	-0.036972906
4	0x3da81590	0.08207238
5	0x3c2a24d6	0.010384759
6	0x3ad8a1c7	0.0016527706
7	0xbcab27b8	-0.020892963
8	0x3da85933	0.082201384
9	0x3dbef6e6	0.09324436
10	0xbb89efd7	-0.0042094993
11	0xbe8de146	-0.27710932
12	0x3d625f68	0.055266768
13	0xbd931d46	-0.07183318
14	0x3d513145	0.051072378
15	0x3d5f5aca	0.054529943
16	0xbdd44662	-0.10364987
17	0x3d6ee827	0.058326866
18	0x3d94ad70	0.07259643
19	0xbdb58947	-0.08864074
20	0xbeaf2f27	-0.34215662
21	0xbe756054	-0.23962528
22	0xbdb739ba	-0.08946557
23	0xbdd3718f	-0.10324394
24	0xbe03d261	-0.12873222
25	0x3de41922	0.11137606
26	0x3daa124b	0.0830427
27	0xbb71166d	-0.0036787048
28	0x3d639e60	0.05557096
29	0xbc8c7246	-0.017144334
30	0x3de57dc1	0.11205626
31	0xbe16e09a	-0.14734116
32	0xbdc85dc6	-0.09783511
33	0xbe04f012	-0.12982205
34	0xbeaae5fc	-0.3337859
35	0xb99c07f0	-0.00029760553
36	0x3c94bfcb	0.01815786
37	0x3c7703b8	0.01507657
38	0xbd95e9db	-0.07319995
39	0xbc1b3ffa	-0.009475702
40	0xbd0b2a77	-0.033976045
41	0x3d9fdf5d	0.07806275
42	0x3c9b08de	0.018925127
43	0xbe2b7dfe	-0.16747281
44	0xbdbf08f9	-0.09327883
45	0x3d7087d0	0.05872327
46	0xbb3600b4	-0.0027771415
47	0x3dbf957d	0.093546845
48	0xbdacb684	-0.084332496
49	0xbd3c1efc	-0.045927987
50	0xba932509	-0.0011226247
51	0x3d08f8ee	0.033440523
52	0x3e9ca1be	0.3059215
53	0xbe5309fa	-0.20609275
54	0x3e805c5b	0.25070462
55	0xbe6104bf	-0.21974467
56	0x3c11bf3d	0.008895692
57	0x3d469d7c	0.048490033
58	0x3b6f1925	0.0036483493
59	0xbd849d49	-0.06475312
60	0x3d0695c3	0.032857668
61	0xbce0f56f	-0.027460782
62	0xbd3cdc4a	-0.04610852
63	0xbd0be647	-0.034155156
64	0x3c8e5c93	0.017378127
65	0x3cba27ac	0.022723995
66	0xbd0e8fd8	-0.03480515
67	0xbd31fe29	-0.043455277
68	0x3d6b361c	0.05742465
69	0xbd7936d3	-0.0608433
70	0xbce37d97	-0.027769847
71	0xbe9006bc	-0.28130138
72	0x3c52fbd6	0.012877425
73	0xbd1b0495	-0.037846167
74	0x3e3ef068	0.18646395
75	0xbd245ad9	-0.0401257
76	0x3ec308c5	0.38092628
77	0x3b011fcb	0.0019702788
78	0x3d34dc63	0.04415549
79	0xbe3bcfb0	-0.18340945
80	0x3e67aef3	0.22625332
81	0x3da728d8	0.08162087
82	0x3e2dfe13	0.16991453
83	0x3d3cbf63	0.046080958
84	0x3e43331a	0.19062462
85	0xbeed8038	-0.46386886
86	0xbd8d4114	-0.06897178
87	0xbc510767	-0.0127581125
88	0x3d33dcb5	0.043911655
89	0x3e5b1090	0.21393037
90	0xbd415d1d	-0.04720794
91	0xbd3aa9d1	-0.045572106
92	0x3e029aa4	0.12754303
93	0x3d8d8a16	0.069111034
94	0xbec9497d	-0.3931388
95	0xbe93ad84	-0.2884332
96	0xbe2708c4	-0.16311938
97	0xbcde7124	-0.027153559
98	0xbbba6d35	-0.005689288
99	0x3d7aaa42	0.061197527
100	0x3d8b6a78	0.06807417
101	0x3d1affb4	0.037841514
102	0x3de1d230	0.11026418
103	0x3e21592e	0.15756676
104	0xbba54bcc	-0.005044436
105	0xbe910d70	-0.28330564
106	0x3dda0dce	0.10647164
107	0xbe50b6f2	-0.20382288
108	0xbec48350	-0.38381433
109	0x3dca3b71	0.09874619
110	0xbd35146a	-0.04420892
111	0x3e37d7a9	0.17953362
112	0x3dbfc2d6	0.09363334
113	0xbda60300	-0.08106041
114	0xbe4a227b	-0.19739716
115	0xbda776d7	-0.08176964
116	0x3e2150e1	0.15753509
117	0x3c1ed0d4	0.009693343
118	0x3d635c8c	0.05550818
119	0x3cdf53ed	0.027261699
120	0x3d0658e3	0.032799613
121	0x3ea71192	0.32630593
122	0xbc26eae0	-0.0101878345
123	0xbe54c9a0	-0.20780039
124	0xbdc3f402	-0.09568025
125	0xbd6e0375	-0.058108766
126	0x3e66737f	0.22504996
127	0xbe8c531d	-0.2740716
128	0x3ed54db2	0.4166084
129	0xbe0bf9ca	-0.13669506
130	0x3c15ec49	0.009150573
131	0x3e99ed76	0.3006398
132	0x3d4b0cba	0.049572684
133	0xbdc2f95e	-0.09520219
134	0x3d19bef6	0.03753563
135	0xbdc02d00	-0.09383583
136	0x3d9d82b4	0.07690945
137	0xbc0f6551	-0.008752183
138	0xbd764710	-0.060126364
139	0x3e151a4f	0.14560817
140	0x3cb95d21	0.022627415
141	0x3d12a26d	0.035799433
142	0x3de7af21	0.113127
143	0x3c652f2d	0.013988298
144	0x3c15e355	0.009148438
145	0xbe6e4c1e	-0.23271224
146	0x3dc336ba	0.09531923
147	0x3dd4d797	0.10392683
148	0x3e52f2c6	0.20600423
149	0xbd5246db	-0.051337104
150	0x3e6d69f2	0.23184946
151	0x3cfa3bd3	0.030546105
152	0x3dec5a21	0.11540628
153	0xbe01e42e	-0.126847
154	0x3dbc2a7b	0.0918779
155	0x3db96c12	0.09053816
156	0x3ea58059	0.32324484
157	0x3d6b1b6d	0.057399202
158	0xbd0723ea	-0.032993235
159	0xbc2d0b67	-0.010561801
160	0xbd9acbda	-0.07558413
161	0xbdbaa635	-0.09113733
162	0xbd936bba	-0.071982816
163	0x3e050470	0.12989974
164	0xbc4f6ec1	-0.012660683
165	0x3dabd71d	0.08390639
166	0x3d853f7d	0.0650625
167	0x3dc928cf	0.09822237
168	0xbe9d2fa9	-0.30700424
169	0xbeaf7ba5	-0.3427402
170	0xbdd7abdb	-0.10530826
171	0xbc1d71c7	-0.009609646
172	0xbc4066a0	-0.011743218
173	0x3dada7c4	0.084792644
174	0xbd7adf7f	-0.0612483
175	0x3d9e069c	0.077161044
176	0x3de8f2bd	0.11374424
177	0xbcb9fa90	-0.022702485
178	0x3ec99326	0.39370078
179	0xbe6cd96e	-0.23129818
180	0xbb330989	-0.0027318916
181	0xbd200241	-0.03906465
182	0xbe50c508	-0.20387661
183	0xbdaceba4	-0.084433824
184	0xbd0ab45c	-0.03386341
185	0x3e38452b	0.17995135
186	0xbd078295	-0.033083517
187	0xbda577e3	-0.08079507
188	0xbd7837e8	-0.06060019
189	0xbd2601d4	-0.040529087
190	0x3e100dff	0.14067839
191	0xbe40de34	-0.18834764
192	0xbe3dd1da	-0.18537083
193	0xbd080ff4	-0.03321834
194	0xbc8cd6cb	-0.017192265
195	0x3deb04e1	0.1147554
196	0xbdc18583	-0.094492935
197	0xbe637e24	-0.22216088
198	0x3db834ed	0.0899447
199	0x3d6f69b6	0.058450423
200	0x3edd5423	0.43228254
201	0xbe7500ae	-0.2392604
202	0x3e862f5a	0.26208
203	0xbdc1d388	-0.094641745
204	0x3de4125b	0.111363135
205	0x3adb02d9	0.0016709223
206	0x3d6459bc	0.05574964
207	0xbdb9802a	-0.090576485
208	0xbc9b02a7	-0.018922163
209	0xbd8c3215	-0.0684549
210	0x3e2488f9	0.16067876
211	0xbd382bba	-0.044963576
212	0x3d3aaa8e	0.04557281
213	0x3da971ef	0.08273684
214	0x3db3a30f	0.08771335
215	0xbdbb8bbc	-0.091575116
216	0x3d22b46e	0.039722852
217	0xbe3f229f	-0.1866555
218	0xbdbad8c4	-0.09123376
219	0xbe8b0925	-0.27155414
220	0x3dca02fc	0.098638505
221	0xbd106f28	-0.035262257
222	0xbdf40cb0	-0.119164824
223	0xbe265f86	-0.16247377
224	0xbd6131ac	-0.05497901
225	0xbe4e27e2	-0.20132402
226	0xbde7e37d	-0.11322687
227	0xbdf3a263	-0.11896207
228	0xbd91276d	-0.07087598
229	0xbc11045a	-0.008851135
230	0x3dda28da	0.10652323
231	0xbd7d4a1c	-0.061838254
232	0xbd14ea14	-0.036356047
233	0xbbb21bc2	-0.005435438
234	0x3daaa238	0.08331722
235	0x3d852c66	0.06502609
236	0x3de56666	0.112011716
237	0xbdf28bd1	-0.11843074
238	0xbd8689d9	-0.06569261
239	0xbd8859a4	-0.066577226
240	0x3dc15af9	0.0944118
241	0x3ac4d7a8	0.0015017884
242	0x3b6982cd	0.0035630942
243	0xbe1f1ef6	-0.15539154
244	0xbd4d007b	-0.050049286
245	0xbdca194a	-0.09868105
246	0x3c8f9b60	0.017530143
247	0xbdd5215e	-0.10406755
248	0xbd7532c8	-0.059862882
249	0xbd336e57	-0.0438064
250	0xbc9f58e2	-0.019451562
251	0x3d526737	0.051367965
252	0x3df24f06	0.11831479
253	0x3d9eb18b	0.077487074
254	0x3dce20e1	0.10064865
255	0x3db0deb8	0.0863623

lstm.bias_ih_l0 f4 [296]
0	0xbd4a636f	-0.049411234
1	0xbdec143f	-0.11527299
2	0x3d26d433	0.040729713
3	0x3ba3e19d	0.0050012604
4	0x3cd3ff19	0.025878476
5	0xbe0a4568	-0.13503039
6	0x3c485150	0.012226418
7	0x3d46e127	0.048554566
8	0x3dad41ed	0.0845984
9	0x3dd54fcd	0.104156114
10	0xbe12c53c	-0.14333051
11	0xbd93cb78	-0.07216543
12	0x3da5ce65	0.08096007
13	0x3c7a22ad	0.015267056
14	0xbdb7ce57	-0.08974903
15	0xbd0c7777	-0.034293618
16	0x3df2e8a8	0.11860782
17	0xbd8ff05c	-0.07028267
18	0x3cd32717	0.025775475
19	0xbd87a491	-0.066231854
20	0x3c02aa4b	0.007975171
21	0x3e050a76	0.12992272
22	0xbd098344	-0.03357245
23	0xbd404c7a	-0.046947934
24	0x3daa57a1	0.08317495
25	0x3dcaaf13	0.09896674
26	0x3cc5d311	0.024148496
27	0x3d7f5442	0.062336214
28	0xbd990a0b	-0.07472619
29	0xbd9462b7	-0.07245391
30	0x3dd0b610	0.10190976
31	0xbe0b95bc	-0.13631338
32	0xbd3582f8	-0.044314355
33	0xbcad2c8f	-0.021139411
34	0xbd86bc62	-0.065789
35	0xbc852806	-0.016254436
36	0x3c86d79d	0.016460234
37	0xbdbb703b	-0.09152266
38	0x3d9bad1e	0.07601379
39	0x3d2f89c5	0.042855997
40	0x3cac746b	0.021051606
41	0xbd9a08f0	-0.07521236
42	0xbdeb5cb1	-0.11492289
43	0xbda413a9	-0.080115624
44	0x3d88f286	0.06686883
45	0x3d7d00f8	0.061768502
46	0xbdddcbec	-0.10829911
47	0x3ce4e5a5	0.027941534
48	0xbd171664	-0.036886588
49	0xbd14e091	-0.036346976
50	0xbe01f98a	-0.12692848
51	0x3d11ad4f	0.03556567
52	0x3d1c1900	0.03810978
53	0x3db93f9d	0.090453364
54	0xbd8a1ea8	-0.067441285
55	0x3d84f9b9	0.06492943
56	0xbe11c83c	-0.1423654
57	0x3cc5f355	0.024163881
58	0xbc9fb70d	-0.019496465
59	0xbce23001	-0.02761078
60	0x3dc98bb4	0.098410994
61	0x3ddf1a9e	0.10893749
62	0x3d7836fc	0.060599312
63	0xbd875bad	-0.06609283
64	0xbd8f6f5a	-0.070036605
65	0x3d26a4d0	0.04068452
66	0x3e06ab68	0.13151324
67	0xbde73f6a	-0.11291392
68	0x3d61fb8e	0.055171542
69	0xbd366b0d	-0.044535685
70	0x3d8664b9	0.0656218
71	0x3d5ce779	0.053931687
72	0xbd79090d	-0.060799647
73	0xbdb6b983	-0.08922102
74	0x3dc092a7	0.09402972
75	0xbe114134	-0.1418503
76	0x3de91996	0.11381833
77	0xbdc84640	-0.09779024
78	0xbd095ac0	-0.03353381
79	0x3d7e2b63	0.062053096
80	0xbd2e2cf5	-0.042523343
81	0xbdaba4f8	-0.08381075
82	0x3d77ded0	0.060515225
83	0xbddb830f	-0.10718357
84	0xbd30f3b1	-0.043201152
85	0x3c6aa272	0.014320957
86	0x3d3f1f35	0.04666062
87	0xbd494f1c	-0.04914771
88	0xbdb82179	-0.089907594
89	0xbbcf57a5	-0.0063275867
90	0x3d8636db	0.065534316
91	0xbd4afd9c	-0.049558267
92	0xbdc2c22d	-0.09509692
93	0xbd9251f4	-0.071445376
94	0xbddbb77a	-0.10728355
95	0xbdd7875c	-0.105238646
96	0xbda60428	-0.081062615
97	0x3b9b0f5c	0.0047320556
98	0x3dbf51aa	0.09341748
99	0xbd8836f1	-0.06651104
100	0xbdae5b3a	-0.08513494
101	0xbadef3f2	-0.0017009957
102	0xbda7d72a	-0.08195336
103	0x3cdd85bc	0.027041309
104	0x3d3615bd	0.044454325
105	0xbd993203	-0.07480242
106	0x3da5aa34	0.08089104
107	0xbc9e1e0a	-0.019301433
108	0xbdd2d3f3	-0.10294332
109	0x3d6b195f	0.057397243
110	0xbc89332d	-0.016748035
111	0x3cb43e2a	0.022002298
112	0xbd7e3236	-0.062059604
113	0xbde8e60c	-0.11372003
114	0x3d43fe0d	0.047849704
115	0x3da05a57	0.07829731
116	0x3dc6e9c1	0.09712554
117	0x3dbbfe7d	0.09179399
118	0x3daec14d	0.08532963
119	0x3d030f36	0.03199693
120	0xbc28b2ab	-0.010296504
121	0x3d70255a	0.05862937
122	0x3d95b25f	0.07309412
123	0xbd05e0ac	-0.032684967
124	0xbd899e5b	-0.06719657
125	0xbb66c88a	-0.0035214745
126	0xbd2805e0	-0.041021228
127	0xbda21750	-0.07914603
128	0xbd1b7437	-0.037952628
129	0xbe06ff39	-0.13183297
130	0x3d06a1bd	0.03286909
131	0xbb063421	-0.0020477849
132	0xbdca1689	-0.098675795
133	0x3d7fe98f	0.0624786
134	0xba8239d3	-0.0009935446
135	0x3c53a6a1	0.012918145
136	0xbd0a2286	-0.03372433
137	0xbd6f11f2	-0.058366723
138	0x3db33c48	0.08751732
139	0x3e0c1d65	0.13683088
140	0x3c380c7e	0.011233447
141	0xbdddea3c	-0.10835692
142	0xbd86febd	-0.06591556
143	0xbdd5a1e1	-0.104312666
144	0x3c7af1bd	0.015316424
145	0xbb66aee5	-0.003519946
146	0x3d6b430e	0.057436995
147	0xbdd05a86	-0.10173516
148	0x3d8df04a	0.06930597
149	0x3d18225c	0.037142143
150	0x3c2b3ff3	0.010452258
151	0xbde63f29	-0.112425156
152	0x3dcef36d	0.101050235
153	0xbdc1b0e8	-0.0945757
154	0xbd4c0503	-0.049809467
155	0x3de48199	0.11157531
156	0xbdb46bae	-0.08809601
157	0xbdbf6101	-0.09344674
158	0x3d9f4029	0.077759095
159	0x3d150934	0.03638573
160	0x3c4435cb	0.011975716
161	0x3d6315b0	0.055440605
162	0xbcf26612	-0.029589687
163	0xbcacd8e8	-0.021099523
164	0xbd1a16fe	-0.037619583
165	0xbdea5503	-0.11441996
166	0x3cc97106	0.024590027
167	0x3cbdb120	0.023155749
168	0x3e2fe26a	0.17176214
169	0x3e03d2fb	0.12873451
170	0x3d372fd3	0.044723343
171	0xbc497f63	-0.012298438
172	0x3c91fa55	0.017819563
173	0x3db723a1	0.089423425
174	0xbca0a180	-0.01960826
175	0xbdce1940	-0.1006341
176	0x3d853f87	0.065062575
177	0x3d06cf97	0.032912817
178	0xbc511638	-0.012761645
179	0xbd3bd984	-0.045861736
180	0x3dc222e8	0.09479314
181	0xbd12b9a5	-0.035821576
182	0xbd8655f4	-0.06559363
183	0x3d262052	0.040558167
184	0x3dc8bfc4	0.098022014
185	0xbdc8b8c1	-0.09800864
186	0xbb4e7d0e	-0.0031507644
187	0xbd89cfa4	-0.067290574
188	0xbd96ff3c	-0.07372901
189	0xbd7de19b	-0.061982732
190	0xbd87a4f5	-0.0662326
191	0xbd5151b3	-0.051103305
192	0xbd225cbb	-0.039639216
193	0x3d496843	0.049171697
194	0xbd3ed458	-0.046589226
195	0x3dbd1ff2	0.09234609
196	0x3d68d97e	0.05684804
197	0x3db23cfa	0.087030366
198	0x3dcba9ef	0.09944522
199	0xbd46ffe3	-0.048583876
200	0x3db7106a	0.089386776
201	0x3c553e79	0.013015383
202	0xbdcfb416	-0.101417705
203	0x3cc68630	0.024233907
204	0x3db7326f	0.08945166
205	0x3da1d607	0.079021506
206	0xbcd2664c	-0.025683545
207	0xbdaa538f	-0.08316719
208	0x3d09722b	0.033556145
209	0xbdc21e8a	-0.09478481
210	0xbd7e396a	-0.062066473
211	0xbd8b564c	-0.06803569
212	0x3d9a355d	0.075297095
213	0x3d228746	0.039679788
214	0x3da319f0	0.079639316
215	0xbcfc9a53	-0.030835306
216	0xbd0216db	-0.031760078
217	0x3d9b98d0	0.07597506
218	0xbdc19d96	-0.09453885
219	0xbda6d93e	-0.081469044
220	0x3dea765b	0.11448356
221	0xbd0ec4b8	-0.034855574
222	0x3d80a21a	0.062809184
223	0x3d311713	0.043234896
224	0x3cee7245	0.029107222
225	0xbd22938c	-0.039691493
226	0x3c0f9dcc	0.008765649
227	0x3d947037	0.07247966
228	0x3a4a0fab	0.0007708023
229	0xbd96a9aa	-0.073565796
230	0xbcb74c4c	-0.022375248
231	0x3d714557	0.05890402
232	0x3d0504f5	0.03247543
233	0x3d5f615e	0.054536216
234	0xbdff0c77	-0.12453549
235	0x3c1a70eb	0.009426336
236	0xbc923880	-0.017849207
237	0x3d9efcf0	0.07763088
238	0xbbbf2830	-0.005833648
239	0xbdcbf248	-0.09958321
240	0x3ccf643c	0.02531635
241	0x3dd5f331	0.10446776
242	0xbdae4a43	-0.08510258
243	0x3c394506	0.01130796
244	0x3d2fd2d8	0.042925686
245	0x3d14a145	0.03628661
246	0xbb995928	-0.0046798177
247	0xbddf425e	-0.109013304
248	0x3ddd0dbb	0.107936345
249	0xbd90dacb	-0.070729814
250	0xbb597431	-0.0033180828
251	0x3dd32cff	0.10311317
252	0xbd1df453	-0.038563084
253	0x3dfb5f03	0.122739814
254	0x3dd8fc93	0.1059505
255	0xbe2cbdb9	-0.16869248

lstm.bias_hh_l0 f4 [296]
0	0x3cea2380	0.02858138
1	0xbe1ce4ac	-0.15321606
2	0x3c9deab6	0.019276958
3	0xbcdfc6ef	-0.027316539
4	0x3dc352c8	0.09537274
5	0xbd9ff933	-0.07811203
6	0xbdde5251	-0.10855544
7	0xbd078578	-0.03308627
8	0x3dcf3415	0.10117356
9	0xbd20409c	-0.039124116
10	0xbd37fe79	-0.04492042
11	0x3d48e170	0.04904312
12	0xbda674c5	-0.08127741
13	0xbcb25698	-0.021769807
14	0x3db57657	0.08860462
15	0x3d2653ec	0.040607378
16	0x3dc1d90d	0.09465227
17	0xbd866169	-0.06561548
18	0x3dd35b6d	0.103201725
19	0xbda52a55	-0.08064715
20	0xbe252dc8	-0.16130745
21	0x3e083608	0.13301861
22	0xbc63f439	-0.013913208
23	0x3d3ea8b5	0.04654761
24	0x3cfb61b0	0.03068623
25	0xbd0d40ee	-0.03448575
26	0xbdc26bbc	-0.09493205
27	0xbd3523d1	-0.04422361
28	0xbdbc26fe	-0.09187125
29	0xbc38ae83	-0.011272076
30	0x3dcb8012	0.09936537
31	0xbe26cf50	-0.16290021
32	0xbdce0866	-0.100601956
33	0x3df38380	0.11890316
34	0xbd200905	-0.0390711
35	0x3c9629a4	0.018330403
36	0xbc566922	-0.013086589
37	0xbddc3fcb	-0.10754355
38	0x3b11f459	0.0022270887
39	0xbd4c12e7	-0.049822714
40	0x3d4e91a4	0.050431862
41	0x3dd24ada	0.10268183
42	0xbda9caf2	-0.08290662
43	0x3d6fe6da	0.058569767
44	0x3d29215c	0.04129158
45	0xbd043c96	-0.03228434
46	0x3d5c0582	0.05371619
47	0x3c486993	0.012232202
48	0x3dba6a1b	0.09102269
49	0xbdacf7b8	-0.08445686
50	0x3cfea836	0.031086069
51	0xbdac74fa	-0.08420749
52	0x3d92b23e	0.07162903
53	0x3dcdce51	0.10049117
54	0xbd796687	-0.060888793
55	0x3dc8e028	0.098083794
56	0xbd498f8b	-0.04920916
57	0xbdea0f2c	-0.11428675
58	0xbd28e402	-0.04123307
59	0xbce2442d	-0.0276204
60	0xbde7f4cc	-0.11325988
61	0x3d95e8c0	0.07319784
62	0x3d2ce9c2	0.042215116
63	0xbd63f7ef	-0.05565637
64	0x3dbeff20	0.09326005
65	0xbcf18854	-0.029483952
66	0xbd5f704e	-0.05455046
67	0xbdedb4c7	-0.11606746
68	0x3d90ef43	0.070768856
69	0x3d99a436	0.07502024
70	0xbd9b6e6f	-0.07589423
71	0xbdcef71f	-0.10105728
72	0xbce157c0	-0.027507663
73	0x3d9ba65f	0.07600092
74	0x3cc10edc	0.023566656
75	0xbe0f7bbc	-0.14012045
76	0xbdd70634	-0.1049923
77	0xbc30df5c	-0.0107954405
78	0xbd065e1b	-0.03280459
79	0xbc4ccdf3	-0.012500274
80	0x3c244adb	0.010027613
81	0xbc10a1b0	-0.008827612
82	0x3cbdba86	0.02316023
83	0x3d7d0982	0.061776645
84	0xbd9245b0	-0.07142198
85	0xbcca9d1d	-0.02473312
86	0xbdc3ffa8	-0.09570247
87	0xbd7a8380	-0.061160564
88	0xbdecf449	-0.11570031
89	0x3cb37975	0.021908501
90	0x3c384013	0.011245745
91	0x3d425caf	0.04745167
92	0xbdb66573	-0.08906069
93	0xbdb7ee6f	-0.089810245
94	0xbd2fa459	-0.042881344
95	0xbdaa1eb0	-0.083066344
96	0xbd82074e	-0.063490495
97	0xbdd6a108	-0.10479933
98	0x3d59d2dd	0.05317961
99	0x3dc3c274	0.09558573
100	0x3d86112a	0.065462425
101	0xbdb33921	-0.08751131
102	0xbb721c35	-0.0036943082
103	0xbd60faeb	-0.054926794
104	0xbd6587ff	-0.0560379
105	0xbd9a4406	-0.07532506
106	0xbdebce96	-0.115140125
107	0x3b3ce77e	0.0028824504
108	0xbddc0e3e	-0.10744904
109	0xbc7c6f0e	-0.015407337
110	0x3c625ace	0.013815595
111	0xbd252e61	-0.040327433
112	0xbd59c643	-0.053167593
113	0x3d9ce318	0.07660502
114	0xbd8ad8cb	-0.06779631
115	0xbdd41a6c	-0.10356602
116	0x3b81c026	0.0039596735
117	0x3d82a745	0.063795604
118	0x3cd43c57	0.025907679
119	0xb9fde4c2	-0.00048426358
120	0x3cab0bf2	0.02087972
121	0x3d8fca85	0.070210494
122	0x3d11beb9	0.035582278
123	0xbd892706	-0.06696896
124	0x3d43e349	0.047824178
125	0x3db580db	0.08862468
126	0xbbeecc53	-0.007287541
127	0x3d906bab	0.07051786
128	0xbdc917e9	-0.098190136
129	0xbe12b74e	-0.14327738
130	0x3d9cb4e2	0.07651688
131	0xbd2183f4	-0.03943248
132	0xbda4daa3	-0.08049514
133	0x3de7bc45	0.113152064
134	0xbd15abb9	-0.03654072
135	0xbcf60933	-0.030033683
136	0x3d183730	0.037162006
137	0xbe0c92c4	-0.13727862
138	0xbd3dd637	-0.04634687
139	0xbda86798	-0.08222884
140	0xbd137bf1	-0.03600687
141	0x3dcc8973	0.09987154
142	0x3d78ff94	0.060790613
143	0xbd85439c	-0.06507036
144	0x3da2e235	0.07953302
145	0x3d8068d0	0.062699914
146	0xbda9810a	-0.082765654
147	0x3d36da10	0.044641554
148	0x3daf93cd	0.08573113
149	0x3db49401	0.08817292
150	0x3d378c4c	0.044811532
151	0x3dc0b325	0.09409169
152	0xbd4fe960	-0.050759673
153	0x3dc2e034	0.095154196
154	0x3bec70e5	0.0072156065
155	0xbcb13720	-0.021632731
156	0x3d8490a7	0.06472903
157	0xbadaffed	-0.0016708352
158	0xbc7d2b19	-0.01545217
159	0x3d3599b7	0.044336047
160	0xbdc36977	-0.095416
161	0x3d2a5a94	0.04159029
162	0x3d980a01	0.07423783
163	0xbd99bbd2	-0.07506527
164	0xbe0cc2c5	-0.13746174
165	0x3da6960a	0.081340864
166	0xbc31dfc5	-0.0108565735
167	0x3d7aab12	0.0611983
168	0xbc9d2555	-0.01918284
169	0xbbab90e7	-0.0052357796
170	0x3dbb836e	0.091559276
171	0x3ddadb34	0.10686341
172	0x3d9a4e4d	0.07534466
173	0x3d916254	0.07098833
174	0x3cb9bfff	0.022674559
175	0x3caf3e1e	0.021391924
176	0xbdedfd56	-0.116205856
177	0xb819bb4d	-3.665248e-05
178	0x3c27cfd8	0.010242425
179	0xbd7da6cc	-0.061926648
180	0x3dc8035b	0.09766265
181	0xbd7a048e	-0.0610395
182	0xbd1b1055	-0.037857372
183	0xbcd694e7	-0.026194049
184	0xbdbb9c11	-0.09160627
185	0xbd19693b	-0.03745387
186	0x3d234c08	0.03986743
187	0x3a9bc520	0.0011884309
188	0xbd11f2f9	-0.035632107
189	0xbd0cd796	-0.034385286
190	0x3dc14ede	0.09438871
191	0xbdbd8c44	-0.09255269
192	0x3daf4b70	0.085593104
193	0x3dc2720c	0.09494409
194	0xbdd0f50a	-0.102029875
195	0xbd55166c	-0.052023336
196	0x3dddbc94	0.10826984
197	0xbd19557c	-0.03743504
198	0xbdddd31f	-0.10831284
199	0xbd7d985b	-0.061912876
200	0x3ce72cd2	0.028219614
201	0x3d9766fe	0.07392691
202	0x3d06f9ee	0.032953195
203	0xbd41224d	-0.047151852
204	0x3c953224	0.018212385
205	0x3be70a1a	0.0070507647
206	0xbd64ae71	-0.055830423
207	0xbddf2b7b	-0.10896965
208	0x3d89b4af	0.06723916
209	0x3cb84030	0.022491544
210	0xbca7c6cd	-0.020480538
211	0x3d77c03b	0.06048606
212	0xbd09eaf3	-0.03367133
213	0x3d4fd839	0.050743315
214	0x3d617b53	0.05504925
215	0xbc240f0d	-0.010013354
216	0xbd7ef63f	-0.062246557
217	0x3d24a076	0.04019209
218	0xbc90be1d	-0.017668778
219	0x3d588770	0.05286354
220	0xbc24d1f1	-0.01005982
221	0x3dcf0b96	0.10109632
222	0x3d57b916	0.052666746
223	0x3da63677	0.08115857
224	0xbd0f22a2	-0.034945138
225	0xbde868b4	-0.113480955
226	0xbb2e19db	-0.0026565704
227	0xbd851a78	-0.06499189
228	0x3dbc9d9e	0.092097506
229	0x3c1ce72c	0.0095766
230	0xbdb94394	-0.09046093
231	0xbdaf1e11	-0.085506566
232	0x3d8e7f1d	0.06957839
233	0xbdf4f776	-0.11961262
234	0xbd92becd	-0.071652986
235	0x3daf43b2	0.08557834
236	0xbd810cac	-0.06301245
237	0xbd967d37	-0.073481016
238	0x3dada322	0.08478381
239	0xbcf7aa25	-0.030232498
240	0xbd912141	-0.07086421
241	0x3d039345	0.03212287
242	0xbe3323bb	-0.17494099
243	0xbe0dd86f	-0.13852094
244	0x3d6463d3	0.055759262
245	0xbc1dc8af	-0.009630366
246	0xbcc96f0d	-0.024589086
247	0xbc509ba4	-0.01273242
248	0x3d687ee8	0.056761652
249	0x3d73a5d3	0.059484314
250	0xbe2d6968	-0.1693474
251	0xbd6f61f0	-0.05844301
252	0x3d431909	0.047631297
253	0x3dde806c	0.10864338
254	0x3cd26d19	0.025686787
255	0xbabb6f56	-0.0014300148

lstm.weight_ih_l1 f4 [296, 74]
0	0x3ce0467b	0.027377358
1	0xbde3d04b	-0.11123713
2	0xbdea1c3b	-0.11431166
3	0xbcc94527	-0.024569107
4	0x3c333a35	0.010939171
5	0xbe023bbe	-0.12718102
6	0xbd3e6876	-0.04648634
7	0x3da428f5	0.080156244
8	0x3e196648	0.14980423
9	0x3d3bca8c	0.04584746
10	0x3c5f8de1	0.013644666
11	0x3e6c7c71	0.23094346
12	0xbdf130b0	-0.117768645
13	0xbdc85620	-0.09782052
14	0xbc159fc5	-0.00913233
15	0xbd52d77a	-0.051475026
16	0x3d8d55c9	0.06901128
17	0x3dc53323	0.09628894
18	0x3dd352a4	0.10318497
19	0x3dcd3fd6	0.10021941
20	0xbe58903d	-0.21148773
21	0xbe48986b	-0.19589393
22	0xbb319e79	-0.0027102514
23	0x3cc871f6	0.024468403
24	0x3d2e3459	0.04253039
25	0x3dabdf15	0.08392159
26	0x3dd90a24	0.10597637
27	0x3dcb9889	0.09941203
28	0xbe28593b	-0.16440289
29	0x3d29108f	0.041275557
30	0x3df86a83	0.121296905
31	0x3d4bc46e	0.049747877
32	0xbdcfb8cf	-0.10142671
33	0x3d2643a3	0.040591847
34	0x3d671ed0	0.05642587
35	0x3d9229d9	0.07136888
36	0x3e2f8e19	0.1714405
37	0x3d8c54f7	0.06852143
38	0x3d8c723c	0.06857726
39	0xbd875b62	-0.06609227
40	0x3df7b22c	0.120945305
41	0x3d74abd8	0.059734195
42	0xbd63dd40	-0.055630922
43	0xbe72f802	-0.2372742
44	0x3c75e31d	0.015007761
45	0xbd698b8c	-0.057017848
46	0xbd9dd9a8	-0.0770753
47	0xbd544883	-0.051826965
48	0x3d2ec71c	0.042670354
49	0xbe06f82f	-0.13180612
50	0x3d8c1918	0.06840724
51	0xbd285aed	-0.04110234
52	0x3df9dcd9	0.122003265
53	0x3db4cca7	0.08828097
54	0xbddb932f	-0.107214324
55	0x3d8eade8	0.06966764
56	0x3dd6789e	0.10472225
57	0xbe28f9b2	-0.16501501
58	0x3d17748a	0.036976375
59	0xbdc6cf07	-0.09707456
60	0x3c19de60	0.009391397
61	0x3ddc98d3	0.107713364
62	0xbe0090d9	-0.12555255
63	0xbcde756b	-0.027155599
64	0x3dff99ab	0.12480482
65	0xbdde1798	-0.10844344
66	0xbeb69db8	-0.35667205
67	0xbd39ef6a	-0.04539434
68	0xbd0963e6	-0.033542536
69	0xbd83d548	-0.064371645
70	0xbd92fe7b	-0.071774445
71	0xbc87c17c	-0.016571753
72	0xbd36bbcd	-0.044612695
73	0x3d029964	0.031884566
74	0xbeb606de	-0.35552114
75	0xbda84fdc	-0.08218357
76	0xbe6120c7	-0.2198516
77	0x3db79efa	0.08965869
78	0x3dd7db9a	0.105399325
79	0x3d962768	0.07331735
80	0xbe32089f	-0.17386101
81	0x3dc5b37f	0.09653377
82	0x3e3bf6a6	0.18355808
83	0xbdad2012	-0.084533826
84	0xbdd3da32	-0.10344352
85	0x3e11b8c0	0.14230633
86	0x3d9819dc	0.07426807
87	0xbdc6fc17	-0.09716051
88	0x3d8ffc48	0.07030541
89	0xbe92f055	-0.28698984
90	0xbd6c9241	-0.057756666
91	0xbdd90726	-0.105970666
92	0xbd242e14	-0.040083006
93	0x3e5b8d52	0.21440628
94	0xbd2e55c8	-0.042562276
95	0xbe882c61	-0.26596358
96	0x3d936d99	0.071986385
97	0x3b5bd045	0.0033540886
98	0xbe3c1aae	-0.18369552
99	0xbbbd1399	-0.0057701585
100	0xbd586207	-0.05282786
101	0xbda85962	-0.082201734
102	0xbe92c64f	-0.28666922
103	0xbdc23a73	-0.094838046
104	0x3e8f7bae	0.28024048
105	0x3d6ee9b1	0.058328334
106	0xbd78eb05	-0.060771007
107	0x3e6d8d46	0.23198423
108	0x3d9fbafd	0.07799337
109	0x3c8fe564	0.017565437
110	0x3db4f0ba	0.088349774
111	0x3d68a268	0.056795508
112	0xbd23a2d7	-0.039950218
113	0x3c7539b8	0.0149673745
114	0x3c2ded47	0.010615653
115	0x3d345397	0.04402503
116	0x3dbbdffc	0.09173581
117	0xbe1fda3d	-0.15610595
118	0xbdcf7561	-0.1012981
119	0x3dbcc0d3	0.09216466
120	0xbe3d30a5	-0.18475588
121	0xbd1917e7	-0.03737631
122	0xbca0c1c8	-0.019623652
123	0xbe39e3a9	-0.18153252
124	0x3c9b9942	0.018993977
125	0xbc7ba511	-0.015359179
126	0x3ea23e86	0.31688327
127	0xbe10583e	-0.14096162
128	0xbe7f40cb	-0.2492706
129	0x3eb92618	0.36161876
130	0x3e89604e	0.26831287
131	0xbe90e1e4	-0.2829734
132	0xbd457cfb	-0.048214894
133	0xbdd198a9	-0.10234196
134	0x3dd5ed24	0.104456216
135	0xbd85a309	-0.06525237
136	0xbe31213d	-0.17297836
137	0x3c3bf390	0.011471644
138	0x3e81ed04	0.2537614
139	0xbe93db39	-0.2887819
140	0xbdd0280a	-0.10163887
141	0x3db24016	0.0870363
142	0x3ba2e655	0.0049713054
143	0xbeba9073	-0.3643833
144	0xbdcd0571	-0.100108035
145	0x3e5f3b0c	0.21799868
146	0xbe7e6c55	-0.24846013
147	0xbd8dd584	-0.069254905
148	0x3d8cad6a	0.068690136
149	0x3dcd8b5e	0.10036348
150	0x3b7be0b7	0.00384335
151	0xbdac79e6	-0.08421688
152	0xbddfe2d2	-0.109319344
153	0x3ca82c5a	0.020528961
154	0xbd39cdf8	-0.045362443
155	0x3d133e5c	0.035948142
156	0xbc8fea64	-0.01756782
157	0x3d15ecc2	0.036602743
158	0x3d1bd1e8	0.03804198
159	0x3ca32a65	0.019917676
160	0x3b7da914	0.0038705515
161	0xbdbba8f3	-0.09163084
162	0x3a7adbbf	0.0009569488
163	0x3de49dfa	0.11162944
164	0x3cbf5183	0.023354298
165	0xbbe75b8f	-0.007060475
166	0x3d85c7ba	0.065322354
167	0xbd2ad55c	-0.04170738
168	0xbdce28b0	-0.10066354
169	0x3dfc3c2c	0.123161644
170	0xbc7a6dd2	-0.015284972
171	0xbd22808d	-0.039673377
172	0x3ce02b96	0.027364533
173	0xbdd2a036	-0.10284464
174	0xbd2b1391	-0.041766707
175	0xbe079ebd	-0.13244148
176	0x3df0c28e	0.11755858
177	0x3e01c872	0.1267412
178	0xbe025037	-0.12725912
179	0xbd3dbfde	-0.046325557
180	0x3bae6a61	0.00532274
181	0xbd0d92df	-0.034563895
182	0xbc8a235b	-0.016862562
183	0xbdcb6011	-0.099304326
184	0xbd6cb35b	-0.057788234
185	0xbccdd407	-0.025125517
186	0xbde3c34f	-0.111212365
187	0x3de2a731	0.110670455
188	0x3d952abe	0.07283543
189	0xbdd0a388	-0.10187441
190	0x3d43adc4	0.047773138
191	0xbd8e992f	-0.06962811
192	0xbd48b88a	-0.049004115
193	0x3db8b706	0.09019284
194	0xbb85b5c8	-0.004080508
195	0xbbf9f481	-0.007628024
196	0x3dc5c402	0.09656526
197	0x3dbb16a6	0.09135179
198	0x3d5e436a	0.05426351
199	0x3dceeac0	0.10103369
200	0xbca02bc3	-0.019552117
201	0x3db74d0d	0.08950243
202	0xbd0a98a7	-0.033836987
203	0xbd1ca032	-0.03823871
204	0x3dad06bf	0.08448552
205	0xbc62b9aa	-0.013838211
206	0x3d2599fd	0.040430058
207	0xbdbe75b4	-0.09299794
208	0x3c8f4603	0.017489439
209	0xbd9e8b21	-0.077413805
210	0x3d6d439d	0.05792581
211	0x3df7f482	0.12107183
212	0x3d8c707e	0.06857394
213	0xbd0a4f27	-0.03376689
214	0xbe90c75b	-0.28277096
215	0x3ddfa344	0.10919812
216	0xbdd8e6f3	-0.10590925
217	0xbda6d156	-0.081453964
218	0x3dff077a	0.12452598
219	0xbe006f0c	-0.12542361
220	0x3cb0603e	0.021530267
221	0x3cc64b65	0.024205873
222	0xbd1644e0	-0.036686778
223	0xbd1e0b33	-0.0385849
224	0xbd49ab24	-0.049235478
225	0xbd7c6a59	-0.06162486
226	0xbd72fa53	-0.05932076
227	0x3c13c1ad	0.009018344
228	0xbe01e1c1	-0.12683775
229	0x3d50f582	0.051015384
230	0x3df6f301	0.12058068
231	0xbdd5d5d7	-0.10441177
232	0xbdc3fcff	-0.095697396
233	0x3dcf80be	0.101319775
234	0x3dc4bb91	0.09606088
235	0x3db1aae5	0.08675174
236	0x3da46ab4	0.080281645
237	0xbdc01f7e	-0.09381007
238	0x3e0f3257	0.13984047
239	0x3cce3c7a	0.025175322
240	0xbdcac655	-0.0990111
241	0x3d95c683	0.07313254
242	0xbda32769	-0.07966501
243	0xbe05ad72	-0.13054445
244	0x3da1b535	0.078958906
245	0x3dea337e	0.114356026
246	0xbd1eefe4	-0.038802996
247	0x3d7ce0fb	0.061737996
248	0x3d8f006d	0.06982503
249	0xbe05dce6	-0.13072547
250	0xbdfab73b	-0.1224198
251	0x3d88529f	0.06656384
252	0x3e584d90	0.21123338
253	0xbd87f1bd	-0.06637905
254	0x3c862552	0.016375218
255	0xbd9fe6f0	-0.0780772

lstm.weight_hh_l1 f4 [296, 74]
0	0xbc9ab11f	-0.018883286
1	0xbd66f287	-0.056383636
2	0xbe374dc2	-0.17900756
3	0xbdbc6b90	-0.092002034
4	0xbdb49daa	-0.088191345
5	0x3cecdd36	0.028914075
6	0x3d3968c6	0.045265935
7	0x3d6a7241	0.057237867
8	0x3e346cc8	0.17619622
9	0xbcf0e950	-0.029408127
10	0xbd1b939d	-0.037982572
11	0xbdd0c796	-0.10194318
12	0x3b362d71	0.0027798081
13	0xbd8510e8	-0.06497365
14	0x3de71e3c	0.112850636
15	0xbd9da182	-0.07696821
16	0x3dac4db9	0.08413262
17	0x3cb80836	0.022464853
18	0xbd9fda1e	-0.078052744
19	0xba155893	-0.00056970975
20	0x3d09505b	0.0335239
21	0x3e35300f	0.17694114
22	0x3bb8ba12	0.0056374157
23	0x3e475d00	0.1946907
24	0x3d57e403	0.052707683
25	0xbdb5b8f7	-0.0887317
26	0x3cf54fa4	0.029945202
27	0x3e44a619	0.19203986
28	0x3d84c4aa	0.06482823
29	0xbdef1f51	-0.11675895
30	0x3dc0d1bc	0.09415004
31	0xbdf873b1	-0.121314414
32	0x3e1d5134	0.15363008
33	0x3cb77f3b	0.022399535
34	0xbdf0d8ec	-0.117601246
35	0xbd9e3d38	-0.0772652
36	0xbc22c3ab	-0.009934346
37	0x3e844672	0.25834996
38	0x3cf52113	0.029922998
39	0xbe3232e5	-0.17402227
40	0x3e58a9c5	0.21158512
41	0xbd2e1ad4	-0.042506054
42	0x3dad8c08	0.084739745
43	0x3e5f0063	0.21777491
44	0x3da8fa81	0.08250905
45	0x3da8a493	0.08234515
46	0xbe055033	-0.13018875
47	0x3d7d77c1	0.061881784
48	0x3ca5ee49	0.020255225
49	0xbb9a1fde	-0.004703506
50	0xbdd018e6	-0.10160999
51	0xbc68963e	-0.014195977
52	0xbe0f7fd5	-0.14013608
53	0xbde9bc0a	-0.11412819
54	0x3be43020	0.0069637448
55	0x3bd4dcb9	0.0064960388
56	0x3e35a7e2	0.17739823
57	0x3ddf7a1b	0.10911962
58	0x3e3ed8a8	0.18637335
59	0xbe1b3947	-0.15158568
60	0xbe499eb3	-0.19689445
61	0xbdc6517e	-0.09683512
62	0xbd8f1957	-0.06987255
63	0x3d3f0f75	0.0466456
64	0xbdb64e3c	-0.08901641
65	0x3e88e670	0.2673831
66	0xbcae6544	-0.021288522
67	0x3d93f512	0.07224478
68	0xbdffaf90	-0.12484658
69	0x3e1e390b	0.15451448
70	0x3c85d55c	0.01633709
71	0xbd110dd8	-0.035413593
72	0xbdea21e6	-0.11432247
73	0xbe5e5a90	-0.21714234
74	0xbd9109c9	-0.070819445
75	0x3d9604e4	0.073251516
76	0xbe5b51d1	-0.21417929
77	0xbe35d1c4	-0.177558
78	0xbd9ec88b	-0.07753094
79	0xbdc09440	-0.094032764
80	0xbddc4763	-0.107558034
81	0x3d785ed6	0.060637318
82	0x3dcde588	0.10053545
83	0xbde9db3e	-0.1141877
84	0xbd826db9	-0.06368584
85	0xbe732652	-0.23745087
86	0xbd4d4d80	-0.050122738
87	0xbdf11a6e	-0.11772619
88	0x3b57d122	0.003293105
89	0xbdd291a2	-0.102816835
90	0x3e34f977	0.17673288
91	0xbc51d856	-0.012807926
92	0xbe0f59d3	-0.13999109
93	0x3e752451	0.23939635
94	0xbd511780	-0.051047802
95	0x3e13a146	0.1441699
96	0x3da5917b	0.08084389
97	0x3d1693d8	0.03676209
98	0x3ccd5333	0.025064087
99	0xbb632086	-0.0034656837
100	0xbd5f70f9	-0.0545511
101	0x3e3b82d3	0.18311624
102	0x3d8e90c1	0.06961203
103	0xbe33dc24	-0.17564446
104	0x3e4039e8	0.1877209
105	0xbe0a8f7c	-0.13531297
106	0x3d99ea7e	0.07515429
107	0x3dfde801	0.12397767
108	0xbdc08601	-0.09400559
109	0xbe60e4dc	-0.21962303
110	0xbe314ffc	-0.17315668
111	0x3cb84cce	0.02249756
112	0x3e032ef3	0.12810878
113	0xbe270727	-0.16311322
114	0x3cb8e8ae	0.022571888
115	0xbeba8574	-0.36429942
116	0x3de4bb80	0.11168575
117	0x3e077823	0.13229422
118	0x3d81a71f	0.06330704
119	0x3d833ad5	0.06407706
120	0xbc8a49eb	-0.01688095
121	0xbcf882fa	-0.030335892
122	0x3db8df05	0.090269126
123	0x3d9cc280	0.076542854
124	0xbea90d6c	-0.33018053
125	0xbdc41ace	-0.09575425
126	0x3db81b4e	0.08989583
127	0xbe4bda37	-0.19907461
128	0xbe0395fb	-0.12850182
129	0xbdd39d64	-0.10332754
130	0x3e365fec	0.17810029
131	0x3da11228	0.07864791
132	0x3df3bd94	0.119013935
133	0xbd617c03	-0.055049907
134	0xbe2d9ec7	-0.169551
135	0x3d822bb1	0.0635599
136	0xbd5fa645	-0.054601926
137	0x3d05a433	0.032627296
138	0xbd9938c6	-0.07481532
139	0x3e707725	0.2348295
140	0xbc9d88cd	-0.01923027
141	0x3d2cb912	0.042168684
142	0xbdaf8554	-0.08570352
143	0x3de8796a	0.11351283
144	0xbd27c188	-0.04095605
145	0x3c845cc8	0.016157523
146	0xbdf055c8	-0.117351115
147	0x3d20b0a3	0.039230954
148	0xbe1b8ec2	-0.15191177
149	0xbc595c25	-0.013266598
150	0x3d602372	0.054721303
151	0x3c454837	0.012041143
152	0xbcddc171	-0.02706978
153	0xbd1a431c	-0.037661657
154	0xbbd01d3e	-0.006351142
155	0x3e1ec006	0.15502939
156	0x3dfaa2be	0.12238072
157	0xbc826897	-0.015919013
158	0x3db92abb	0.09041353
159	0xbd77d75c	-0.060508117
160	0xbd37cc71	-0.044872705
161	0xbdd5fba5	-0.10448388
162	0x3ce3a4f7	0.027788622
163	0xbe141b85	-0.14463623
164	0x3cba022b	0.022706112
165	0xbd8312cc	-0.064000696
166	0xbdcaff37	-0.099119596
167	0xbd22264b	-0.0395873
168	0x3e1e9e9f	0.15490197
169	0x3cb06e79	0.021537052
170	0x3ce60d42	0.028082494
171	0x3dc0fbbc	0.094230145
172	0x3a89070d	0.0010454372
173	0x3d680ef5	0.05665489
174	0x3cb981e8	0.022644952
175	0x3d3cd170	0.046098173
176	0xbadf2420	-0.0017024316
177	0xbd335666	-0.043783568
178	0x3dc12729	0.09431297
179	0xbdf5a8d1	-0.1199509
180	0x3d2f76f2	0.042838044
181	0x3df090ca	0.11746366
182	0x3d1b5da2	0.037931092
183	0x3cac1068	0.021003917
184	0x3d177f1f	0.036986466
185	0x3e1e0b78	0.15434062
186	0xbc885704	-0.016643055
187	0x3ccb954a	0.02485146
188	0x3dff7c26	0.12474851
189	0xbdef69e2	-0.116901174
190	0xbcefe628	-0.029284552
191	0x3d3cd29b	0.046099287
192	0x3cbea13f	0.023270248
193	0xbd44d04f	-0.04805022
194	0xbcd2eb76	-0.025747042
195	0xbd48b813	-0.04900367
196	0xbd2e8a81	-0.042612556
197	0xbd72c676	-0.0592713
198	0xbe07cb2d	-0.13261099
199	0x3db8657d	0.09003732
200	0x3c47a366	0.012184953
201	0x3d5fba88	0.05462125
202	0xbd186c21	-0.037212495
203	0x3d62a48f	0.055332717
204	0xbdb7e0da	-0.08978434
205	0xbd7cbe4f	-0.06170493
206	0x3df230ea	0.11825736
207	0xbc31e310	-0.010857359
208	0x3c51964c	0.012792181
209	0xbd25d6e3	-0.040488135
210	0xbdbe6636	-0.09296839
211	0xbe061d6b	-0.1309716
212	0xbdbabaf4	-0.0911769
213	0x3d94472c	0.072401375
214	0x3d170f6b	0.036879938
215	0xbdcb7480	-0.0993433
216	0x3d4bb5e9	0.04973403
217	0x3cd0bf19	0.025481747
218	0xbdd93182	-0.10605146
219	0xbd804cb4	-0.0626463
220	0xbc5e2455	-0.013558467
221	0xbe0da203	-0.13831334
222	0xbdedc2fc	-0.11609456
223	0x3bab7ff4	0.005233759
224	0xbda48da9	-0.08034832
225	0xbc97cc0d	-0.018529916
226	0x3cb0db67	0.021588994
227	0xbe349176	-0.17633614
228	0x3d598509	0.053105388
229	0x3e66779d	0.22506566
230	0x3e14bd13	0.14525251
231	0x3cb515f0	0.022105187
232	0xbe46d55a	-0.19417325
233	0xbd7531a2	-0.059861787
234	0xbcbe6644	-0.023242123
235	0x3bbd958e	0.0057856506
236	0x3e039fb6	0.12853894
237	0xbd2331bc	-0.039842352
238	0x3d8b194f	0.067919366
239	0x3d35c428	0.044376522
240	0xbe5f2603	-0.21791844
241	0x3d0238a6	0.031792305
242	0x3d946620	0.07246041
243	0x3e0b6950	0.13614392
244	0x3c711f98	0.014717005
245	0x3d8b3aca	0.067983225
246	0x3de9d2ca	0.11417158
247	0xbe6d35d2	-0.23165062
248	0xbdfb0c40	-0.12258196
249	0x3e054ce6	0.13017616
250	0x3ce457d1	0.027873905
251	0xbe1a6bcd	-0.15080185
252	0x3e6aacad	0.22917433
253	0xbe1e3fd6	-0.15454039
254	0x3d651704	0.055930153
255	0xbcc1dd27	-0.023665024

lstm.bias_ih_l1 f4 [296]
0	0xbdf27f15	-0.11840645
1	0xbed47352	-0.41494232
2	0xbd7ea77b	-0.06217144
3	0xbdc825e0	-0.09772849
4	0xbdf9c51e	-0.121958
5	0xbe290940	-0.16507435
6	0xbe885943	-0.266306
7	0xbdda2224	-0.10651043
8	0xbe2dd06d	-0.1697404
9	0xbe0ebbec	-0.13938874
10	0x3dd3463c	0.103161305
11	0xbd1df18f	-0.038560446
12	0x3dc8d9dd	0.09807179
13	0xbe6b4472	-0.22975329
14	0xbe982e0a	-0.29722625
15	0x3be0fa07	0.006865743
16	0xbdf52e77	-0.11971753
17	0xbe7873dc	-0.24262947
18	0xbd0e29b1	-0.03470773
19	0xbd951c87	-0.07280832
20	0x3d13f162	0.036118872
21	0xbcd9b14c	-0.0265738
22	0xbe47a1f1	-0.1949537
23	0xbe1db9ad	-0.15402861
24	0xbd22f532	-0.039784618
25	0xbe1b974f	-0.15194438
26	0x3c13f883	0.009031418
27	0xbdc33db9	-0.09533257
28	0xbd30a143	-0.04312254
29	0xbd8a4b02	-0.06752588
30	0xbccd89e2	-0.025090162
31	0x3de687a2	0.11256339
32	0x3dc62bda	0.09676333
33	0xbe0b203e	-0.13586518
34	0x3e073fbc	0.13207906
35	0xbe07e2e7	-0.1327015
36	0x3de81d1b	0.113336764
37	0x3d66cf7f	0.056350227
38	0x3db74c69	0.08950121
39	0xbd0d27c8	-0.034461766
40	0xbd69fb4a	-0.057124414
41	0x3e16f31a	0.14741173
42	0xbe8a187a	-0.269718
43	0x3d83e163	0.064394735
44	0x3d571198	0.052507013
45	0xbdaf8220	-0.08569741
46	0x3c341f00	0.010993719
47	0xbe509f0f	-0.20373176
48	0xbd9cb8e8	-0.076524556
49	0x3d04eb1f	0.03245079
50	0x3e1c1450	0.15242124
51	0xbd8deb0d	-0.06929598
52	0xbd97aab4	-0.07405606
53	0x3ab1bc2b	0.0013560107
54	0xbe248fb7	-0.16070448
55	0xbda42df1	-0.08016575
56	0x3e2b55b1	0.16731907
57	0x3de39812	0.111129895
58	0xbdcf5732	-0.10124053
59	0x3ac2364a	0.0014817205
60	0xbde4244d	-0.11139736
61	0xbe81bbba	-0.25338537
62	0x3cbfeed5	0.023429314
63	0xbcb63498	-0.022241876
64	0xbd9ceb83	-0.07662108
65	0x3d880d39	0.06643147
66	0xbd747090	-0.05967766
67	0xbd5c96d0	-0.053854764
68	0xbb9eac9f	-0.0048423554
69	0xbd215f4d	-0.039397527
70	0xbdd434a5	-0.10361604
71	0xbe0b314d	-0.13593026
72	0x3e101266	0.14069518
73	0x3dfab939	0.1224236
74	0xbce63ac6	-0.028104197
75	0xbce6c98a	-0.028172273
76	0x3d5f24db	0.054478507
77	0x3d87c155	0.06628672
78	0xbe186386	-0.14881715
79	0xbd1fe361	-0.039035205
80	0xbdaa829d	-0.08325694
81	0xbe212bc8	-0.15739357
82	0x3cb8ca1e	0.022557314
83	0xbddc7978	-0.10765356
84	0x3da70826	0.08155851
85	0xbbe031cc	-0.0068418738
86	0x3daed023	0.08535793
87	0xbcfc2a16	-0.030781787
88	0xbe18df4f	-0.14928935
89	0x3c33487a	0.010942573
90	0xbdf43cfa	-0.11925693
91	0xbc2abd49	-0.010421106
92	0xbc3f4192	-0.011673348
93	0xbd5169bc	-0.051126227
94	0xbe20c7fa	-0.15701285
95	0xbc0ee817	-0.008722327
96	0xbe15c08e	-0.14624235
97	0xbe17112e	-0.14752647
98	0xbe8413f4	-0.25796473
99	0xbe6ceac1	-0.23136427
100	0xbdf42474	-0.119210154
101	0xbdc9b3d9	-0.09848756
102	0xbdd3f648	-0.10349709
103	0x3d34a61a	0.04410372
104	0xbdd0079e	-0.10157703
105	0xbe257153	-0.16156511
106	0xbd7b5754	-0.06136258
107	0xbdad2410	-0.08454144
108	0x3df25225	0.11832074
109	0x3d3ff309	0.046862636
110	0x3c936c45	0.017995963
111	0xbdb5a027	-0.08868437
112	0xbd371dd0	-0.044706166
113	0xbe07efe6	-0.13275108
114	0xbdccaba4	-0.09993675
115	0x3e6973b3	0.22798042
116	0xbcea0021	-0.028564515
117	0xbe2ec7a5	-0.17068346
118	0xbd9edacc	-0.07756576
119	0xbe01df3c	-0.12682813
120	0xbd9a7cc5	-0.07543329
121	0x3d13424b	0.035951894
122	0xbd6d0ebc	-0.05787538
123	0x3d5e4dc3	0.054273378
124	0xbcb40e86	-0.021979582
125	0xbe18583c	-0.14877409
126	0x3d236059	0.039886806
127	0x3c44d5c3	0.012013855
128	0xbda9ecb4	-0.08297101
129	0xbda3a575	-0.07990543
130	0x3cf28240	0.029603124
131	0x3dfa1aad	0.12212119
132	0x3dac86ce	0.084241495
133	0x3db0497f	0.08607768
134	0xbc349843	-0.01102263
135	0x3c4f04df	0.012635439
136	0xbd746cca	-0.05967406
137	0x3cf2ae4f	0.029624132
138	0xbd46cade	-0.048533313
139	0xbe813dd8	-0.25242496
140	0xbdecae55	-0.11556689
141	0xbd91f1a0	-0.071261644
142	0xbdbb02bb	-0.0913138
143	0x3dff3627	0.124615006
144	0x3cb43e86	0.02200247
145	0xbe1a0532	-0.15041044
146	0x3db5d506	0.088785216
147	0xbe6b62ae	-0.22986862
148	0x3c396b75	0.011317124
149	0xbd3fb8b6	-0.046807013
150	0x3c74c3cd	0.014939261
151	0x3c9ee368	0.019395545
152	0xbcacd2e6	-0.021096658
153	0xbd6e99ec	-0.05825226
154	0xbbb27537	-0.005446102
155	0x3d61453c	0.054997668
156	0xbca0210f	-0.019547014
157	0xba2bc2eb	-0.00065521774
158	0xbcbab069	-0.022789197
159	0x3d63be85	0.055601615
160	0x3d869674	0.065716654
161	0xbd5bbf25	-0.053649087
162	0x3d9361ca	0.07196386
163	0xbd3f211c	-0.046662435
164	0x3c9ad4d7	0.018900318
165	0x3d2c101a	0.042007543
166	0xbd53556e	-0.051595144
167	0xbc7f58ba	-0.015585119
168	0x3ddd1b43	0.107962154
169	0x3c5bd0c0	0.013416469
170	0xbd7ed628	-0.062215954
171	0x3dd0e1c2	0.1019931
172	0x3dd08555	0.10181681
173	0xbd7b4c69	-0.061352167
174	0xbcf8cd1e	-0.030371245
175	0xbc234859	-0.0099659795
176	0xbd2ee31d	-0.04269706
177	0x3cb7317d	0.022362465
178	0x3d8ea6b4	0.0696539
179	0x3bb68292	0.0055697644
180	0xbd199b09	-0.03750137
181	0x3cb5f4fc	0.022211544
182	0xba513617	-0.00079807773
183	0xbd965623	-0.07340648
184	0x3d86f83c	0.06590316
185	0x3dc18c28	0.09450561
186	0x3e09d22d	0.13459082
187	0xbd331d10	-0.043728888
188	0xbdc33474	-0.09531489
189	0xbd550dd3	-0.052015137
190	0xbd87d2dc	-0.06632015
191	0x3d26b12d	0.04069631
192	0x3e12e74f	0.1434605
193	0x3d090926	0.03345599
194	0x3d91d838	0.071213186
195	0x3cc220aa	0.023697216
196	0x3dd6748d	0.10471449
197	0xb980341f	-0.00024452896
198	0xbd339d6e	-0.04385131
199	0x3d639aee	0.055567674
200	0x3d9786e3	0.073987745
201	0x3dffbfb2	0.12487735
202	0xbd4fd548	-0.05074051
203	0xbd446567	-0.047948267
204	0x3c6babfa	0.014384264
205	0xbd7fc54f	-0.062444028
206	0xbc83bae3	-0.016080325
207	0xbd4744a1	-0.048649434
208	0x3da21b4c	0.07915363
209	0x3d1e13e8	0.038593203
210	0xbd9a4d0b	-0.07534226
211	0xbc0911bc	-0.008366045
212	0x3d881b5f	0.066458456
213	0x3db356ef	0.08756816
214	0x3d22dcf6	0.039761506
215	0xbd83e7b1	-0.06440676
216	0xbd9a90f4	-0.07547179
217	0x3d86136a	0.06546672
218	0x3d349500	0.04408741
219	0xbde80872	-0.11329736
220	0x3dcb4b3a	0.09926458
221	0xbe2d4f35	-0.16924746
222	0xbd545ee8	-0.051848322
223	0xbe84ec9c	-0.2596177
224	0xbd006814	-0.031349257
225	0x3dac2c73	0.084069155
226	0xbdf3d480	-0.119057655
227	0xbe448bf5	-0.19194014
228	0xbdb227f7	-0.08699029
229	0xbd52c7a2	-0.051459916
230	0x3c84b2ea	0.016198594
231	0xbd20f54f	-0.039296445
232	0xbcecbb86	-0.028898012
233	0xbd963adc	-0.07335445
234	0xba7ea904	-0.00097145163
235	0xbd7ebefe	-0.062193863
236	0xbedb6707	-0.4285204
237	0xbe3b1a3b	-0.18271725
238	0xbde6aaf6	-0.11263077
239	0xbe397ba3	-0.1811357
240	0xbc217836	-0.009855321
241	0xbdb284d2	-0.0871674
242	0xbd80d5e2	-0.06290795
243	0x3dacc2c3	0.08435585
244	0xbdb62614	-0.088939816
245	0xbdbcb658	-0.09214467
246	0xbd8bb491	-0.0682155
247	0xbea30f3e	-0.31847566
248	0xbd514fc2	-0.051101454
249	0x3d92fbbe	0.07176922
250	0xbdc1de45	-0.09466223
251	0xbca54fc2	-0.020179633
252	0xbda5322f	-0.080662124
253	0x3c0ba9ec	0.008524399
254	0xbd8e3c4c	-0.069450945
255	0xbe605734	-0.21908265
