checkpoints/best_model.pth (torch, 314089 bytes, 9 tensors)

lstm.weight_ih_l0 f4 [296, 37]
0.051584464 -0.023535913 0.13680577 0.030073896 -0.016827816 0.063432366 -0.06919023 -0.00844178
-0.064730205 -0.05928231 -0.044747792 -0.08982903 0.030774422 0.114091046 0.111396246 -0.048606277
-0.0062229917 0.05588946 -0.03172915 -0.012598104 -0.055791263 0.08472737 -0.052441943 0.114297904
0.030066747 0.103829294 0.018930104 0.010262498 -0.00095960085 0.0077942777 -0.020727592 -0.102738485
-0.035568953 -0.015975377 -0.06088975 0.03177444 0.11502954 -0.0039496543 -0.1372218 0.08239341
-0.05625619 0.10059746 -0.06998997 0.32315442 0.21754791 -0.1545988 0.15302992 0.17345026
0.022237236 -0.023283208 0.09640135 -0.2194803 -0.039515205 0.073554985 -0.1518025 -0.0607712
0.066411465 0.22208741 -0.14520779 -0.050431084 -0.03259862 -0.073148 0.075635046 0.18461016
-0.049779385 0.12631321 0.05081018 -0.06765939 -0.11852055 -0.12684305 0.72041357 0.15856014
0.030099683 -0.0052929893 0.0669745 0.09112137 0.10322735 0.00022091561 -0.07142343 -0.010305143
0.04778504 -0.015015127 0.037198566 -0.033715863 -0.024740612 -0.057697915 -0.083733074 0.024179107
-0.07626525 0.06895545 -0.00986705 0.0880915 0.008449166 -0.026389236 0.043354783 0.022142407
0.056785684 -0.022314582 -0.011976318 0.08214008 0.037254002 -0.032688797 -0.07281704 -0.1037411
0.07514252 0.06420272 0.11384751 0.05433162 -0.02250109 -0.06188396 0.08530322 -0.013475731
-0.017740617 -0.026500845 0.073839456 -0.015281238 0.05965957 0.10203606 0.02145877 0.084046096
-0.041518062 0.08923312 0.023716195 -0.109708786 0.025049925 -0.09457693 0.012218007 0.056310784
0.012313389 0.011999593 0.083505176 -0.010018247 -0.09313 0.043653112 0.071722336 -0.03492239
0.00846621 -0.08864747 -0.06866583 0.06378873 -0.066044256 -0.07948001 -0.04850356 -0.0930408
0.062304165 -0.03583445 -0.123550326 -0.02782544 0.116243534 0.08850722 -0.03530823 0.06387102
0.12676892 -0.1563663 -0.07493984 -0.15225764 0.2355666 -0.04843221 -0.07391497 0.05803481
0.11349227 0.07750121 -0.013258198 -0.011113721 -0.060863566 -0.06278749 -0.010983919 -0.1863171
0.08830855 0.050399344 0.07938675 0.027781896 -0.039866995 0.13172045 0.10962908 0.10408093
0.04187039 0.033425424 -0.0549006 0.059639968 0.037102994 1.2447171 1.1966326 0.04578584
-0.009575446 0.09448866 0.027027251 -0.044896524 0.018735567 0.028304046 -0.09585864 -0.07363458
0.080038175 0.04759399 -0.027796252 -0.03917445 0.02704815 0.017266365 -0.03734595 0.02687596
0.08360915 0.07738153 0.07842361 -0.11028503 0.03908457 0.04422023 -0.027120648 0.08924515
0.036346868 -0.038379237 -0.10109131 0.111850664 -0.061237853 -0.056585483 -0.10667561 -0.0889343
-0.05516074 -0.060274146 -0.054444216 0.0829413 0.07811704 0.008702459 0.030689541 0.013995176
-0.025997993 -0.063693576 0.04189178 -0.0728836 0.14107622 0.12156647 -0.091780424 0.105052136
0.10191547 -0.07866274 0.19337867 0.06539904 -0.11529847 -0.03606663 -0.10101279 -0.25059244
-0.093361914 0.11579383 0.14082453 0.010569381 -0.062430542 -0.041784335 -0.096587695 0.13296625
-0.00014223266 0.07542316 -0.085484385 0.2592006 -0.15848333 -0.13206387 -0.14746289 -0.5652135
00000000: 3b4a 533d 63ce c0bc d016 0c3e 885d f63c
00000010: 7dda 89bc d4e8 813d 9bb3 8dbd 644f 0abc
00000020: 4591 84bd 02d2 72bd 7649 37bd 48f8 b7bd
00000030: a41a fc3c 91a8 e93d b723 e43d 6017 47bd
00000040: 3dea cbbb 59ec 643d 6df6 01bd 4768 4ebc
00000050: 6185 64bd 8b85 ad3d 5dcd 56bd 0515 ea3d
00000060: 8a4e f63c 74a4 d43d 4e13 9b3c 0924 283c
00000070: b98d 7bba 2467 ff3b e9cc a9bc 8e68 d2bd
00000080: c0b0 11bd cbde 82bc 8867 79bd ea25 023d
00000090: 9c94 eb3d 1a6c 81bb df83 0cbe e0bd a83d
000000a0: e46c 66bd 0b06 ce3d e756 8fbd 7f74 a53e
000000b0: e1c4 5e3e 264f 1ebe e0b3 1c3e f29c 313e
000000c0: dd2a b63c 6dbc bebc 126e c53d 72bf 60be
000000d0: b2da 21bd ffa3 963d 1d72 1bbe 39eb 78bd
000000e0: bc02 883d e26a 633e 5ab1 14be d390 4ebd
000000f0: 2186 05bd 9ece 95bd 8ce6 9a3d 720a 3d3e
00000100: 78e5 4bbd 4058 013e 561e 503d 0291 8abd
00000110: e7ba f2bd 25e3 01be 066d 383f 975d 223e
00000120: 9c93 f63c d070 adbb ed29 893d d79d ba3d
00000130: dc68 d33d 95a5 6739 7346 92bd e7d6 28bc
00000140: 3fba 433d 0202 76bc 865d 183d a519 0abd
00000150: d3ac cabc a654 6cbd 3f7c abbd 4313 c63c
00000160: f530 9cbd 8438 8d3d 68a9 21bc 5169 b43d
00000170: 5f6e 0a3c 3d2e d8bc c994 313d fe63 b53c
00000180: 1b98 683d 12cd b6bc 5238 44bc 0f39 a83d
00000190: a797 183d b0e4 05bd 1a21 95bd 3776 d4bd
000001a0: 52e4 993d b77c 833d e228 e93d d58a 5e3d
000001b0: 3554 b8bc 097a 7dbd 74b3 ae3d 50c9 5cbc
000001c0: c554 91bc 4d18 d9bc 2439 973d 285e 7abc
000001d0: 985d 743d 48f8 d03d 4dca af3c 5c20 ac3d
000001e0: d80e 2abd dbbf b63d 7748 c23c 00af e0bd
000001f0: 8035 cd3c 8db1 c1bd 092e 483c 23a6 663d
00000200: 19be 493c f199 443c c304 ab3d 9323 24bc
00000210: f1ba bebd 9bcd 323d 29e3 923d c80a 0fbd
00000220: dcb5 0a3c ce8c b5bd aca0 8cbd aaa3 823d
00000230: 3642 87bd 6ac6 a2bd abab 46bd 2d8c bebd
00000240: a732 7f3d 25c7 12bd f407 fdbd 2df2 e3bc
00000250: 1711 ee3d 4643 b53d 5d9f 10bd cfce 823d
00000260: b6cf 013e 7d1e 20be 0f7a 99bd 6de9 1bbe
00000270: 5f38 713e da60 46bd bb60 97bd e9b5 6d3d
00000280: a36e e83d f4b8 9e3d ea38 59bc 5316 36bc
00000290: 134c 79bd ba96 80bd e5f5 33bc e9c9 3ebe
000002a0: 1ddb b43d 8b6f 4e3d 8595 a23d dc96 e33c
000002b0: 934b 23bd bae1 063e 3685 e03d 6228 d53d
000002c0: 4980 2b3d 19e9 083d 74df 60bd 0a49 743d
000002d0: 4ff9 173d e452 9f3f 422b 993f ef89 3b3d
000002e0: 55e2 1cbc 4583 c13d 4168 dd3c 6be5 37bd
000002f0: 557b 993c e3dd e73c 8951 c4bd bacd 96bd
00000300: 0eeb a33d eaf1 423d f7b4 e3bc 6375 20bd
00000310: 1594 dd3c 3172 8d3c 11f8 18bd f92a dc3c
00000320: 463b ab3d 357a 9e3d 8f9c a03d 1edd e1bd
00000330: 2417 203d 4620 353d 1f2c debc 29c6 b63d
00000340: 74e0 143d 8c33 1dbd f608 cfbd f611 e53d
00000350: 8bd4 7abd 2ec6 67bd be78 dabd 3023 b6bd
00000360: 3af0 61bd 06e2 76bd e600 5fbd 21dd a93d
00000370: d4fb 9f3d c294 0e3c a268 fb3c 064c 653c
00000380: bef9 d4bc c771 82bd b796 2b3d ff43 95bd
00000390: 4976 103e d7f7 f83d 60f7 bbbd 9325 d73d
000003a0: 0fb9 d03d ee19 a1bd 0f05 463e efef 853d
000003b0: 9b21 ecbd 9aba 13bd cbdf cebd a74d 80be
000003c0: 8834 bfbd 5125 ed3d 4e34 103e 322b 2d3c
000003d0: 2bb7 7fbd 0d26 2bbd c5cf c5bd 4e28 083e
000003e0: 4a24 15b9 7577 9a3d 7012 afbd f1b5 843e
000003f0: 7449 22be c03b 07be 8300 17be d5b1 10bf

lstm.weight_hh_l0 f4 [296, 74]
-0.10858211 -0.023638984 0.085483074 -0.039353266 -0.1038104 0.077990234 0.07499718 -0.07920237
0.10535196 -0.013061148 -0.09081087 0.0320378 0.081730954 0.08717929 0.113866895 0.03697239
0.06059932 0.046404388 0.106326714 -0.048416816 -0.10434993 -0.0007115136 0.008476857 0.10381612
-0.047439706 -0.10595408 -0.03893253 -0.034023322 0.09465016 -0.06941779 0.10361851 -0.013758008
-0.08020183 0.106777 0.09989657 -0.080866106 -0.09752432 -0.009118146 0.02794608 -0.06426994
0.08761999 -0.10878587 0.05682491 0.04073573 0.0396216 -0.108605385 0.02893098 0.11253128
0.020316713 -0.08647793 -0.011857933 -0.10355383 0.035166074 -0.09211038 -0.07486821 0.060934108
-0.0016008861 -0.042630725 -0.07676989 -0.07110091 -0.03818203 0.11551584 0.06068855 0.014561151
-0.09554792 -0.09296493 -0.028118955 -0.059603687 -0.026780669 -0.004537057 -0.034453884 -0.09068273
0.04106951 -0.0540211 -0.17412251 0.09654201 -0.02121352 0.10642203 0.16431819 0.096434176
-0.056431722 -0.24767311 -0.033554178 0.07230588 -0.014844224 0.10556897 0.013044453 -0.10298827
-0.085146286 0.13615823 -0.0041375556 -0.10627181 -0.020237828 0.03472215 0.18031526 0.24950458
-0.007188111 -0.20003887 0.07834739 0.08407151 -0.047780246 -0.1863608 0.17325759 -0.051954333
-0.02485471 0.037720133 0.08342302 0.027205577 0.06284224 -0.0360496 0.045434766 0.05715126
-0.14729099 0.06346079 -0.07174767 0.010975307 0.044285137 -0.16801491 -0.026871609 0.02694617
0.14589438 0.06064842 0.06370092 0.26186982 0.11784821 -0.124226786 0.11746222 -0.08220222
-0.04328826 0.09824054 0.13272354 0.0026103563 -0.17149235 0.046550125 0.10993665 0.17473134
0.12434788 -0.083061926 -0.08767985 -0.0831812 0.2781109 -0.07316167 -0.032375168 -0.1009313
0.011484831 0.06122372 -0.168258 -0.15131211 -0.095053576 -0.07937675 -0.0061088814 -0.022131598
-0.02920071 -0.077304885 -0.106177785 -0.10258488 -0.062361624 -0.08207431 -0.086115256 0.09474585
0.105712116 0.10004496 -0.047860954 -0.10429302 -0.054840118 0.06262106 0.002564546 -0.037386876
-0.019566663 -0.032551903 0.107039854 0.10010683 -0.09071366 -0.057815455 0.022742571 -0.0072673983
0.05347796 -0.020236963 -0.09790103 -0.05342738 0.0132737765 0.09766303 -0.045162942 -0.10900597
0.06796037 0.08183976 0.08358533 0.015497238 -0.089203894 -0.048746374 -0.08927104 -0.030132255
-0.061481487 -0.02684603 0.067820214 -0.04126513 -0.010679067 0.029909998 0.10751009 0.07236051
-0.1034144 0.09643693 -0.009955567 0.049366444 -0.006934958 -0.07401552 -0.10290715 -0.09120398
0.030238995 -0.09508793 -0.047634516 -0.10729295 0.10303135 -0.08194916 -0.050196413 0.10118384
-0.032682855 0.108988576 -0.020063182 0.026822006 -0.05318969 0.0065997047 -0.097985335 -0.028113853
0.003400257 -0.017641168 0.11414836 -0.06217667 0.08322667 0.029758291 0.101930805 -0.034506686
0.03011204 -0.099641435 -0.06902626 -0.08808459 0.05005334 -0.08887745 0.08080365 -0.10196967
-0.10090013 0.09181229 0.11343379 0.08105454 0.015309053 -0.060269937 0.008214884 0.02066594
-0.096078224 -0.063057154 0.10257476 0.0069252052 -0.0060325125 -0.03993765 -0.07873042 -0.08477942
00000000: 4c60 debd 8ba6 c1bc c011 af3d e430 21bd
00000010: 8c9a d4bd 58b9 9f3d 1f98 993d da34 a2bd
00000020: c5c2 d73d 6dfe 55bc 0dfb b9bd 113a 033d
00000030: 8f62 a73d 0e8b b23d 0c33 e93d 5c70 173d
00000040: fe36 783d 8712 3e3d d2c1 d93d b650 46bd
00000050: 6bb5 d5bd df84 3aba 84e2 0a3c 8c9d d43d
00000060: 2350 42bd 74fe d8bd b777 1fbd 0a5c 0bbd
00000070: f1d7 c13d ea2a 8ebd f135 d43d 4569 61bc
00000080: db40 a4bd e6ad da3d 9396 cc3d 219d a5bd
00000090: d5ba c7bd 4764 15bc 2def e43c f59f 83bd
000000a0: 1c72 b33d 20cb debd 3dc1 683d 82da 263d
000000b0: 424a 223d 806c debd aa00 ed3c cd76 e63d
000000c0: 3c6f a63c 571b b1bd c747 42bc 0814 d4bd
000000d0: 4d0a 103d 5ea4 bcbd 8154 99bd 0b96 793d
000000e0: d3d4 d1ba 8e9d 2ebd 8839 9dbd 5b9d 91bd
000000f0: c364 1cbd 9293 ec3d 8f94 783d e591 6e3c
00000100: a1ae c3bd 6664 bebd b959 e6bc ff22 74bd
00000110: 2263 dbbc 98ab 94bb 841f 0dbd deb7 b9bd
00000120: 8138 283d 3b45 5dbd 2c4d 32be d1b7 c53d
00000130: fac7 adbc cbf3 d93d 0743 283e 487f c53d
00000140: f324 67bd 059e 7dbe 1b70 09bd 1b15 943d
00000150: 3035 73bc 8b34 d83d 67b8 553c 84eb d2bd
00000160: 2d61 aebd 106d 0b3e 5594 87bb 09a5 d9bd
00000170: cdc9 a5bc d038 0e3d 90a4 383e 217e 7f3e
00000180: 3f8a ebbb fdd6 4cbe 9974 a03d af2d ac3d
00000190: 38b5 43bd 5ed5 3ebe 706a 313e 11ce 54bd
000001a0: 1b9c cbbc 6d80 1a3d b0d9 aa3d 3bde de3c
000001b0: 6fb3 803d bfa8 13bd ce19 3a3d 7117 6a3d
000001c0: 73d3 16be bbf7 813d 71f0 92bd c6d1 333c
000001d0: 5564 353d 1a0c 2cbe d921 dcbc 37be dc3c
000001e0: 5665 153e 7a6a 783d a175 823d cd13 863e
000001f0: 675a f13d 9d6a febd 0890 f03d a359 a8bd
00000200: 084f 31bd 5632 c93d aee8 073e 8312 2b3b
00000210: b19b 2fbe 58ab 3e3d 7726 e13d c6ec 323e
00000220: 1aaa fe3d 5f1c aabd 7e91 b3bd e85a aabd
00000230: 8d64 8e3e c9d5 95bd d39b 04bd 12b5 cebd
00000240: df2a 3c3c b9c5 7a3d d34b 2cbe 90f1 1abe
00000250: 73ab c2bd 4790 a2bd 032d c8bb 534d b5bc
00000260: 5436 efbc 0652 9ebd bd73 d9bd 0618 d2bd
00000270: e76e 7fbd 9316 a8bd 325d b0bd 1d0a c23d
00000280: 987f d83d 5fe4 cc3d d909 44bd 9497 d5bd
00000290: 08a0 60bd 783f 803d f111 283b fb22 19bd
000002a0: 444a a0bc 2555 05bd b637 db3d cf04 cd3d
000002b0: 15c8 b9bd e6cf 6cbd a14e ba3c 5b23 eebb
000002c0: b50b 5b3d fdc7 a5bc 5680 c8bd abd6 5abd
000002d0: 417a 593c 8e03 c83d c7fc 38bd 863e dfbd
000002e0: ce2e 8b3d 9b9b a73d c92e ab3d 21e8 7d3c
000002f0: 88b0 b6bd 47aa 47bd bcd3 b6bd ebd7 f6bc
00000300: 03d4 7bbd 35ec dbbc 53e5 8a3d a005 29bd
00000310: 41f7 2ebc d005 f53c 402e dc3d bf31 943d
00000320: eeca d3bd ba80 c53d ad1c 23bc 7834 4a3d
00000330: a53e e3bb 7395 97bd fcc0 d2bd 27c9 babd
00000340: c5b7 f73c 76bd c2bd 691c 43bd 68bc dbbd
00000350: 1a02 d33d f6d4 a7bd c19a 4dbd 7939 cf3d
00000360: 75de 05bd 6735 df3d 8b5b a4bc d3b9 db3c
00000370: 6fdd 59bd 5642 d83b 89ac c8bd 064f e6bc
00000380: d9d6 5e3b 3684 90bc 9ec6 e93d f7ac 7ebd
00000390: bf72 aa3d a9c7 f33c 19c1 d03d e256 0dbd
000003a0: 86ad f63c cf10 ccbd a45d 8dbd b265 b4bd
000003b0: bb04 4d3d 6105 b6bd 627c a53d 79d5 d0bd
000003c0: baa4 cebd 1508 bc3d fa4f e83d ecff a53d
000003d0: d2d2 7a3c 9cdd 76bd b997 063c 9e4b a93c
000003e0: a9c4 c4bd 1c24 81bd b712 d23d d5ec e23b
000003f0: 62ac c5bb a995 23bd 6a3d a1bd d5a0 adbd

lstm.bias_ih_l0 f4 [296]
0.13032646 0.084342934 -0.0933641 -0.037017524 0.021316921 0.102484085 -0.076506734 -0.07098825
-0.035437804 -0.07912769 0.07256761 0.0124062225 -0.02429024 0.0011278227 -0.017970799 0.07705935
-0.0065060165 -0.029479956 -0.053693023 -0.08078134 -0.026181895 0.033406816 -0.07683829 -0.1535959
-0.007378226 -0.015098785 0.13077405 0.078656614 -0.10056448 0.03518975 -0.04882849 -0.12089495
0.044882353 -0.05607744 0.027794499 -0.091431394 -0.008508711 0.072911866 0.030765913 0.10091053
0.090474956 -0.014160661 -0.04589374 -0.077645 -0.051993247 -0.08235083 0.13419023 -0.0021455807
0.1586323 0.017196188 0.010795598 -0.0036443213 -0.011933671 -0.030700482 0.028515967 -0.02462315
-0.09509727 -0.11570279 0.12469352 -0.14661893 -0.048785605 -0.0129036335 0.06325046 -0.0053552375
-0.03192152 0.048571814 0.059580114 -0.048463777 -0.11652035 0.04541475 -0.035384327 0.108778186
0.015569966 -0.06579622 -0.09576885 -0.08684857 0.01568951 0.035909478 -0.0105512375 -0.004551807
0.026692469 0.096271604 -0.113991015 0.06668358 -0.08372062 0.062793754 -0.013584409 -0.077204786
0.027898349 0.081734 -0.110508904 0.11934117 -0.09933408 0.03388418 0.08532517 0.06005239
-0.0414917 0.015332131 -0.021535352 -0.14395694 -0.07709076 -0.03019806 -0.09463206 -0.0020457932
-0.03545657 -0.020381404 -0.063272364 -0.001464789 0.120317236 -0.10334191 0.04325128 0.12314121
-0.06962804 -0.03922341 -0.048956715 0.024690412 0.0061137658 0.084506944 0.045988772 -0.01656448
-0.06850183 -0.028902851 -0.12213735 -0.0037082406 -0.013437426 0.014027246 0.008014673 -0.114868484
-0.08166553 -0.11470506 -0.0150164245 0.04510076 -0.09062946 -0.09215537 -0.09315588 -0.09421448
-0.12341459 0.013743955 0.019508436 -0.036738325 -0.05846126 -0.060471795 0.060119603 -0.021788841
-0.008217979 0.015766846 -0.004811649 -0.095610306 -0.014693781 -0.11386381 0.096752904 -0.06760806
0.053176377 -0.053190317 0.0048497063 -0.019817695 0.061291255 -0.041096795 -0.078817576 -0.081644505
0.016066339 0.077009484 0.06409036 0.027470373 0.08316375 0.050742444 -0.02387707 -0.030881835
0.07666276 -0.05265767 0.058529284 -0.08040065 0.08287041 0.100120224 0.009513526 -0.011134168
-0.10247295 -0.04307205 0.04955544 -0.11588828 3.2637592e-05 0.07486929 0.017214835 -0.001879427
0.06985164 0.0327841 0.04066428 0.043667383 0.10080691 0.09910242 -0.10808938 -0.046858083
-0.10311185 -0.056886323 0.0714775 -0.12143616 0.062025853 -0.009995646 -0.028476601 -0.08637708
-0.032977648 0.062029794 -0.06415725 -0.10175587 -0.04567721 -0.087722965 0.09690156 0.01504132
-0.06641029 0.038267065 0.00773637 -0.047578882 -0.09856397 -0.018800642 0.026850037 0.017143233
0.06703431 -0.034986146 0.036367714 -0.022544503 -0.107855566 -0.08541863 -0.06959104 -0.014517265
-0.11582467 0.00879308 -0.015460202 -0.018725054 0.06358135 0.031803153 0.005124455 -0.18796663
-0.024262803 -0.12841299 -0.043634374 -0.07605384 -0.08200224 0.06889547 -0.07806577 -0.0073313457
-0.0034677698 0.08153079 -0.20346276 -0.097679295 0.044831257 -0.031043602 -0.019091003 -0.16672044
0.0034480847 0.0502274 -0.0932127 0.021741439 0.03104722 0.040585797 -0.085683145 -0.07864596
00000000: 4d74 053e fdbb ac3d ad35 bfbd b09f 17bd
00000010: d3a0 ae3c 2de3 d13d 90af 9cbd 4a62 91bd
00000020: 3b27 11bd b30d a2bd 549e 943d 7843 4b3c
00000030: 53fc c6bc 73d3 933a 7f37 93bc 4bd1 9d3d
00000040: 6c30 d5bb f37f f1bc 37ed 5bbd b070 a5bd
00000050: 6a7b d6bc 96d5 083d 655d 9dbd 3e48 1dbe
00000060: 0cc5 f1bb e560 77bc a2e9 053e b816 a13d
00000070: c0f4 cdbd 2123 103d 6200 48bd c697 f7bd
00000080: 8fd6 373d 75b1 65bd 4ab1 e33c 6240 bbbd
00000090: 1f68 0bbc d152 953d cc08 fc3c 2eaa ce3d
000000a0: ef4a b93d 1e02 68bc 13fb 3bbd 5704 9fbd
000000b0: dff6 54bd 8da7 a8bd 2a69 093e df9c 0cbb
000000c0: 8170 223e 05df 8c3c 05e0 303c 91d5 6ebb
000000d0: 7285 43bc 947f fbbc 519a e93c 7db6 c9bc
000000e0: 5cc2 c2bd 96f5 ecbd 515f ff3d 4623 16be
000000f0: 6ad3 47bd c369 53bc 7589 813d fd7a afbb
00000100: 24c0 02bd 3df3 463d 470a 743d f481 46bd
00000110: 39a2 eebd d104 3a3d 28ef 10bd 19c7 de3d
00000120: 2c19 7f3c 2bc0 86bd 7522 c4bd aadd b1bd
00000130: 4a87 803c d115 133d 19df 2cbc 5327 95bb
00000140: 2aaa da3c 0c2a c53d 1f74 e9bd 6791 883d
00000150: b775 abbd 039a 803d 2491 5ebc 8b1d 9ebd
00000160: 148b e43c 2864 a73d 7e52 e2bd 2569 f43d
00000170: ab6f cbbd 23ca 0a3d f6be ae3d 7ff9 753d
00000180: 33f3 29bd 9e33 7b3c e86a b0bc 7369 13be
00000190: c3e1 9dbd ec61 f7bc 74ce c1bd b712 06bb
000001a0: e93a 11bd e7f6 a6bc f194 81bd 2afe bfba
000001b0: e268 f63d eca4 d3bd 4128 313d 7531 fc3d
000001c0: 2599 8ebd baa8 20bd d686 48bd 8c43 ca3c
000001d0: fc55 c83b fa11 ad3d b95e 3c3d 3bb2 87bc
000001e0: b04a 8cbd acc5 ecbc 2623 fabd f405 73bb
000001f0: a628 5cbc 89d2 653c fa4f 033c 2b40 ebbd
00000200: 4240 a7bd 7dea eabd 7307 76bc 93bb 383d
00000210: f09b b9bd f4bb bcbd 83c8 bebd 85f3 c0bd
00000220: cac0 fcbd 532e 613c 28d0 9f3c ed7a 16bd
00000230: 1375 6fbd 46b1 77bd f93f 763d 837e b2bc
00000240: b4a4 06bc 7929 813c 0aab 9dbb 56cf c3bd
00000250: 2fbe 70bc 6e31 e9bd 6326 c63d 1876 8abd
00000260: 79cf 593d 17de 59bd 49ea 9e3b b858 a2bc
00000270: 8a0c 7b3d 1d55 28bd 1c6b a1bd 3c35 a7bd
00000280: 8e9d 833c 26b7 9d3d cf41 833d 8c09 e13c
00000290: c251 aa3d 4fd7 4f3d d899 c3bc e7fb fcbc
000002a0: 5d01 9d3d 92af 57bd 67bc 6f3d 19a9 a4bd
000002b0: f6b7 a93d d50b cd3d 9fde 1b3c 166c 36bc
000002c0: 57dd d1bd 516c 30bd a5fa 4a3d d656 edbd
000002d0: 59e4 0838 1255 993d 2006 8d3c 1b57 f6ba
000002e0: 600e 8f3d 9f48 063d 978f 263d 92dc 323d
000002f0: da73 ce3d 36f6 ca3d f75d ddbd 43ee 3fbd
00000300: 4e2c d3bd a201 69bd cc62 923d 85b3 f8bd
00000310: d20e 7e3d c7c4 23bc c347 e9bc 77e6 b0bd
00000320: 9213 07bd f412 7e3d e064 83bd 6265 d0bd
00000330: 0718 3bbd 19a8 b3bd 5374 c63d de6f 763c
00000340: 1e02 88bd edbd 1c3d 6081 fd3b 13e2 42bd
00000350: e8db c9bd ce03 9abc 9cf4 db3c f76f 8c3c
00000360: 4949 893d a24d 0fbd 50f6 143d 40af b8bc
00000370: 61e3 dcbd f6ef aebd bf85 8ebd d3d9 6dbc
00000380: 7c35 edbd da10 103c c94c 7dbc 4965 99bc
00000390: f036 823d 0644 023d 0beb a73b 537a 40be
000003a0: c9c2 c6bc b27e 03be f5b9 32bd 1ec2 9bbd
000003b0: caf0 a7bd 1119 8d3d f2e0 9fbd c93b f0bb
000003c0: 8643 63bb 9df9 a63d 8b58 50be 150c c8bd
000003d0: fba0 373d 274f febc bc64 9cbc c3b8 2abe
000003e0: 43f9 613b 3fbb 4d3d 4de6 bebd 1a1b b23c
000003f0: bd56 fe3c 4b3d 263d a57a afbd 2211 a1bd

lstm.bias_hh_l0 f4 [296]
0.062234476 -0.046761204 0.005925168 -0.08334085 -0.069203824 0.08754771 0.048534885 0.069211684
-0.10730973 0.057514213 -0.052585915 0.059068352 -0.11066148 -0.04173581 0.038403206 -0.007957228
-0.06002234 0.11757701 0.050198253 0.037894093 -0.0399683 0.0690212 -0.059604872 -0.014621558
-0.011221011 0.006128645 0.028541176 0.03266962 0.072847925 0.04962542 0.038741987 0.014807799
-0.02517414 0.10113102 0.10184486 -0.058771446 0.04541502 0.10404253 0.031476226 -0.089778654
-0.022417692 -0.021612858 -0.018509008 -0.076152146 -0.10095807 -0.06546724 -0.052501146 -0.041470077
0.069115266 -0.20093177 0.054118957 0.0042454465 -0.012532662 0.02876192 -0.038984627 -0.09849171
-0.11359401 -0.069009125 -0.047038946 0.0031687906 -0.10235601 0.053642217 -0.066293046 -0.089494616
0.07472019 -0.07087739 -0.027537115 0.031131826 -0.0004740197 0.055912808 -0.112472326 -0.10433276
0.052629873 0.014397071 0.026602233 -0.10925257 -0.05348345 0.064445555 -0.094886266 0.041566182
0.032830566 0.041563183 -0.05791765 -0.059674792 0.03423295 0.0639229 -0.082418986 -0.010000534
-0.10474786 0.056229528 0.07621951 -0.05290151 -0.035270426 -0.03601398 -0.081789345 0.027645847
0.031738814 0.075004764 -0.058195267 -0.050424885 0.02620182 -0.10155235 0.102638066 -0.01693492
0.07517644 0.022857172 0.10254214 0.056477137 0.048657965 0.05771674 0.045708075 -0.060412586
-0.0650194 -0.070348345 -0.07405804 -0.0063088182 -0.026074326 -0.06128612 -0.019544234 0.030926542
-0.040255897 -0.14884008 0.08079724 0.03923774 -0.08956049 0.05714503 0.030930312 -0.05646515
-0.045979694 0.0059432616 0.1078847 0.016175231 -0.004050081 -0.023146508 -0.010672555 -0.15963928
-0.08425407 -0.015743341 0.08254748 -0.03479165 0.11260915 -0.055458568 0.073754966 0.072702155
0.03155863 0.014091137 -0.11735642 -0.016837178 -0.081267454 0.08094729 0.01123266 0.05127059
-0.067932494 0.09060988 -0.071621135 -0.012125652 -0.06236953 0.09018052 0.064289026 0.05653986
-0.07284351 0.032490335 -0.07459689 0.10762974 0.031435225 -0.008865867 0.058694303 -0.09358802
-0.06347494 0.10103474 -0.018555066 0.07734795 -0.0889374 -0.033257972 0.05305333 0.032577883
-0.047877472 0.044551782 0.10476956 0.01810794 -0.108607024 -0.04997998 -0.11395826 -0.040301923
0.0789843 -0.11172622 0.02922805 -0.03476452 0.07547532 0.0011529966 -0.08007121 -0.022755444
-0.088328004 -0.11541587 0.04564099 -0.07852676 -0.018416123 -0.023673423 -0.055564735 -0.09714827
-0.048614584 0.10649775 -0.023075888 -0.09707457 -0.016016562 0.0007631569 -0.11498105 0.04004478
-0.05113858 0.07740675 -0.033051975 -0.0051502623 0.020598315 -0.018607907 0.08205798 -0.007895661
-0.09139766 -0.057944637 0.11455312 -0.0033244719 -0.08356787 0.00982633 0.13734192 -0.06003909
-0.056163188 0.005628775 0.06750399 -0.04567154 0.037242457 -0.05885106 -0.14147471 -0.0014660074
-0.08962915 0.051088687 -0.09172123 0.03475543 -0.11906557 -0.018864254 -0.09950682 0.065414794
0.080817066 -0.028416742 -0.002917924 -0.1674526 0.0042701 -0.12640247 -0.110764995 -0.0061971215
-0.065612115 -0.043457534 -0.049875177 -0.024624662 -0.104776934 -0.06278853 -0.07894409 0.028226214
00000000: 94e9 7e3d ad88 3fbd e927 c23b 9cae aabd
00000010: bcba 8dbd 374c b33d 84cc 463d dbbe 8d3d
00000020: 34c5 dbbd 0694 6b3d 5464 57bd a8f1 713d
00000030: 7ca2 e2bd 2bf3 2abd ae4c 1d3d 095f 02bc
00000040: fcd9 75bd 37cc f03d af9c 4d3d d636 1b3d
00000050: cdb5 23bd fd5a 8d3d 3d24 74bd 428f 6fbc
00000060: 55d8 37bc cdd2 c83b 2fcf e93c 94d0 053d
00000070: 4b31 953d 0644 4b3d ebaf 1e3d 699c 723c
00000080: 003a cebc c81d cf3d 0a94 d03d 54ba 70bd
00000090: 1a05 3a3d 4014 d53d 37ed 003d dfdd b7bd
000000a0: 4fa5 b7bc 730d b1bc 34a0 97bc a8f5 9bbd
000000b0: 1bc3 cebd b013 86bd 710b 57bd 87dc 29bd
000000c0: 4e8c 8d3d 0fc1 4dbe d7ab 5d3d 631d 8b3b
000000d0: cb55 4dbc 1e9e eb3c 58ae 1fbd 06b6 c9bd
000000e0: faa3 e8bd a854 8dbd e9ab 40bd 7cab 4f3b
000000f0: 07a0 d1bd f1b7 5b3d a6c4 87bd f448 b7bd
00000100: e606 993d 2a28 91bd 8495 e1bc 2c08 ff3c
00000110: d985 f8b9 d404 653d e457 e6bd 6aac d5bd
00000120: 6c92 573d b1e1 6b3c edec d93c d0bf dfbd
00000130: 7611 5bbd 08fc 833d bb53 c2bd 4d41 2a3d
00000140: 5879 063d 283e 2a3d 0f3b 6dbd 8e6d 74bd
00000150: da37 0c3d 02ea 823d 49cb a8bd 48d9 23bc
00000160: 0c86 d6bd ef50 663d f918 9c3d 41af 58bd
00000170: b977 10bd 6583 13bd 2c81 a7bd 8b79 e23c
00000180: 8f00 023d 199c 993d 295e 6ebd 538a 4ebd
00000190: 33a5 d63c aefa cfbd e833 d23d 1abb 8abc
000001a0: 1bf6 993d f73e bb3c 9d01 d23d 9254 673d
000001b0: 934d 473d 6368 6c3d 6438 3b3d 3073 77bd
000001c0: e428 85bd cb12 90bd beab 97bd 34ba cebb
000001d0: d399 d5bc 2807 7bbd 3b1b a0bc a959 fd3c
000001e0: 5ee3 24bd 8969 18be 0679 a53d c1b7 203d
000001f0: 7d6b b7bd e810 6a3d 9161 fd3c 0048 67bd
00000200: 3455 3cbd b1bf c23b a7f2 dc3d eb81 843c
00000210: 8bb6 84bb bf9d bdbc f1db 2ebc 7b78 23be
00000220: 668d acbd 2ef8 80bc a70e a93d b081 0ebd
00000230: a09f e63d 8628 63bd d80c 973d dee4 943d
00000240: 9f43 013d 83de 663c 9058 f0bd 1fee 89bc
00000250: 8d6f a6bd b1c7 a53d 3109 383c 1c01 523d
00000260: 3120 8bbd ac91 b93d 1aae 92bd acaa 46bc
00000270: 3177 7fbd 91b0 b83d f7a9 833d 5796 673d
00000280: fa2e 95bd 9614 053d 41c6 98bd fb6c dc3d
00000290: 39c2 003d 2442 11bc 7069 703d 13ab bfbd
000002a0: 26ff 81bd 4deb ce3d cb00 98bc 9a68 9e3d
000002b0: d024 b6bd 8339 08bd 734e 593d 6370 053d
000002c0: 2b1b 44bd ee7b 363d 6c91 d63d 1a57 943c
000002d0: 5c6d debd cfb7 4cbd f362 e9bd a113 25bd
000002e0: 85c2 a13d b7d0 e4bd aa6f ef3c 3e65 0ebd
000002f0: ce92 9a3d 2520 973a 60fc a3bd a069 babc
00000300: 50e5 b4bd 285f ecbd 0cf2 3a3d a3d2 a0bd
00000310: 69dd 96bc c4ee c1bc d997 63bd acf5 c6bd
00000320: 1620 47bd 7e1b da3d a509 bdbc 08cf c6bd
00000330: 2a35 83bc 980e 483a 2f7b ebbd ff05 243d
00000340: b076 51bd 6e87 9e3d 8261 07bd 88c3 a8bb
00000350: ccbd a83c 9c6f 98bc 040e a83d cd5c 01bc
00000360: b22e bbbd 5b57 6dbd d49a ea3d 62df 59bb
00000370: a225 abbd 9dfe 203c 5ca3 0c3e 8deb 75bd
00000380: 5f0b 66bd 9671 b83b 883f 8a3d 1512 3bbd
00000390: 8c8b 183d cf0d 71bd bfde 10be 0c27 c0ba
000003a0: 7d8f b7bd 5f42 513d 57d8 bbbd b65b 0e3d
000003b0: a6d8 f3bd 3589 9abc 3bca cbbd 31f8 853d
000003c0: 6b83 a53d 3aca e8bc a43a 3fbb b278 2bbe
000003d0: 32ec 8b3b a66f 01be c2d8 e2bd 3911 cbbb
000003e0: a55f 86bd 8700 32bd ea49 4cbd a9b9 c9bc
000003f0: 4a95 d6bd 4697 80bd 70ad a1bd a93a e73c

lstm.weight_ih_l1 f4 [296, 74]
-0.048974894 0.0013315611 -0.00050418515 -0.0075632916 0.031309083 0.08240493 0.07093273 -0.1516371
-0.023318434 0.030805035 0.04030092 0.14449157 -0.09131799 -0.033239566 -0.10176233 0.06703027
-0.09219542 -0.013758398 -0.028957821 0.0947693 0.029119385 -0.022473501 0.04604723 0.06912425
-0.022965439 0.016843976 0.01924818 0.00084509177 0.06996465 0.011526956 0.020728357 0.039956093
-0.04913522 0.017585188 -0.001634678 -0.04386975 0.02251653 0.009558123 0.09579833 0.089063674
0.072501495 -0.07347402 0.029539147 0.032470915 -0.06441102 -0.0121559715 0.12297064 0.015003209
-0.041033275 -0.08256264 -0.02682432 -0.102543145 -0.015180622 0.04604323 0.052661862 0.0701635
0.084604986 -0.06256361 -0.082353175 0.10753283 -0.02675958 0.1426948 0.13606039 -0.041826792
-0.06126351 -0.0440517 0.05606294 0.019413657 -0.058857933 -0.0027722686 0.10585194 0.17452382
0.08330959 -0.07982066 0.019654803 -0.012515016 0.064128645 0.049455144 0.013679026 0.0029539815
-0.098713376 -0.08305319 -0.06929607 -0.06548484 -0.08972207 -0.09665434 0.039454676 -0.020939229
-0.088784076 0.08184001 -0.07095322 0.036656544 0.09757505 -0.10316412 0.048727997 -0.05943609
-0.04480118 -0.04861807 -0.12993307 0.09890554 0.10137839 -0.047007203 0.005342356 0.018349027
0.08139732 -0.015169912 -0.06558113 0.004877836 0.006532745 -0.11675412 0.015825387 -0.02480367
-0.0009193938 0.018818194 0.112595715 -0.05813025 -0.14417513 -0.08095488 -0.07600259 -0.077238865
-0.14576776 0.03251524 -0.020751942 -0.027518354 -0.080520436 -0.019085953 0.058181196 0.07856426
-0.050899476 -0.041543394 0.037768405 -0.088140585 -0.09168673 -0.090064295 0.09014748 -0.06067629
-0.00061297475 -0.0044251257 0.09167765 0.087997556 0.029388782 0.07768051 -0.08702416 -0.048769977
-0.06481544 0.05219936 0.0059724497 -0.02368689 -0.13355769 0.046507116 0.006725937 -0.081516646
0.2610422 0.031913277 0.08114096 -0.21385819 -0.084250495 -0.030425528 0.08431139 -0.029159343
-0.007758019 -0.18865813 -0.14454499 0.11263992 -0.017462317 0.019443233 -0.113216534 0.1234898
0.10378922 0.066935934 -0.023184745 0.004949734 0.09992676 0.09272825 -0.23320866 -0.083864056
0.0645106 -0.062823676 0.11062939 0.032618295 -0.05419055 0.038563713 -0.006597525 0.047663707
0.064481184 -0.104994945 -0.0072458666 0.05758805 -0.07564964 0.10769106 0.1558896 -0.2207151
-0.23031586 0.05330414 0.27377394 0.0018520937 0.112114325 0.10236499 0.044558898 -0.004025003
-0.045988306 0.0725294 0.035144337 -0.15047991 0.16663791 0.11386654 -0.21550177 0.09914876
0.07439354 0.18371257 0.026352404 0.017379818 -0.07078276 -0.00082076574 0.12348433 -0.1766328
-0.032855604 -0.06732622 -0.010933772 0.21926434 -0.088239975 -0.20615551 0.20730323 0.20234238
0.14001362 -0.025919652 -0.32876694 0.01800861 0.019525107 0.101590425 0.032867696 -0.09656118
-0.08027352 -0.0610587 0.10616442 0.20341179 0.028267862 -0.17106642 0.054135963 -0.05596072
0.11170347 -0.22893468 0.010249669 -0.21601945 -0.09222935 0.021348288 -0.07957798 0.09265726
0.17624252 0.42204776 -0.018246572 0.016572498 -0.030776823 -0.017941419 -0.038567327 -0.017554957
00000000: e699 48bd c787 ae3a 4b2b 04ba 7dd5 f7bb
00000010: f43d 003d eac3 a83d 2e45 913d c246 1bbe
00000020: 4d06 bfbc d75a fc3c 9412 253d 99f5 133e
00000030: ed04 bbbd 3626 08bd c568 d0bd 2b47 893d
00000040: f4d0 bcbd e76a 61bc f438 edbc 6816 c23d
00000050: c78b ee3c 591a b8bc 059c 3c3d 0491 8d3d
00000060: 0422 bcbc 61fc 893c 5cae 9d3c 2689 5d3a
00000070: a049 8f3d 8fdb 3c3c 84ce a93c 00a9 233d
00000080: 0342 49bd d00e 903c b142 d6ba c4b0 33bd
00000090: 9674 b83c ac99 1c3c ea31 c43d 0467 b63d
000000a0: aa7b 943d 8c79 96bd 15fc f13c 3900 053d
000000b0: ede9 83bd d729 47bc 08d8 fb3d 05d0 753c
000000c0: 8212 28bd 9a16 a9bd adbe dbbc 2402 d2bd
000000d0: 25b8 78bc d397 3c3d f7b3 573d e2b1 8f3d
000000e0: 6145 ad3d 5a21 80bd c8a8 a8bd 2c3a dc3d
000000f0: e836 dbbc 961e 123e 6a53 0b3e 9252 2bbd
00000100: 72ef 7abd 8e6f 34bd 41a2 653d 6409 9f3c
00000110: 0415 71bd f3ae 35bb e7c8 d83d 5fb6 323e
00000120: 389e aa3d 0479 a3bd 1c03 a13c c80b 4dbc
00000130: e155 833d 7a91 4a3d fe1d 603c 9697 413b
00000140: 3d2a cabd ca17 aabd 19eb 8dbd ea1c 86bd
00000150: 34c0 b7bd b6f2 c5bd 3a9b 213d bf88 abbc
00000160: 6dd4 b5bd bc9b a73d ec4f 91bd 2c25 163d
00000170: 6ed5 c73d b647 d3bd 0297 473d 4273 73bd
00000180: 7181 37bd be23 47bd 2d0d 05be fd8e ca3d
00000190: 799f cf3d a08a 40bd ee0e af3b b350 963c
000001a0: a3b3 a63d 398b 78bc 664f 86bd 41d6 9f3b
000001b0: a310 d63b c91c efbd 3ea4 813c 1131 cbbc
000001c0: 7903 71ba 9d28 9a3c 9598 e63d fc19 6ebd
000001d0: a5a2 13be accb a5bd 3fa7 9bbd 692f 9ebd
000001e0: 2544 15be b32e 053d faff a9bc 2c6e e1bc
000001f0: e6e7 a4bd 255a 9cbc 684f 6e3d 4ce6 a03d
00000200: f87b 50bd 6829 2abd 0bb3 1a3d 0d83 b4bd
00000210: 41c6 bbbd a173 b8bd 3e9f b83d b487 78bd
00000220: 0ab0 20ba a500 91bb 7ec1 bb3d 1038 b43d
00000230: bec0 f03c f616 9f3d b939 b2bd 07c3 47bd
00000240: f5bd 84bd ffce 553d 8ab4 c33b 020b c2bc
00000250: 59c3 08be 3f7e 3e3d 4065 dc3b 33f2 a6bd
00000260: 53a7 853e 7fb7 023d 3b2d a63d a4fd 5abe
00000270: 868b acbd f53e f9bc 73ab ac3d 93df eebc
00000280: fb36 febb 992f 41be 9a03 14be c2af e63d
00000290: 220d 8fbc 6a47 9f3c 12de e7bd 38e8 fc3d
000002a0: 718f d43d b515 893d efed bdbc 6131 a23b
000002b0: 67a6 cc3d 4fe8 bd3d 40ce 6ebe ebc0 abbd
000002c0: 221e 843d b3a9 80bd a991 e23d c39a 053d
000002d0: e9f6 5dbd fcf4 1d3d 0d30 d8bb 053b 433d
000002e0: b60e 843d 9707 d7bd bc6e edbb 72e1 6b3d
000002f0: 33ee 9abd 218d dc3d 86a1 1f3e 2403 62be
00000300: ecd7 6bbe 7155 5a3d 192c 8c3e f4c1 f23a
00000310: 329c e53d bca4 d13d 6483 363d 2ce4 83bb
00000320: 3c5e 3cbd 4b8a 943d 82f3 0f3d 6817 1abe
00000330: 21a3 2a3e dc32 e93d 7fac 5cbe 810e cb3d
00000340: a45b 983d 261f 3c3e ffe0 d73c 1f60 8e3c
00000350: 8df6 90bd a828 57ba 5ae5 fc3d 3bdf 34be
00000360: 9993 06bd 54e2 89bd 9023 33bc d586 603e
00000370: 29b7 b4bd 6e1a 53be 4c47 543e d732 4f3e
00000380: bb5f 0f3e 7355 d4bc 2454 a8be cb86 933c
00000390: 1ef3 9f3c a40e d03d 47a0 063d dec1 c5bd
000003a0: 7166 a4bd b018 7abd bb6c d93d 2e4b 503e
000003b0: 0192 e73c 092c 2fbe acbd 5d3d 1137 65bd
000003c0: cac4 e43d da6d 6abe 3aee 273c 3434 5dbe
000003d0: bee2 bcbd 9be2 ae3c c8f9 a2bd 17c3 bd3d
000003e0: eb78 343e a516 d83e d679 95bc 0cc3 873c
000003f0: ad1f fcbc e2f9 92bc c6f8 1dbd 6acf 8fbc

lstm.weight_hh_l1 f4 [296, 74]
0.05206392 -0.06859853 -0.098892905 0.048984453 -0.0689473 0.07484323 0.06435303 -0.010888231
-0.06722266 -0.09246599 0.13052207 0.0800645 0.08556027 0.044924606 0.016478105 -0.020817092
0.0531913 -0.14083606 0.05965011 0.04643904 0.006571783 0.05074213 0.0030387118 0.030341363
0.10505765 -0.012186307 -0.16548166 -0.10373888 0.107727766 0.028746972 0.062047787 0.13366817
-0.08855197 -0.043470453 0.0234218 0.052940205 0.062405605 -0.05119336 -0.06772512 -0.08214365
-0.048873603 0.026544143 0.10250874 0.09252265 0.048794806 -0.023913149 0.103903994 0.08516523
-0.015699398 -0.07695142 -0.12991707 -0.20088369 -0.039918292 -0.010957466 0.15930758 0.096583396
-0.017612388 -0.14652126 -0.010704234 0.08071694 -0.07592376 0.13006419 -0.019511523 0.12121267
0.0137466425 0.0032337897 -0.043921214 -0.08379072 0.11856235 0.127322 0.107665926 0.019372778
0.07113483 0.045968566 -0.0087735485 -0.010490727 -0.09995258 0.1465545 0.124995604 0.06959815
0.12046414 0.03892259 -0.08452507 0.043507375 0.21205388 0.010058992 -0.007637131 0.040049475
0.11182718 0.109332725 -0.060409736 -0.15652746 0.14802863 0.09163149 -0.029662354 -0.027144408
-0.1323283 -0.071116544 0.104686655 -0.05945842 -0.009717918 -0.040508434 -0.022797633 0.16678037
0.05046916 0.121617526 0.15897116 -0.16664684 -0.04107838 0.063525595 -0.15422444 0.045133688
-0.08450685 0.016041575 -0.029568262 0.04690081 -0.12731872 0.052721478 -0.17859039 -0.10629595
0.15526852 0.17156658 -0.051669713 -0.026583511 0.036328677 -0.12551403 -0.019858051 0.18266812
0.13175222 -0.09077503 0.09894509 0.025523793 0.09901822 0.076392554 -0.19837306 0.09174064
0.11865191 0.096894205 0.029313657 0.009699939 0.084969044 0.0939658 0.06565723 0.1258622
0.006629712 -0.08734725 0.17062536 0.11992638 -0.090313695 -0.034726795 0.05329705 -0.04176212
0.033601355 0.0653671 -0.075974144 0.018658584 0.008359716 -0.12336967 0.06837304 0.053417847
0.10291461 0.021402104 -0.11428817 -0.03097294 0.10693177 -0.13593557 -0.06691017 0.137991
-0.09174336 -0.077168085 0.016649095 0.013492154 -0.0194522 -0.02399481 -0.15236062 0.013479654
0.074191645 0.124588415 -0.049925976 -0.10207092 0.02886765 -0.042380348 -0.10824063 -0.11810714
-0.010321109 0.15632266 0.06744792 -0.06819928 -0.028118327 0.028496157 0.14497486 0.0016340583
-0.07403093 0.20115195 0.063382134 -0.070490114 0.109567806 -0.15927006 -0.006637314 -0.15012108
0.12779711 -0.06570653 -0.0064907745 0.08287891 0.011095112 -0.08683558 -0.008942164 0.03619493
0.097733915 0.037059527 -0.0062287734 0.011835079 0.041562214 0.017894577 0.10393184 -0.016971925
0.117239155 -0.015200506 0.008424456 0.07905993 -0.06619502 -0.114878125 0.07951175 0.26156804
-0.08833635 0.10625364 0.04805278 0.06614308 0.18433936 -0.14731036 -0.014841834 0.1359769
0.20649345 0.13604857 0.07840189 0.08070064 0.0084500285 0.069467634 0.039576825 -0.06328571
0.22142443 0.039821025 0.03298479 -0.025680041 -0.20276587 -0.10856781 0.06297115 0.08894447
-0.13606367 -0.049524233 -0.12281647 0.22175069 0.012342907 0.067478724 0.21843036 -0.13894114
00000000: fa40 553d 637d 8cbd 5d88 cabd eca3 483d
00000010: 3e34 8dbd 6847 993d 85cb 833d 8d64 32bc
00000020: 09ac 89bd cf5e bdbd 94a7 053e dbf8 a33d
00000030: 393a af3d dd02 383d 17fd 863c 9b88 aabc
00000040: 1fdf 593d 5437 10be ac53 743d dd36 3e3d
00000050: 1d58 d73b fbd6 4f3d 2025 473b 738e f83c
00000060: 7728 d73d 14a9 47bc 0674 29be 0d75 d4bd
00000070: 60a0 dc3d c57e eb3c d225 7e3d 4fe0 083e
00000080: bc5a b5bd 130e 32bd 13df bf3c d4d7 583d
00000090: 059d 7f3d 21b0 51bd 78b3 8abd ee3a a8bd
000000a0: b02f 48bd 1a73 d93c 1af0 d13d 847c bd3d
000000b0: 10dd 473d 82e5 c3bc 9ecb d43d 1c6b ae3d
000000c0: 069c 80bc b598 9dbd fb08 05be 74b4 4dbe
000000d0: 5d81 23bd f286 33bc 8721 233e 84cd c53d
000000e0: db47 90bc ab09 16be d060 2fbc ec4e a53d
000000f0: eb7d 9bbd 8c2f 053e a1d6 9fbc 593e f83d
00000100: 9939 613c fded 533b bbe6 33bd 789a abbd
00000110: d1d0 f23d b360 023e f47f dc3d a9b3 9e3c
00000120: 23af 913d 8949 3c3d eebe 0fbc 4ce1 2bbc
00000130: f0b3 ccbd 6212 163e b2fd ff3d 7a89 8e3d
00000140: e7b5 f63d 4b6d 1f3d 7b1b adbd ca34 323d
00000150: a724 593e 78ce 243c e640 fabb eb0a 243d
00000160: a605 e53d d6e9 df3d 3370 77bd bc48 20be
00000170: d194 173e 4aa9 bb3d 77fe f2bc f35d debc
00000180: 1281 07be 8da5 91bd f565 d63d ac8a 73bd
00000190: e737 1fbc 2cec 25bd 1ac2 babc 79c8 2a3e
000001a0: c0b8 4e3d 9c12 f93d 56c9 223e 78a5 2abe
000001b0: ce41 28bd b519 823d 03ed 1dbe 1ade 383d
000001c0: ed11 adbd 9f69 833c 2439 f2bc 101b 403d
000001d0: d75f 02be 7af2 573d 66e0 36be b1b1 d9bd
000001e0: b6fe 1e3e 26af 2f3e 9fa3 53bd aac5 d9bc
000001f0: 61cd 143d c086 00be 5aad a2bc 5a0d 3b3e
00000200: 0eea 063e 42e8 b9bd b9a3 ca3d 4617 d13c
00000210: 11ca ca3d b373 9c3d 4f22 4bbe 84e2 bb3d
00000220: c6ff f23d 7870 c63d 3223 f03c 7eec 1e3c
00000230: 4004 ae3d 2471 c03d 4c77 863d 05e2 003e
00000240: 0e3e d93b 1de3 b2bd 6ab8 2e3e f69b f53d
00000250: 63f6 b8bd af3d 0ebd 024e 5a3d c20e 2bbd
00000260: 93a1 093d 30df 853d 5598 9bbd e3d9 983c
00000270: 31f7 083c 3da9 fcbd 2a07 8c3d accc 5a3d
00000280: e5c4 d23d 7753 af3c eb0f eabd f7ba fdbc
00000290: 0bff da3d b232 0bbe 3308 89bd 834d 0d3e
000002a0: f1e3 bbbd 4d0a 9ebd af63 883c 320e 5d3c
000002b0: 385a 9fbc c490 c4bc 6c04 1cbe c4d9 5c3c
000002c0: caf1 973d 3628 ff3d 2e7f 4cbd 8f0a d1bd
000002d0: da7b ec3c 0497 2dbd 43ad ddbd 28e2 f1bd
000002e0: de19 29bc 0c13 203e 2322 8a3d 10ac 8bbd
000002f0: 6858 e6bc c670 e93c 4a74 143e e62d d63a
00000300: 879d 97bd c7fa 4d3e 7ece 813d 1f5d 90bd
00000310: 1665 e03d b117 23be d37d d9bb 57b9 19be
00000320: 3fdd 023e 2591 86bd 90b0 d4bb 6bbc a93d
00000330: 46c8 353c dad6 b1bd 2782 12bc 2341 143d
00000340: b828 c83d bbcb 173d bd1a ccbb ebe7 413c
00000350: 243d 2a3d a697 923c 37da d43d b508 8bbc
00000360: 151b f03d 8b0b 79bc bb06 0a3c 2cea a13d
00000370: 4191 87bd 3945 ebbd 0ed7 a23d 3fec 853e
00000380: b0e9 b4bd 829b d93d fed2 443d 0676 873d
00000390: 75c3 3c3e 87d8 16be 2a2b 73bc 873d 0b3e
000003a0: 0573 533e 5150 0b3e 2c91 a03d 6146 a53d
000003b0: fd71 0a3c 0c45 8e3d 4f1b 223d f09b 81bd
000003c0: 16bd 623e 5f1b 233d 0f1b 073d f35e d2bc
000003d0: dba1 4fbe cd58 debd 05f7 803d 8528 b63d
000003e0: 4654 0bbe ecd9 4abd 3487 fbbd 9d12 633e
000003f0: e739 4a3c 4932 8a3d 35ac 5f3e 9646 0ebe

lstm.bias_ih_l1 f4 [296]
0.098497055 -0.1274298 -0.05540192 -0.14152597 0.018708056 -0.15819772 0.008013824 -0.057547133
-0.081236675 -0.049557928 -0.08376284 -0.0089531 -0.13114989 -0.11279496 0.041652426 0.061556652
-0.06860607 -0.027111003 -0.17762151 -0.042324256 -0.05145453 0.018107476 0.00496481 0.056719866
0.014707654 -0.103891745 -0.16616914 -0.08245748 -0.12926829 0.04501027 0.040937304 0.06940837
-0.21807586 0.07708329 0.10186054 0.028423676 0.023777578 -0.11368198 0.1058699 -0.06187027
-0.20056073 0.106203616 0.12569635 -0.07936839 0.0600148 0.1424956 0.023015948 0.083290815
-0.11950028 -0.0046949047 0.035640053 -0.002333931 -0.15086451 -0.080827 -0.10371636 -0.00281108
-0.22224504 -0.07977185 0.11752696 0.08180238 -0.043764375 -0.078948446 0.07845006 -0.08877704
0.108410485 -0.1827201 -0.08317245 0.057783835 -0.19348584 -0.08327042 -0.08978449 -0.039246798
-0.12710473 -0.16910246 -0.059631854 0.00074952806 0.083249405 -0.04634786 0.11581346 -0.06269874
-0.042908147 -0.07376548 0.046993166 0.04513224 -0.10102181 -0.067229845 -0.22914076 0.011703621
0.13487113 0.0006134163 -0.080328554 -0.04947349 -0.012760371 -0.18311255 -0.055390444 -0.04356911
-0.21565141 0.061059535 -0.10055358 -0.05374381 -0.12941982 -0.1594517 -0.13528898 0.025161397
-0.05848136 -0.031582687 -0.031468626 -0.054680698 0.053009328 -0.0048352154 -0.051212464 -0.09904362
0.08921035 -0.101527944 0.056931447 0.06588196 0.031958584 -0.075452454 -0.07398842 0.23741798
0.13762976 -0.055075094 -0.013869603 -0.23929627 -0.16135384 -0.108749025 -0.10809133 -0.058638178
-0.040226933 -0.089691095 -0.13517664 -0.123456776 -0.07614037 -0.00079655723 -0.16953354 -0.04487394
-0.01056385 -0.14405851 0.047528226 -0.094414584 -0.1395744 0.16127382 0.023872472 -0.06259126
-0.14971854 -0.122964755 -0.11455163 0.028036958 -0.1157465 0.028031724 0.035956275 0.07530416
-0.118407756 -0.01829422 -0.053940605 0.14711839 -0.033735838 -0.12873057 0.01883304 -0.055634573
0.10980435 -0.1110855 -0.040281504 -0.11340224 -0.09563748 -0.09669471 0.044906072 0.043110162
-0.058718774 -0.009478264 -0.07167171 -0.008997961 0.05815544 0.035145335 -0.055850696 -0.0830718
0.022487199 0.044181354 0.0082655735 -0.001963395 0.082346156 -0.08365618 0.05975813 -0.10787822
0.007782745 0.050474025 -0.040098093 -0.07225774 0.056633867 -0.059532546 0.08000192 -0.021702964
-0.086171255 -0.01845391 -0.10055982 -0.08344938 0.09259713 -0.016082777 -0.04918736 -0.113783374
-0.09018155 0.04944126 -0.053563297 0.01037399 0.09144688 -0.066664584 -0.06666206 0.047700975
-0.06098675 -0.03842356 -0.022096273 0.10576883 0.020890951 -0.024796333 0.047720063 -0.09066726
-0.029575078 0.0281651 0.09723836 -0.10441517 0.07018946 -0.06745456 -0.091218 -0.044183664
0.072393686 -0.14755444 0.07308746 -0.16764052 0.0042386334 -0.012448991 -0.033634316 -0.10708626
0.062918276 -0.17874418 -0.07047121 -0.087344564 -0.017014157 0.032826796 -0.12969528 -0.02010934
-0.21474391 0.0981936 0.02807008 0.051878985 -0.042208664 0.09163139 -0.12553471 -0.1435471
0.0057834424 0.016465776 -0.020949805 -0.048916694 0.08332237 -0.035719916 -0.24036418 -0.01727236
00000000: d3b8 c93d f57c 02be 20ed 62bd 2fec 10be
00000010: a341 993c 95fe 21be 6a4c 033c 8bb6 6bbd
00000020: 6a5f a6bd 41fd 4abd da8b abbd 06b0 12bc
00000030: 284c 06be 0b01 e7bd bc9b 2a3d d422 7c3d
00000040: 5781 8cbd e517 debc 6ae2 35be 335c 2dbd
00000050: fcc1 52bd 2156 943c d8af a23b 1753 683d
00000060: 5ff8 703c 32c5 d4bd 3e28 2abe 78df a8bd
00000070: e85e 04be b05c 383d e0ad 273d fa25 8e3d
00000080: 474f 5fbe d8dd 9d3d 429c d03d c5d8 e83c
00000090: 32c9 c23c 19d2 e8bd 51d2 d83d ae6b 7dbd
000000a0: cb5f 4dbe 4881 d93d 8bb6 003e e58b a2bd
000000b0: 14d2 753d 5eea 113e f18b bc3c 6094 aa3d
000000c0: 90bc f4bd b7d7 99bb 4efb 113d ddf4 18bb
000000d0: 3a7c 1abe a088 a5bd 3e69 d4bd 193a 38bb
000000e0: 3494 63be 6c5f a3bd fab1 f03d 0288 a73d
000000f0: 4642 33bd b9af a1bd 6daa a03d bdd0 b5bd
00000100: 5106 de3d fa1a 3bbe 5156 aabd beae 6c3d
00000110: 2721 46be af89 aabd eee0 b7bd 40c1 20bd
00000120: be27 02be 3229 2dbe 8840 74bd fa7b 443a
00000130: aa7e aa3d 41d7 3dbd 9b2f ed3d 3268 80bd
00000140: 74c0 2fbd 5b12 97bd e87b 403d 95dc 383d
00000150: 86e4 cebd cdaf 89bd e0a3 6abe 8bc0 3f3c
00000160: a81b 0a3e accd 203a 4c83 a4bd b7a4 4abd
00000170: e010 51bc db81 3bbe 17e1 62bd 8675 32bd
00000180: b9d3 5cbe 9019 7a3d 09ef cdbd 7822 5cbd
00000190: a186 04be 4e47 23be 3289 0abe 461f ce3c
000001a0: 278a 6fbd d95c 01bd 3fe5 00bd def8 5fbd
000001b0: 4f20 593d ba70 9ebb 29c4 51bd 62d7 cabd
000001c0: eab3 b63d e2ed cfbd f330 693d 1fed 863d
000001d0: 01e7 023d d186 9abd 3e87 97bd b31d 733e
000001e0: d1ee 0c3e 6c96 61bd 553d 63bc 150a 75be
000001f0: f139 25be cfb7 debd fd5e ddbd 962e 70bd
00000200: ffc4 24bd f7af b7bd bf6b 0abe e8d6 fcbd
00000210: 7bef 9bbd 0dd0 50ba 339a 2dbe bdcd 37bd
00000220: 0014 2dbc 1384 13be f5ac 423d 6f5c c1bd
00000230: 97ec 0ebe f724 253e 3490 c33c d92f 80bd
00000240: d14f 19be f2d4 fbbd 0c9a eabd c3ad e53c
00000250: 800c edbd c9a2 e53c e346 133d 1139 9a3d
00000260: c47f f2bd c3dd 95bc d3f0 5cbd 34a6 163e
00000270: 972e 0abd f2d1 03be bf47 9a3c 14e1 63bd
00000280: 1ae1 e03d cb80 e3bd 38fe 24bd 6f3f e8bd
00000290: 95dd c3bd e007 c6bd 6eef 373d 4894 303d
000002a0: 1983 70bd b84a 1bbc 9ec8 92bd 2f6c 13bc
000002b0: 6634 6e3d 8ef4 0f3d b3c3 64bd 8c21 aabd
000002c0: 1337 b83c 82f7 343d 546c 073c 4dac 00bb
000002d0: 1aa5 a83d ee53 abbd f1c4 743d 42ef dcbd
000002e0: 6606 ff3b dabd 4e3d e63d 24bd defb 93bd
000002f0: eaf8 673d 66d8 73bd 0cd8 a33d 6aca b1bc
00000300: 8e7a b0bd a72c 97bc 4ff2 cdbd 82e7 aabd
00000310: 90a3 bd3d 07c0 83bc af78 49bd 4207 e9bd
00000320: 1bb1 b8bd eb82 4a3d 3065 5bbd abf7 293c
00000330: 8048 bb3d 7187 88bd 1e86 88bd 1962 433d
00000340: 3ecd 79bd 0662 1dbd 3e03 b5bc 549d d83d
00000350: 8023 ab3c ae21 cbbc 1d76 433d c2af b9bd
00000360: 6f47 f2bc 7fba e63c e824 c73d 9fd7 d5bd
00000370: 7ebf 8f3d 9e25 8abd 81d0 babd eef9 34bd
00000380: 2443 943d 8318 17be e1ae 953d f5a9 2bbe
00000390: 3ce4 8a3b daf6 4bbc 23c4 09bd 0b50 dbbd
000003a0: 4cdb 803d b708 37be 3653 90bd b5e1 b2bd
000003b0: 4661 8bbc 6475 063d d7ce 04be 58bc a4bc
000003c0: d4e5 5bbe ba19 c93d 39f3 e53c 0f7f 543d
000003d0: fee2 2cbd 3da9 bb3d 2c8c 00be 03fe 12be
000003e0: 0883 bd3b 3ce3 863c ed9e abbc df5c 48bd
000003f0: eba4 aa3d 0c4f 12bd 0722 76be c47e 8dbc
