checkpoints/best_model.pth (torch, 314089 bytes, 9 tensors)

lstm.weight_ih_l0 f4 [296, 37]
0	0xbf19d950	-0.6009722
1	0x3d9cefdb	0.07662936
2	0xbc7da42c	-0.015481036
3	0x3e0c85ff	0.1372299
4	0xbdf37de8	-0.11889249
5	0x3dc80636	0.0976681
6	0x3d2631d8	0.04057488
7	0xbc9c4bd1	-0.01907912
8	0x3e48f94f	0.19626354
9	0xbdcb7424	-0.099342614
10	0x3a95acaa	0.0011419256
11	0x3dd89356	0.10574977
12	0x3d49b710	0.049246848
13	0xbd57b1c8	-0.05265978
14	0x3d0ed8e3	0.034874808
15	0x3cef14da	0.029184747
16	0x3e2de48a	0.16981712
17	0xbd79ded7	-0.061003532
18	0xbd9692aa	-0.07352193
19	0x3d465d28	0.048428684
20	0xbdd323b3	-0.103095435
21	0x3d2d4d2a	0.042309918
22	0x3e13bffc	0.14428705
23	0x3d8ae70d	0.06782351
24	0x3d7d9284	0.061907306
25	0xbcdeeef5	-0.027213553
26	0xbd20b740	-0.03923726
27	0x3cb1a95d	0.021687204
28	0x3d6bae76	0.057539426
29	0x3e236682	0.15957072
30	0x3d0b5a1a	0.034021474
31	0x3dcd5fe5	0.10028056
32	0xbb08f7cc	-0.0020899652
33	0x3fda1aad	1.7039391
34	0xbc88e3e4	-0.01671023
35	0xbde2f2f4	-0.11081496
36	0x3e88f112	0.26746422
37	0xbe1993c6	-0.14997777
38	0xbd505f17	-0.050871935
39	0xbc8445b5	-0.01614652
40	0xbc0cee72	-0.008601772
41	0xbdddf18d	-0.10837088
42	0xbd229be1	-0.03969944
43	0xbd7d4f06	-0.06184294
44	0x3dc30979	0.09523291
45	0xbd5a9dba	-0.053373076
46	0xbc773aa6	-0.0150896665
47	0xbb4c2975	-0.003115264
48	0x3dd79d5a	0.10528059
49	0x3d52ba40	0.051447153
50	0xbc87fda2	-0.016600434
51	0x3d805a3e	0.06267212
52	0x3cd09f11	0.025466474
53	0x3d6abf7b	0.057311516
54	0x3d85d28f	0.065343015
55	0x3d1b450a	0.037907638
56	0xbd83706e	-0.06417929
57	0xbde54c62	-0.111962095
58	0x3c14f80a	0.00909234
59	0x3de6003b	0.11230513
60	0x3d19f122	0.037583478
61	0xbd220150	-0.039552033
62	0x3d853e58	0.06506032
63	0x3dde3aec	0.10851082
64	0xbdd915df	-0.10599875
65	0x3be2dab7	0.0069230455
66	0xbdbbaade	-0.0916345
67	0xbdb5c58b	-0.08875569
68	0x3d8d0b56	0.06886928
69	0x3d26b6a4	0.040701523
70	0x3f1a4db7	0.60274833
71	0xbe548295	-0.20752938
72	0xbe0d8133	-0.13818817
73	0xbc42dc92	-0.011893408
74	0xbf3e0378	-0.7422404
75	0xbda2ee07	-0.07955556
76	0x3bb237cc	0.0054387804
77	0xbd5b3d47	-0.053525236
78	0xbd13b302	-0.036059387
79	0xbe0ca1a9	-0.13733543
80	0xbdca7b44	-0.09886792
81	0xbe54cc9b	-0.20781176
82	0xbd958076	-0.072998926
83	0xbe3c79dc	-0.1840586
84	0xbe1694c2	-0.14705184
85	0xbd14869e	-0.036261193
86	0x3c846ef3	0.016166186
87	0xbddbe47b	-0.107369386
88	0x3d84011b	0.06445523
89	0xbd887d25	-0.066644944
90	0xbdd2b069	-0.10287554
91	0xbd69523d	-0.056963194
92	0xbd9abe30	-0.07555807
93	0xbe543fed	-0.20727511
94	0xbe07f5c1	-0.13277341
95	0x3de33ebc	0.1109595
96	0xbd0b16dd	-0.03395735
97	0x3d5e5b44	0.054286256
98	0xbcfb077d	-0.03064322
99	0xbc365201	-0.01112795
100	0x3da8cc78	0.08242124
101	0xbde5b583	-0.11216261
102	0xbcf8420d	-0.030304933
103	0xbd43af37	-0.04777452
104	0x3baa969d	0.005205943
105	0x3d8d2e7b	0.06893631
106	0xbe3222b1	-0.17396046
107	0x4000abf7	2.010496
108	0xbe9f0970	-0.31061888
109	0xbeb8ef5d	-0.3612012
110	0x3e65e814	0.22451812
111	0xbf393055	-0.72339374
112	0x3cc32937	0.023823364
113	0xbbc3234e	-0.0059551364
114	0x3e194168	0.14966357
115	0xbe1079b4	-0.14108926
116	0xbdf31f1d	-0.11871169
117	0xbe5a8aa1	-0.21341945
118	0xbe0f45a2	-0.13991407
119	0x3e4b1b14	0.19834548
120	0x3bda8086	0.006668153
121	0x3d0389ff	0.032114025
122	0x3d04bf37	0.03240892
123	0x3d153474	0.036426976
124	0xbe209b9c	-0.1568436
125	0x3e11110b	0.14166658
126	0xbd290ec2	-0.04127384
127	0x3dcdabe9	0.10042555
128	0xbe169dca	-0.14708629
129	0xbe31ecd5	-0.173755
130	0xbe0375aa	-0.12837854
131	0xbdbed057	-0.093170814
132	0xbd4b2f56	-0.04960569
133	0xbd84d3af	-0.06485688
134	0xbc710852	-0.014711456
135	0xbc60a475	-0.013711085
136	0xbdbdb8b5	-0.09263746
137	0xbdc18221	-0.09448648
138	0xbdeb9d71	-0.11504639
139	0xbd8a26da	-0.067456916
140	0xbdabfe83	-0.08398154
141	0x3dbf35f6	0.09336464
142	0x3ca6dd64	0.02036924
143	0xbcd536a1	-0.026027026
144	0x3fe3f721	1.7809793
145	0xbf095606	-0.53646886
146	0xbe98786f	-0.29779384
147	0x3ea2f6d6	0.31828946
148	0xbdeaa0ab	-0.11456426
149	0x3c90a8ec	0.017658673
150	0x3dd9b29f	0.106297724
151	0xbd4e944e	-0.050434403
152	0x3c7d5bac	0.015463751
153	0x3c6df337	0.014523319
154	0xbd941076	-0.07229702
155	0xbd10ffbb	-0.035400134
156	0xbd97103f	-0.073761456
157	0xbc91165f	-0.017710863
158	0xbcfe7365	-0.031060884
159	0xbcfc6fce	-0.030815031
160	0x3de1484d	0.110001184
161	0xbdd8958e	-0.105754
162	0x3b8e9e21	0.0043523465
163	0xbde88ff7	-0.11355584
164	0xbdb5abca	-0.08870657
165	0x3d09a28b	0.03360228
166	0x3dca05db	0.09864398
167	0xbc9007ec	-0.017581902
168	0x3dbc5208	0.09195334
169	0x3ce0f9c2	0.027462844
170	0xbda1a3f6	-0.07892601
171	0x3b4bf7a6	0.0031122952
172	0xbdd97925	-0.106188096
173	0xbd8cd15e	-0.06875871
174	0xbdd82871	-0.105545886
175	0xbdeafed6	-0.11474387
176	0x3dc28b2a	0.094992
177	0xbde2e70b	-0.11079224
178	0xbd02291f	-0.031777497
179	0x3d3965d5	0.04526313
180	0xbd33dcb4	-0.04391165
181	0x3d66cc0a	0.05634693
182	0x3b60be3e	0.003429308
183	0x3d4c4cbe	0.049877875
184	0x3db92059	0.09039373
185	0x3d586500	0.052830696
186	0x3da48729	0.08033592
187	0x3da3c099	0.079957195
188	0x3da1ca18	0.078998744
189	0xbd5adb4b	-0.05343179
190	0x3cd21755	0.025645891
191	0x3bcaec54	0.0061927233
192	0xbc8db27d	-0.017297024
193	0xbc054201	-0.008133412
194	0x3bebb0be	0.0071927
195	0xbc1758cb	-0.0092374785
196	0x3cd83347	0.026391638
197	0xbceb66cc	-0.02873554
198	0x3d94aacb	0.07259139
199	0xbc8c35bd	-0.017115468
200	0xbd995f19	-0.074888416
201	0xbc9cfe0b	-0.019164106
202	0xbd0a2c77	-0.03373381
203	0xbdaebe90	-0.08532441
204	0x3bc760a6	0.0060845194
205	0x3c8a305f	0.016868768
206	0xbda2e726	-0.07954244
207	0xbddf7886	-0.1091166
208	0x3de7b749	0.11314256
209	0x3be050e1	0.006845579
210	0xbdc87c8f	-0.09789383
211	0xbc898eb7	-0.016791685
212	0x3da8dbaf	0.08245026
213	0x3db9a418	0.090645015
214	0x3cb0bdc2	0.021574859
215	0x3dd5cfdf	0.10440039
216	0x3cd06743	0.025439864
217	0x3d865e2c	0.065609306
218	0xbd815ea6	-0.06316881
219	0xbdda6058	-0.10662907
220	0x3c85afa1	0.016319098
221	0xbd91b298	-0.07114142
222	0xbf0e536b	-0.55596036
223	0x3d952f48	0.07284409
224	0xbd112bf2	-0.0354423
225	0x3dacbf85	0.08434967
226	0x3d657d69	0.056027804
227	0x3ca7633c	0.02043306
228	0xbe103d97	-0.14085995
229	0xbde3f9bd	-0.11131618
230	0xbc6d8d01	-0.01449895
231	0x3c0899e2	0.00833747
232	0xbd8ba0f6	-0.0681781
233	0x3d346fea	0.044052042
234	0xbcfc5c68	-0.030805781
235	0xbdf66040	-0.12030077
236	0x3d84db0d	0.06487093
237	0x3cf00ee2	0.029303972
238	0x3cca27c6	0.024677169
239	0xbc83e900	-0.016102314
240	0xbdd9a0a9	-0.106263466
241	0xbe413c2b	-0.18870609
242	0xbd5d8701	-0.054083828
243	0xbe18ae3f	-0.1491022
244	0xbdfe905e	-0.124298796
245	0x3baa4019	0.0051956293
246	0x3d4bf411	0.049793307
247	0xbd54d668	-0.051962286
248	0xbd4f0206	-0.05053904
249	0x3cd82786	0.026386034
250	0x3d61315b	0.05497871
251	0xbe30c2c6	-0.172618
252	0x3df13ce4	0.11779192
253	0x3de21cf1	0.110406764
254	0xbd5f0c21	-0.054454926
255	0x3fd63157	1.6733807

lstm.weight_hh_l0 f4 [296, 74]
0	0x3e047796	0.12936243
1	0x3d00081d	0.031257737
2	0xbbc561ca	-0.0060236203
3	0x3b258c8a	0.002526077
4	0xbdbb0d50	-0.091333985
5	0x3ca19b63	0.019727414
6	0x3d54c8c9	0.051949296
7	0x3dd28f22	0.10281207
8	0x3b5f023a	0.0034028427
9	0xbcb93557	-0.022608442
10	0x3d212da2	0.03935016
11	0xbdf8976e	-0.12138258
12	0x3d39c0d4	0.04534991
13	0x3cde1684	0.027110346
14	0xbd6ee57a	-0.058324315
15	0xbc83a407	-0.016069425
16	0x3d354132	0.04425163
17	0x3c0e09fc	0.008669373
18	0xbd1b7302	-0.037951477
19	0x3d578f1c	0.052626714
20	0x3d1a946d	0.037739206
21	0x3db98e19	0.09060306
22	0xbd624217	-0.05523881
23	0xbdd22611	-0.10261167
24	0xbdac1f98	-0.084044635
25	0xbaa5e7b4	-0.0012657554
26	0xbbff1f6e	-0.007785729
27	0xbca5ee17	-0.020255132
28	0x3d7c6f6a	0.06162969
29	0xbdcb80ac	-0.099366516
30	0xbcd7dbc6	-0.026349913
31	0xbdba28d0	-0.090898156
32	0xbb19848d	-0.0023424954
33	0xbc9ca799	-0.019122886
34	0xbd23607a	-0.03988693
35	0x3d96e0fa	0.073671296
36	0xbd2059be	-0.039148085
37	0x3e02e2f8	0.12781894
38	0x3dd313ce	0.10306512
39	0xbdc5d41e	-0.09659599
40	0x3d61a7cf	0.055091675
41	0x3f03e971	0.5152808
42	0xbdc384cd	-0.09546814
43	0x3da5ca62	0.08095242
44	0xbd0d410c	-0.03448586
45	0x3dc41cc3	0.09575798
46	0x3d431b19	0.047633264
47	0xbcdb1e3d	-0.026747817
48	0x3dc9f5a4	0.09861305
49	0xbcfb6c56	-0.030691307
50	0xbdd2462a	-0.10267289
51	0xbca3676e	-0.01994678
52	0xbc94fd9b	-0.018187335
53	0xbd977faa	-0.07397397
54	0xbc6b6283	-0.014366749
55	0x3c904629	0.01761158
56	0xbccf9e2b	-0.025343975
57	0x3cdf4544	0.027254708
58	0x3d55d07f	0.05220079
59	0x3bd568ce	0.006512738
60	0xbd1fd08e	-0.039017253
61	0x3e33c936	0.17557225
62	0x3e072c8e	0.1320059
63	0xbdb102fe	-0.08643149
64	0xbd4fb27b	-0.05070732
65	0xbe1acdcf	-0.15117572
66	0xbdc3b6ba	-0.09556337
67	0x3d911dcd	0.07085762
68	0x3d787429	0.060657654
69	0xbd9b9013	-0.07595839
70	0x3dc5082e	0.09620701
71	0xbc6c791a	-0.01443317
72	0x3bb2ffe1	0.005462632
73	0xbd3a8df5	-0.045545537
74	0x3d1fb50b	0.038991015
75	0x3cef48ce	0.02920952
76	0x3d758020	0.059936643
77	0xbd15490f	-0.036446627
78	0x3b2ea5f3	0.0026649206
79	0xbdbcc723	-0.0921767
80	0x3d9ee3bc	0.07758281
81	0xbdc6fa25	-0.0971568
82	0x3d1b2fce	0.037887387
83	0x3d8b14bc	0.06791064
84	0x3dc4d3ba	0.09610696
85	0x3d7de0f0	0.061982095
86	0xbd95381a	-0.07286091
87	0xbd96d48d	-0.073647596
88	0xbc80b4e8	-0.015711263
89	0x3dd8590b	0.105638586
90	0xbd4c6d04	-0.049908653
91	0x3d91509d	0.07095454
92	0xbc38a660	-0.011270136
93	0xbdcb3a8a	-0.09923275
94	0xbd9cfc70	-0.07665336
95	0x3d5f8eb1	0.05457944
96	0x3c72ad1a	0.014811778
97	0x3be0b296	0.0068572266
98	0x3d16113e	0.036637537
99	0x3c0bb27d	0.008526442
100	0xba477840	-0.0007609166
101	0x3d4d1944	0.050072923
102	0xbdae10c8	-0.084992945
103	0xbd8e47be	-0.069472775
104	0xbd907671	-0.07053841
105	0xbb70abb0	-0.0036723427
106	0xbd04631a	-0.032321073
107	0x3ba2f6a4	0.0049732495
108	0x3dafa61b	0.08576604
109	0x3d41e835	0.04734059
110	0xbd1e0f3d	-0.03858875
111	0x3dc38dcf	0.09548532
112	0xbd34da78	-0.04415366
113	0x3d948705	0.072523154
114	0xbd911bc6	-0.070853755
115	0x3e197f05	0.1498986
116	0x3cf86e7f	0.030326126
117	0x3d9788d2	0.07399143
118	0xbdc22b39	-0.094809
119	0x3cf28af4	0.029607274
120	0x3d449cc0	0.04800105
121	0xbd600edd	-0.054701675
122	0x37c67a36	2.3660348e-05
123	0xbc59a7fe	-0.013284681
124	0x3d02ec47	0.031963613
125	0x3d7373a9	0.059436474
126	0xbd7fd6cb	-0.062460702
127	0x3da7b2d1	0.081884034
128	0xba311112	-0.0006754558
129	0x3cf8e652	0.030383263
130	0x3dccb4ba	0.09995408
131	0xbd8e3f5e	-0.0694568
132	0xbd2814fd	-0.04103564
133	0x3d228394	0.039676264
134	0xbdb1a1ae	-0.08673416
135	0xbd86290e	-0.06550799
136	0x3e08f5fa	0.13375083
137	0xbb80c182	-0.003929318
138	0x3d40e28a	0.047091044
139	0xbdff5018	-0.124664485
140	0x3d14de2d	0.036344696
141	0x3c9d1418	0.01917462
142	0xbc8c6e53	-0.01714245
143	0x3da63cda	0.08117075
144	0xbda7fdf0	-0.082027316
145	0xbd2adaf7	-0.041712727
146	0x3d7b8664	0.06140746
147	0x3cbc5ba2	0.022992913
148	0x3e5af3df	0.21382092
149	0xbda18f40	-0.07888651
150	0xbd9cc60d	-0.07654963
151	0xbd012c06	-0.031536125
152	0x3d129a91	0.035791937
153	0xbdcb7e39	-0.099361844
154	0xbc82e8da	-0.015980173
155	0x3c371430	0.011174247
156	0x3de4752c	0.11155161
157	0xbd930204	-0.07178119
158	0x3cbafa34	0.022824384
159	0xbd02c0d7	-0.031922188
160	0x3d3b9949	0.04580048
161	0x3d594b63	0.05305041
162	0xbd19a0b1	-0.037506763
163	0x39319da4	0.00016938761
164	0x3d70b8f4	0.058770135
165	0xbd03d481	-0.03218508
166	0x3e04ee05	0.12981422
167	0x3d31706d	0.04332011
168	0xbc571852	-0.013128357
169	0x3c8a5bd6	0.016889494
170	0xbd32af17	-0.04362401
171	0xbd8e7e06	-0.06957631
172	0xbdb675c9	-0.089091845
173	0xbdd4bb7d	-0.10387323
174	0xbd49bd5a	-0.049252845
175	0x3d641a2e	0.05568903
176	0x3e1c4490	0.1526053
177	0xbd97ce33	-0.07412376
178	0x3de67590	0.11252892
179	0xbdb82077	-0.08990567
180	0xbde50029	-0.11181671
181	0xbdd11bc5	-0.10210375
182	0x3d2ed340	0.042681932
183	0xbd6e7aaa	-0.05822245
184	0xbe3f9c6b	-0.18712012
185	0x3e749b1c	0.23887295
186	0x3d87c245	0.06628851
187	0x3d865b33	0.065603636
188	0xbc95c877	-0.018284066
189	0x3f1b0e3e	0.60568607
190	0xbd92af83	-0.071623825
191	0xbdac9c96	-0.08428304
192	0x3aacbfe8	0.0013179751
193	0x3c9d9690	0.019236833
194	0x3dbf7985	0.0934935
195	0x3d9a6510	0.075388074
196	0x3e18ff43	0.14941125
197	0xbd36f142	-0.044663675
198	0x3d9c5e01	0.07635117
199	0x3df1883d	0.117935635
200	0x3dde205b	0.10846015
201	0xbe01da41	-0.12680914
202	0x3c2126d8	0.009835921
203	0xbcd13bf2	-0.02554128
204	0xbdae3562	-0.08506276
205	0x3dfbc0bf	0.12292623
206	0xbcb568ab	-0.022144636
207	0xbdd70fb2	-0.105010405
208	0xbd92bbed	-0.0716475
209	0xbbf399e4	-0.0074341167
210	0x3da4a666	0.080395505
211	0xbc3207ff	-0.010866164
212	0xbdbab7e9	-0.09117109
213	0xbe191374	-0.14948827
214	0xbe206450	-0.15663266
215	0xba22985d	-0.00062025135
216	0xbbdce09d	-0.006740643
217	0xbe3260b5	-0.17419703
218	0x3d32ef68	0.043685347
219	0x3d4cd46d	0.050007273
220	0xbe414ae0	-0.18876219
221	0xbdbc40e6	-0.09192066
222	0x3ed44052	0.41455323
223	0x3e04611a	0.12927666
224	0xbe3a6444	-0.18202311
225	0xbe0fc851	-0.14041258
226	0xbafcdaf4	-0.0019291327
227	0xbd77a517	-0.060460176
228	0xbe60f6d9	-0.21969165
229	0x3d43fff9	0.047851536
230	0x3bd02c49	0.0063529355
231	0x3ccd7c33	0.025083637
232	0x3d6004cc	0.054692075
233	0xbe9f827c	-0.3115424
234	0x3ddac031	0.10681189
235	0x3c04d48d	0.008107317
236	0xbd99571a	-0.074873164
237	0x3d262f21	0.04057229
238	0x3d9dd8b0	0.077073455
239	0xbc47dea6	-0.01219908
240	0x3e664a55	0.22489293
241	0x3d888269	0.06665499
242	0x3e1c28e4	0.15249974
243	0x3e92a1d6	0.28639096
244	0xbcf18c08	-0.029485717
245	0xbb68957a	-0.0035489486
246	0x3d9d7a08	0.07689291
247	0xbe5adb5b	-0.2137274
248	0xbdeba5f3	-0.11506262
249	0x3c45fa86	0.012083655
250	0x3e047b1a	0.12937585
251	0x3c2677a7	0.010160363
252	0xbdc1641b	-0.09442922
253	0xbd2323cf	-0.03982907
254	0xbe2e99de	-0.17050883
255	0xbea574d2	-0.3231569

lstm.bias_ih_l0 f4 [296]
0	0x3da52d96	0.080653355
1	0x3dac592d	0.084154464
2	0xbe1321aa	-0.1436831
3	0xbe162d65	-0.14665754
4	0x3d22b182	0.039720066
5	0xbabe36d7	-0.0014512193
6	0x3cb286c7	0.021792782
7	0x3da4b962	0.080431715
8	0x3c944357	0.018098516
9	0xbd9fb875	-0.07798854
10	0x3dfa72eb	0.1222895
11	0xbde6dc29	-0.11272461
12	0xbd5618ce	-0.05226975
13	0xbd80a9ee	-0.062824115
14	0xbd8d19aa	-0.06889661
15	0x3cda6586	0.026659738
16	0x3ce5c8f6	0.028049927
17	0x3d52c67b	0.051458817
18	0x3d246857	0.04013857
19	0x3d6b4e7c	0.057447895
20	0xbd4e742d	-0.050403763
21	0xbde55a88	-0.11198908
22	0xbe04f923	-0.12985663
23	0xbd2447c2	-0.040107496
24	0x3d92e253	0.07172074
25	0xbd87113d	-0.06595085
26	0xbc35133b	-0.011051948
27	0x3dd81a47	0.10551887
28	0xbcbf7775	-0.023372391
29	0x3d805e4f	0.06267988
30	0x3de521b1	0.11188067
31	0xbe011650	-0.12606168
32	0xbdae2526	-0.08503179
33	0xbddc8a8b	-0.107686125
34	0xbde50f65	-0.11184577
35	0xbcc95f76	-0.024581652
36	0xbd5a648a	-0.053318538
37	0xbcbfc325	-0.023408482
38	0x3d536fde	0.051620357
39	0x3de038af	0.109483115
40	0xbd634581	-0.055486206
41	0x3e054712	0.13015392
42	0x3d0cf12d	0.03440969
43	0xbdb3c92d	-0.087786056
44	0x3da04298	0.07825202
45	0x3c5bfd2a	0.013427058
46	0xbc03fe5a	-0.008056248
47	0xbd704536	-0.058659755
48	0xbd566646	-0.05234363
49	0x3d0bf499	0.034168813
50	0x3c5fb59b	0.013654138
51	0x3d7f9f52	0.0624078
52	0xbcc05ddd	-0.023482258
53	0x3d133ce0	0.035946727
54	0xbc521829	-0.012823143
55	0x3da96441	0.08271075
56	0x3cb8c91b	0.022556832
57	0xbdd63ab2	-0.10460414
58	0x3d709430	0.058735073
59	0x3d23aebd	0.039961565
60	0xbd36fd5a	-0.04467521
61	0xbd64e662	-0.055883773
62	0xbc9866f1	-0.018603774
63	0x3dbe3344	0.09287122
64	0x3d975adb	0.07390376
65	0x3d6851f3	0.056718778
66	0xbdec4447	-0.1153646
67	0xbd90e3c8	-0.07074696
68	0x3a2478e6	0.0006274119
69	0xbd4a6b9f	-0.04941904
70	0xbc89fa29	-0.016842918
71	0xbde5fc56	-0.1122977
72	0xbdbf432f	-0.09338986
73	0x3cb611fc	0.022225372
74	0x3df04f19	0.11733837
75	0x3d140ab1	0.03614301
76	0xbc971b73	-0.018445706
77	0x3cef1682	0.029185537
78	0x3dbebcb4	0.09313336
79	0xbd13be8a	-0.036070384
80	0x3ccee660	0.025256336
81	0x3d211a37	0.03933164
82	0xbd00877c	-0.031379208
83	0xbd94aa74	-0.07259074
84	0xbccdcbb3	-0.025121545
85	0xbd7e6a88	-0.062113315
86	0xbdd06f8c	-0.10177526
87	0xbe024586	-0.12721834
88	0xbdd4c31b	-0.10388776
89	0x3df69f17	0.12042063
90	0x3dea9e3a	0.114559606
91	0x3ddb92fc	0.107213944
92	0xbda45674	-0.08024302
93	0xbcdf99f4	-0.02729509
94	0xbbfa660e	-0.0076415604
95	0x3cf56acb	0.02995815
96	0xbcbd10c6	-0.023079287
97	0x3d59da41	0.05318666
98	0x3d908257	0.0705611
99	0xbbf68634	-0.0075233225
100	0x3c346e4d	0.011012626
101	0x3d20441e	0.03912746
102	0x3d8cb794	0.06870952
103	0x3d8df024	0.06930569
104	0x3d3d633f	0.046237227
105	0xbd09a695	-0.03360613
106	0x3c807178	0.015679106
107	0xbd7ce5c9	-0.061742578
108	0x3da8a325	0.08234242
109	0xbdc2c8b9	-0.09510941
110	0x3a67d1b8	0.0008843201
111	0xbd04bb70	-0.032405317
112	0xbdea4b94	-0.11440197
113	0xbc563cf0	-0.013076052
114	0xbd25a39c	-0.040439233
115	0xbdcbc984	-0.099505454
116	0x3ddf5e7f	0.109066956
117	0xbdba98e9	-0.091111965
118	0xbb2df31c	-0.002654261
119	0x3ba5e939	0.0050632027
120	0xbc7710a2	-0.015079649
121	0x3dd03946	0.10167174
122	0x3c9c20af	0.019058554
123	0x3d1e3604	0.038625732
124	0x3da30552	0.07959999
125	0x3cc23757	0.023708029
126	0xbdc7cefb	-0.09756275
127	0x3d5f905f	0.054581042
128	0x3d5eab59	0.05436263
129	0xbd300cac	-0.042980835
130	0xbd22395b	-0.03960548
131	0x3d90a372	0.07062425
132	0x3d83ea0d	0.06441126
133	0x3d86c1c4	0.065799266
134	0xbddc0007	-0.10742193
135	0x3d3daed5	0.04630931
136	0x3dbad64a	0.09122904
137	0xbdb66a2b	-0.08906969
138	0xbda3db3e	-0.080008015
139	0x3d3f4c44	0.046703592
140	0xbc6f8aa9	-0.0146204615
141	0xbd2dfc18	-0.042476743
142	0x3db491ae	0.08816849
143	0xbe070556	-0.13185629
144	0x3db55d9e	0.08855747
145	0x3d5725b5	0.052526195
146	0x3d8dcea3	0.069241785
147	0xbc34cc5a	-0.011035049
148	0x3d89e8f5	0.06733886
149	0x3cc07c23	0.023496693
150	0xbdc5a292	-0.096501485
151	0x3d93bee7	0.07214146
152	0x3dd8078c	0.105483145
153	0xbbc3b197	-0.005972098
154	0x3dc282af	0.09497582
155	0xbd2e7684	-0.042593494
156	0x3de64966	0.112444684
157	0x3c8bbc82	0.017057661
158	0x3cfb0a39	0.030644523
159	0xbc4b15ad	-0.012395305
160	0xbd881e8b	-0.066464506
161	0xbd8558be	-0.06511067
162	0x3d8bb8d6	0.06822364
163	0xbda31e49	-0.07964761
164	0x3dd73c72	0.10509576
165	0x3d73c026	0.05950942
166	0xbca2cdc4	-0.019873507
167	0xbd3dac91	-0.04630715
168	0xbd2c050c	-0.041997
169	0x3ca911ee	0.020638432
170	0x3dddbd4d	0.10827122
171	0x3dea7588	0.114481986
172	0x3d1e40c3	0.03863598
173	0x3da0f0d4	0.07858434
174	0xbd2103f2	-0.039310403
175	0xbdcd5a6c	-0.10027012
176	0xbbd5d032	-0.006525063
177	0x3d037987	0.03209832
178	0x3a81cb13	0.000990244
179	0xbd365c06	-0.044521354
180	0xbdb34f4d	-0.0875536
181	0xbdd3f6cf	-0.103498094
182	0xbc9b11ed	-0.018929446
183	0x3d98f924	0.07469395
184	0xbc71d64c	-0.014760565
185	0x3cb11b16	0.02161936
186	0xbdeafe6a	-0.11474307
187	0x3cfc9aac	0.030835472
188	0xbd8e1079	-0.06936736
189	0xbcf540f0	-0.029938191
190	0xbab31c3a	-0.0013665028
191	0xbdde8943	-0.10866024
192	0xbc70a0ba	-0.014686758
193	0x3dec92f4	0.115514666
194	0xbd108ec9	-0.03529242
195	0xbc5da691	-0.013528482
196	0xbc8e5e7e	-0.017379042
197	0x3dd567c5	0.10420183
198	0xbdb2dac1	-0.0873313
199	0x3b9e9565	0.0048395866
200	0x3d3f8ed6	0.04676708
201	0xbd33db41	-0.04391027
202	0xbc8186a7	-0.015811278
203	0xbd2fd34d	-0.04292612
204	0x3de5a9b9	0.11214013
205	0x3db34fa4	0.087554246
206	0xbd0abb0c	-0.033869788
207	0x3cedc253	0.029023325
208	0xbd2025c2	-0.03909851
209	0xbde88d21	-0.11355043
210	0xbc2c96d2	-0.010534005
211	0xbd5a8438	-0.05334875
212	0xbce528a2	-0.027973477
213	0x3de1cf5b	0.11025878
214	0xbd5004b7	-0.050785746
215	0xbd4fa813	-0.050697397
216	0x3da34138	0.07971424
217	0x3dbf9a3c	0.0935559
218	0xbc8288b1	-0.01593432
219	0x3dcec30d	0.10095797
220	0x3de08080	0.109620094
221	0xbdc099d5	-0.09404341
222	0xbc26dad5	-0.01018401
223	0xbccfd95f	-0.025372205
224	0x3cbf561c	0.02335649
225	0x3d4dfed8	0.050291866
226	0xbd55c0a4	-0.05218567
227	0xbba74f9a	-0.005105925
228	0xbd1433ed	-0.036182333
229	0x3c871adc	0.0164923
230	0xbc2662f0	-0.0101554245
231	0x3dcee85e	0.10102914
232	0x3c8f0e65	0.017462919
233	0x3da1bdcc	0.07897529
234	0x3be28a58	0.0069134645
235	0x3c8f7940	0.017513871
236	0x3da3b2ec	0.07993111
237	0x3c1b7a0b	0.0094895465
238	0x3de91f5e	0.11382936
239	0xbd299b0f	-0.04140764
240	0x3cf4c7a0	0.029880345
241	0xbc373f83	-0.011184576
242	0xbdf6a687	-0.12043481
243	0x3ca3b15c	0.019982032
244	0x3cec16a8	0.028819397
245	0x3da94e8e	0.08266936
246	0x3cdfe0dd	0.027328903
247	0xbdb8e192	-0.09027399
248	0xbcdebc57	-0.027189417
249	0x3ccc21d2	0.02491847
250	0x3df7b053	0.12094178
251	0x3d918781	0.071059234
252	0x3d07531a	0.033038236
253	0x3cdb8ad1	0.026799591
254	0xbe1e695e	-0.15469882
255	0x3d101141	0.035172705

lstm.bias_hh_l0 f4 [296]
0	0x3d8cd58c	0.06876668
1	0x3d894964	0.06703451
2	0xbcbeed1c	-0.023306422
3	0x3d82568a	0.06364162
4	0xbd570e49	-0.052503858
5	0xbd7e635e	-0.062106483
6	0xbdec9827	-0.11552458
7	0x3dcbe791	0.09956277
8	0x3ce23110	0.027611285
9	0x3d04d817	0.03243264
10	0x3dd1e25c	0.10248253
11	0xbc9accfc	-0.018896572
12	0xbdd5850a	-0.10425766
13	0xbd552272	-0.052034803
14	0x3deaa24c	0.11456737
15	0x3dab6deb	0.083705746
16	0x3adb8a42	0.0016749578
17	0xbda59037	-0.080841474
18	0xbe29b3d7	-0.1657251
19	0xbdc2fc47	-0.09520774
20	0xbdc1967a	-0.09452529
21	0xbc56400e	-0.013076795
22	0x3cb7e9bc	0.02245032
23	0xbdc579d1	-0.09642375
24	0x3bc1fc99	0.0059200046
25	0x3da2012c	0.0791038
26	0x3cb696c5	0.02228869
27	0x3d32fb9a	0.043696977
28	0xbdf07c79	-0.11742491
29	0x3d75d78a	0.060020007
30	0x3d7aa1d0	0.061189473
31	0x3cdfe842	0.027332429
32	0x3d629fb5	0.05532809
33	0x3d5e3833	0.054252815
34	0xbde5f888	-0.11229044
35	0x3c8bbf02	0.017058853
36	0xbd1682f1	-0.03674597
37	0x3c427a49	0.011869975
38	0x3d41a795	0.04727896
39	0x3d4cc3b3	0.04999132
40	0xbd97e97f	-0.07417583
41	0x3e2497d9	0.1607355
42	0xbd6f6ceb	-0.05845348
43	0xbcd4cb8f	-0.02597597
44	0xbc42dcae	-0.011893434
45	0xbde548a9	-0.111954994
46	0xbcededdc	-0.029044084
47	0x3d1e762e	0.038686924
48	0xbd2744b1	-0.040836994
49	0x3d825311	0.063635
50	0x3dad6b5a	0.08467741
51	0x3dd9ee6a	0.10641177
52	0xbc908307	-0.017640604
53	0x3d0f127b	0.034929734
54	0x3d71190e	0.058861785
55	0xbe08cb18	-0.13358724
56	0xbd901f6a	-0.07037242
57	0xbdfc9dfb	-0.1233482
58	0x3d4e6057	0.050384846
59	0x3ba07430	0.004896663
60	0xbdd57425	-0.104225434
61	0xbd9e0d3a	-0.077173665
62	0x3d9e8252	0.077397004
63	0x3dc0cb33	0.09413757
64	0x3d5a8dab	0.05335776
65	0xbdb50a7f	-0.088398926
66	0xbd973ead	-0.07385001
67	0x3e0338d8	0.12814653
68	0x3d849ef7	0.06475633
69	0x3d86056d	0.06544004
70	0x3b81ad37	0.0039574164
71	0xbdc4092d	-0.09572063
72	0x3d8a1e86	0.06744103
73	0x3ae48688	0.0017435113
74	0x3dc0d66c	0.09415898
75	0x3de89940	0.11357355
76	0xbd595365	-0.053058047
77	0xbc2ebe8f	-0.01066555
78	0xbd8ad63e	-0.06779145
79	0x3c54fd74	0.012999881
80	0x3d004b28	0.031321675
81	0x3d9818e5	0.07426623
82	0x3d92e0cc	0.07171783
83	0xbda2b675	-0.07944957
84	0xbdbaf5c8	-0.0912891
85	0xba57e2d3	-0.00082353986
86	0x3d142e7e	0.03617715
87	0xbd08be0a	-0.03338436
88	0x3cbf2436	0.023332696
89	0xbdb6ef5f	-0.08932375
90	0x3c36afb4	0.011150289
91	0xbbf95937	-0.007609512
92	0x3d3f2cf0	0.046673715
93	0xbd86a72f	-0.065748565
94	0xbd68101d	-0.05665599
95	0x3dbc0b7e	0.091818795
96	0x3d7451fa	0.05964849
97	0x3d0a5643	0.03377367
98	0x3d811e2a	0.063045815
99	0xbdee7484	-0.11643317
100	0x3dc3b90e	0.09556781
101	0xbce8577b	-0.028362026
102	0x3d5bbd2c	0.053647205
103	0x3de0433e	0.109503254
104	0xbd1507a1	-0.03638423
105	0xbd708b21	-0.058726434
106	0xbdb38790	-0.08766091
107	0xbcaafb82	-0.020871881
108	0xbd97f80c	-0.07420358
109	0xbd8cfb5e	-0.06883882
110	0x3d15654c	0.036473557
111	0xbdbf6e2f	-0.09347188
112	0xbd40d91f	-0.047082063
113	0x3c0ef9e8	0.0087265745
114	0xbdd98bbd	-0.10622356
115	0x3bcef613	0.0063159554
116	0x3d80ae25	0.062832154
117	0xbb245308	-0.0025073905
118	0x3a540e77	0.00080893136
119	0x3d194108	0.037415534
120	0xbdd08d5a	-0.10183211
121	0x3c980c9d	0.018560702
122	0x3d579ce3	0.052639853
123	0xbd40388f	-0.04692894
124	0xbcc6c3ef	-0.02426335
125	0x3dc7cf8a	0.09756382
126	0xbcff7768	-0.031184867
127	0x3dba14c5	0.09085993
128	0xbb55284d	-0.0032525242
129	0x3d07d731	0.033164207
130	0x3ccc00e0	0.024902761
131	0xbdb2d65c	-0.08732292
132	0xbd662f8b	-0.056197684
133	0x3d91bc56	0.07116
134	0xbcb5970e	-0.022166755
135	0xbcef042c	-0.029176794
136	0x3da5c7e7	0.08094769
137	0x3d53f807	0.05175021
138	0xbd6bcdf2	-0.05756945
139	0x3c31b710	0.010846868
140	0xbdbf95c6	-0.09354739
141	0xbdb100da	-0.086427405
142	0xbd978476	-0.07398312
143	0xbd3aa8c4	-0.045571104
144	0xbcef0a9d	-0.029179865
145	0xbd6f71f3	-0.05845828
146	0x3a64b96c	0.000872514
147	0xbdee3aff	-0.11632346
148	0x3d8d8652	0.06910385
149	0xbd5c0c0a	-0.05372242
150	0xbe030575	-0.1279505
151	0x3cdc74a9	0.026911097
152	0xbd04b5b0	-0.032399833
153	0xbdc55c4c	-0.09636745
154	0xbde59a3b	-0.11211058
155	0xbd87eb74	-0.06636706
156	0xbd76d5b4	-0.060262397
157	0x3dcf8034	0.10131875
158	0xbd3a3eb8	-0.04546997
159	0xbdb5de69	-0.08880312
160	0x3da6f069	0.08151323
161	0x3c908f4b	0.017646452
162	0x3db62248	0.088932574
163	0xbdb5f092	-0.08883776
164	0x3de78488	0.11304575
165	0xba2a1881	-0.0006488637
166	0xbda4b805	-0.080429114
167	0xbda72952	-0.08162178
168	0xbd86e810	-0.06587231
169	0xbd9109c6	-0.07081942
170	0x3d8aebb4	0.06783238
171	0xbdd1177b	-0.10209557
172	0xbc70fd2b	-0.014708797
173	0x3dbafd7a	0.09130378
174	0x3d9348bb	0.071916066
175	0xbcfde566	-0.030993175
176	0xbd2b2d9d	-0.041791547
177	0x3d88cee4	0.06680086
178	0x3c901493	0.017587936
179	0x3d924acc	0.071431726
180	0xbc5071ad	-0.012722415
181	0xbe073089	-0.13202108
182	0xbde53cec	-0.111932606
183	0xbc53b211	-0.012920872
184	0x3d8537bd	0.06504772
185	0x3dd2e58f	0.10297691
186	0xbd31ba4f	-0.04339057
187	0x3d8dd95d	0.069262244
188	0x3b9a42f7	0.00470769
189	0xbdbe0806	-0.09278874
190	0x3d87dccb	0.0663391
191	0x3cd4bc5d	0.025968725
192	0x3d5946b8	0.05304596
193	0x3c2429fa	0.010019774
194	0xbce36267	-0.027756883
195	0x3deadb2f	0.11467587
196	0x3c278800	0.010225296
197	0x3e04a3a2	0.12953046
198	0x3cdbdd2a	0.026838858
199	0x3d8df47d	0.06931398
200	0xbd92f048	-0.07174736
201	0xbdac6e02	-0.0841942
202	0xbcf9344c	-0.030420445
203	0xbb853840	-0.0040655434
204	0xbdb42923	-0.08796909
205	0x3c5e16dc	0.013555255
206	0x3cdbfeb2	0.026854847
207	0x3d2e58c8	0.042565137
208	0x3d9bbf6d	0.07604871
209	0xbe15806c	-0.1459977
210	0xbd8539ae	-0.06505142
211	0x3d09b9b9	0.033624385
212	0x3dae6d9e	0.085170016
213	0x3c7eb4fd	0.015546081
214	0xbdb5a1b0	-0.0886873
215	0xbd92f413	-0.0717546
216	0xbd9c2827	-0.07624846
217	0x3d5f2a55	0.05448373
218	0xbd3c7c19	-0.046016786
219	0xbc94aade	-0.018147882
220	0xbd32d38f	-0.04365879
221	0xbd6e09ac	-0.058114693
222	0x3cdd870d	0.027041936
223	0x3c9f5290	0.019448549
224	0xbdee4851	-0.11634887
225	0x3d0d8bd6	0.034557186
226	0xbdc829b3	-0.097735785
227	0xbdc7d1ff	-0.097568505
228	0x3c9e7804	0.019344337
229	0x3dcc980a	0.09989937
230	0x3dc2470c	0.09486207
231	0xbd2d6390	-0.04233128
232	0xbaf4a6e9	-0.0018665466
233	0xbdca1595	-0.09867398
234	0xbd9a57df	-0.07536291
235	0x3bb3a7a2	0.00548263
236	0xbce03615	-0.027369538
237	0x3c9602e7	0.01831193
238	0x3d861d31	0.065485366
239	0xbd3d4819	-0.046211336
240	0xbccd5d0f	-0.025068788
241	0x3bab157f	0.0052210684
242	0xbe2fefbe	-0.17181298
243	0xbd56fa72	-0.052484937
244	0xbcff9e78	-0.031203493
245	0xbdd8fff5	-0.10595695
246	0x3de65ec2	0.11248542
247	0xbcf445d5	-0.029818455
248	0x3d603425	0.05473723
249	0x3cd1b09a	0.025596905
250	0x3d18c9e4	0.037301913
251	0x3c041106	0.008060699
252	0xbcdaa20c	-0.026688598
253	0xbe107633	-0.1410759
254	0x3d39a63a	0.04532454
255	0xbe10d69c	-0.14144367

lstm.weight_ih_l1 f4 [296, 74]
0	0x3d159f0c	0.036528632
1	0xbcde42e2	-0.027131502
2	0x3d1315ad	0.035909344
3	0x3cf93c9c	0.030424409
4	0xbd6a3aa6	-0.057184838
5	0x3c771208	0.015079983
6	0x3da65c76	0.08123104
7	0x3de5fc22	0.11229731
8	0xbcd4ce59	-0.0259773
9	0x3dee1686	0.1162539
10	0x3e1bcd69	0.15215077
11	0x378596ce	1.592506e-05
12	0xbd894392	-0.06702341
13	0x3d04544c	0.032306954
14	0xbda32854	-0.07966676
15	0x3d7a6fdf	0.061141845
16	0xbad2e639	-0.001609034
17	0xbdc9e9fc	-0.09859082
18	0x3d900a5c	0.07033226
19	0xbde6eba9	-0.11275417
20	0xbd3f395d	-0.046685565
21	0xbd8ed9b4	-0.06975117
22	0x3d097435	0.03355809
23	0x3d8ab839	0.06773419
24	0xbc9c78f0	-0.019100636
25	0x3dd36e1e	0.103237376
26	0x3d91719f	0.0710175
27	0x3dd1ca1b	0.10243627
28	0x3da2a8df	0.07942366
29	0xbdcca00e	-0.099914655
30	0xbdea32ca	-0.114354685
31	0xbd9d0618	-0.07667178
32	0xbd6ee430	-0.058323085
33	0xbc225370	-0.009907588
34	0x3c85dbe8	0.016340211
35	0x3d031e48	0.0320113
36	0xbcd20914	-0.025639094
37	0xbd55a462	-0.05215872
38	0xbb1277de	-0.0022349278
39	0xbde7b55c	-0.113138884
40	0x3d371b54	0.044703797
41	0x3ecb5b7b	0.39718232
42	0xbdb82e60	-0.0899322
43	0xbdc03f8f	-0.09387123
44	0xbd298c60	-0.041393638
45	0xbda77afd	-0.08177755
46	0xbcd9b139	-0.026573764
47	0xbd509d3f	-0.05093121
48	0xbddef0b2	-0.10885753
49	0x3d6cfa63	0.057855975
50	0xbdc8650a	-0.09784897
51	0xbd65d662	-0.056112655
52	0x3c8adde0	0.016951501
53	0x3c62a64b	0.013833593
54	0x3de73416	0.112892315
55	0xbdae83ab	-0.085212074
56	0x3d93cbc2	0.07216598
57	0xbda9a99d	-0.08284304
58	0xbc4cb8db	-0.012495245
59	0xbdb3ee14	-0.08785644
60	0xbcf019c7	-0.029309167
61	0x3d7353fd	0.05940627
62	0xbdace513	-0.0844213
63	0x3d62cfd5	0.055373985
64	0xbd43fea9	-0.047850285
65	0xbce2de93	-0.027694022
66	0xbd8c7267	-0.06857758
67	0xbe05dd1b	-0.13072626
68	0x3e15e87f	0.14639471
69	0xbcae7e1a	-0.021300364
70	0xbd3b26fd	-0.04569148
71	0xbd8c990f	-0.06865131
72	0xbdbdc46e	-0.092659816
73	0xbc25de45	-0.010123794
74	0xbdcfe174	-0.10150424
75	0xbd9f1898	-0.07768363
76	0x3e273b04	0.16331106
77	0x3c35be2a	0.011092702
78	0xbd606382	-0.054782398
79	0x3dd29335	0.10281984
80	0x3e07ef5a	0.13274899
81	0xbd69fd60	-0.057126403
82	0xbccc120c	-0.02491095
83	0x3d1efc0f	0.0388146
84	0x3e3045f9	0.17214192
85	0x3ce321d3	0.02772609
86	0x3d41296e	0.04715865
87	0xbca5cfae	-0.020240631
88	0x3e10ebf6	0.14152512
89	0x3d1318e2	0.035912402
90	0x3d9cd199	0.07657165
91	0x3d15d4fb	0.036580067
92	0xbdf4642c	-0.11933169
93	0xbd76da9d	-0.06026708
94	0xbd7add8b	-0.061246436
95	0xbd12b480	-0.03581667
96	0x3dbb2d7c	0.09139535
97	0x3d8f92e0	0.07010436
98	0x3d9f4943	0.077776454
99	0xb995f1f4	-0.00028599764
100	0x3c9bcf70	0.019019812
101	0x3d159882	0.036522396
102	0xbda0726d	-0.07834325
103	0xbe7f9bc5	-0.24961765
104	0xbd311948	-0.043237
105	0x3d6ced7e	0.057843678
106	0x3bfe022c	0.0077517238
107	0x3e0a2e1e	0.13494155
108	0x3c607e39	0.013701969
109	0x3da68ee9	0.08132727
110	0x3d68ee09	0.056867633
111	0xbe37919f	-0.17926644
112	0xbc0ec5e8	-0.008714177
113	0x3dc8ee4c	0.098110765
114	0x3e27a4e0	0.16371489
115	0x3e254ad5	0.16141827
116	0x3a6006b2	0.00085459196
117	0x3e0e4d74	0.13896734
118	0xbdd9735a	-0.10617705
119	0xbd6d8b50	-0.057994187
120	0x3e1c8168	0.1528374
121	0xbbd4b9b5	-0.0064918646
122	0xbe06ef7f	-0.13177298
123	0x3c41c8a8	0.011827625
124	0xbd9ceb86	-0.0766211
125	0xbcb3454f	-0.021883635
126	0x3d622100	0.055207253
127	0x3cf39f79	0.029739128
128	0xbbd00a2d	-0.0063488693
129	0xbdaad032	-0.08340491
130	0x3dc3438e	0.095343694
131	0xbd9b7c79	-0.07592101
132	0xbe35d7b9	-0.17758073
133	0x3db39c02	0.087699905
134	0x3b1aecce	0.0023639682
135	0x3e1ecfca	0.15508953
136	0xbe200a04	-0.1562882
137	0xbdf6de5d	-0.12054131
138	0x3d3450b9	0.044022296
139	0x3e271e0f	0.1632006
140	0x3e0f85cc	0.14015883
141	0x3d13ae9f	0.036055204
142	0x3e25d62f	0.16194986
143	0x3d9b760e	0.075908765
144	0xbde6ac34	-0.11263314
145	0x3c742179	0.014900559
146	0x3e2dafd7	0.16961609
147	0xbd823231	-0.063572295
148	0x3e28be11	0.16478755
149	0x3ce9b9e8	0.02853103
150	0xbe5bd429	-0.21467651
151	0xbe518f05	-0.20464714
152	0x3dbeeb98	0.0932228
153	0xbd0efd09	-0.034909282
154	0xbdbcab8f	-0.0921241
155	0xbd90608a	-0.07049663
156	0x3d66e9df	0.05637538
157	0x3dde9660	0.108685255
158	0xbde3ccf1	-0.11123074
159	0xbe52783f	-0.20553683
160	0x3d82fe97	0.063962154
161	0xbde180fc	-0.1101093
162	0xbe101c90	-0.14073396
163	0x3e4f1f9a	0.20226899
164	0x3d6b4e9e	0.057448022
165	0x3b84eae8	0.0040563233
166	0x3e490dc9	0.19634165
167	0x3d822f0a	0.06356628
168	0x3dfee6ad	0.12446342
169	0x3e4a12d6	0.19733748
170	0x3dc5158b	0.096232496
171	0x3c20c87e	0.009813426
172	0x3a9ce09d	0.0011968795
173	0xbe1a79ef	-0.15085576
174	0x3bfee941	0.007779271
175	0x3d890ce0	0.06691909
176	0x3e50b0e2	0.20379975
177	0x3dc01e26	0.0938075
178	0x3cd887d2	0.026431952
179	0x3d30620f	0.043062266
180	0xbe400571	-0.18752076
181	0xbe0af245	-0.13568981
182	0x3ad1e026	0.0016012236
183	0xbe93d70e	-0.2887501
184	0xbe11eef2	-0.14251307
185	0x3c629dba	0.01383155
186	0xbdb39f86	-0.08770661
187	0x3bf26dc9	0.0073983413
188	0xbe06ef40	-0.13177204
189	0x3ea3f6e1	0.3202429
190	0xbd3ae181	-0.045625214
191	0xbdb2071c	-0.08692762
192	0x3e85a5f2	0.2610317
193	0x3c9dac2b	0.019247135
194	0xbdffb8bb	-0.124864064
195	0x3e143a7b	0.14475434
196	0x3e43f938	0.19138038
197	0x3e0947b4	0.13406259
198	0x3d57e84f	0.05271178
199	0x3d33e0a1	0.043915395
200	0xbdc8dc6e	-0.098076686
201	0x3d8382ef	0.06421458
202	0x3da7f64b	0.082012735
203	0x3c121c8e	0.008917941
204	0x3d7273cd	0.059192467
205	0x3dd44729	0.10365135
206	0x3e0f77b5	0.14010508
207	0x3a763f35	0.0009393574
208	0xbc44215e	-0.011970846
209	0x3e2a8edc	0.16656059
210	0x3cb55bc4	0.022138484
211	0x3dd94101	0.10608102
212	0xbd242786	-0.040076755
213	0xbe1b0270	-0.15137649
214	0xbd6dc072	-0.05804486
215	0xbe7b663e	-0.24550721
216	0xbe7bf6c2	-0.2460585
217	0xbe7b3dd9	-0.24535312
218	0x3d83e328	0.06439811
219	0xbdc06065	-0.09393386
220	0xbe5d9cb6	-0.21641812
221	0x3d81b197	0.06332701
222	0xbf305b8b	-0.68889683
223	0xbda28fc9	-0.07937581
224	0x3ec28cf6	0.3799817
225	0x3ebd7daa	0.37009937
226	0xbd9112e3	-0.070836805
227	0x3d5833d3	0.0527838
228	0x3de5ca35	0.112202086
229	0xbd71a2d7	-0.058993187
230	0x3c93d433	0.01804552
231	0x3da41548	0.080118716
232	0x3e8f0d05	0.2793962
233	0x3ec4d8ef	0.38446757
234	0xbcc965fc	-0.024584763
235	0x3ecfb992	0.40571266
236	0xbd4e9bba	-0.05044148
237	0xbdd04164	-0.10168722
238	0x3d9a00d5	0.0751969
239	0x3d600594	0.05469282
240	0xbe8b0fd9	-0.27160528
241	0x3d66c3e3	0.056339156
242	0xbe6dba44	-0.23215586
243	0xbe91ee9f	-0.28502366
244	0xbad9f011	-0.0016627331
245	0xbd5106cc	-0.051031873
246	0xbde0543e	-0.10953568
247	0x3ee482a6	0.44630927
248	0xbcc2c1ff	-0.023774145
249	0x3d384444	0.04498698
250	0xbdb3e6de	-0.08784269
251	0xbebf032b	-0.37307104
252	0x3cdf2b6c	0.027242385
253	0x3e8e03cb	0.2773727
254	0x3dbbc7ef	0.09168994
255	0x3ecc4ed2	0.39903885

lstm.weight_hh_l1 f4 [296, 74]
0	0xbe426f57	-0.18987785
1	0xbd143e5b	-0.03619228
2	0xbe605a07	-0.21909343
3	0xbc1b241d	-0.009469059
4	0x3d1912a0	0.037371278
5	0xbe7579e4	-0.23972279
6	0x3e6239e8	0.22092402
7	0xbde02b4b	-0.109457575
8	0xbdb0e0f9	-0.0863666
9	0x3e521138	0.20514381
10	0x3dbb97e8	0.09159833
11	0x3d4726db	0.04862104
12	0xbe676a0d	-0.22599049
13	0xbe3f73f6	-0.1869658
14	0x3e31a637	0.17348562
15	0x3e4036e5	0.1877094
16	0x3d81c1e0	0.06335807
17	0x3e2664cb	0.16249387
18	0xbd8d2bf7	-0.06893151
19	0xbd1fe48d	-0.039036322
20	0xbe063ef9	-0.1310996
21	0x3d9b35af	0.07578599
22	0x3dae36e7	0.085065655
23	0x3e3ad55e	0.18245456
24	0x3d814548	0.063120425
25	0x3e290c62	0.1650863
26	0x3e2c9e72	0.16857317
27	0x3e15e2fb	0.14637367
28	0xbe3c7c9e	-0.18406913
29	0x3d1f99c8	0.038965017
30	0x3e70b165	0.2350517
31	0x3e69bc78	0.22825801
32	0xbd9a00a1	-0.07519651
33	0xbe652668	-0.22377932
34	0xbe8f676c	-0.28008592
35	0x3d9f7053	0.07785096
36	0xbe8f5d5a	-0.2800091
37	0x3e73536a	0.23762289
38	0xbdc0bace	-0.0941063
39	0x3df36625	0.11884717
40	0x3dc816af	0.097699516
41	0xbe8aae52	-0.2708612
42	0xbe62b5eb	-0.22139709
43	0xbd1a0651	-0.03760368
44	0x3e80a492	0.25125557
45	0x3e7bd197	0.24591671
46	0x3e5dcb29	0.2165953
47	0x3a39f0d0	0.0007093074
48	0xbe1a6ef6	-0.1508139
49	0xbe01c937	-0.12674414
50	0xbc526dea	-0.012843588
51	0x3e330f41	0.17486288
52	0xbe79a657	-0.2437986
53	0xbe5afc1d	-0.21385236
54	0x3d9eef02	0.07760431
55	0x3dc6542b	0.096840225
56	0x3dbc6fde	0.092010245
57	0x3cf212c0	0.029549956
58	0x3cebba9e	0.02877551
59	0x3e0c6e29	0.13713898
60	0x3dc5ad1f	0.09652161
61	0xbe1dee1f	-0.15422867
62	0xbd159a4e	-0.03652411
63	0x3e2ba211	0.16761042
64	0x3e0e9285	0.1392308
65	0xbd421ff6	-0.04739376
66	0xbdf5f1dd	-0.120090224
67	0xbd3696e9	-0.044577513
68	0x3de83291	0.1133777
69	0xbe517c68	-0.20457613
70	0x3e7e12f5	0.24811919
71	0xbdebc626	-0.11512403
72	0x3e4db6c5	0.20089252
73	0x3c9d3d88	0.01919438
74	0xbe851f20	-0.2600031
75	0xbdfe29b8	-0.12410301
76	0xbd2aaaf7	-0.04166695
77	0xbd86b029	-0.06576569
78	0xbda5762b	-0.080791794
79	0xbdf0e505	-0.11762432
80	0x3e507961	0.20358802
81	0xbcc86f1e	-0.024467047
82	0xbe12379a	-0.14279023
83	0x3e1ddb17	0.15415607
84	0x3e07b23e	0.13251588
85	0xbc86a159	-0.016434358
86	0xbe3b078f	-0.18264602
87	0x3dae3bcd	0.085075
88	0x3da201c3	0.07910492
89	0x3d3c3297	0.045946684
90	0x3e466e18	0.19377935
91	0x3e733194	0.23749381
92	0xbe2647f6	-0.16238388
93	0xbcf4583b	-0.029827228
94	0xbe102698	-0.14077222
95	0x3dbfdc71	0.09368218
96	0x3d077725	0.03307261
97	0x3d2717a4	0.04079403
98	0x3dac22f1	0.08405102
99	0x3d7fb8cb	0.06243209
100	0x3d2df723	0.042472016
101	0x3e1b0aa2	0.15140775
102	0xbd8f19d0	-0.06987345
103	0x3e7ae69a	0.2450203
104	0x3e5ad851	0.2137158
105	0x3e0a8e1a	0.1353077
106	0xbe27467f	-0.16335486
107	0xbe82097a	-0.25397855
108	0xbd874944	-0.06605771
109	0x3e627951	0.22116591
110	0xbe4eb022	-0.20184377
111	0x3e117082	0.14203075
112	0xbc7f95dd	-0.015599695
113	0x3e282428	0.16420043
114	0x3e83cbae	0.25741333
115	0xbdb7db47	-0.08977371
116	0xbe852019	-0.2600105
117	0xbd4093f0	-0.047016084
118	0x3db0d491	0.08634294
119	0x3d862aaf	0.0655111
120	0x3e6977cd	0.22799607
121	0xbe5e5ca0	-0.21715021
122	0xbdabfc66	-0.083977506
123	0x3d74d7a6	0.05977597
124	0xbba1bfce	-0.004936195
125	0x3e5e52ef	0.21711324
126	0xbe5a1b59	-0.21299495
127	0xbe8c156d	-0.27360097
128	0x3d39589f	0.04525053
129	0xbc390e17	-0.011294863
130	0xbae9e660	-0.0017845146
131	0xbd283647	-0.041067388
132	0x3c94f37b	0.018182507
133	0x3d88c1a0	0.06677556
134	0xbdb43b29	-0.088003464
135	0xbe57b1e1	-0.21063949
136	0xbd12e967	-0.03586712
137	0x3dab1a0f	0.0835458
138	0x3e7d47bd	0.24734397
139	0x3d3745ee	0.044744425
140	0xbe563884	-0.20919997
141	0xbb2bb99b	-0.0026203159
142	0x3decd4df	0.115640394
143	0xbda9343d	-0.08261917
144	0x3e02fb1f	0.12791108
145	0xbe465a86	-0.1937047
146	0x3e51c23b	0.2048425
147	0xbcda419a	-0.02664261
148	0x3e6c0e18	0.23052251
149	0xbb76151f	-0.003754921
150	0x3e75afce	0.23992845
151	0xbdc74faf	-0.09731995
152	0xbdfddc7c	-0.1239557
153	0x3e395610	0.18099236
154	0xbd382b5c	-0.044963226
155	0x3dcdc849	0.10047967
156	0xbc244f0b	-0.010028611
157	0xbd15d7cf	-0.036582764
158	0xbe466449	-0.19374193
159	0x3dc9dab5	0.09856168
160	0x3cd586eb	0.02606531
161	0x3d4ff2aa	0.05076853
162	0x3c84fe9e	0.016234692
163	0xbd96abcb	-0.07356986
164	0x3bfde867	0.007748652
165	0xbe23f296	-0.16010508
166	0x3da901fa	0.0825233
167	0x3e15b2cc	0.14618987
168	0x3dc14f58	0.09438962
169	0x3cdbe020	0.02684027
170	0xbe1c4355	-0.1526006
171	0xbe10be27	-0.14135037
172	0xbdb1c980	-0.08681011
173	0xbe759152	-0.23981217
174	0x3eb0c695	0.34526506
175	0xbc8dc30b	-0.017304918
176	0x3e391f94	0.18078452
177	0xbe072131	-0.13196255
178	0xbe11ec70	-0.1425035
179	0xbe372b4f	-0.17887615
180	0x3cc7edec	0.024405442
181	0x3b011409	0.001969578
182	0x3c0157d1	0.007894472
183	0xbc9bf294	-0.019036569
184	0x3ca989cc	0.02069559
185	0xbe0ed26c	-0.13947457
186	0x3e52e28c	0.20594233
187	0xbcb86656	-0.022509735
188	0xbd2d154a	-0.04225663
189	0x3e072ddc	0.13201088
190	0xbca5b4cd	-0.020227814
191	0x3dcbbd0f	0.099481694
192	0xbdd02238	-0.10162777
193	0xbe157249	-0.14594378
194	0xbd9aa710	-0.07551396
195	0x3e8166d8	0.25273776
196	0xbccd7cbf	-0.025083898
197	0x3d12efc8	0.035873204
198	0xbdf77030	-0.12081945
199	0xbe40991b	-0.18808405
200	0x3da2e5a6	0.07953958
201	0x3e326f32	0.1742523
202	0xbd8877df	-0.066634886
203	0x3e8014f6	0.25015992
204	0xbe3c6ecd	-0.18401642
205	0xbe1317f2	-0.14364603
206	0x3e3c4e49	0.18389238
207	0xbda42e26	-0.080166146
208	0xbc7d1732	-0.015447425
209	0xbd277790	-0.040885508
210	0x3e0d4333	0.13795166
211	0xbe64f4aa	-0.22358957
212	0xbe42a0d6	-0.19006667
213	0x3e0c935d	0.1372809
214	0x3de9800b	0.114013754
215	0xbe0466d0	-0.12929845
216	0xbe49cb2e	-0.19706413
217	0x3dba05b6	0.090831205
218	0xbe2275de	-0.15865275
219	0x3d88fde6	0.06689052
220	0xbdbe1184	-0.092806846
221	0x3db525df	0.08845114
222	0xbecc88b7	-0.39948055
223	0x3ebffca1	0.37497428
224	0xbe9cbd4c	-0.30613172
225	0xbe085522	-0.13313726
226	0x3ed544cb	0.41654047
227	0xbeb04d59	-0.34434012
228	0x3da6b226	0.08139448
229	0xbf0520fd	-0.5200346
230	0x3e32002e	0.17382881
231	0x3e3c87c5	0.18411167
232	0x3f1ec53f	0.62019724
233	0x3e699106	0.22809228
234	0xbde047ab	-0.109511696
235	0x3dc0fe49	0.09423501
236	0xbeaa3556	-0.33243817
237	0x3ec09b7f	0.37618634
238	0x3ea6110c	0.3243488
239	0x3eb72ca2	0.3577624
240	0xbdba3570	-0.09092224
241	0xbc6a27b8	-0.014291696
242	0xbeb3529c	-0.35023963
243	0x3e842033	0.25805816
244	0x3e5a15b3	0.2129734
245	0x3dbb7887	0.09153848
246	0x3f064afb	0.5245816
247	0x3f305702	0.68882763
248	0xbd36ad29	-0.044598732
249	0x3e9ed413	0.31021175
250	0xbdf67639	-0.12034268
251	0x3f004441	0.5010415
252	0x3f205ba5	0.6263984
253	0x3e7c4122	0.24634221
254	0xbde33e3f	-0.11095857
255	0xbe8fdd20	-0.28098392

lstm.bias_ih_l1 f4 [296]
0	0x3ab994ed	0.0014158763
1	0x3c72a0e2	0.014808865
2	0x3e0bef87	0.13665591
3	0xbd1e3425	-0.038623948
4	0xbd9ab5cc	-0.07554206
5	0x3d798efe	0.060927384
6	0xbe240472	-0.16017321
7	0xbddfc8ab	-0.10926946
8	0xbe385eaf	-0.18004869
9	0xbc799d93	-0.0152353225
10	0x3e030d94	0.12798148
11	0xbe382b38	-0.17985237
12	0x3d3af56d	0.045644213
13	0xbe87edb8	-0.26548553
14	0xbd0dbd64	-0.034604445
15	0xbda40925	-0.08009557
16	0xbdd00d2f	-0.101587646
17	0x3b907ac9	0.0044091684
18	0xbe88664e	-0.26640552
19	0xbe32ee71	-0.1747377
20	0xbd6a249d	-0.057163823
21	0xbd8fd46e	-0.070229396
22	0xbe1eccee	-0.15507862
23	0xbe446503	-0.19179158
24	0x3d809743	0.06278851
25	0xbd257ea8	-0.040403992
26	0x3e813539	0.25235918
27	0xbd7142f5	-0.058901746
28	0x3d8a7016	0.0675966
29	0x3d2c4b54	0.042064026
30	0x3d4b926e	0.049700193
31	0xbdc2f81f	-0.095199816
32	0x3def3deb	0.11681732
33	0xbcc52961	-0.024067583
34	0xbdad9034	-0.0847477
35	0x3d80bf89	0.062865324
36	0xbe3aa4a7	-0.18226872
37	0xbd95ee79	-0.07320876
38	0xbe0a6b13	-0.13517408
39	0x3d8a634e	0.06757222
40	0xbceeb3d9	-0.029138492
41	0x3df5b79d	0.11997912
42	0xbd9af669	-0.0756653
43	0x3bd181dd	0.0063936547
44	0x3de75b6d	0.11296735
45	0x3d9f1c35	0.07769052
46	0x3c6a10a3	0.014286193
47	0xbd9c6316	-0.07636087
48	0xbdfb3ed3	-0.12267842
49	0xbee71a66	-0.45137328
50	0xbe1b0c17	-0.1514133
51	0xbd52284e	-0.05130797
52	0x3c314a6d	0.010820967
53	0x3e002e42	0.12517646
54	0xbcee3079	-0.029075848
55	0x3cdb0d55	0.026739756
56	0xbd927c4b	-0.07152613
57	0xbd8d1732	-0.0688919
58	0xbeedf2c4	-0.46474278
59	0x3cdc32f8	0.026879773
60	0xbd8e0e0d	-0.06936274
61	0xbdecf758	-0.115706146
62	0x3cd90edd	0.026496345
63	0xbe17e8b5	-0.14834864
64	0x3db3fb78	0.08788198
65	0xbea80b7e	-0.32821268
66	0xbd90185b	-0.070358954
67	0xbe991eb8	-0.2990625
68	0x3d2e8964	0.042611495
69	0x3a4b7627	0.00077614415
70	0xbadaa5d1	-0.0016681497
71	0xbdd8df76	-0.10589497
72	0xbd5fb47d	-0.054615486
73	0xbd222d63	-0.039594065
74	0xbe747f12	-0.23876598
75	0xbcc1fb5e	-0.023679432
76	0xbb5ceed9	-0.00337117
77	0xbdde47a3	-0.10853507
78	0x3e29dc28	0.16587889
79	0x3c26b5f2	0.010175215
80	0xbdb3fe81	-0.08788777
81	0xbd61c1d1	-0.05511648
82	0xbe070ff3	-0.13189678
83	0xbe3496cf	-0.17635654
84	0xbdd28300	-0.102788925
85	0xbdf908a6	-0.12159853
86	0x3d1325b9	0.035924647
87	0xbe56420a	-0.2092363
88	0x3c7f595a	0.015585268
89	0xbce6acc1	-0.028158547
90	0x3d8fd67c	0.070233315
91	0x3dbcd6b7	0.09220641
92	0xbe2df0ac	-0.1698634
93	0x3ba311e9	0.0049765003
94	0xbe0f2e20	-0.13982439
95	0xbcb6dace	-0.022321131
96	0xbe044ec2	-0.12920669
97	0xbdefc31c	-0.11707136
98	0xbe3fbe02	-0.18724826
99	0xbdf7ab0f	-0.12093174
100	0xbd08df87	-0.033416297
101	0xbcc49d9e	-0.024000939
102	0x3e1fcc34	0.15605241
103	0x3a31134a	0.00067548885
104	0xbe2c5b43	-0.16831689
105	0xbe29b5b4	-0.1657322
106	0xbd4f0b0f	-0.050547656
107	0x3d1c0e1d	0.038099397
108	0x3d772345	0.06033637
109	0x3e0bd62d	0.1365592
110	0xbd861fdb	-0.06549045
111	0x387759eb	5.897313e-05
112	0x3d19cd68	0.037549406
113	0xbc408167	-0.011749602
114	0xbd9a9a3a	-0.07548948
115	0x3d3967f2	0.045265146
116	0x3dd8b43b	0.10581251
117	0xbdeef067	-0.11666947
118	0xbc9e3178	-0.019310698
119	0x3d478628	0.048711926
120	0x3caa89d8	0.020817682
121	0xbe1a35a6	-0.15059528
122	0xbcbd255b	-0.023089102
123	0xbe42ee75	-0.19036277
124	0x3d5e56e8	0.0542821
125	0xbe0ee053	-0.1395276
126	0xbe3687e9	-0.17825283
127	0x3dc51760	0.09623599
128	0xbd263fe6	-0.040588282
129	0xbe2ada28	-0.16684783
130	0xbde55309	-0.11197478
131	0x3d02e4a1	0.03195632
132	0xbdb974fc	-0.09055516
133	0x3e0918f9	0.13388433
134	0xbe14fce3	-0.14549594
135	0x3d45f131	0.04832572
136	0xbddd4766	-0.10804634
137	0xbcfd69f6	-0.030934315
138	0x3d8ef77e	0.06980799
139	0xbd9d4d8e	-0.07680808
140	0x3d28938c	0.041156337
141	0xbdd0f652	-0.10203232
142	0x3ac82ff7	0.0015273084
143	0x3d6d4258	0.0579246
144	0xbdbe38bc	-0.09288165
145	0x3d9bc4ae	0.07605873
146	0x3e01f7a4	0.12692124
147	0xbe123da9	-0.14281334
148	0x3a355f7b	0.000691883
149	0x3bd8e525	0.006619113
150	0x3b06dd19	0.0020578562
151	0xbde71532	-0.112833396
152	0x3e2c6b3b	0.1683778
153	0xbd1d62a9	-0.038424168
154	0x3cfd406c	0.030914508
155	0xbd9d5401	-0.07682038
156	0x3d96a691	0.07355989
157	0xbc0db575	-0.00864922
158	0x3dd8a9e5	0.1057928
159	0x3dda6a96	0.10664861
160	0x3ca7b9d4	0.020474352
161	0x3d41a602	0.047277458
162	0xbdac66a4	-0.08418015
163	0x3ceeb4b0	0.029138893
164	0x3bbf357e	0.005835234
165	0x3d8e0394	0.06934276
166	0xbd6dbcfb	-0.058041554
167	0x3da15bb9	0.07878823
168	0x3c90efd6	0.017692488
169	0xbd50e4f3	-0.050999593
170	0x3d23d9c5	0.040002603
171	0xbc75d048	-0.015003271
172	0x3db4fe27	0.08837538
173	0x3e10a731	0.14126278
174	0x3d907b6e	0.07054792
175	0xbd2f6324	-0.042819157
176	0x3d96f629	0.0737117
177	0x3e15e64c	0.14638633
178	0x3d801583	0.06254103
179	0x3db65fdb	0.08905002
180	0x3dffcbf3	0.12490072
181	0x3dbc327f	0.09189319
182	0xbd548dba	-0.051892973
183	0xbcc331a9	-0.02382739
184	0x3c93c952	0.018040333
185	0x3d26701a	0.040634252
186	0x3e25f15f	0.16205357
187	0xbdf0f36b	-0.11765178
188	0xbd9362ad	-0.07196555
189	0x3d3469fe	0.044046395
190	0x3e05242b	0.13002078
191	0x3cf6c7e2	0.030124608
192	0xbdd09613	-0.101848744
193	0x3da0950c	0.078409284
194	0x3de7baa9	0.113148995
195	0xbc3462e7	-0.011009908
196	0x3cf26baa	0.029592354
197	0xbdb871e1	-0.09006096
198	0xbd61ea2a	-0.055154957
199	0x3d39538a	0.045245685
200	0xbdd41bf3	-0.103568934
201	0xbe097ceb	-0.13426559
202	0x3d31be64	0.04339446
203	0xbd4aaab0	-0.049479187
204	0xbb18aee6	-0.0023297607
205	0xbe20d07e	-0.15704533
206	0x3c7c8414	0.015412349
207	0x3d90a296	0.07062261
208	0x3d215886	0.039391063
209	0x3dbedb37	0.09319156
210	0xbce2dfac	-0.027694546
211	0xbddccc11	-0.1078111
212	0xbdda0b17	-0.106466465
213	0xbd15e282	-0.036592968
214	0x3d7510db	0.059830528
215	0xbc02267f	-0.0079437485
216	0x3dfda14f	0.12384283
217	0x3b2d886c	0.002647902
218	0xbd40022f	-0.046877082
219	0x3c717356	0.014736971
220	0xbd0c306c	-0.034225866
221	0x3b367e99	0.0027846454
222	0x3d8bb4b6	0.06821577
223	0xbe36721b	-0.17816965
224	0x3ba96211	0.005169161
225	0xbdd62f9c	-0.104582995
226	0xbda35d87	-0.07976823
227	0xbddc0d6e	-0.10744749
228	0x3d1ab881	0.037773613
229	0xbe4770fa	-0.19476691
230	0xbe1c7b3e	-0.15281388
231	0xbe6956fc	-0.22787088
232	0xbdc43a30	-0.09581411
233	0xbe7ea8ab	-0.24869029
234	0xbe2dac2e	-0.16960213
235	0xbe895921	-0.26825812
236	0xbd8171ae	-0.06320511
237	0xbda31153	-0.07962289
238	0x3d286c96	0.04111918
239	0xbdeb7566	-0.11497001
240	0xbe5c77dd	-0.21530099
241	0xbe0947c6	-0.13406286
242	0xbdce9e5d	-0.10088799
243	0xbde1c746	-0.110243365
244	0xbe275ea1	-0.16344692
245	0xbe33afaa	-0.1754748
246	0x3de8a3b7	0.11359351
247	0xbc75e7d6	-0.015008887
248	0x3e0c3cd9	0.13695087
249	0xbe02b47d	-0.12764163
250	0x3db62ef0	0.08895671
251	0xbbde9ff0	-0.0067939684
252	0xbd96ad80	-0.07357311
253	0x3a8fd6b7	0.0010974024
254	0xbd2aedbf	-0.04173064
255	0xbdbcfbd4	-0.0922772
