checkpoints/best_model.pth (torch, 314089 bytes, 9 tensors)

lstm.weight_ih_l0 f4 [296, 37]
000000 3b c7 69 be 69 e9 7a 3d 2e a7 37 bd f9 f4 23 3e
       -0.22829907 0.061257754 -0.04483717 0.16011418
000010 9d 97 1e 3e 6f 66 57 3e 96 dc fc 3d 26 78 da 3d
       0.15487523 0.21035169 0.12346761 0.10667448
000020 e8 7c b6 3d 52 aa c3 3d 15 1c dc bd 6f 1d 90 3d
       0.08910543 0.095539704 -0.10747544 0.07036864
000030 1a 8e 21 bf a4 18 8f bd b6 ca 02 3e a0 7c 35 3d
       -0.63107455 -0.06987122 0.1277264 0.044308305
000040 eb bf 14 3e 23 66 18 be 63 b0 45 bd a8 f2 e6 3d
       0.14526336 -0.14882712 -0.04826392 0.11276752
000050 75 2e c3 bd 4e 5f b4 be 7a 7b c9 3d 46 70 f1 3c
       -0.09530345 -0.35228962 0.098380044 0.029472481
000060 61 9a ad bc 55 2a bb bd 5a b0 39 3c 53 d5 eb 3d
       -0.021191778 -0.091389336 0.011333549 0.11515298
000070 ad bc b4 bd 34 5f 9f be 6c 5a 10 bd 98 ef 9d 3d
       -0.088250495 -0.31127322 -0.035242483 0.077117145
000080 41 2d 08 3e c4 08 cc 3f 63 e8 f2 3e 2d 0c 03 be
       0.13298513 1.5940175 0.47442922 -0.12797613
000090 82 49 ba bd 52 cd e8 bd d2 bd 00 3d 2e b5 02 3e
       -0.09096052 -0.11367287 0.031431027 0.12764427
0000a0 ea 8d b7 bd 54 8e 67 bd 16 6f ca bd 23 43 e2 3d
       -0.08962615 -0.05653222 -0.09884469 0.110479616
0000b0 68 f5 a2 bb 5b 8d 35 3d 35 8f 96 bd dc c8 b2 3d
       -0.0049731024 0.04432426 -0.07351533 0.08729717
0000c0 7b b5 61 3d 24 43 87 bd a9 ed b4 bc 1a 18 1a 3c
       0.055104714 -0.06604603 -0.022085981 0.00940516
0000d0 d3 3a 82 bd e8 29 ec 3a 5b 8b cd bd 41 30 db bc
       -0.06358876 0.001801786 -0.100363456 -0.026756408
0000e0 14 49 33 bc 1d ee e9 bd 23 b9 87 3c 29 79 dd bd
       -0.010942716 -0.1142237 0.016567772 -0.10814125
0000f0 80 16 63 bd 05 5f b3 3c d3 7d 52 bd 42 9f bc 3d
       -0.05544138 0.021895895 -0.051389527 0.092100635
000100 a6 16 e7 bd e1 f9 66 bd cd c2 e5 bd d9 c9 6c bd
       -0.11283617 -0.056390647 -0.11218796 -0.057809684
000110 33 8a b2 bd e2 d3 47 bd c1 4e 6a 3c 01 5d 99 bc
       -0.08717766 -0.04878605 0.014301003 -0.018721106
000120 41 34 26 3d c9 1d 6f bd 33 24 06 3e 71 34 a0 3d
       0.040577177 -0.058378015 0.13099746 0.078225024
000130 f7 db a3 3a 17 4f ef 3c e5 77 ce 3d ef 4a a7 3d
       0.0012501468 0.029212518 0.10081462 0.08168589
000140 9e 8f a4 3d 82 ce e5 bc 0f cb b0 3d aa af 7a bd
       0.08035205 -0.028052572 0.0863248 -0.061202683
000150 cb fe 1c 3d 73 9f 28 be 6e e7 8c be 11 3d 44 bc
       0.038328927 -0.16467075 -0.27520317 -0.01197745
000160 1c 75 23 bc 7d 56 59 3e b9 ff 97 3d 1b 72 9f 3d
       -0.0099766515 0.21224399 0.07421822 0.07785436
000170 7b fa 62 3c 8a 25 1f bd d4 94 b6 3d 7a bb 67 be
       0.0138536645 -0.03885416 0.089151055 -0.2263011
000180 75 38 8a 3d eb 1a d0 3d 87 fe 83 bd b1 b9 86 bd
       0.067490496 0.10161384 -0.064450316 -0.065783866
000190 ab 0d 28 bd 07 a1 16 3e 70 70 71 be f8 c6 3e be
       -0.04102866 0.14709865 -0.23578048 -0.18630588
0001a0 2c 6a 47 3d ed 9f 0f 3d fa 7d d5 3d 8e b5 18 3f
       0.048685238 0.035064626 0.10424419 0.5965203
0001b0 5f 6a 81 3e cd 8e 2a 3e 39 2c 1a bd 2b b4 34 be
       0.25276467 0.16656037 -0.03763983 -0.17646854
0001c0 a5 2e 91 bd 02 e2 db bc 79 76 da 3d 0c 5a 59 bd
       -0.07088975 -0.026841167 0.10667128 -0.05306439
0001d0 06 ae e7 bd 8d ed 07 3e 3e 8c f1 3b 68 c0 3b 3e
       -0.11312489 0.13274212 0.0073714545 0.18335116
0001e0 9f bd e2 3c 4d c5 ad bd 99 54 13 3d 47 ae c4 be
       0.027678309 -0.08484898 0.03596935 -0.38414213
0001f0 99 34 86 3c d7 24 b9 3d 69 69 dc 3d f9 88 25 3e
       0.016382502 0.0904023 0.10762293 0.16165532
000200 f6 63 07 3e 83 d9 bb bc 1f 14 07 be f4 b6 13 3d
       0.13221726 -0.022930866 -0.1319127 0.03606315
000210 f7 c2 ec be 21 1a 18 3e d2 a0 97 3d 3e b2 31 3e
       -0.46242496 0.14853717 0.07403721 0.1735315
000220 30 ea 04 3e 60 94 9f 3c ae fa b8 3d e6 59 b3 bd
       0.1297996 0.01947993 0.09032188 -0.08757381
000230 36 f8 11 bf 07 cc 9a bc be a0 d9 3d c7 ec 60 3e
       -0.57019365 -0.018896116 0.10626362 0.21965323
000240 50 78 a4 3f ec 54 3e 3f 94 be 49 be db 3c 59 bd
       1.2849216 0.7434833 -0.19701606 -0.053036552
000250 c7 a2 a0 39 22 d9 4e bd e3 14 bb 3d fb 84 d5 3c
       0.00030638857 -0.050500043 0.09134843 0.026064387
000260 fb 4c e7 3c 59 af 87 3c 51 f9 31 3d a3 cb 5e 3d
       0.02823495 0.016563104 0.043450657 0.05439342
000270 40 f8 73 3d c3 10 9d 3d 22 a3 9e bc 72 eb ea 3d
       0.05956292 0.07669213 -0.019364897 0.11470689
000280 b3 62 7f 3d 39 0c e2 3d 7d f6 bd bd b0 e8 97 bc
       0.062349986 0.110374875 -0.092755295 -0.018543571
000290 1c ed 12 3d db c3 a6 3c bf 12 e8 3d 76 fb 9f bd
       0.035870656 0.020357063 0.113317005 -0.07811634
0002a0 59 25 3d 3d bb 4c ea bd 92 d2 0b bd 37 37 1b 3d
       0.046178196 -0.114404164 -0.034136362 0.037894454
0002b0 4d 0d de 3d f4 f0 e7 bd 7a 1d 70 3d 33 b1 da bc
       0.10842381 -0.11325255 0.05862186 -0.026695823
0002c0 59 66 44 bd 62 43 91 bd 45 57 61 bd 39 b2 ae 3d
       -0.04794917 -0.070929304 -0.055014867 0.08530087
0002d0 f9 99 75 3d 7f 36 a4 bc b1 4c 4a 3c 87 12 7e bd
       0.059961293 -0.020045517 0.012347386 -0.062029388
0002e0 a8 cf 90 bd 5f 2e 90 bd 76 37 95 bc 60 2f 8f bd
       -0.07070857 -0.070400946 -0.018214922 -0.06991458
0002f0 45 ac 67 3d 04 8b 02 3d 18 79 9f bd 7b db 86 3c
       0.056560773 0.031870857 -0.07786769 0.016462078
000300 ca 6c 11 3d bb 7d bc bd 87 12 df bd da 5b 43 3a
       0.03550414 -0.09203669 -0.10892206 0.00074523466
000310 14 a2 aa 3c 07 99 14 3d 49 b0 c2 3a d7 b2 e9 bd
       0.020829238 0.03627875 0.0014853562 -0.11411064
000320 9b 9a bb 3d c6 07 9a 3d 55 70 e4 bb a1 c4 a3 3d
       0.09160348 0.07521014 -0.006971399 0.07996488
000330 97 4c 53 3c 62 f6 87 bd 10 58 d0 bb e6 1a dc bd
       0.012896678 -0.06638791 -0.006358154 -0.10747318
000340 d6 72 80 3d 9d e6 95 3b c8 80 c2 bd bd 44 89 3d
       0.06271903 0.0045746104 -0.09497219 0.06702564
000350 e7 d9 8d 3d ba 4b ed bd c3 84 db bc ab 31 76 b9
       0.06926327 -0.11586709 -0.026796704 -0.00023478891
000360 dd 53 de bd fd b4 fa 3b a4 58 0b bd b6 10 7f 3d
       -0.108558394 0.00765097 -0.03402008 0.062271796
000370 ad f1 bc 3c 59 09 bb bd 22 63 3f bd 72 43 7c bd
       0.023064459 -0.09132642 -0.0467254 -0.06158776
000380 75 71 17 bc 87 4c 39 bd 9e fc 40 3e 6c a5 57 be
       -0.009243359 -0.045238998 0.18846366 -0.21059197
000390 83 b1 85 be f0 c3 89 be 89 f0 78 be ed 97 51 be
       -0.26111993 -0.269073 -0.24310507 -0.20468111
0003a0 b7 7b a2 3c ac 2c e0 bd 3a a9 11 3f f4 ce 8b be
       0.019834382 -0.109460205 0.56898844 -0.2730633
0003b0 0e 48 1f be ed cd 61 bd 5c 95 bd bb 20 1c 3b bd
       -0.1555483 -0.055128027 -0.0057856273 -0.04568112
0003c0 b5 a1 09 be b0 5a 98 be cf bb 08 3d 5a de e4 3e
       -0.13440593 -0.2975669 0.033382233 0.4470089
0003d0 42 e0 0d be c4 bb d4 bc 1b 61 63 bd e2 80 81 3d
       -0.13855079 -0.02596844 -0.05551253 0.063234106
0003e0 82 d8 8b 3d ad 01 95 be a5 42 0a 3e 35 e7 d7 3e
       0.06828405 -0.2910284 0.13501985 0.42168584
0003f0 6c 5d ed bd f7 9b f4 bd 80 3a 12 3d 65 12 6f 3f
       -0.115900844 -0.119438104 0.03570032 0.9338744

lstm.weight_hh_l0 f4 [296, 74]
000000 2f 30 32 3e e6 ad 3a be 72 81 a0 bc 22 00 b4 bc
       0.17401193 -0.182304 -0.019592974 -0.02197272
000010 da 8b bc bc c2 e7 57 ba 5b 7a c2 3e 49 20 99 bd
       -0.023015905 -0.0008236134 0.37983975 -0.07476861
000020 b9 ba a5 bc 02 10 5d be 1b 18 85 3d d2 fc 1e 3d
       -0.020230638 -0.21588138 0.064987384 0.038815327
000030 ea 95 c5 3d 6a 00 6a bd 91 80 96 bd b1 38 35 3c
       0.096477345 -0.0571293 -0.07348741 0.01106088
000040 0c a4 9a 3d 7e 7a d7 bd 79 03 7f bb f2 06 e3 3c
       0.07550821 -0.105214104 -0.0038911982 0.027713273
000050 84 9b d9 39 32 69 90 3d 18 c1 e6 bc ed 3b e5 3d
       0.00041505334 0.070513144 -0.028168246 0.111930706
000060 a1 31 64 bd cd 11 f8 bd e6 4e a7 3e 9c 09 50 bd
       -0.055711392 -0.1211277 0.32677382 -0.050790414
000070 0b 00 9c bc 8d d1 c3 bd 89 59 87 3e 3b 25 58 3d
       -0.01904299 -0.09561453 0.26435497 0.05276988
000080 49 09 b1 bd f2 64 07 be 1f f8 64 3c 86 be 3a bd
       -0.08644349 -0.13222101 0.013975172 -0.045591854
000090 86 2b a0 3d d4 99 d4 3b 5c c3 b7 bc 1e 08 9b bd
       0.078208014 0.0064880643 -0.022432022 -0.075699076
0000a0 f7 ad 9e 3e 63 8f 19 bd 82 a7 af 3d c0 ae 91 bd
       0.309921 -0.03749026 0.085768715 -0.07113409
0000b0 f1 f1 d5 3b e1 bc 5b be 58 f3 92 3d 19 91 05 bd
       0.006529086 -0.2145877 0.071753204 -0.03260908
0000c0 53 e0 fa bc 30 9c e2 be dd 5a 14 3e 15 41 f2 3d
       -0.030624544 -0.44259787 0.14487787 0.1182882
0000d0 cb a7 ec 3d 3e a5 db bd 95 4e b8 3b f4 72 82 bc
       0.115554415 -0.10724877 0.005624602 -0.015923955
0000e0 15 93 f7 3e 5c c3 08 bf 10 5e e4 bd 1f 25 91 3e
       0.48354402 -0.53423095 -0.111507535 0.28348634
0000f0 44 06 2b 3d 35 32 7e bd 4c a3 16 bc 85 5a 10 3d
       0.041754022 -0.0620596 -0.009194206 0.035242576
000100 82 91 d0 bd 69 12 2f 3d 10 6e 2a 3e 99 f3 b4 3e
       -0.101840034 0.042742167 0.16643548 0.353421
000110 30 34 00 3d 1c a2 2d 3d eb 3e 77 bc 81 0b 78 bc
       0.03129977 0.042390928 -0.015090684 -0.0151394615
000120 45 7e b8 3d 79 35 80 bd de d4 cf bd bd de 93 3c
       0.09008459 -0.06260199 -0.10148023 0.018050546
000130 8d b3 81 bb 89 21 b1 3c 6c dd 59 3d b0 7d d8 3d
       -0.0039581717 0.021622436 0.05318968 0.10570848
000140 a0 d2 fa bc a6 14 1b bd f2 38 c3 bd b6 1c de bc
       -0.030618012 -0.03786149 -0.09532346 -0.0271133
000150 0b c8 fd 3c f0 b1 38 3d bd a3 3c bd ef 7d 0b bd
       0.030979177 0.04509157 -0.04605459 -0.034055647
000160 50 e4 b4 bd 98 d5 d1 bd bf 1a a3 3d 22 e9 09 bd
       -0.0883261 -0.10245818 0.07964086 -0.0336696
000170 34 ef ab 3d f7 53 fc bc f3 f8 5a 3d e6 a1 f1 3c
       0.08395234 -0.030801756 0.053460073 0.029496145
000180 a4 4e 06 bd 8d 7a fc 3c 38 70 4c bd f7 f3 b3 3d
       -0.03278984 0.030820156 -0.049911708 0.08786767
000190 97 d8 d4 bd 9a d7 6a 3d fe 34 9d bd 22 5b a4 3d
       -0.10392874 0.05733452 -0.07676123 0.08025195
0001a0 38 d5 a8 3d 41 06 c7 3d 23 93 e5 bd 3a bf aa bd
       0.08243793 0.0971799 -0.11209705 -0.08337255
0001b0 30 81 17 3b b7 90 e5 3d f9 7c 97 3d 5e dd 0e 3a
       0.0023117773 0.11209243 0.073968835 0.00054498564
0001c0 da d9 59 3c 9e de b6 bc 09 ec b4 bd ca 1e dd 3b
       0.013296569 -0.022322949 -0.08834083 0.006748055
0001d0 2b f3 01 bc 63 61 e9 3c f9 56 52 bc d3 1c 48 3d
       -0.007931511 0.02848882 -0.012838119 0.048855614
0001e0 85 ba d0 bd 35 b0 ae 3c 58 4e 8e bd 52 44 b2 3d
       -0.10191826 0.021324256 -0.06948537 0.08704437
0001f0 f8 8f 7f 3d 94 c4 9d 3d 9f 6e f5 bc 93 ff e7 3d
       0.06239316 0.0770351 -0.029959975 0.11328044
000200 34 16 2a 3d 42 bd 2a 3d 14 f8 c5 3d 22 cd 4a 3d
       0.04152508 0.041684397 0.09666458 0.049512036
000210 4a 17 86 3d a3 83 e5 bc 96 88 d7 3c 9b af c8 bc
       0.06547411 -0.02801687 0.026310246 -0.024497798
000220 80 8a 58 bd 0d 21 ac bd 13 81 c2 3d 22 48 aa bd
       -0.05286646 -0.084047414 0.09497275 -0.083145395
000230 70 22 b8 3b 04 ac 67 3d 0e aa e9 3d 9e 2d 86 3d
       0.0056193396 0.05656053 0.114093885 0.065516695
000240 11 86 5c bd be dc 8b 3d 0d 88 ca 3d 13 eb d5 3c
       -0.053838793 0.068292126 0.09889231 0.026113069
000250 22 31 db 3d 99 b6 20 be 61 71 7e 3d 47 7e 02 be
       0.10702731 -0.15694655 0.062119845 -0.12743483
000260 1c e9 20 bd 8a bb 91 bd 65 0a 98 3d c4 f4 bb bd
       -0.03928481 -0.07115848 0.074238576 -0.09177545
000270 ab 72 4c bc 04 f5 8e bd b0 c1 29 bd ec 43 d7 3d
       -0.012478511 -0.06980327 -0.04144448 0.10511002
000280 19 a2 1c 3e 76 cc 9a bd 86 27 e5 bd 14 15 a0 3d
       0.1529621 -0.07558529 -0.11189179 0.0781652
000290 5b eb b3 3d c4 00 b2 bd ea bf f2 3d 22 53 95 bd
       0.08785125 -0.08691552 0.11853011 -0.07291247
0002a0 4f 16 2b 3d a4 0d cc 3c b2 57 ba bd 16 4c 4b bd
       0.041769322 0.024908848 -0.09098758 -0.049633108
0002b0 4f 05 86 be b9 8d 5a be 4d 22 6c bd 06 d4 ac bd
       -0.26175925 -0.21343125 -0.0576499 -0.08438878
0002c0 92 be 59 3d 00 54 5a bd d5 8c 11 3e 06 fa af bd
       0.053160258 -0.053302765 0.1421388 -0.0859261
0002d0 b9 3c c1 bd ac 9c 7c bd cb 8c 4f 3d b1 20 6e bd
       -0.0943541 -0.06167285 0.05067138 -0.058136646
0002e0 90 0b d9 3d 17 a4 63 3d 38 fd 5c bd d1 7f a9 bd
       0.105979085 0.05557641 -0.053952426 -0.08276332
0002f0 12 a7 ab 3e 40 8d 89 3d f7 5a db bd a2 53 b0 3c
       0.33525902 0.067163944 -0.107107095 0.021524254
000300 d5 c8 82 3c 05 b9 c0 3d b3 0f ba 3d b0 f5 c5 bd
       0.015964905 0.0941029 0.09085026 -0.09666002
000310 38 ba b0 3d 39 94 f6 bd 25 00 09 3d c0 db 67 3d
       0.086292684 -0.1203999 0.033447403 0.056606054
000320 0c 84 81 3d a8 a2 60 bd 44 48 a4 3d f0 21 a3 bc
       0.06324014 -0.05484262 0.08021596 -0.019913644
000330 0b 69 76 3e 33 21 82 be 15 b2 ef bc 02 6a 4a 3e
       0.24063508 -0.25415954 -0.02925972 0.19767001
000340 8c 1f 12 3e 73 21 aa bc 66 f8 9f bd de 77 c3 bd
       0.14269847 -0.020767903 -0.0781105 -0.09544347
000350 7d 56 25 bd 2c 56 19 3e cc b3 25 3e de a0 1c 3e
       -0.040365685 0.14974278 0.16181868 0.15295741
000360 d0 61 c0 bd 28 f1 b7 3b 06 f1 4a bd 2e 70 4a 3e
       -0.09393656 0.005613465 -0.049546264 0.19769356
000370 13 cd 82 3e 4c ae d5 3d 87 57 f2 bd bb ec 7c be
       0.25547084 0.10433635 -0.11833101 -0.2469968
000380 6d 65 81 bd 3d 7e 20 be b0 51 c7 bd 09 41 a2 bd
       -0.063181736 -0.15673156 -0.097323775 -0.07922561
000390 76 48 c1 3e 4b c2 cb be a3 1d 54 bd 0e fa da be
       0.37750596 -0.3979667 -0.051786076 -0.42768902
0003a0 fb a3 a1 3e 96 b0 ca bd c1 bf 8f 3e 0d f6 59 3d
       0.3157042 -0.09896962 0.28075984 0.053213168
0003b0 af 44 fa 3d 62 ff 55 3d 71 89 21 3d e1 65 93 be
       0.122201316 0.052245505 0.039437715 -0.28788665
0003c0 fe 48 ba 3d 9f 79 af bd 6f c2 cf bd 66 18 c1 3c
       0.090959534 -0.08568119 -0.10144507 0.023571204
0003d0 85 db 02 3e 3b 5e 85 3e 7c 55 a8 be 2c af 4a be
       0.12779053 0.26048455 -0.3287772 -0.19793385
0003e0 88 cf a9 3e 6e f8 7c bd 31 de 79 bd 30 4e b4 3b
       0.33166146 -0.06176036 -0.061002914 0.0055024847
0003f0 25 d5 a1 3e b7 ed 15 3e 98 ea 04 3d e8 74 e6 bd
       0.3160793 0.14641462 0.03245029 -0.11252767

lstm.bias_ih_l0 f4 [296]
000000 0e 9a 83 3d 1c 11 29 bd 89 75 9b 3d 38 3f 8d 3d
       0.06425868 -0.041276082 0.075907774 0.06896824
000010 87 0b 99 bd 3e 67 38 bd ee 97 df 3c b5 ae 3d 3d
       -0.07472902 -0.045020334 0.027294125 0.04630919
000020 3a a9 47 3d 47 68 77 3d 43 e9 8f bd 85 82 c7 3d
       0.04874537 0.06040218 -0.07026913 0.097416915
000030 a8 73 2d bd a0 f3 82 bd 38 33 bb bd c6 c2 af 3d
       -0.042346627 -0.06394124 -0.091406286 0.08582072
000040 5a 2f c2 3d 61 c5 79 3c e7 37 be bc 01 5f 17 bd
       0.09481688 0.015244813 -0.023220016 -0.036955837
000050 bb b6 c8 3d f5 01 cc bd ca 2a fa bb f4 09 f1 bc
       0.09800478 -0.09961311 -0.0076344954 -0.029423691
000060 63 52 d2 bc c9 eb 46 3d d8 29 ba 3d 6e f9 cd 3d
       -0.02567405 0.048564706 0.09090012 0.100573406
000070 29 c5 c2 3d 3b a9 f0 3d 1f 96 c7 bd e0 1e 52 bd
       0.095102616 0.11751028 -0.0974543 -0.051298976
000080 9f 60 26 3d ad 61 4d bd 9d 7d a3 bd aa 82 e4 3d
       0.04061949 -0.05014198 -0.07982943 0.11157735
000090 99 b3 07 bd 2a 12 d6 bd 94 34 e6 3d a1 31 00 be
       -0.033130262 -0.10452683 0.11240497 -0.12518932
0000a0 8a 7a d0 3c f4 15 ff 3c a1 d6 e9 bc 9c 80 49 3d
       0.025449056 0.031138398 -0.028544726 0.049194917
0000b0 20 36 e5 3c 23 1d 9d bd c2 14 1a 3e c9 98 45 bd
       0.02797991 -0.07671573 0.15046981 -0.04824141
0000c0 6f d4 b5 bd 25 fc 12 3d 24 69 e3 3d 0b ef 0c be
       -0.08878409 0.035884995 0.11104038 -0.13763063
0000d0 8d b5 36 3a 28 10 e1 bb b1 fd 5d bd 83 e1 08 3d
       0.0006969802 -0.006868381 -0.054197017 0.03341819
0000e0 db c0 c4 3d e3 9b e2 bd 17 dd a0 3d 0e 1c 0f 3e
       0.09607097 -0.11064889 0.078546695 0.13975546
0000f0 b4 e5 fc 3b 2f 4e f5 bc f2 4b 97 3d 29 e9 af bd
       0.0077178124 -0.029944507 0.07387532 -0.08589394
000100 c0 f2 1d bd ba b5 06 3e ee 28 fa 3d 83 d7 eb 3d
       -0.038561583 0.1315526 0.12214838 0.11515715
000110 d2 0d b5 3d d0 94 94 bd 46 ed df bd 51 aa 6c bd
       0.08840527 -0.07254946 -0.10933928 -0.057779614
000120 ea 13 e9 3d 92 f5 c2 bc 35 6e b4 bd 89 b3 b2 3c
       0.113807514 -0.023798738 -0.08810083 0.021814125
000130 64 d5 0c 3b 74 1a 50 3d ce 4a 82 3d 24 8f e2 bd
       0.0021489495 0.050806478 0.06361924 -0.11062458
000140 08 c8 de bc 2c 1b 0a bd 1e 92 64 bd c9 5c 97 3c
       -0.027194992 -0.03371732 -0.05580341 0.01847686
000150 0f 94 3f bd a7 b0 b7 ba 4e ea ed 3b f4 32 df bd
       -0.04677206 -0.0014014438 0.0072605973 -0.108983904
000160 e9 d3 2c 3d 21 27 20 be 53 e8 c8 bd 7f e2 36 bd
       0.04219428 -0.15639926 -0.09809937 -0.044649597
000170 04 83 fd 3c aa fe 52 bc b9 67 f9 bc 78 fa 63 3c
       0.030946262 -0.012878099 -0.030444967 0.013914697
000180 f2 cc e3 bd ee a2 5e 3c 58 12 0c 3d 45 85 5e bd
       -0.111230746 0.01358865 0.03419718 -0.054326314
000190 50 7d ab 3d d1 3c c0 3b ad 42 d3 bb 36 30 2d 3d
       0.08373511 0.005866625 -0.0064471574 0.042282306
0001a0 c9 09 c5 bd 07 c3 0b 3c 35 a1 07 bd 11 bf a8 bd
       -0.09621007 0.008530385 -0.033112723 -0.08239568
0001b0 a5 98 a5 bc d0 1a 9f 3d 7f 54 3b bc d0 fb f4 bc
       -0.020214388 0.07768786 -0.01143372 -0.02990523
0001c0 49 5f 03 3d 50 b9 d3 bc 48 f2 c1 bd ed 05 6f bd
       0.032073293 -0.0258452 -0.094700396 -0.05835526
0001d0 35 5c 45 bc 98 9b c1 3c 2a e1 13 3d 27 9f e0 bd
       -0.01204591 0.023633763 0.036103405 -0.10967856
0001e0 45 64 e7 3c 45 39 e4 3c 78 74 ce 3d 59 53 45 3d
       0.028246054 0.02785934 0.100808084 0.04817519
0001f0 28 35 74 bd c0 11 d8 bd 59 78 6b bd c8 1c d3 3b
       -0.059621006 -0.105502605 -0.05748782 0.00644264
000200 1f 5d 19 be c4 08 a4 bd 9e a9 34 3d 79 2c 23 be
       -0.14976929 -0.080094844 0.044107072 -0.15934934
000210 95 cb 51 bd 36 14 19 3c 61 60 69 3c d9 c7 e1 3d
       -0.05121954 0.009343198 0.01424417 0.11024446
000220 e3 83 61 3b 22 8d ed bd bb 19 c4 bd 88 96 77 3d
       0.0034410886 -0.115991846 -0.0957522 0.060446292
000230 96 08 4d bd d5 b5 13 3c e8 de 94 3d a2 8d c3 3d
       -0.050057016 0.00901552 0.072690785 0.09548499
000240 27 78 0d bd e4 54 f3 3d b7 be 57 3c 61 17 aa bd
       -0.034538414 0.11881426 0.013168029 -0.083052404
000250 97 1d 4a 3b 03 84 a7 3d b9 9a a3 bd f6 5a c0 bd
       0.003084039 0.08179476 -0.079884954 -0.093923494
000260 97 4c 9c 3d 52 6b bd bd 07 28 f8 3d 01 14 ff bd
       0.07631796 -0.09248985 0.121170096 -0.12454987
000270 9e c3 da 3d 46 48 48 bd 84 c5 a5 bd ae 17 9e bb
       0.10681842 -0.04889705 -0.08094314 -0.0048246
000280 5e bc c3 3b da 0e fc 3c a2 39 c9 3b 9a d8 f0 bd
       0.005973383 0.0307688 0.0061409036 -0.117600635
000290 73 68 d7 3c 81 db b0 3d 06 ee e7 bd 9e 5c 9f 3d
       0.026294922 0.08635617 -0.11324696 0.07781337
0002a0 9f e7 82 3b fe c6 d8 bc e6 85 a6 bd a4 33 81 3d
       0.0039948965 -0.026462074 -0.08131008 0.06308678
0002b0 0b 71 a7 bc c9 38 f3 bc da 6e ae bc 50 22 c3 bd
       -0.020439645 -0.029690163 -0.021293093 -0.09528029
0002c0 ed 3b a9 3c 45 12 95 3d d1 d9 3b 3d 22 ed 27 bc
       0.020658458 0.07278875 0.045862023 -0.010249408
0002d0 c5 58 a1 3d 67 5a 22 bd 2e e4 62 bd ca 9e 8a bb
       0.078782596 -0.039636996 -0.05539339 -0.004230355
0002e0 63 a3 d9 bd 2f f6 e6 3c 0d da 09 bd 46 9d 91 3c
       -0.10626867 0.028193561 -0.033655215 0.01777519
0002f0 3b 27 f1 bd 06 60 0d 3d ec 5e 28 3d dd 70 e1 bd
       -0.11775061 0.034515403 0.04110615 -0.11007855
000300 92 bc b9 3c ea a4 9e 3d 9f a1 8f 3c 71 da 3d 3b
       0.022672925 0.077462986 0.017533122 0.0028969313
000310 15 5c 30 3d fa 33 82 3d ad 0a d1 bd e8 d2 85 3c
       0.043056566 0.0635757 -0.10207114 0.01633592
000320 bb 12 bb bb cf d9 f9 bc 2e bc da bb df 8e 10 3d
       -0.00570902 -0.030499367 -0.006675265 0.035292502
000330 3b e1 1c be 03 7a db 3d e8 01 8e bd 6c 32 bd bd
       -0.15320294 0.10716631 -0.06933957 -0.09238133
000340 e0 d4 c0 3d 89 d7 a1 bd 40 e9 e4 bc 3d 65 15 3b
       0.09415603 -0.07902438 -0.027943254 0.0022795938
000350 2d bc 30 bd 90 51 a9 bd 68 d9 46 bd a7 c9 68 3c
       -0.04314821 -0.0826751 -0.04854718 0.014208234
000360 1c bc a4 bb 52 93 dc 3d aa 07 e2 bd e9 5b d8 3d
       -0.005027307 0.107702866 -0.11036618 0.105644055
000370 c8 35 3d bd 27 4e 96 3d 0e 6d 91 bd ef f3 ac 3d
       -0.046193868 0.07339125 -0.07100879 0.08444964
000380 2c c9 cf bd b8 13 b8 bb 44 dc 76 3d 8c a3 f2 3c
       -0.10145792 -0.005617585 0.060268655 0.029619
000390 03 3b 27 be 3b 65 8e 3d 6e bc 45 bd a6 65 0d be
       -0.16331105 0.06952902 -0.048275404 -0.13808307
0003a0 af 8d 5d bd 82 4e 01 be 06 02 40 be f6 3e 16 be
       -0.054090198 -0.12627605 -0.18750772 -0.14672455
0003b0 be 9f d3 3d 89 38 ae bc f7 f8 00 bd 35 21 65 3d
       0.10333203 -0.021267192 -0.03148743 0.05593987
0003c0 a5 a0 c7 bb 39 47 6c 3b ea 92 6d bd 51 9a 83 bd
       -0.0060921484 0.0036053194 -0.058001436 -0.06425918
0003d0 f1 b6 e0 bd 6c 0b b8 3d 66 ac f5 3c 75 d8 c1 3c
       -0.10972393 0.089865535 0.029989433 0.023662785
0003e0 e4 b6 13 be fd d3 8a 3c 12 c3 51 bc 46 87 5e bd
       -0.14425236 0.016946787 -0.012802856 -0.054328226
0003f0 6b ac 8c bc 0e 90 cd bd ad 56 b5 bd 96 f6 3a bd
       -0.017172059 -0.10037242 -0.08854423 -0.04564532

lstm.bias_hh_l0 f4 [296]
000000 8b 57 11 bd 9a f5 c2 3d 7b af 86 bd af bc 08 bd
       -0.035483878 0.09519501 -0.06576439 -0.033383068
000010 18 e0 d1 3d 7b 5c 4b 3d 08 2e 0a 3d 7c 9d 3c 3b
       0.102478206 0.049648743 0.033735305 0.0028780391
000020 71 89 b1 3d 4c 83 20 bc 66 18 2f be d7 42 8a bd
       0.08668793 -0.009796929 -0.17099151 -0.0675103
000030 d1 10 48 3d b6 7c 9a bd e6 d7 4f bd 2a f9 40 bd
       0.048844162 -0.07543318 -0.050743006 -0.04711262
000040 f0 0b 8f bd dc 8c 7d 3d 88 11 83 3c a6 9a 46 3d
       -0.06984699 0.061901912 0.01599957 0.048487328
000050 17 40 94 bd a1 23 f3 bc b0 62 df 3c 6d ce 28 be
       -0.07238787 -0.029680075 0.027268738 -0.16484995
000060 34 d0 49 bd 9d 56 97 bd 14 9c 02 bd dc 98 cb 3d
       -0.049270824 -0.07389567 -0.03188713 0.09941265
000070 8e 37 04 3c ea 74 b8 3c 6f 88 99 bd d2 99 92 3d
       0.008069886 0.022516686 -0.07496726 0.07158245
000080 2f 75 b2 3d 00 04 66 3d f8 fb 0c be ce af 1b 3d
       0.08713757 0.05615616 -0.13767993 0.038009457
000090 fc 39 df 3d 7c 3b db 3d 30 2d a1 3d e9 ca d8 bd
       0.108997315 0.10704705 0.07869947 -0.10585577
0000a0 62 1b da 3c cd 21 c7 bd 74 a1 2f bd 4c 22 82 bd
       0.026624385 -0.09723244 -0.042878583 -0.06354198
0000b0 0f 02 9a 3b 30 a7 30 bd 96 67 ca 3d 6c 25 a1 bc
       0.0046999524 -0.043128192 0.09883039 -0.019671164
0000c0 5b 0f 04 3d 3d 7d 84 bd 1e 84 02 bd 12 52 d7 3c
       0.032241207 -0.064692 -0.031864278 0.026284251
0000d0 68 a7 1d 3d db 8a bd bd 00 d1 aa bd b8 66 b4 3d
       0.03848973 -0.09255 -0.08340645 0.088086545
0000e0 66 5c a0 3d 33 12 e8 bd 37 52 4c 3d 3f ab 21 3d
       0.078301236 -0.11331596 0.049883094 0.039469954
0000f0 84 48 8c bc d9 4f cb bd 12 6e 73 3d e7 5b c7 3d
       -0.017124422 -0.09927339 0.059431143 0.09734326
000100 ce 8d c6 3c da b8 12 3e 08 bd 8f bd 25 df d6 3d
       0.02423754 0.14328328 -0.07018477 0.1049178
000110 f6 69 78 3d 2e 02 8c bd 11 d1 82 3d 41 4b dc bd
       0.060647927 -0.06836353 0.063875325 -0.10756541
000120 ae 57 18 bd 74 ca db 3c c6 cb 1d 3b 38 8a 19 3d
       -0.037192993 0.026829936 0.0024077757 0.03748533
000130 4c 2d e8 bd 23 30 35 3d 07 9a 7f bd de 10 51 bd
       -0.11336765 0.04423536 -0.06240275 -0.051041476
000140 6b 46 83 bd ec 3b 0e 3b 35 fa 07 bc c1 ba e2 3c
       -0.064099155 0.0021703197 -0.0082994 0.027676942
000150 5f 86 8e bc 97 5b e3 bd e8 c4 ec 3d 47 c3 7c bd
       -0.017398058 -0.11101454 0.115609944 -0.06170967
000160 fe 8b 0c be fc 10 28 3c 37 fa 9e 3d 7b fa ff 3d
       -0.13725278 0.010257956 0.077625684 0.12498947
000170 1e 14 74 bc a6 04 38 ba 88 d3 06 bd 44 f5 cf bd
       -0.014897374 -0.00070197356 -0.032916576 -0.101542026
000180 74 82 6a bc 12 e8 3d bd e6 db cb bd 47 3c af bd
       -0.014313329 -0.046363898 -0.09954052 -0.08556419
000190 51 b0 05 3a e7 0f 60 3d 81 73 ae 3d 11 5d ef bc
       0.00050998206 0.054702666 0.08518124 -0.029219182
0001a0 b2 76 5d bc 74 a8 5d 3d 62 8a d8 3c 3d e2 ba bd
       -0.013517069 0.054115728 0.026433174 -0.09125183
0001b0 ae 3a 38 3d 82 ef cc bd 9b 20 54 3d 52 8d 82 bd
       0.044977836 -0.1000662 0.051788907 -0.06374611
0001c0 88 20 11 3d bc 7b 53 3d a3 09 8d bd 32 64 bd bd
       0.035431415 0.051631674 -0.06886604 -0.09247626
0001d0 dd 27 7e 3d 61 23 dc bb af 4f 3b bd 6f dd 8a 3b
       0.062049735 -0.0067180847 -0.04573029 0.0042378227
0001e0 df ae 0a 3c 8c f3 7e bd 0d cb 9e 3d b3 a1 83 bc
       0.008464544 -0.062243983 0.077535726 -0.016068315
0001f0 d5 9b ea bb 36 37 0e be ab b8 b3 bd 27 7b 4a 3d
       -0.00715969 -0.13888249 -0.08775457 0.049433853
000200 84 01 9e bd 95 6b a5 3c 3d 2a f4 bb 5b 7b 27 be
       -0.07715133 0.0201929 -0.0074513243 -0.1635565
000210 fd 0d 87 bd d5 81 1b bd 34 bd 96 bc 39 e5 97 bd
       -0.06594465 -0.037965614 -0.018400766 -0.074167676
000220 f3 b5 d2 3d 91 f2 2b bc db fd d2 3d f4 2b 2d 3d
       0.1028861 -0.010494844 0.10302325 0.042278245
000230 81 30 b7 bd 34 9a fb bd f8 13 91 3d 9a 68 87 3d
       -0.08944798 -0.12285271 0.07083887 0.06611748
000240 ca 14 96 3d e0 76 cf 3c 94 b9 94 bd 34 44 80 bb
       0.07328184 0.025325239 -0.07261959 -0.0039143804
000250 af b7 e6 bc ba b6 e0 3c cb 22 8f 3c 21 63 d0 3d
       -0.028163759 0.02743088 0.017472645 0.10175157
000260 bb 80 e1 3d 6a 34 90 3d e5 fd c8 bd 85 f3 8e bd
       0.110108815 0.07041247 -0.098140515 -0.069800414
000270 ea 94 87 3d 04 d6 26 bd c1 51 4c 3d 33 ea a0 bd
       0.066202 -0.040731445 0.049882654 -0.0785717
000280 99 9f cc bd 6d da 8c bc f5 4e 04 3e d8 de c0 3d
       -0.09991378 -0.017193997 0.12920745 0.09417504
000290 d7 ae 35 bd 8e d2 8e bd d3 1c 76 3c d3 16 77 bd
       -0.044356193 -0.06973754 0.015021521 -0.0603245
0002a0 e3 4b b4 3d 9a 46 02 3d bb 8b 92 3c db 9c de 3d
       0.08803537 0.031805612 0.017888894 0.108697616
0002b0 d2 2f af bc 98 8a 32 3d ed 5d e4 bc 2d 71 e8 bd
       -0.021385107 0.043589205 -0.027876819 -0.113497116
0002c0 41 85 e2 bd be 0e d8 bc e1 96 85 bd d3 97 73 bc
       -0.110605724 -0.026374217 -0.065229185 -0.014867741
0002d0 e9 20 54 3c c4 08 7d bd 87 6a f5 bd 3d 68 86 bd
       0.0129472995 -0.061775938 -0.11983209 -0.065628506
0002e0 2f a5 b0 3d a8 40 d6 3d 10 f3 e7 3d f1 4f 29 bd
       0.08625256 0.10461551 0.11325657 -0.041336004
0002f0 a4 8e 90 3d 35 50 c8 3d b7 4e 34 bd 42 d5 d7 3c
       0.070584565 0.09780923 -0.04402038 0.026346806
000300 59 2a 65 bc 9c f0 8c 3d 99 88 b9 bd 08 92 c8 bd
       -0.013987147 0.0688183 -0.09059257 -0.09793478
000310 06 c2 41 3d 60 ca 1e 3d c4 08 98 bd 1f b3 bb bd
       0.047304176 0.03876722 -0.07423547 -0.09165024
000320 a1 53 d7 3d 99 b8 be bd 35 0c af 3d f6 c1 be 3d
       0.10513998 -0.09312553 0.0854725 0.09314339
000330 58 87 f6 3c 82 06 26 3d ad 4a c8 bd 4a c2 c2 3d
       0.030093834 0.04053355 -0.09779868 0.09509714
000340 c3 22 b3 3d 16 39 dc bc 45 11 ca 3d 30 63 e2 bd
       0.08746865 -0.02688269 0.09866575 -0.11054075
000350 9f 31 d2 bd 87 a3 d7 bd e6 4e ae bb b5 e4 3c 3b
       -0.10263371 -0.10529237 -0.005319464 0.0028822843
000360 3f f9 4f bd 86 49 2e bd e5 2c d1 bd 64 c6 12 bd
       -0.05077481 -0.042550586 -0.10213641 -0.03583373
000370 c1 a6 83 bd d4 2b d3 bd 85 a0 b5 bd 8d f6 92 bd
       -0.0642829 -0.10311094 -0.08868507 -0.07175932
000380 c9 e3 ac bb 34 22 c4 3d 95 dc a2 bd 19 a7 a1 bc
       -0.0052761775 0.09576836 -0.07952229 -0.019732999
000390 51 75 19 be 47 ca 90 3c e0 94 19 bd ee 96 99 bd
       -0.14986159 0.017674578 -0.037495494 -0.07499491
0003a0 8a 56 9d bd 23 ea 09 bd 69 0a b9 bd 85 4e 74 bd
       -0.07682522 -0.033670556 -0.09035189 -0.059645195
0003b0 09 34 6f 3d 51 b2 93 3b 68 49 7b 3d c7 4f 18 bd
       0.058399234 0.004507341 0.061349303 -0.037185457
0003c0 74 ec e0 bb 85 69 db 3d 89 ca 3f 3d d7 e3 9b bc
       -0.006864125 0.10713486 0.046824012 -0.019029541
0003d0 11 db 5a 3c 8c 73 90 3d f1 8a 00 be 22 2e a7 3c
       0.013357894 0.07053289 -0.12553002 0.02040774
0003e0 08 c3 54 be 88 8f cd bd a3 44 94 bd 68 55 e7 bd
       -0.20777524 -0.10037142 -0.07239654 -0.11295587
0003f0 cc d8 ba 3d 37 e1 b9 bc e5 8a f3 bd 22 be 87 3d
       0.09123382 -0.022690399 -0.118917264 0.06628062

lstm.weight_ih_l1 f4 [296, 74]
000000 1a c9 d0 bb 0d 18 66 3d 10 bf d0 bc 63 76 5e 3d
       -0.0063716294 0.05617528 -0.02548173 0.05431212
000010 be 39 d1 3d c1 3f c5 bd 12 9d 66 bd 24 2e 91 3d
       0.102160916 -0.09631301 -0.056302138 0.07088879
000020 22 9c 92 bd 39 9e 5e 3c a8 cf b7 3d 54 bd a2 bc
       -0.07158686 0.013587528 0.08975154 -0.01986567
000030 6c 49 05 bd 49 5b 0f 3d 4f ae 91 3b 1d c5 bc bd
       -0.032540724 0.034999166 0.004445828 -0.09217284
000040 50 a3 54 bd 3e dc 84 3c d0 37 c3 bb d3 a8 dd 3d
       -0.05191356 0.0162183 -0.005957581 0.10823216
000050 fb b2 35 3a 9f c0 e4 3d ac ec b9 3c 1f 50 82 3c
       0.0006931272 0.11169552 0.022695862 0.015907345
000060 7d 20 9b 3d fd 75 b7 bd 9c 72 32 3d a9 64 d9 3d
       0.07574556 -0.08958051 0.04356633 0.106149025
000070 95 82 8c 3d cb 4a 3f bd 2e 24 1f bc 97 d7 92 3d
       0.06860844 -0.046702188 -0.009713216 0.07170027
000080 dc da 51 bd 0f 4c 08 bd 11 21 c5 ba 4c ce b8 bc
       -0.05123411 -0.03327566 -0.0015039762 -0.022559308
000090 d8 2f de bd 08 a7 89 3d d1 89 da 3d 52 6a 91 3d
       -0.10848969 0.06721312 0.10670818 0.07100357
0000a0 64 9c ea 3d 4b 3d 89 bd 96 ea 85 bd d6 34 d4 bd
       0.114556104 -0.06701144 -0.06538884 -0.1036164
0000b0 97 16 df 3d 05 ea 07 3d 55 24 58 bd 77 f9 ef bd
       0.108929805 0.033182163 -0.052769024 -0.117175035
0000c0 ce 27 99 3d 49 2b a6 3d 1f 8d 62 3c 9f ee 6f bd
       0.07478295 0.08113725 0.013827591 -0.058577176
0000d0 ff 32 c6 bd 17 5e b8 bd 8b f0 01 3e 89 08 d1 bc
       -0.096776955 -0.09002321 0.12689416 -0.025516765
0000e0 d1 b4 be 3d 30 3b 8c 3c 50 ef d1 3d 73 d1 5c bd
       0.09311832 0.017118067 0.10250723 -0.053910684
0000f0 ed 57 27 bd 82 87 d4 bd a1 3f 88 bd 9a 63 47 bd
       -0.040855337 -0.103774086 -0.06652761 -0.04867897
000100 18 fc e6 bd dc 25 8c bd e6 bf b7 3d 2c df 49 3d
       -0.11278552 -0.068431586 0.089721486 0.0492851
000110 d3 8f c1 3d 1e 43 50 bd 06 7d c7 bd 64 e0 5b 3d
       0.094512604 -0.050845258 -0.09740643 0.053680792
000120 ae a4 66 bc d0 53 f4 3d 28 b8 28 3e 7b f7 2d 3e
       -0.014077349 0.119300485 0.164765 0.16988938
000130 0b 0c a1 3d ce 5b fe bd d3 68 a4 bd a7 13 e4 bb
       0.07863625 -0.12419854 -0.08027806 -0.0069603506
000140 31 45 45 be 1b 6b 12 3e 40 41 b0 bd d3 22 d2 3d
       -0.19264676 0.1429867 -0.086061954 0.102605484
000150 e3 1f 99 3c 22 65 22 3e 5f 33 ef bb 2a ba 54 bd
       0.018691963 0.15858892 -0.007299825 -0.051935352
000160 4e 93 69 bc 38 82 e5 3c 93 fb e1 bd 54 1a 21 3e
       -0.014256312 0.028016195 -0.11034312 0.157327
000170 b1 a1 a0 3c 5c d0 8a 3d bf 2d 17 3b ac ee 8f bd
       0.01960835 0.06778023 0.0023068038 -0.07027945
000180 8a 6c 56 3d 19 80 0f bd 13 60 31 3e df e5 a2 3d
       0.052349605 -0.035034273 0.17321806 0.07954001
000190 95 59 74 3c c6 c3 45 bb fa 67 e9 bd 90 02 12 be
       0.014913936 -0.0030176505 -0.11396785 -0.1425879
0001a0 45 2d 69 be 29 1c 8d bc 95 ef 06 bd 34 bd 8e bd
       -0.22771175 -0.017225342 -0.032943327 -0.069696814
0001b0 5a 62 5c bd 73 60 a5 3d 36 65 8d bd 97 80 c3 bb
       -0.053804733 0.08075037 -0.0690407 -0.005966257
0001c0 46 59 e3 bb 61 b3 36 bc d8 6c da 3d b3 56 48 bd
       -0.0069381325 -0.011151166 0.106652915 -0.048910808
0001d0 ed d8 23 bd 64 14 40 bd 37 b6 37 3d c4 22 7e 3d
       -0.0400018 -0.046894446 0.044851508 0.062044874
0001e0 45 e1 dd bd 63 af 11 bd 1c d3 0b be c0 f6 a0 3d
       -0.108339824 -0.035567652 -0.1365475 0.07859564
0001f0 48 d5 3f ba 72 f2 d2 bd 22 80 81 bd 24 6a 9b bd
       -0.0007317853 -0.10300149 -0.063232675 -0.07588604
000200 c0 2a 0f bd 92 c0 a9 bd c3 4d 49 be d2 1f 68 3d
       -0.03495288 -0.08288683 -0.1965857 0.05667097
000210 90 57 ac bd 58 96 0c be 39 f6 76 3d 6d b6 19 bd
       -0.08415139 -0.13729227 0.06029341 -0.03752749
000220 19 01 92 3c 9a db b0 bc 74 17 64 3d ed b0 16 3e
       0.017822789 -0.02158909 0.05568643 0.1471593
000230 65 e9 72 bc e1 df dd 3c 52 f2 d8 bc d8 d7 5e 3d
       -0.014826153 0.027084293 -0.026482735 0.054405063
000240 75 19 aa 3c 36 77 f1 bd 7e 32 37 be 89 3f 8a bd
       0.020764092 -0.11790316 -0.17890355 -0.067503996
000250 0f 7d b7 3d 1f 05 5b 3e 5a 39 e4 3d 29 f3 4e be
       0.089594 0.21388672 0.111437514 -0.20209946
000260 53 d0 a1 bd c5 e0 85 3b 0a 41 fd bd 58 3e b1 3c
       -0.07901063 0.0040856325 -0.12365921 0.021636173
000270 3f fc b3 3d 14 d1 d2 3d bb e5 2d be cc 4d 05 3e
       0.087883465 0.10293785 -0.16982166 0.13017958
000280 aa 94 57 bc 66 4e 12 3e b8 1e 22 bd 94 f8 90 bd
       -0.013158003 0.14287719 -0.039580077 -0.070786625
000290 db 34 01 be 54 1c 7b 3d 73 36 ea 3d 67 a4 8b bd
       -0.12617819 0.061306313 0.114361666 -0.06818467
0002a0 c8 37 be bd 91 e5 16 bc 31 bb 22 be 36 b6 59 bd
       -0.09287983 -0.009210006 -0.1589172 -0.053152286
0002b0 ee db bf 3e c9 5f 12 3e 70 9f 7c bc 15 72 c8 3d
       0.3747248 0.14294352 -0.015418872 0.097873844
0002c0 e9 f5 13 be 37 bf 96 bc 33 94 cb bd 83 5e cb bd
       -0.14449276 -0.018401725 -0.09940376 -0.09930136
0002d0 22 38 c7 3d 12 07 20 be 82 10 bc 3d 59 eb 80 3d
       0.09727503 -0.15627697 0.09182836 0.06294889
0002e0 03 f7 e8 bd f0 67 8e 3d fd e2 0c 3e 9a ea b0 bd
       -0.11375239 0.06953418 0.13758464 -0.08638497
0002f0 d1 16 42 3d 34 5f 9e 3c fc ca 72 bc 48 96 83 bc
       0.04738504 0.019332506 -0.014818903 -0.01606287
000300 24 cd c2 bd 8e 38 9b 3c d5 99 0e be eb 34 88 3d
       -0.09511784 0.018947866 -0.1392587 0.06650718
000310 50 59 3c be b6 ff 58 3e 8e 18 a1 be cf 03 c2 3d
       -0.18393445 0.21191296 -0.31464046 0.09473383
000320 ff b5 17 bc 9d c0 ab bd 40 4a 0b bd b2 35 46 3d
       -0.0092597 -0.083863474 -0.034006357 0.04839105
000330 55 e3 26 be 1f d0 e4 bd 32 fa ab 3d a9 05 80 bc
       -0.16297658 -0.111725084 0.0839733 -0.015627699
000340 6e 49 50 bb 1b 15 86 3d f7 5b 08 3b 7c d1 de bd
       -0.0031782049 0.06546994 0.0020806768 -0.108798
000350 7a 9c 46 3b 7d 4f 4d 3e 87 85 e3 be cc f6 be bd
       0.003030567 0.20049854 -0.4443781 -0.093244165
000360 4f 63 d8 bd 23 3c 3f bd e8 78 a6 bd a1 eb 02 be
       -0.105658166 -0.04668821 -0.0812853 -0.12785198
000370 c5 42 04 3d dd e5 c3 bd d7 f0 4c 3e 6b 31 7e 3e
       0.03229024 -0.09565327 0.20013748 0.24823539
000380 95 ab 20 bd 10 0b 39 be 0f 81 a2 bd 2f 3d 9d bc
       -0.039226133 -0.18070626 -0.07934772 -0.019194214
000390 57 2b 0d 3b 0d d3 6f 3e aa 89 0a bd 8e ad 5d 3e
       0.0021540725 0.23420353 -0.033822693 0.21648237
0003a0 6a 23 61 bd 67 08 0f 3e 1a 1a 3f bd 0d 9d 44 3d
       -0.054965414 0.13968049 -0.04665575 0.048001338
0003b0 b0 09 21 be 5b e1 08 3e 5e 54 f7 bd 5a dd 34 3d
       -0.15726352 0.13367216 -0.12076639 0.04415641
0003c0 d1 d7 b9 3d 99 28 c6 3d 7a f5 cc bd f3 63 9f bc
       0.09074367 0.09675712 -0.100077584 -0.01945684
0003d0 7b 29 03 be 06 56 83 3c f9 6b 02 3e 6a 41 3d 3e
       -0.12808792 0.01603223 0.12736501 0.18481985
0003e0 90 2d e0 bc d5 ec 8f bc 5c 70 2e be 41 5d 31 be
       -0.027365476 -0.017568985 -0.17035049 -0.1732073
0003f0 af 7d 5f bc e6 42 cb bd a6 1b c3 bd f5 3b 1a 3d
       -0.013640805 -0.09924869 -0.09526758 0.037654836

lstm.weight_hh_l1 f4 [296, 74]
000000 e3 b9 01 bd 64 33 52 bc 09 db d4 bc 8a 05 64 bd
       -0.031671416 -0.012829635 -0.02598335 -0.055669345
000010 e6 fc 1c 3d 33 0c 01 3e 7c 7f 7c bd 1b 17 21 3e
       0.03832712 0.1260231 -0.061645016 0.1573147
000020 cd b3 55 3c db 6f b2 bd 61 49 00 be 36 88 47 bd
       0.013043356 -0.08712741 -0.12527992 -0.048713885
000030 06 b1 c0 3c ba 6d 78 3d da de 1b be ab 59 7e 3d
       0.023521911 0.06065152 -0.1522173 0.062097233
000040 17 b3 d3 bd 5a 1a 8f 3d f9 16 93 3d 18 ec 89 3d
       -0.10336893 0.06987448 0.07182116 0.067344844
000050 b0 16 12 bd 67 72 83 bd 4a 95 bc 3b b4 1c 08 be
       -0.035666168 -0.06418305 0.0057551013 -0.132922
000060 87 a3 59 3b 8a 88 2f 3d 86 0b 89 3d e1 93 ca bd
       0.0033209042 0.042854823 0.06691651 -0.09891487
000070 e4 d4 01 be bf d3 15 3e 2e d1 d8 bd 77 35 64 3d
       -0.12678868 0.14631556 -0.10586773 0.05571505
000080 c8 dd bd bd a6 73 9c bc 51 c2 4a bd 33 37 8d bd
       -0.09270817 -0.019098114 -0.04950172 -0.06895294
000090 34 af 8a 39 f8 46 ae 3d e4 da ac bd 5f 6d 86 3a
       0.00026451948 0.0850963 -0.084401876 0.0010255984
0000a0 c8 43 36 3c 31 dc 00 bd 52 a4 08 be 49 b7 81 bd
       0.011124559 -0.03145999 -0.13343933 -0.06333787
0000b0 77 41 bf bd 96 a3 29 be 5d bf ba 3c fe 24 c3 bd
       -0.09338658 -0.1656631 0.022796327 -0.0952854
0000c0 36 92 2b 3d 14 da 98 bd 5d f3 b7 3c 94 bb 62 bd
       0.041887484 -0.0746347 0.022454912 -0.05535467
0000d0 1a c0 f5 bb 88 91 da bb ca b3 0d 3e cc 75 d2 3d
       -0.007499707 -0.0066701807 0.13838115 0.10276374
0000e0 c7 a9 58 3c 9e 29 ab 3d f1 84 35 3e d6 3f 18 3d
       0.013224072 0.08357547 0.17726494 0.037170254
0000f0 f6 9a e3 bd 9b 24 eb b9 d4 40 40 3c 2b 4e 8c bd
       -0.11113541 -0.00044849966 0.011734206 -0.06850847
000100 90 e2 99 3c 75 91 48 3d 87 44 86 3d 0c a9 a4 bd
       0.018784791 0.048966844 0.06556039 -0.08040056
000110 f9 d5 e5 3d 8a fd 07 bd 6f 6e 88 3d 34 f8 a4 bc
       0.11222453 -0.033200778 0.066616885 -0.020137884
000120 09 55 ec bd 89 ea c6 bd 7d 38 03 3e 47 75 8d bd
       -0.11539657 -0.09712703 0.12814517 -0.069071345
000130 81 ad 8a bc 2f 2a 41 bc 83 00 cf 3c 22 27 dc 3d
       -0.016928436 -0.0117898425 0.025268799 0.107496515
000140 83 3e 05 bd df ce 13 3e 82 ad eb 3c 0b a1 9c 3d
       -0.03253032 0.14434384 0.028769258 0.07647904
000150 25 4b 35 3d 59 db ff 3d 67 f8 62 3d 93 e5 fa bd
       0.044261117 0.12493009 0.055412676 -0.12250819
000160 68 b5 7e bd c3 85 3e be e1 62 49 be 90 17 1b 3c
       -0.06218472 -0.18605714 -0.19666626 0.009466067
000170 04 00 a1 bd 08 3c 5c bd 58 71 28 3e c8 a5 07 bd
       -0.07861331 -0.053768188 0.16449487 -0.033117086
000180 e4 2c 1e bd 21 4c ff bd e0 5c 51 bc d9 0c 02 bd
       -0.03861703 -0.12465692 -0.012778491 -0.031750534
000190 68 b9 9c 3d cd f4 bc 3c 63 4d 64 3c 76 8a a2 3d
       0.07652551 0.023065949 0.013934466 0.079365656
0001a0 0a 5b 82 bc 90 fb ed bd 18 ae f6 bd 3b 5f 8a 3c
       -0.015912551 -0.11620247 -0.120449245 0.016891113
0001b0 23 9b a8 bc e4 00 fb bd 63 69 8d 3c 98 f0 07 3e
       -0.020581787 -0.12256029 0.017262166 0.13275373
0001c0 01 64 72 3d 88 6b 15 3e 33 9d 17 be 0b 1c f7 3c
       0.059177402 0.14591801 -0.1480606 0.03016474
0001d0 e1 7d c2 3d 62 ce 35 bd fa 45 3e 3e f5 79 b2 bd
       0.09496666 -0.044386275 0.18581381 -0.08714668
0001e0 77 2f 24 3e 1e b4 91 bd 1d 7f 45 3e 45 f3 26 bd
       0.16033731 -0.07114433 0.19286771 -0.040759344
0001f0 f6 90 36 bd 7e 9c 04 3d 2e 86 29 bd b2 48 41 3d
       -0.04457184 0.032375805 -0.04138773 0.04718847
000200 19 2f f6 3d 09 a2 b9 3d e6 94 15 be a5 60 1d 3e
       0.12020702 0.09064109 -0.14607581 0.15368898
000210 c2 1b d3 3d 2d 8e 76 bc 55 b9 b3 3c 3c 80 2e 3e
       0.10308029 -0.015048546 0.02193896 0.17041105
000220 3b 29 3c 3d 60 c8 81 3c 07 83 e1 bd a3 5f 06 be
       0.045937758 0.015842617 -0.110113196 -0.1312242
000230 ce 1d 89 3d e3 f3 a2 bd a1 3b 87 bc 07 1b c8 bc
       0.06695138 -0.07956674 -0.016507925 -0.02442695
000240 4b dd dd 3d d1 37 b6 3d 91 ee 1b bd 01 bf 80 3d
       0.10833224 0.08897365 -0.03806931 0.06286431
000250 c9 55 31 3e 64 8e ab bd c5 0b b5 3d 26 df 37 3d
       0.1731788 -0.08376768 0.088401355 0.044890545
000260 8d 6a 03 be 10 fd d3 3d 63 86 0b 3d a6 2f 69 bc
       -0.12833615 0.10351002 0.034063708 -0.014232552
000270 cb b3 5a 3e f3 f8 c0 3d 52 ff 25 3c 63 27 51 3e
       0.21357648 0.09422483 0.010131674 0.20425181
000280 d0 62 1f 3e 76 5b 9e 3b ca 31 d6 bd 0e 14 15 be
       0.15565038 0.0048326803 -0.10458715 -0.14558432
000290 60 a7 79 be 7b ed 4a bd b6 b5 cf 3d f4 78 fc 3d
       -0.24380255 -0.049542885 0.101420805 0.123277575
0002a0 f7 4d 09 3d 2b fe d8 3c 5d fb a6 bd 4c 28 da bd
       0.03352162 0.026488384 -0.081534125 -0.10652217
0002b0 95 a6 e0 3d 61 07 db bd 44 42 0d 3e 3b d3 7c 3d
       0.10969273 -0.10694767 0.1379481 0.061724883
0002c0 54 d6 3c bd 71 21 15 3e 03 23 e4 3c f2 43 4a be
       -0.046102837 0.14563538 0.027848726 -0.19752482
0002d0 ae 51 29 bd a0 30 dc 3d 22 36 5d bb 57 f1 9f bd
       -0.04133766 0.10751462 -0.003375419 -0.07809704
0002e0 97 ad 4d bc fe 40 17 3e 2c a2 54 3e 0a 7a 67 3d
       -0.012553594 0.14770886 0.20764989 0.05651287
0002f0 3b 0e dd bd 1f 53 30 3e 17 1b cc bd 75 f7 1b be
       -0.1079373 0.17219208 -0.099661045 -0.15231116
000300 07 62 48 3e 3b 67 36 be 0c bb 27 3e 72 14 1f be
       0.19568644 -0.17812817 0.16379946 -0.15535143
000310 cb e2 fa 3b 0c fb 9d bd e7 54 4e 3d 05 65 ac 3c
       0.0076564304 -0.07713899 0.050373938 0.021044264
000320 a7 75 c9 bd 9d 05 30 3e f1 92 6e 3e 3e 94 4a 3d
       -0.098368935 0.17189641 0.23298241 0.04945778
000330 c4 4f 32 be d7 f1 4d 3e 70 48 70 3e 8c dc 04 bc
       -0.1741324 0.20111786 0.23465133 -0.008109223
000340 45 b4 88 bd 35 93 69 3e 63 93 4b 3c 74 2e e9 3d
       -0.06675009 0.22810061 0.012425276 0.11385813
000350 d0 a7 8b 3c de 84 fb bd 75 ff 4a bd 31 cc d1 bd
       0.017047793 -0.12281202 -0.04956003 -0.102440245
000360 ba 69 cb 3d d1 c5 6a be 3f 50 83 3d a5 54 66 3e
       0.09932275 -0.22927023 0.0641179 0.22493227
000370 8c 88 0a bd 58 e6 df 3b 84 79 1d 3d 2f 61 aa bd
       -0.033821627 0.006832879 0.038445964 -0.083193175
000380 3e 74 8e 3c 50 84 56 bd 76 bb e9 bd 8c 9d 6f 3e
       0.017389413 -0.052372277 -0.114127085 0.23399943
000390 7f 56 0b 3e 2f 74 81 bc 91 91 04 3e 77 bf 38 3e
       0.13607214 -0.015802471 0.12946154 0.18041788
0003a0 52 2b 4d be 48 58 24 3e da 12 5a 3e 60 8c 02 be
       -0.20036057 0.16049302 0.21296254 -0.12748861
0003b0 e7 19 f5 bd 98 a5 37 be cf 8f 81 bd 07 3d 6d 3d
       -0.11967831 -0.17934263 -0.063262574 0.05791953
0003c0 9b e8 b4 3d 10 53 9b 3d df 5e 30 3e 81 b0 47 bc
       0.088334285 0.07584202 0.1722369 -0.012188078
0003d0 2a b4 5b be 6b f2 54 be 3f d4 25 3e 36 13 5d bd
       -0.21455446 -0.207956 0.16194247 -0.0539734
0003e0 66 6a 75 3e 18 65 df 3a aa 2f 00 be e2 7a fc bc
       0.23966369 0.0017043678 -0.12518182 -0.030820314
0003f0 88 49 d8 3b ab 22 32 be 88 2c aa bb 7e 6c 3c 3e
       0.0066005625 -0.17396037 -0.005193297 0.18400761

lstm.bias_ih_l1 f4 [296]
000000 bc ab 5f bd e1 c9 09 be 94 d0 78 bc ff fd 3a bd
       -0.054607138 -0.13455917 -0.015186448 -0.045652386
000010 2a 6a 04 be 9d 5c fb bc ec fc 24 be c6 2d 96 3c
       -0.12931123 -0.03068381 -0.16112107 0.018332373
000020 d9 2b 58 3c 46 81 cc bd 58 e8 71 bc cc 5b 92 3c
       0.013194048 -0.099855945 -0.014764868 0.017866038
000030 28 03 d0 bd 3d 4d c6 3d 7f 7f 08 be 27 6d c1 bd
       -0.10156852 0.09682701 -0.13329886 -0.09444647
000040 2b ba a3 3d 10 28 9f bd 5f ec 90 3d 67 66 f6 3d
       0.07994493 -0.07771313 0.07076334 0.120312504
000050 c1 15 77 3c f8 ac f3 bd 63 09 2c 3c 0c 00 6d 3d
       0.01508087 -0.118982255 0.010500285 0.057861373
000060 f9 2b 53 3d ca 28 8f be ff 13 18 3e 28 03 08 be
       0.051555607 -0.27960807 0.14851378 -0.13282454
000070 6a fc 3c bd 68 e3 96 bc a7 f3 bc 3d c5 0b 0e 3e
       -0.04613916 -0.018418983 0.092261605 0.13871677
000080 56 a1 de bb fb 93 f4 3d 8f 5f f1 3b f9 61 04 3d
       -0.006794135 0.119422875 0.007366128 0.032319997
000090 8e dd 5a 3d be 28 04 3e 98 9d 92 3d 9e a6 b1 bd
       0.053433947 0.12906167 0.07158965 -0.08674358
0000a0 80 6a 95 3d de 71 ba 3a 90 2e dd bd 92 3a 0c be
       0.07295704 0.0014224609 -0.10799897 -0.13694218
0000b0 46 a0 36 3d 1c dc 25 be cc 23 09 bc 4b 28 93 bd
       0.044586442 -0.16197246 -0.008370351 -0.0718542
0000c0 38 2a 20 be b1 a1 3e bd c8 f1 51 3d f1 7c 04 bd
       -0.15641105 -0.04654092 0.05125597 -0.032345716
0000d0 4e c6 e2 bd 1b 3b 70 bc ef 82 e8 bc 76 ce 5a 3b
       -0.1107298 -0.014662529 -0.028382747 0.003338722
0000e0 da 46 33 bd 96 c0 53 3d 6e 16 f6 bb ad 37 c6 bd
       -0.04376874 0.051697336 -0.007509998 -0.09678588
0000f0 11 2f 5c bd 05 1a 8f 3e e3 de 95 bd c2 da ce 3d
       -0.053755824 0.2794954 -0.07317903 0.101003185
000100 f1 3d 02 be a5 90 af 3d 5f bc c9 bc 30 ac 5d bd
       -0.12718941 0.08572511 -0.024625955 -0.05411929
000110 3a 19 bd bc 3f fc 27 bc 30 6e b8 bc 67 35 cc 3d
       -0.023083318 -0.010253011 -0.022513479 0.09971123
000120 18 3f 18 be 27 0c 20 bc 88 2e 3c 3d d4 a8 5a bd
       -0.14867818 -0.009768522 0.045942813 -0.053383663
000130 55 fd d4 bd 8a 9d 9e bd 2d fd 01 bd 8e 66 5c 3c
       -0.10399882 -0.07744892 -0.031735588 0.013452185
000140 dd f4 3c bd e9 ad 1a be 9c ea 71 bd 08 0a a4 bd
       -0.046131957 -0.15105404 -0.05906163 -0.08009726
000150 50 da 29 be 5d 07 1d 3d 69 54 09 bd 7b 16 e8 3c
       -0.16587186 0.0383371 -0.033527765 0.028331032
000160 3d 75 1d be 08 68 59 3d 84 d6 b4 3d 99 dc f6 bd
       -0.15376754 0.053077728 0.08829978 -0.120537944
000170 ab 9e 18 bd 18 cc 65 bd 0d 00 c3 bd dd 21 c7 bd
       -0.037260693 -0.056102842 -0.09521494 -0.09723256
000180 9b ab 77 3d 5d 51 eb bd 8e 7d ff bd a9 d8 0e 3d
       0.06046639 -0.11490128 -0.124751195 0.034874592
000190 93 93 91 bd 0e 32 0e 3c 22 cf 49 3c bc 17 ec bd
       -0.07108226 0.008678926 0.012317451 -0.115279645
0001a0 0b 46 b9 bd 8c 3b 92 3d e3 8c 30 be a3 90 05 3d
       -0.09046563 0.07140264 -0.17241244 0.03260864
0001b0 d6 2f c1 bd a7 9f ed 3d 4b 02 6c bb e8 04 aa 3c
       -0.09432952 0.11602717 -0.003601211 0.020754293
0001c0 7c 21 77 bd 63 8b 17 3d 7e 08 74 bd 9d da 19 3d
       -0.060334668 0.036998164 -0.05957841 0.037562
0001d0 a8 24 61 3c bf 22 82 bc 92 de f2 3d 56 bf 95 3c
       0.01374165 -0.015885709 0.11858858 0.018279713
0001e0 fe a6 46 bd af 6d 29 be 17 39 a6 bd 27 cd 28 3d
       -0.0484991 -0.16545747 -0.08116358 0.041211274
0001f0 d7 97 35 bd 35 54 f8 bd cc 4e 0a bd 6c 52 f5 bd
       -0.04433426 -0.12125436 -0.033766553 -0.11978611
000200 48 12 18 be 60 3a f2 3d ba f5 70 bd d8 72 be bd
       -0.14850724 0.118275404 -0.058828093 -0.092992485
000210 0b 6c 97 bc 95 7b a6 3c a0 95 de bd 9d f6 b6 3d
       -0.018484136 0.0203226 -0.108683825 0.089337565
000220 31 55 18 bd 1f be 14 3d 76 f1 82 bb 9d 11 8f bd
       -0.03719062 0.036314126 -0.0039960695 -0.06985781
000230 bd 41 27 3d 39 56 28 3d 65 81 94 bd f6 f4 2a 3e
       0.040834177 0.041097853 -0.072512425 0.16695008
000240 dd 4d a0 3c 82 90 81 3d 6b 34 60 3d 4f 93 f6 bc
       0.019568378 0.06326391 0.05473749 -0.03009954
000250 1c 66 c3 bd ea cf ab 3c e1 b7 14 bd 72 d3 27 bd
       -0.0954096 0.020973165 -0.036308173 -0.040973134
000260 66 79 9f 3d c1 49 9a 3d 70 f8 3b bd e9 b2 21 3d
       0.07786827 0.07533599 -0.045891225 0.039477263
000270 df 0a ef bd 26 83 cf bd 94 2d b5 3d 57 08 f3 bd
       -0.11671995 -0.101324365 0.08846584 -0.11866825
000280 b3 05 9e bd 72 74 24 3e 31 a3 00 3c ef fa d9 3d
       -0.07715931 0.16060045 0.007851408 0.10643565
000290 de 2f 63 bd 8e 8d b2 3c 4c 9d ae bd 73 cc fd bc
       -0.05546557 0.021796014 -0.08526096 -0.030981278
0002a0 ff eb 32 3d 8d 67 1c bd 93 fc 67 bd 07 ac 57 39
       0.043682095 -0.03818469 -0.056637358 0.00020568083
0002b0 cd 22 73 bd 3c fc 7c 3d e1 6b 49 bd df 2a 2b 3d
       -0.05935936 0.061763987 -0.049175147 0.041788932
0002c0 df 71 bd 3d a8 7a c8 bc 1a 2f d9 bc 59 01 2f 3d
       0.09250235 -0.02447255 -0.026511718 0.042725895
0002d0 14 00 ef 3d 5f eb 21 be 1c 79 14 3d ed ea f4 3d
       0.11669937 -0.15812443 0.03624831 0.11958871
0002e0 57 52 00 bd 18 ea c0 3b 44 5d 03 bd 52 cd a0 bd
       -0.031328525 0.005887281 -0.032071367 -0.07851662
0002f0 71 62 ce 3d d0 e2 17 bd 64 cd f4 bc 5d d8 0f bd
       0.1007737 -0.03708154 -0.029883094 -0.03511845
000300 20 bc 8d 3c 72 fb ae 3d 68 a4 94 bd 68 06 94 3b
       0.017301619 0.08544053 -0.072579205 0.0045173652
000310 6c c8 86 bd 77 35 c1 3d f1 18 70 bd 8f 9a 10 be
       -0.06581196 0.09434026 -0.058617536 -0.1412146
000320 99 46 af 3c 75 4d 78 3d b4 5c ae bb f0 0b fe bc
       0.021395968 0.060620744 -0.0053211097 -0.031011552
000330 95 3f ac 3d d4 bc ac bd 5e 4d 28 3b 5a 02 05 3e
       0.08410565 -0.084344536 0.002568088 0.12989178
000340 99 44 7b bd 0c 0f 3d bc df ec d3 bd 8a f1 b3 bd
       -0.061344717 -0.011539232 -0.10347914 -0.08786304
000350 64 16 03 be f7 dc de 3b 88 8d 74 bd 9c 45 01 3d
       -0.1280151 0.0068012434 -0.059705287 0.031560525
000360 b2 ff a6 3c a4 ce 31 3e 37 0c e6 bd 05 44 4e 3d
       0.020385597 0.17363983 -0.112327985 0.050357837
000370 25 6f ba bc a0 85 e7 bd cd 76 93 3d 6c 38 bf 3c
       -0.022758076 -0.11304784 0.07200394 0.023342334
000380 51 ca 20 be cb df 12 be e0 fc 62 3b ab 22 4b bb
       -0.15702178 -0.14343183 0.0034635589 -0.0030996006
000390 3b f1 8c bd 73 35 40 bd d9 65 a0 bd b6 48 e9 bd
       -0.068819486 -0.046925973 -0.07831926 -0.11390822
0003a0 39 e9 46 bd fc ae b1 bd 41 b5 bf 3c c9 9e b4 3d
       -0.048562262 -0.08675954 0.023401858 0.08819348
0003b0 06 5f 95 bd c6 8f 62 3d fe 41 9c 3d d0 99 1e be
       -0.07293515 0.055312894 0.076297745 -0.15488362
0003c0 c2 d3 d0 bc af e5 01 3d ed 50 11 bd 7b 7c 8d bd
       -0.025491599 0.031713184 -0.035477567 -0.069085084
0003d0 06 29 89 bc 55 52 f6 3c bf 31 0d 3d 5a 4c 8b be
       -0.016743194 0.030068556 0.03447127 -0.2720669
0003e0 f6 31 c3 bd e2 bb 45 bd be 16 ab bd d8 2b 40 3d
       -0.09531014 -0.048274882 -0.08353947 0.046916813
0003f0 83 32 56 3d 47 0a 18 3d ee 67 26 bc f9 fe ca bd
       0.052294265 0.037119176 -0.010156615 -0.099119134
